or/GFlowNet and ACO to solve TSP/DeepACO/pretrained/sop/sop50.pt (torch, 350818 bytes, 230 tensors)

emb_net.v_lin0.weight f4 [32, 1]
0	0xbc300cfc	-0.010745283
1	0xbf34e0b1	-0.7065535
2	0x3e26e9c9	0.1630012
3	0x3a63ebde	0.000869451
4	0xbe3eaeb7	-0.18621336
5	0xbe4af119	-0.19818534
6	0x3f0e7904	0.55653405
7	0xbefacec4	-0.48985875
8	0xbf783801	-0.96960455
9	0x3f7dcd4f	0.991414
10	0x3f168f0d	0.5881203
11	0xbf687be6	-0.90814054
12	0x3f0c0da2	0.547083
13	0x3f3a3d13	0.7274944
14	0xbf3c58cc	-0.73572993
15	0xbeb87b9d	-0.3603181
16	0x3e383675	0.17989524
17	0xbf78939a	-0.9710022
18	0x3d7bcf2c	0.06147687
19	0xbed2a3f2	-0.41140705
20	0x3edd1aa5	0.4318439
21	0x3dedc1df	0.116092436
22	0x3d1ff0d9	0.03904805
23	0xbeaf1ddc	-0.34202468
24	0x3e4e64eb	0.20155685
25	0x3eb80a1c	0.35945213
26	0x3f445eea	0.7670733
27	0xbeef3c82	-0.4672585
28	0x3c047026	0.008083379
29	0x3ebc80dd	0.36817065
30	0xbf1fdfd5	-0.62450916
31	0x3f4c2bf3	0.7975456

emb_net.v_lin0.bias f4 [32]
0	0xbef21708	-0.47283196
1	0x3f4002b1	0.75004107
2	0x3f204a8a	0.6261374
3	0xbf4f834b	-0.8105971
4	0xbf107d04	-0.5644076
5	0xbe070492	-0.13185337
6	0x3eadd985	0.33955017
7	0xbe05a5b3	-0.1305149
8	0x3ec91c7b	0.3927954
9	0x3f5c9088	0.8615804
10	0xbf3c5617	-0.7356886
11	0x3f588a90	0.8458643
12	0x3f1aca46	0.60464895
13	0xbecff262	-0.4061461
14	0xbf36cbf0	-0.71404934
15	0xbe95a9e6	-0.29231185
16	0xbed7e18f	-0.42164275
17	0x3f09b875	0.53797084
18	0x3eca05a1	0.3945742
19	0x3f5b0cb3	0.8556625
20	0xbdfd5bdf	-0.12371039
21	0xbe023d16	-0.12718615
22	0x3f19e244	0.6011088
23	0x3dd64594	0.1046249
24	0x3f065118	0.5246749
25	0x3eb9385d	0.36175814
26	0xbe1d26ba	-0.15346804
27	0xbdddcde8	-0.10830289
28	0x3f11fc9b	0.5702607
29	0x3e9879aa	0.29780322
30	0x3f68db77	0.90959877
31	0x3e9381f4	0.28810084

emb_net.v_lins1.0.weight f4 [32, 32]
0	0x3a9a2b00	0.0011762083
1	0xbe0357ed	-0.1282651
2	0xbd935a80	-0.07194996
3	0x3e140a8d	0.1445715
4	0xbb52a840	-0.0032143742
5	0x3e158765	0.1460243
6	0x3bfed4c0	0.0077768266
7	0xbd1d0284	-0.038332477
8	0x3c93a9f0	0.018025368
9	0x3e2aa6e3	0.16665225
10	0x3db18a3e	0.08668946
11	0xbd996639	-0.074902005
12	0x3e159b9f	0.14610146
13	0xbe1a85b6	-0.15090069
14	0x3dd07222	0.10178019
15	0x3d95158e	0.07279502
16	0x3e1638df	0.14670132
17	0x3e063ca1	0.13109066
18	0xbe0e35e1	-0.1388774
19	0xbe2f7577	-0.17134653
20	0x3dc91032	0.09817542
21	0xbd672cc6	-0.056439184
22	0xbd3ddf00	-0.046355247
23	0x3ba23c80	0.00495106
24	0xbe13996c	-0.14413995
25	0xbbbd8240	-0.0057833493
26	0xbdd763b9	-0.105170675
27	0xbcbf9f18	-0.023391291
28	0xbe2124de	-0.1573672
29	0xbbe70e80	-0.007051289
30	0xbe03f1ca	-0.12885204
31	0xbbc766a0	-0.006085232
32	0xbcbe32b8	-0.023217544
33	0xbc0db440	-0.008648932
34	0x3dac8822	0.08424403
35	0x3e139275	0.14411338
36	0xbd9777d9	-0.07395906
37	0xbdcafb77	-0.09911244
38	0x3c44cbe0	0.012011498
39	0xbdb7acab	-0.08968481
40	0xbcc4d8d0	-0.024029166
41	0xbdb13949	-0.086535044
42	0xbdb88056	-0.09008853
43	0x3cec4760	0.028842628
44	0x3e32be91	0.17455508
45	0x3e101c75	0.14073355
46	0x3d4a9f04	0.049468055
47	0xbe08d348	-0.13361847
48	0x3cad0ad0	0.02112332
49	0x3e18c42f	0.14918588
50	0xbdd599a3	-0.104296945
51	0x3df45e0a	0.11931999
52	0xbe0c9e30	-0.13732219
53	0x3caeeba0	0.02135259
54	0x3e287a57	0.16452919
55	0x3d7b1658	0.061300606
56	0xbddb9ef4	-0.10723677
57	0xbe2029a1	-0.1564088
58	0xbc1d4610	-0.009599224
59	0xbd6499ae	-0.055810623
60	0xbdde0b68	-0.10842019
61	0x3ddb23a2	0.10700156
62	0x3da5378e	0.08067237
63	0x3d5d9278	0.05409476
64	0xbdd907d8	-0.10597199
65	0xbdb629ef	-0.08894717
66	0x3dee4522	0.1163428
67	0x3e2eabd9	0.17057742
68	0xbe0389fe	-0.12845609
69	0x3d979bfe	0.074028
70	0xbd1fccc8	-0.039013654
71	0xbdffa97c	-0.124834985
72	0xbe100723	-0.14065222
73	0xbe10abc6	-0.14128026
74	0xbd796528	-0.060887486
75	0xbdc97894	-0.098374516
76	0x3d7170f0	0.058945596
77	0x3c9bdb88	0.01902558
78	0x3e2fc9f5	0.17166884
79	0xbe2c44fa	-0.16823187
80	0xbdd3f15d	-0.10348771
81	0x3ca80318	0.020509288
82	0xbd4bb538	-0.04973337
83	0x3df86536	0.121286795
84	0x3db311ae	0.087436065
85	0x3db5ac76	0.08870785
86	0xbde52c2f	-0.11190068
87	0x3dd11952	0.102099076
88	0x3e1819cd	0.14853592
89	0x39902a00	0.00027497113
90	0xbe161214	-0.14655334
91	0x3e05f73d	0.13082595
92	0x3cdc73e8	0.026910737
93	0x3e03362b	0.12813632
94	0xbdf7d9cc	-0.12102088
95	0x3dd081b2	0.101809874
96	0x3da2bde6	0.079463765
97	0xbd5c86b8	-0.053839415
98	0x3e07e609	0.13271345
99	0x3e158ebb	0.14605229
100	0x3e1ef75b	0.15524046
101	0x3d31fc38	0.043453425
102	0x3c98cbd0	0.018651873
103	0xbe219e52	-0.1578305
104	0xbd7ab3aa	-0.061206497
105	0x3ddad6fe	0.10685538
106	0xbd5d9a94	-0.054102495
107	0x3e2a02cd	0.16602631
108	0x3dabe3a2	0.08393027
109	0x3e0615e3	0.13094287
110	0xbd89b6f4	-0.06724349
111	0xbe071fee	-0.13195774
112	0x3dfe856a	0.124277905
113	0xbda46400	-0.08026886
114	0xbb201500	-0.002442658
115	0x3df7ce46	0.120998904
116	0xbe14fb76	-0.1454905
117	0xbd9dbd1c	-0.077020854
118	0x3daa578e	0.08317481
119	0xbe148c36	-0.14506611
120	0x3e326937	0.17422949
121	0xbdd49b25	-0.10381154
122	0xbc181970	-0.0092834085
123	0x3deda1e6	0.11603145
124	0xbddc61b8	-0.10760826
125	0xbdc5898f	-0.09645378
126	0xbe14cdae	-0.14531586
127	0xbe0b620a	-0.13611618
128	0xbe1b09d5	-0.1514047
129	0xbd2d62c4	-0.04233052
130	0xbdf77e12	-0.12084593
131	0x3e2d3bcf	0.16917346
132	0x3d67af70	0.056563795
133	0xbd8640e7	-0.06555348
134	0xbbe2e900	-0.0069247484
135	0x3d8bdd7e	0.06829356
136	0xbe1df7ab	-0.15426509
137	0xbd363b70	-0.044490278
138	0x3d110cc8	0.03541258
139	0x3e25cfe5	0.16192587
140	0x3d0f13f0	0.034931123
141	0x3ca61b40	0.020276666
142	0x3d8c5778	0.06852621
143	0xbd69440c	-0.05694966
144	0x3b3e3240	0.002902165
145	0x3d79b70c	0.060965583
146	0x3d27a764	0.04093112
147	0x3d90a054	0.0706183
148	0x3e07eb9f	0.13273476
149	0xbe224731	-0.1584747
150	0x3e30db15	0.17271073
151	0x3cd23020	0.025657713
152	0x3df06f36	0.11739962
153	0x3e31c843	0.1736155
154	0xbe3335af	-0.17500947
155	0xbe132b5a	-0.14372006
156	0x3e27e2d3	0.1639512
157	0x3e105f1f	0.14098786
158	0xbda94dae	-0.08266769
159	0x3d3c7940	0.04601407
160	0x3d8e808e	0.069581136
161	0x3da5d056	0.080963776
162	0xbe2ae2b6	-0.16688046
163	0xbdbc096e	-0.09181486
164	0xbe1228d0	-0.14273381
165	0x3d826c66	0.063683316
166	0xbe2655c2	-0.16243652
167	0x3c8cae00	0.017172813
168	0x3c8d9210	0.017281562
169	0xbd9c2872	-0.07624902
170	0xbde1d8c0	-0.1102767
171	0xbae89300	-0.0017744005
172	0x3e16b4a5	0.14717348
173	0x3e0eb9f9	0.1393813
174	0xbd346fbc	-0.04405187
175	0x3e0ed01b	0.13946573
176	0xbd7d0ec8	-0.061781675
177	0xbca47de0	-0.020079553
178	0x3a3f7200	0.0007303059
179	0xbdd4841c	-0.1037676
180	0x3c74e3d0	0.014946893
181	0xbb03cfc0	-0.0020112842
182	0x3d6d757c	0.05797337
183	0x3d7eb6dc	0.062186107
184	0x3e07812b	0.13232867
185	0xbdf93d56	-0.12169902
186	0x3e241b0f	0.16025947
187	0x3e34b265	0.17646177
188	0xbe2f289e	-0.17105338
189	0xbe085bc9	-0.13316263
190	0xbd015110	-0.031571448
191	0x3d12da60	0.03585279
192	0x3de3acea	0.11116965
193	0xbc08cc80	-0.008349538
194	0x3de4b27e	0.11166857
195	0xbe25d96d	-0.16196223
196	0x3e06a383	0.13148312
197	0xbd580ad8	-0.052744716
198	0x3d370f70	0.044692457
199	0xbe2e114e	-0.16998789
200	0xbe133210	-0.14374566
201	0x3d7ad74c	0.06124048
202	0x3b57ce40	0.003292933
203	0x3c5be100	0.013420343
204	0x3e1a4c39	0.15068139
205	0x3c332e50	0.010936335
206	0xbcfb8af8	-0.030705914
207	0x3e00122b	0.1250693
208	0x3dd6ab3a	0.104818776
209	0x3cc51380	0.02405715
210	0x3d1412e8	0.036150843
211	0x3e177b65	0.14793165
212	0x3e0a850b	0.13527314
213	0x3de9ff2a	0.11425622
214	0xbdecf276	-0.11569683
215	0xbe021ec0	-0.12707043
216	0x3e289263	0.16462092
217	0x3e34d5ef	0.17659734
218	0x3c864d98	0.016394421
219	0x3db6d0ba	0.0892653
220	0x3e3067ab	0.17227046
221	0x3e2d848b	0.16945092
222	0x3dfccf4a	0.12344225
223	0xbe0d3601	-0.13790132
224	0x3e211301	0.15729906
225	0xbdfadbec	-0.12248978
226	0x3de4c272	0.111699
227	0x3e2ce785	0.16885193
228	0xbd6d8450	-0.05798751
229	0x3d370590	0.04468304
230	0x3dcd2522	0.10016848
231	0xbe2d1410	-0.16902184
232	0x3e230e51	0.1592343
233	0xbd6f2e5e	-0.05839383
234	0xbc0bc9e0	-0.0085320175
235	0x3c9e27c0	0.019306064
236	0xbe233ada	-0.15940419
237	0xbe0a4857	-0.13504158
238	0xbdf27175	-0.118380465
239	0x3df538a6	0.119736955
240	0xbdd15421	-0.102211244
241	0x3d90493c	0.07045218
242	0x3e30e911	0.17276408
243	0x3d032ed8	0.032027096
244	0xbd5f283e	-0.054481737
245	0xbe12112c	-0.14264363
246	0x3e13476b	0.14382713
247	0x3b6801c0	0.0035401434
248	0x3e2d2bff	0.16911314
249	0x3de441ba	0.11145349
250	0x3dddbc56	0.10826938
251	0xbde22e1d	-0.11043952
252	0xbe21409c	-0.15747303
253	0x3e301f8f	0.17199539
254	0x3dc7ca5e	0.09755395
255	0x3dc82d32	0.09774245

emb_net.v_lins1.0.bias f4 [32]
0	0xbdd05d1e	-0.10174011
1	0x3db809f2	0.08986272
2	0xbc9278b0	-0.017879814
3	0xbe2e279a	-0.17007294
4	0x3dfc5e32	0.12322654
5	0xbcfa7e18	-0.030577704
6	0x3d1ac050	0.03778106
7	0x3e03b341	0.12861349
8	0xbe02c467	-0.12770234
9	0x3d265c4c	0.040615365
10	0x3d7e80dc	0.06213461
11	0xbdb37c5d	-0.08763955
12	0xbd9faf12	-0.07797064
13	0x3dcd237e	0.10016535
14	0x3d9debba	0.07710977
15	0xb89d6000	-7.504225e-05
16	0xbd9d428a	-0.07678707
17	0x3d998472	0.07495965
18	0x3db57d2e	0.08861767
19	0x3ded2a42	0.11580326
20	0x3d7f0484	0.062260166
21	0xbd7bdf20	-0.061492085
22	0x3dec58c2	0.11540367
23	0x3e19f68d	0.15035458
24	0xbdde813d	-0.10864494
25	0x3e278fa9	0.16363396
26	0xbd0e2a74	-0.034708455
27	0x3dff1206	0.124546096
28	0x3e10b8b5	0.1413296
29	0x395fd400	0.00021345913
30	0xbdd0da69	-0.101979084
31	0xbc189c40	-0.009314597

emb_net.v_lins1.1.weight f4 [32, 32]
0	0xbe1a3a1a	-0.15061226
1	0x3e10fd11	0.14159037
2	0xbd2a55dc	-0.041585788
3	0x3e1ec555	0.15504964
4	0xbcefb240	-0.0292598
5	0xbc035250	-0.00801523
6	0x3e3460bb	0.17615025
7	0x3e0a1fe3	0.13488726
8	0x3d98e19a	0.07464905
9	0x3de81cce	0.11333619
10	0x3da6185e	0.081101164
11	0x3e1df791	0.1542647
12	0xbd315780	-0.043296337
13	0x3e33e259	0.17566814
14	0xbde75cca	-0.11296995
15	0xbe1a96df	-0.15096615
16	0x3e2c6035	0.16833575
17	0xbe0ea0f6	-0.13928589
18	0xbd2932e8	-0.041308314
19	0xbe1c03c3	-0.1523581
20	0x3cf887e0	0.030338228
21	0x3e26a9bb	0.16275685
22	0xbd217410	-0.039417326
23	0x3d91d47a	0.07120605
24	0xbe15c89b	-0.14627306
25	0xbd922fc5	-0.071380176
26	0x3dbfcdfe	0.09365462
27	0xbe1eafbe	-0.15496728
28	0x3d8d5370	0.0690068
29	0x3dc16fca	0.0944515
30	0x3df2a37a	0.11847587
31	0xbdb9eb12	-0.09078039
32	0xbe0eb872	-0.13937548
33	0xba7ecf00	-0.00097201765
34	0xbdb534ab	-0.08847936
35	0xbe14eae5	-0.1454273
36	0x3d48fe60	0.049070716
37	0xbbf02a00	-0.0073292255
38	0xbe07fd0f	-0.13280128
39	0xbe0db8fb	-0.13840096
40	0x3d9d98c2	0.07695152
41	0x3c577e40	0.013152659
42	0x3e1bffdf	0.15234326
43	0x3e000dd7	0.1250528
44	0x3e32d7f1	0.17465188
45	0x3d840c52	0.064476624
46	0x3c157ef0	0.009124503
47	0xbe1a2dcb	-0.15056531
48	0x3db43c9e	0.08800624
49	0x3e20021f	0.15625809
50	0xbd89e25a	-0.06732626
51	0x3e12a6cb	0.14321439
52	0xbd068de8	-0.032850176
53	0xbdc97541	-0.098368175
54	0x3d034ba4	0.03205456
55	0xbd88eb7e	-0.066855416
56	0xbcd91298	-0.026498124
57	0x3e1a6f03	0.1508141
58	0x3e1d249d	0.15345998
59	0xbd9f61bb	-0.077823125
60	0x3c68f220	0.014217883
61	0x3e139341	0.14411642
62	0x3d83618c	0.0641509
63	0x3e0a5231	0.13507916
64	0x3d374a84	0.044748798
65	0xbe1529ca	-0.14566723
66	0xbdf15a04	-0.11784747
67	0xbe00ac3e	-0.12565705
68	0xbb127c00	-0.0022351742
69	0xbd20d3ac	-0.039264366
70	0xbe020c41	-0.12699987
71	0x3dea0a66	0.114277646
72	0xbe1d97df	-0.15389965
73	0xbdb8de67	-0.09026795
74	0xbc12ae20	-0.008952647
75	0x3decdca6	0.11565523
76	0xbde123d8	-0.10993165
77	0x3dfac6e6	0.12244968
78	0xbd920eb3	-0.0713171
79	0xbddc45eb	-0.10755523
80	0x3d8c7ad8	0.06859368
81	0x3d7ec82c	0.062202618
82	0x3cc18e80	0.02362752
83	0xbce6c3f0	-0.028169602
84	0x3db32b06	0.087484404
85	0x3e1a6fbd	0.15081687
86	0x3d285898	0.041100115
87	0xbe243afd	-0.16038127
88	0xbe19baa1	-0.150126
89	0x3d302614	0.043005064
90	0xbe084820	-0.13308764
91	0x3e233e17	0.15941654
92	0xbd559e3a	-0.05215285
93	0x3d071444	0.03297831
94	0x3e2ac701	0.16677476
95	0xbcf45c48	-0.02982916
96	0x3dc14702	0.09437372
97	0x3e2228d1	0.15835883
98	0xbd71d51a	-0.05904112
99	0x3d29ab78	0.04142329
100	0x3d87d41e	0.06632255
101	0xbdb2ca3a	-0.08729978
102	0xbd0a0ec4	-0.033705488
103	0xbe288a9f	-0.1645913
104	0xbcd92d68	-0.02651091
105	0x3d41d488	0.047321826
106	0x3ccbef60	0.024894416
107	0xbd485bbc	-0.04891561
108	0xbe30f542	-0.17281058
109	0x3d1c62ec	0.038180277
110	0x3da28406	0.07935338
111	0x3e29109b	0.1651024
112	0x3dd6e62e	0.10493122
113	0x3e2ba1df	0.16760968
114	0x3d5204f8	0.05127427
115	0x3dba473a	0.09095617
116	0xbc2acb00	-0.0104243755
117	0x3da67262	0.081272855
118	0xbbadeb60	-0.0053076
119	0xbcd12e70	-0.025534838
120	0x3dbf441a	0.09339161
121	0xbdef208e	-0.11676131
122	0xbd6447ae	-0.05573242
123	0xbe189605	-0.14900978
124	0x3e2ffce3	0.17186312
125	0x3dcb5ba6	0.0992959
126	0xbe16b934	-0.14719087
127	0x3cc611d8	0.02417843
128	0x3e31b79f	0.17355202
129	0x3d25f408	0.04051593
130	0xbd99e75c	-0.075148314
131	0x3d36755c	0.044545516
132	0xbe0e5ae6	-0.13901863
133	0x3db2b3a6	0.087256715
134	0xbdb24a5a	-0.08705588
135	0xbe2793da	-0.16364995
136	0xbceb2168	-0.028702453
137	0x3e112dfd	0.141777
138	0x3af78400	0.0018883944
139	0x3d5efc64	0.054439917
140	0x3d954760	0.07289004
141	0xbe1b9eac	-0.15197247
142	0x3df61026	0.12014799
143	0xbdddc69e	-0.10828899
144	0xbd4ec74c	-0.050483033
145	0xbdb06d0e	-0.086145505
146	0x3bbd93a0	0.0057854205
147	0x3de4a7fa	0.111648515
148	0xbe0567f1	-0.13027932
149	0x3e295947	0.16537963
150	0x3dcfbf0e	0.10143863
151	0x3dd52986	0.104083106
152	0xbe336b05	-0.17521293
153	0x3d86f772	0.06590165
154	0x3df14f4e	0.11782704
155	0xbd6ec53a	-0.05829356
156	0x3dd3034e	0.10303365
157	0x3d7ee4e4	0.062230006
158	0xbdf58d32	-0.119898215
159	0x3dcd9a66	0.10039215
160	0x3b134980	0.002247423
161	0xbdcdccf8	-0.1004886
162	0x3c092760	0.008371204
163	0xbd9910d2	-0.07473911
164	0xbd255db4	-0.040372565
165	0x3e25a39d	0.16175695
166	0xbd58db04	-0.052943245
167	0x3da6763e	0.08128022
168	0xbdf7c744	-0.12098554
169	0x3dff85f2	0.1247672
170	0xbe30af88	-0.1725446
171	0xbd822f14	-0.06356636
172	0xbe291666	-0.1651245
173	0x3e1a1a0b	0.15048997
174	0x3dc91876	0.09819119
175	0x3dd0577a	0.10172935
176	0xbd78fca8	-0.060787827
177	0xbe1c9338	-0.15290534
178	0xbd87636f	-0.06610762
179	0x3e283807	0.16427623
180	0x3e1ea6a3	0.15493254
181	0xbded713a	-0.11593862
182	0xbc8ef250	-0.017449528
183	0x3d2bb0a0	0.04191649
184	0x3e2f2e5f	0.17107533
185	0xbe09887c	-0.13430971
186	0xbdb48dfa	-0.088161424
187	0x3dcc94b2	0.09989299
188	0x3e2142ff	0.15748213
189	0x3ac1f480	0.0014797598
190	0x3e2b492f	0.16727136
191	0xbdc15d9e	-0.09441684
192	0xbde268bf	-0.11055135
193	0xbd669cca	-0.05630187
194	0xbdb34b5f	-0.0875461
195	0xbdcd380b	-0.10020455
196	0xbd6ca3da	-0.05777345
197	0x3d780ca8	0.060558945
198	0x3db34b66	0.087546155
199	0xbdc346c2	-0.0953498
200	0xbe2cee4b	-0.16887777
201	0xbd5abb74	-0.053401425
202	0xbdd811b7	-0.10550254
203	0x3e0c39d3	0.13693933
204	0xbde8fdb2	-0.113765135
205	0x3e242d67	0.16032945
206	0x3e22a0f9	0.15881719
207	0x3d72c924	0.059273854
208	0xbe24f5a9	-0.16109337
209	0x3aafdf00	0.00134179
210	0xbd7048a2	-0.058663018
211	0x3dbb7e62	0.09154965
212	0xbdf5bb94	-0.11998668
213	0xbe2847a0	-0.16433573
214	0xbabc6180	-0.0014372319
215	0x3df7318e	0.12069999
216	0xbd9d6a8c	-0.07686338
217	0x3dba26ea	0.090894535
218	0xbc7697b0	-0.015050814
219	0x3c023a10	0.0079484135
220	0xbe13b78e	-0.1442549
221	0xbe2e512c	-0.17023152
222	0x3de14a92	0.11000551
223	0x3e146d09	0.14494719
224	0x3e10d913	0.14145307
225	0x3cd880f0	0.02642867
226	0x3ddc385e	0.10752939
227	0xbb3f5d00	-0.002919972
228	0x3d0a5ca4	0.033779755
229	0x3b3bee80	0.0028676093
230	0x3dbc9c76	0.0920953
231	0xbe20de08	-0.15709698
232	0xbe03b024	-0.12860161
233	0x3e0877db	0.13326971
234	0xbd5a86ee	-0.053351335
235	0xbe2d5b59	-0.16929378
236	0xbbe3cf60	-0.0069522113
237	0xbdad549e	-0.08463405
238	0x3cff3e38	0.031157598
239	0x3e06b71d	0.1315579
240	0xbdbd44a8	-0.09241611
241	0xbdf4d07a	-0.11953826
242	0x3d978bee	0.07399736
243	0xbd9d8751	-0.07691825
244	0xbe097f7d	-0.13427539
245	0x3d8e1530	0.06937635
246	0x3db4079a	0.087905124
247	0x3d225078	0.039627522
248	0x3dfac426	0.122444436
249	0x3d2c3fa4	0.04205288
250	0x3dca400a	0.09875496
251	0x3dd544ca	0.10413511
252	0xbd22a82c	-0.039711162
253	0xbd977a8e	-0.07396422
254	0x3db11d1e	0.08648132
255	0x3df23d7a	0.11828132

emb_net.v_lins1.1.bias f4 [32]
0	0x3cbe6290	0.023240358
1	0xbd150a60	-0.036386847
2	0x3d8725ea	0.065990284
3	0x3d65d7a8	0.05611387
4	0x3e0058f5	0.12533934
5	0xbdb50e16	-0.08840577
6	0x3da88caa	0.082299545
7	0xbdf95fb3	-0.12176456
8	0xbd893754	-0.06700006
9	0xbe0b7168	-0.1361748
10	0x3ddde6ba	0.10835023
11	0xbdb857a7	-0.09001093
12	0x3d9bedf6	0.07613747
13	0x3e0d475d	0.13796754
14	0xbdcea977	-0.100909166
15	0x3e3352b3	0.17512016
16	0x3d9cf06e	0.07663046
17	0x3e1840a5	0.1486841
18	0x3d3a96a0	0.045553803
19	0x3c6af4a0	0.01434055
20	0x3e30eab3	0.1727703
21	0xbdaacae9	-0.08339483
22	0x3e08c2c5	0.13355549
23	0xbca866e0	-0.020556867
24	0x3d9f04d6	0.07764594
25	0x3e0e780b	0.1391298
26	0x3ccec5d8	0.025240824
27	0xbdd6bf05	-0.10485653
28	0xbd0c5598	-0.034261316
29	0x3d878550	0.06617224
30	0xbd3bd820	-0.04586041
31	0x3e110771	0.14162995

emb_net.v_lins1.2.weight f4 [32, 32]
0	0xbd89eb28	-0.067343056
1	0xbdf5334e	-0.11972676
2	0xbdbdc5c5	-0.09266237
3	0x3d8ecfd4	0.06973234
4	0xbd6df622	-0.05809606
5	0x3e1fc75b	0.15603392
6	0x3dbe1332	0.09281005
7	0x3de6e4d2	0.11274113
8	0x3d2de140	0.042451143
9	0xbe03d6f6	-0.1287497
10	0xbe20e23c	-0.15711302
11	0xbdf85cdd	-0.12127087
12	0xbd921319	-0.07132549
13	0xbd730028	-0.05932632
14	0x3e2b56f1	0.16732384
15	0x3e05459b	0.13014834
16	0x3af10080	0.001838699
17	0x3e24d8a9	0.16098274
18	0x3d61b7cc	0.055106923
19	0x3dfddf86	0.12396149
20	0x3de9660e	0.113964185
21	0xbe06260b	-0.1310045
22	0xbdf922a5	-0.12164811
23	0x3c876a90	0.016530305
24	0xbdb19e42	-0.086727634
25	0xbd2999ec	-0.041406557
26	0x3de5730e	0.112035856
27	0xbe09d81e	-0.13461348
28	0x3e209803	0.15682988
29	0x3b070200	0.0020600557
30	0x3d04e8ec	0.032448694
31	0xbdb21de4	-0.086971074
32	0xbe342e2d	-0.1759574
33	0xbe126cf5	-0.14299376
34	0xbd70baca	-0.058771886
35	0xbe199b32	-0.15000609
36	0x3ceaf228	0.028679922
37	0xbbc7dd00	-0.0060993433
38	0x3d05d444	0.032673135
39	0x3d8fb062	0.07016064
40	0x3c8acd50	0.016943604
41	0x3e1eb289	0.15497793
42	0x3dd9213a	0.106020406
43	0xbe22b04d	-0.15887566
44	0xbe2f22d8	-0.17103136
45	0x3ad9b000	0.0016608238
46	0xbdca0414	-0.09864059
47	0xbb1675c0	-0.0022958368
48	0xbe02662a	-0.12734285
49	0xbb055500	-0.0020344853
50	0xbdcd1133	-0.10013046
51	0xbddeb640	-0.10874605
52	0x3dd264ea	0.10273154
53	0xbd8084df	-0.06275343
54	0xbc4b5670	-0.012410745
55	0xbdc87e62	-0.097897306
56	0xbc9eba20	-0.01937586
57	0x3e221e73	0.15831928
58	0x3dc71692	0.09721102
59	0x3e0a86b9	0.13527955
60	0x3e004ef1	0.12530114
61	0xbd99847a	-0.07495971
62	0xbc9d23e0	-0.019182146
63	0xbe2dabd4	-0.16960078
64	0x3e226553	0.15858965
65	0x3e07f9c5	0.13278873
66	0x3c170070	0.009216413
67	0xbc8aa130	-0.016922563
68	0xbd9a456d	-0.07532773
69	0x3df6eeca	0.12057264
70	0xbe21ba64	-0.15793759
71	0x3dfea07a	0.12432952
72	0x3da47af2	0.080312625
73	0xbc0ca9c0	-0.008585393
74	0xbd1f2e80	-0.038862705
75	0x3cf33e60	0.029692829
76	0xbcb3c0e0	-0.021942556
77	0x3c97c738	0.018527612
78	0x3daa009e	0.08300899
79	0xbe223467	-0.15840302
80	0xbe105b1a	-0.14097252
81	0x3d5afd10	0.053463995
82	0x3c28eaf0	0.01030992
83	0xbd49b27c	-0.04924248
84	0xbd85cec0	-0.06533575
85	0x3dbd65ba	0.092479184
86	0xbc896798	-0.01677303
87	0xbd9cb3fb	-0.07651516
88	0x3d92b2c2	0.071630016
89	0x3d2ac7c4	0.041694418
90	0xbdaa1e55	-0.083065666
91	0xbcd7b858	-0.02633302
92	0x3d37a87c	0.044838414
93	0xbe1dbb7b	-0.1540355
94	0x3e0cdba7	0.13755666
95	0xbe2359b0	-0.15952182
96	0xbbe293a0	-0.006914571
97	0xbe03edb6	-0.12883648
98	0x3d8edfee	0.06976305
99	0x3e348f1f	0.17632721
100	0x3de41ce2	0.111383215
101	0xbe00557f	-0.12532614
102	0xbd95fd66	-0.073237225
103	0x3d872bee	0.06600176
104	0x3e041f79	0.12902631
105	0xbda5337e	-0.08066462
106	0xbcf5ea80	-0.030019045
107	0x3cf132e0	0.029443204
108	0xbcb22aa0	-0.02174884
109	0xbbb00360	-0.005371496
110	0x3ceb5cd8	0.028730795
111	0xbda11d0d	-0.07866869
112	0x3c195560	0.009358734
113	0xbd097954	-0.033562973
114	0x3e0c06ed	0.13674517
115	0xbd639ea2	-0.055571206
116	0x3df44dde	0.119289145
117	0xbc02e3f0	-0.007988915
118	0x3c271e60	0.010200113
119	0xbcbf4f38	-0.023353204
120	0x3d7e7e10	0.06213194
121	0x3de8e8da	0.11372538
122	0x3e30e3c1	0.17274381
123	0x3e083f67	0.13305436
124	0x3e107eff	0.14110945
125	0xbd49beec	-0.049254343
126	0xbd39a64c	-0.04532461
127	0x3dbb5ad6	0.09148185
128	0x3dfc3a82	0.12315847
129	0x3e1e94d5	0.15486462
130	0x3d50ef60	0.051009536
131	0xbdb241be	-0.087039456
132	0x3e033f9d	0.12817235
133	0xbd8f2c1e	-0.069908366
134	0xbc9c3a88	-0.019070879
135	0xbd92b68a	-0.07163723
136	0x3e34ba41	0.17649175
137	0x3c97b538	0.018519029
138	0xbdb12911	-0.08650411
139	0xbdda12d7	-0.10648125
140	0xbdfac3f8	-0.12244409
141	0x3db0819e	0.086184725
142	0xbe07cc66	-0.13261566
143	0xbdbce1ce	-0.09222756
144	0x3e18270b	0.14858644
145	0x3bd244a0	0.006416872
146	0x3dded65a	0.10880728
147	0x3c462640	0.01209408
148	0xba27b800	-0.00063979626
149	0xbdc3d6a5	-0.095624246
150	0xbcb09e40	-0.021559834
151	0xbe100245	-0.14063366
152	0x3dd0af7e	0.101897225
153	0x3d8b88d8	0.0681321
154	0xbdcd6ae7	-0.10030156
155	0x3dea83be	0.11450909
156	0xbd73b896	-0.059502207
157	0xbe190fbb	-0.14947407
158	0x3d3fc8ac	0.046822235
159	0x3d919b50	0.07109702
160	0xbdff29b4	-0.12459126
161	0xbdc44688	-0.09583765
162	0xbe1ad364	-0.15119702
163	0x3d88ee44	0.066860706
164	0x3dd9c3d6	0.10633056
165	0x3e21ffe1	0.15820266
166	0xbe0fcd4c	-0.14043158
167	0xbe061e1c	-0.13097423
168	0x3bfc23c0	0.0076946914
169	0x3dc4073e	0.09571694
170	0x3d18a330	0.037265003
171	0xbd228fc0	-0.039687872
172	0x3dc441b6	0.09582846
173	0x3da5d2f6	0.08096878
174	0x3e2aca37	0.16678701
175	0xbe1e4d68	-0.15459216
176	0x3e1ee50b	0.1551706
177	0xbc9fb4c8	-0.019495383
178	0x3e10cbcb	0.14140241
179	0xbd362b38	-0.04447481
180	0x3db09472	0.08622064
181	0x3d765adc	0.060145244
182	0x3cb5a880	0.022175074
183	0xbdd810a4	-0.10550049
184	0x3dda73aa	0.106665924
185	0x3d021510	0.031758368
186	0x3e0232f9	0.12714757
187	0x3d1cb56c	0.038258955
188	0x3e05682f	0.13028024
189	0x3b767300	0.0037605166
190	0xbc182f90	-0.0092886835
191	0xbd4a0e14	-0.049329832
192	0xbd98a0c1	-0.074525364
193	0xbd6cd9d4	-0.057824925
194	0x3e165af5	0.14683135
195	0xbe2106ea	-0.15725294
196	0x3e27f223	0.16400962
197	0xbe13a0ca	-0.14416805
198	0x3de106ee	0.1098765
199	0x3daf5e3a	0.08562894
200	0xbe1c0a5e	-0.1523833
201	0x3cdff500	0.027338505
202	0xbcdee7d0	-0.027210146
203	0xbe2eb600	-0.17061615
204	0xbd792cd0	-0.060833752
205	0x3c90a5e8	0.017657235
206	0x3dbee552	0.09321083
207	0xbd928179	-0.07153601
208	0xbd11ac60	-0.03556478
209	0xbc776f70	-0.015102252
210	0x3d760344	0.060061708
211	0xbd5c341a	-0.053760625
212	0x3d8b1c00	0.0679245
213	0x3db995fe	0.09061812
214	0xbdd2919c	-0.10281679
215	0x3e29b03d	0.16571136
216	0x3e12d145	0.14337642
217	0xbd7d163a	-0.061788775
218	0xbd49c808	-0.04926303
219	0x3d89c616	0.06727235
220	0x3e0291d7	0.12750946
221	0xbdc2efe8	-0.09518415
222	0xbddd90b7	-0.10818618
223	0x3e33e1e5	0.1756664
224	0xbcc6af20	-0.024253428
225	0xbe19a687	-0.15004931
226	0xbe0a8b99	-0.13529815
227	0xbdc3fb83	-0.095694564
228	0x3cccb0e8	0.0249867
229	0x3cae85e0	0.021304071
230	0x3b9f9180	0.00486964
231	0x3e173ec9	0.14770044
232	0x3de6ca5e	0.11269067
233	0x3cc699c8	0.02424325
234	0xbda6414f	-0.081179254
235	0xbd72be66	-0.05926361
236	0xbd96892d	-0.07350383
237	0xbe1a1b8f	-0.15049575
238	0x3e165be5	0.14683492
239	0xbdc3cdc0	-0.09560728
240	0xbdc79eac	-0.09747061
241	0x3d5f4b8c	0.054515406
242	0x3da1b896	0.07896535
243	0xbe108857	-0.1411451
244	0x3d3f2758	0.04666838
245	0x3e2079db	0.15671484
246	0x3de86106	0.11346631
247	0x3e33df97	0.17565762
248	0x3d456d68	0.04820004
249	0xbd656312	-0.056002684
250	0x3caf3ea0	0.021392167
251	0x3e279459	0.16365184
252	0x3e278c7f	0.16362189
253	0xbd622ffa	-0.055221535
254	0xbd07a330	-0.033114612
255	0xbe21daec	-0.15806168

emb_net.v_lins1.2.bias f4 [32]
0	0x3d55cbd0	0.052196324
1	0xbda8e74d	-0.08247242
2	0xbd415d20	-0.04720795
3	0xbdb7d0f9	-0.08975405
4	0x3df4386e	0.119248256
5	0xbda96c76	-0.082726404
6	0x3e1ba1cf	0.15198444
7	0xbe1fc7b4	-0.15603524
8	0x3d7e0df4	0.062025025
9	0x3e21ba55	0.15793736
10	0xbce1d928	-0.027569368
11	0x3d876c6a	0.06612475
12	0x3e0427dd	0.12905832
13	0xbdb9044f	-0.09034025
14	0x3e176673	0.14785175
15	0x3db60a4e	0.08888684
16	0xbdba12a5	-0.090855874
17	0x3d8e310a	0.06942947
18	0x3bd8b100	0.006612897
19	0xbdde9fca	-0.10870321
20	0xbde556b3	-0.11198177
21	0x3d2b94b8	0.041889876
22	0xbdfb61a8	-0.12274486
23	0x3e0f1d21	0.13975956
24	0xbd108ed4	-0.03529246
25	0x3c5bca40	0.013414919
26	0x3e2e7fe9	0.17040981
27	0x3d0d15b0	0.03444451
28	0xbe21c5c8	-0.15798104
29	0xbe2022ba	-0.15638247
30	0x3dcc5eca	0.09979017
31	0x3e0761d9	0.1322092

emb_net.v_lins1.3.weight f4 [32, 32]
0	0xbe060943	-0.1308947
1	0xbdefe4a2	-0.1171353
2	0x3dadba82	0.08482839
3	0x3dd7dc5e	0.105400786
4	0x3dd338ba	0.10313554
5	0xbce0df18	-0.02745013
6	0x3dc92256	0.09821002
7	0xbe2edc33	-0.17076187
8	0x3d53c514	0.05170162
9	0xbe238a64	-0.1597076
10	0xbdf2d0b5	-0.11856214
11	0x3d3f3058	0.046676964
12	0xbe2014a5	-0.15632875
13	0x3d0cdd30	0.03439063
14	0x3de6663e	0.1124997
15	0x3d9a20c6	0.07525782
16	0x3e251169	0.16119923
17	0x3c8933f0	0.016748399
18	0x3ca06780	0.019580603
19	0x3d94247e	0.07233523
20	0xbe1d2c14	-0.15348846
21	0xbde75ce9	-0.11297018
22	0x3dbe4b1e	0.09291671
23	0x3ddb96aa	0.10722096
24	0x3d7d6720	0.061865926
25	0x3db1bc4e	0.086784944
26	0xbd8cb0df	-0.06869673
27	0xbd32bc8c	-0.043636844
28	0x3d043a88	0.032282382
29	0x3cef07d0	0.02917853
30	0xbe0830b6	-0.13299832
31	0xbde4432f	-0.11145627
32	0xbd7b5596	-0.061360918
33	0x3d97ea56	0.07417743
34	0xbc431e70	-0.011909112
35	0xbdb8dc04	-0.0902634
36	0x3cb64fe8	0.0222549
37	0xbe215079	-0.15753354
38	0x3e23449b	0.1594414
39	0xbde0ccef	-0.10976588
40	0x3dd51bc2	0.10405685
41	0xbe03ca34	-0.12870103
42	0x3d924052	0.071411744
43	0xbdcc2cf8	-0.099695146
44	0xbcd025e0	-0.025408685
45	0xbdfaa62f	-0.12238728
46	0xbd5b2250	-0.05349952
47	0xbd624f2e	-0.055251293
48	0x3da4bb02	0.080434814
49	0xbd07eb44	-0.03318335
50	0xbccc36f8	-0.024928555
51	0xbe0537fe	-0.1300964
52	0x3db5df82	0.08880521
53	0xbe27f9ac	-0.16403836
54	0xbd5fe488	-0.054661304
55	0x3d05aac8	0.032633573
56	0x3db1a5de	0.08674215
57	0x3e16860f	0.14699577
58	0x3d2a0cbc	0.04151605
59	0xbc3ec0b0	-0.01164262
60	0xbd13b208	-0.036058456
61	0x3a98d900	0.0011661351
62	0x3d7265a4	0.059178963
63	0xbdc40f0f	-0.09573185
64	0xbd4a6a38	-0.049417704
65	0x3d97abc2	0.07405807
66	0xbdd88acc	-0.105733484
67	0xbe27f6e3	-0.16402774
68	0xbd1e52a8	-0.038653046
69	0x3d028698	0.03186664
70	0x3b26b180	0.0025435388
71	0x3d50de34	0.05099316
72	0xbd83ad2f	-0.064295165
73	0x3c197fe0	0.009368867
74	0x3e2261c3	0.15857606
75	0x3d1863d0	0.037204564
76	0xbdcbfc3e	-0.09960221
77	0x3c70b5a0	0.01469174
78	0xbde7129e	-0.11282848
79	0xbe160cda	-0.1465334
80	0x3dcf69ee	0.10127626
81	0xbcd1d7d8	-0.025615618
82	0xbd9a6608	-0.07538992
83	0x3d4bf65c	0.049795493
84	0x3d076f14	0.033064917
85	0xbda38c96	-0.07985799
86	0x3cedc160	0.029022872
87	0xbdff1abf	-0.12456273
88	0x3e0acab7	0.13553892
89	0xbe1b9ff5	-0.15197738
90	0xbc537320	-0.012905866
91	0xbd99ccc1	-0.07509757
92	0x3c345e40	0.011008799
93	0x3d821058	0.063507736
94	0xbd2d3c14	-0.042293623
95	0xbd99a6d9	-0.07502527
96	0x3db6720e	0.08908473
97	0x3e2edd27	0.1707655
98	0xbdfbbeb2	-0.122922316
99	0xbd703ca8	-0.058651596
100	0x3da8b95e	0.08238481
101	0x3d987072	0.07443322
102	0xbe215d04	-0.15758139
103	0x3d0e05f8	0.03467366
104	0xbe0102f1	-0.12598778
105	0x3e09b329	0.1344725
106	0xbd412754	-0.047156647
107	0x3d942acc	0.07234725
108	0xbd8b2c64	-0.06795576
109	0x3da5c66a	0.08094485
110	0x3e1793df	0.14802502
111	0x3de5003e	0.11181687
112	0x3d4323c4	0.04764153
113	0xbde9f6f6	-0.11424057
114	0xbe01b374	-0.12666112
115	0xbde5c2b3	-0.112187766
116	0x3d2cc144	0.0421765
117	0xbd2952dc	-0.041338786
118	0x3dcda58e	0.10041343
119	0x3d3abb50	0.04558879
120	0xbdb08b56	-0.08620326
121	0x3da608b6	0.0810713
122	0xbdb2cee6	-0.08730869
123	0xbda90530	-0.082529426
124	0xbd8b1d20	-0.067926645
125	0xbe1810aa	-0.14850107
126	0xba5dc700	-0.0008460134
127	0x3dd7e12a	0.105409935
128	0x3d3b0068	0.045654684
129	0xbe3141d2	-0.17310265
130	0x3d1c2b8c	0.038127467
131	0xbdb480e8	-0.088136494
132	0x3d0ae794	0.033912256
133	0xbcab3c40	-0.020902753
134	0xbdc0e4d0	-0.094186425
135	0x3ddfe0d6	0.10931556
136	0xbddce850	-0.107864976
137	0xbdc20dd5	-0.094752945
138	0xbcbc4fc0	-0.022987247
139	0xbe1ce18b	-0.15320413
140	0xbc961ff8	-0.01832579
141	0xbdbd2350	-0.09235251
142	0x3cb20b50	0.02173391
143	0xbbbd6440	-0.005779773
144	0xbdb0beb4	-0.08630124
145	0xbe137acd	-0.14402314
146	0xbdeba032	-0.11505164
147	0xbd251c20	-0.040310025
148	0xbc94ba40	-0.018155217
149	0x3d5fb3f0	0.05461496
150	0x3dfd0e66	0.12356262
151	0x3e0d5ebd	0.13805671
152	0xbe1b26da	-0.1515154
153	0xbdbc36ee	-0.091901645
154	0x3e04a4b9	0.12953462
155	0x3cc0d230	0.023537725
156	0xbde95d49	-0.11394746
157	0x3e111723	0.14168982
158	0x3cbb0238	0.022828206
159	0xbdd5686e	-0.10420309
160	0xbe207005	-0.15667732
161	0x3da6ce46	0.08144812
162	0x3bf76040	0.0075493157
163	0x3c081450	0.008305624
164	0xbe337ff8	-0.17529285
165	0x3ddd5442	0.108070865
166	0x3e071567	0.13191758
167	0x3e028da3	0.12749343
168	0x3e1136cb	0.14181058
169	0x3d97e4b6	0.0741667
170	0x3e0f15a5	0.139731
171	0x3e2f13ed	0.17097445
172	0x3dfa2d2a	0.122156456
173	0x3e1b4449	0.15162767
174	0xbceb0858	-0.028690502
175	0xbd8f7252	-0.07004227
176	0x3e1127d7	0.14175354
177	0xbd96efbd	-0.07369945
178	0x3d436be0	0.0477103
179	0x3de7de7e	0.11321734
180	0x3d17d2c8	0.03706625
181	0xbd2c6da4	-0.04209675
182	0x3dbcf0ce	0.09225617
183	0x3d160ab4	0.0366313
184	0x3e2d9567	0.16951524
185	0xbde1ad87	-0.11019426
186	0xbbbdb7a0	-0.005789712
187	0xbe10dcfa	-0.14146796
188	0x3d870d9c	0.06594393
189	0x3d8d1942	0.06889583
190	0x3e078515	0.1323436
191	0xbdd7c13f	-0.10534906
192	0xbe2e700d	-0.17034931
193	0xbdb8f56b	-0.09031185
194	0x3df65e02	0.12029649
195	0xbdba2a0c	-0.09090051
196	0x3d923d34	0.0714058
197	0x3de89daa	0.11358197
198	0xbd557a50	-0.0521186
199	0xbd992822	-0.07478358
200	0xb96aec00	-0.00022403896
201	0xbe0858cd	-0.13315125
202	0xbd2b84e0	-0.041874766
203	0x3c53d580	0.01292932
204	0x3c5305d0	0.012879804
205	0x3d6f6bf4	0.05845256
206	0x3c17cc90	0.00926508
207	0xbe21645a	-0.15760937
208	0xbdaa8696	-0.083264515
209	0x3df7ee62	0.12106015
210	0xbd80b47b	-0.06284424
211	0xbddf17fa	-0.10893245
212	0x3d88b3d2	0.06674923
213	0x3c19ed60	0.0093949735
214	0xbdb5fcbf	-0.08886098
215	0x3d85895e	0.06520341
216	0x3da32e9a	0.07967873
217	0xbd25b734	-0.04045792
218	0x3d62a3ac	0.05533187
219	0xbda5ed4f	-0.08101904
220	0xbe1d813a	-0.15381327
221	0xbc787fa0	-0.015167147
222	0x3d314030	0.043274105
223	0xbc4de510	-0.01256682
224	0x3d9c7d96	0.07641141
225	0xbe2ef456	-0.17085394
226	0x3d978722	0.073988214
227	0xbe03ae0e	-0.12859365
228	0xbdaedd13	-0.0853826
229	0x3e1a5dd5	0.15074857
230	0x3d611724	0.05495371
231	0x3e04b359	0.1295904
232	0x3d9985c6	0.074962184
233	0x3d870730	0.06593168
234	0xbe29c3e4	-0.16578633
235	0x3c973150	0.018456131
236	0xbda360b1	-0.07977427
237	0xbded1050	-0.11575377
238	0x3dac8922	0.084245935
239	0x3e20d895	0.1570762
240	0x3e027953	0.12741594
241	0xbe15006c	-0.14550942
242	0xbe218e82	-0.15777019
243	0xbdda0c25	-0.10646848
244	0xbdfe27ee	-0.1240996
245	0xbcd7a080	-0.02632165
246	0x3d2c6288	0.042086154
247	0x3e05a28d	0.1305029
248	0xbd82c48e	-0.06385146
249	0xbdca636d	-0.09882245
250	0xbdfb8cc4	-0.12282708
251	0x3ca838f8	0.020534977
252	0x3d60effc	0.054916367
253	0xbdc9c5ad	-0.09852157
254	0x3c0abe80	0.00846827
255	0xbe1327ec	-0.14370698

emb_net.v_lins1.3.bias f4 [32]
0	0x3d9bb5a6	0.07603006
1	0x3d0f4ff4	0.03498836
2	0xbe2ca60e	-0.1686022
3	0x3e02f889	0.12790121
4	0xbdfcf15c	-0.12350723
5	0xbdb74a0c	-0.0894967
6	0x3df18106	0.117921874
7	0x3db985e2	0.09058739
8	0xbd50a3a0	-0.050937295
9	0x3c8410b8	0.016121253
10	0x3d032a94	0.032023028
11	0x3e2fbe0f	0.17162345
12	0xbdb47f16	-0.08813302
13	0xbe1ca0fc	-0.15295786
14	0x3e099505	0.13435753
15	0xbd044e20	-0.03230107
16	0xbc6a69e0	-0.014307469
17	0x3e06e1bd	0.1317205
18	0xbe1b90e4	-0.1519199
19	0x3d88746a	0.06662829
20	0x3d129f0c	0.03579621
21	0xbd94ef1c	-0.07272169
22	0xbe1082b4	-0.1411236
23	0xbc015bb0	-0.007895395
24	0x3c153750	0.009107426
25	0x3d88dbb4	0.0668253
26	0xbe0b573e	-0.13607499
27	0xbc17daf0	-0.009268507
28	0x3d90b468	0.0706566
29	0x3ca0a0a8	0.019607857
30	0x3c4a7950	0.012358025
31	0xbe0b03a4	-0.13575608

emb_net.v_lins1.4.weight f4 [32, 32]
0	0xbe347fb8	-0.17626846
1	0x3d916cf0	0.07100856
2	0xbd15adc4	-0.03654267
3	0xbdee6380	-0.11640072
4	0x3d9acdf6	0.07558815
5	0xbd6116e8	-0.054953486
6	0x3e05dc59	0.13072337
7	0xbd82c648	-0.063854754
8	0x3d88565e	0.06657098
9	0xbe315d25	-0.17320688
10	0xbe2c2bf3	-0.1681364
11	0x3e24bae9	0.16086926
12	0x3e20808b	0.15674035
13	0xbdd375ff	-0.1032524
14	0xbe2e8034	-0.17041093
15	0xbe2adfff	-0.1668701
16	0xbda640de	-0.08117841
17	0x3d4692e8	0.048479944
18	0x3e233f39	0.15942086
19	0x3de9b6ae	0.114117965
20	0x3ceaef38	0.028678522
21	0xbe192c23	-0.14958243
22	0xbdee2fc0	-0.11630201
23	0x3dca22ce	0.0986992
24	0xbd05b59c	-0.0326439
25	0x3daa116e	0.08304106
26	0x3e0dd261	0.13849784
27	0xbe0727b4	-0.1319874
28	0x3d1fd384	0.039020076
29	0xbcaef0f8	-0.021355137
30	0x3d7e0ffc	0.062026963
31	0xbe1b8814	-0.15188628
32	0x3dd85f2e	0.10565029
33	0x3ce609d8	0.028080866
34	0xbe32201c	-0.17395061
35	0x3dd26882	0.102738395
36	0xbc740af0	-0.014895186
37	0xbce1b7e0	-0.027553499
38	0x3df9ec2a	0.12203248
39	0x3d9fbdfe	0.0779991
40	0xbdee4072	-0.11633386
41	0x3e0ab6dd	0.1354632
42	0x3d6fdb80	0.05855894
43	0x3e181d6d	0.14854975
44	0x3cfd8da0	0.030951321
45	0xbe14f862	-0.14547876
46	0x3d4a107c	0.049332127
47	0x3d9364fe	0.07196997
48	0x3c224610	0.0099043995
49	0xbe1893db	-0.14900152
50	0x3dec1766	0.115279004
51	0x3da7b56a	0.08188899
52	0x3cea7790	0.028621465
53	0xbdc9adee	-0.098476276
54	0xbe13f596	-0.14449152
55	0xbcdbca98	-0.026830003
56	0x3e22e62f	0.1590812
57	0xbda54f04	-0.08071712
58	0xbc3c83c0	-0.011506021
59	0xbdeda673	-0.11604013
60	0xbdb33aa8	-0.08751422
61	0xbd5cc064	-0.053894415
62	0xbdf0bfbc	-0.117553204
63	0xbdb034e5	-0.08603839
64	0x3cbf75d8	0.023371622
65	0x3ceb7418	0.028741881
66	0xbe232d8c	-0.15935344
67	0x3d98e3f2	0.07465352
68	0xbe18687c	-0.14883608
69	0x3d934962	0.07191731
70	0x3cccd568	0.025004104
71	0xbd8a0157	-0.06738537
72	0xbdb25da4	-0.08709267
73	0x3e015143	0.12628655
74	0xbd0ee030	-0.03488177
75	0xbd02040c	-0.03174214
76	0xbc89f468	-0.016840175
77	0x3d18d8d0	0.037316144
78	0x3e1d71a9	0.15375389
79	0xbda8299c	-0.08211061
80	0xbd6f3942	-0.058404215
81	0xbe0711a4	-0.13190323
82	0x3e187139	0.14886941
83	0xb9ceea00	-0.00039465725
84	0xbd796812	-0.060890265
85	0x3de6b306	0.11264615
86	0xbe248619	-0.16066779
87	0xbd16adf0	-0.036786973
88	0xbe1fbccf	-0.15599369
89	0x3dc0dcfe	0.09417151
90	0xbdea1147	-0.11429077
91	0x3ddace46	0.10683875
92	0x3ba06fc0	0.004896134
93	0xbb9b9f80	-0.0047492385
94	0x3dc1076a	0.09425242
95	0x3d9e2b46	0.077230975
96	0x3d8ede1a	0.06975956
97	0x3db4c502	0.08826639
98	0xbde0870a	-0.10963257
99	0xbe0e32f3	-0.13886623
100	0x3da7e0f6	0.08197205
101	0x3e0025db	0.1251444
102	0xbd89ee62	-0.06734921
103	0x3d9929fa	0.074787095
104	0x3e112415	0.1417392
105	0x3daf4d02	0.0855961
106	0x3bf93c00	0.0076060295
107	0x3dc19f22	0.0945418
108	0xbd43e698	-0.047827333
109	0x3daa39ba	0.08311792
110	0x3e1d11c9	0.15338816
111	0xbda965dd	-0.08271382
112	0x3c3c90b0	0.011509106
113	0xbdaccff0	-0.084380984
114	0x3da6c47e	0.08142947
115	0x3e268691	0.1626227
116	0x3d695248	0.056963235
117	0xbd303b28	-0.043025166
118	0xbd91c8a4	-0.07118347
119	0x3cbca7c8	0.023029223
120	0x3c519620	0.01279214
121	0xbdc2b477	-0.09507077
122	0xbcdd0870	-0.026981562
123	0x3def5dfe	0.116878495
124	0xbdf99a2b	-0.12187608
125	0xbd4f6a44	-0.050638452
126	0xbe11ad3a	-0.14226237
127	0x3d807b6c	0.06273541
128	0xbb83fc00	-0.0040278435
129	0x3c065460	0.0081988275
130	0xbd9b87c2	-0.07594253
131	0xbdd4a9aa	-0.10383923
132	0x3da5a9fa	0.08089061
133	0x3d9139d2	0.070911065
134	0x3e237413	0.15962248
135	0xbe0c3d9e	-0.1369538
136	0x3db1f252	0.08688797
137	0x3cce1f38	0.02516137
138	0xbe04c0a1	-0.12964107
139	0xbdd34f4e	-0.103178605
140	0xbd7cf662	-0.061758406
141	0xbdec363f	-0.11533784
142	0xbdeebae2	-0.11656739
143	0xbdee1d5a	-0.11626692
144	0x3df0e4d2	0.11762394
145	0xbda2115b	-0.079134665
146	0x3c7b9cd0	0.015357211
147	0xbce99a10	-0.028515846
148	0xbab34780	-0.0013677925
149	0xbdf33980	-0.11876202
150	0x3c29bda0	0.0103601515
151	0x3cb425d0	0.021990687
152	0x3d438fc0	0.047744513
153	0x3e13234b	0.14368932
154	0xbe002879	-0.12515439
155	0xbd318ec4	-0.043349043
156	0xbe06456d	-0.13112421
157	0x3e0150c1	0.12628461
158	0x3e3082f7	0.17237459
159	0x3e2c6bdb	0.16838019
160	0xbd7adff8	-0.06124875
161	0x3d691f7c	0.05691479
162	0x3a617500	0.0008600503
163	0x3d425420	0.04744351
164	0x3e18ef59	0.14935054
165	0xbd6c6008	-0.05770877
166	0xbb06af80	-0.0020551383
167	0xbd115b44	-0.03548743
168	0xbbe023a0	-0.0068401843
169	0x3d9b2816	0.07576005
170	0x3dc1bc8e	0.09459792
171	0xbd0c6370	-0.03427452
172	0xbd04f004	-0.03245546
173	0xbdb51d94	-0.08843532
174	0xbdaf324d	-0.08554516
175	0x3dab6bc2	0.083701625
176	0x3ca07598	0.019587323
177	0xbd2168a0	-0.03940642
178	0x3c9f3f68	0.019439414
179	0x3ded6bae	0.11592804
180	0xbd82a5f4	-0.06379309
181	0xbe1884eb	-0.14894454
182	0x3d44ab6c	0.048015043
183	0xbdff9305	-0.124792136
184	0xbdc3ca9d	-0.0956013
185	0xbbe19b60	-0.006884977
186	0xbca0c158	-0.019623443
187	0x3be281e0	0.006912455
188	0xbd4d99b0	-0.050195396
189	0xbce90410	-0.02844432
190	0x3e1ce0a5	0.1532007
191	0xbe1386fd	-0.14406963
192	0xbe0e0107	-0.1386758
193	0x3b47b040	0.0030470043
194	0x3d2f24f0	0.042759836
195	0x3bd1da60	0.006404206
196	0xbdce4d54	-0.10073343
197	0x3e33f3df	0.17573498
198	0x3dd3e6e2	0.10346772
199	0x3dc13fee	0.09436022
200	0x3d297f8c	0.041381404
201	0xbc62cf30	-0.013843343
202	0xbb3a9bc0	-0.0028474182
203	0xbe149542	-0.14510062
204	0x3d12a10c	0.035798118
205	0x3dcf6e2e	0.10128437
206	0xbb8d1dc0	-0.004306525
207	0xbdc3dba6	-0.09563379
208	0xbe216af6	-0.15763459
209	0x3e0ebc9d	0.13939138
210	0x3d8a2d54	0.06746927
211	0x3dadce36	0.08486597
212	0xbdeb487e	-0.11488436
213	0xbc0664a0	-0.008202702
214	0x3dc4fbe2	0.09618355
215	0xbde1cb8f	-0.11025154
216	0xbe21db29	-0.15806259
217	0x3e124f2f	0.14288019
218	0x3db6011e	0.08886932
219	0x3d6aafec	0.05729668
220	0x3b20da00	0.0024544
221	0x3e2dadc9	0.16960825
222	0xbd8ecd58	-0.0697276
223	0xbe10500f	-0.1409304
224	0x3cb00068	0.021484569
225	0xbd55c1de	-0.05218684
226	0x3e259941	0.16171743
227	0xbd924320	-0.07141709
228	0x3dd4a392	0.10382761
229	0x3dd59552	0.10428871
230	0xbce63480	-0.028101206
231	0xbd44459c	-0.047917947
232	0xbdf122c4	-0.11774209
233	0xbe34ebbe	-0.17668054
234	0x3c1eb3e0	0.00968644
235	0xbe075f88	-0.13220036
236	0xbe32969a	-0.17440262
237	0x3d7edae4	0.06222047
238	0x3d826996	0.06367795
239	0xbcc3e8b0	-0.023914665
240	0xbdfe2436	-0.124092504
241	0x3c470eb0	0.012149498
242	0x3d6a6920	0.05722916
243	0x3e30f42f	0.17280649
244	0x3aad7f80	0.001323685
245	0xbccde688	-0.02513434
246	0xbdc39c5a	-0.09551306
247	0xbde7b31f	-0.113134615
248	0x3d9fb80e	0.077987775
249	0xbe20278f	-0.1564009
250	0x3d5b2548	0.05350235
251	0x3de2ebca	0.110801294
252	0xbd93f2ea	-0.072240666
253	0xbe319b0e	-0.17344305
254	0xbccba568	-0.024859145
255	0x3e011fd1	0.12609793

emb_net.v_lins1.4.bias f4 [32]
0	0xbd952221	-0.072819
1	0x3d7672b8	0.060167998
2	0x3da4274a	0.08015306
3	0x3e006d81	0.12541772
4	0x3b7df7c0	0.0038752407
5	0x3d80d9c4	0.062915355
6	0xbd9d8e06	-0.076931044
7	0x3da78b4a	0.08180864
8	0x3dd8e2ea	0.105901554
9	0xbd4ab718	-0.049491018
10	0xbd14a528	-0.036290318
11	0xbda57ef7	-0.08080857
12	0xbe0521a7	-0.13001119
13	0x3d9df21e	0.07712196
14	0xbc7a58e0	-0.0152799785
15	0x3b62a540	0.003458336
16	0xbe0defd3	-0.13861017
17	0x3dbd1726	0.09232931
18	0xbda13693	-0.07871737
19	0x3d7d9788	0.06191209
20	0xbdbc493a	-0.09193654
21	0xbde4452f	-0.11146008
22	0x3e34b309	0.17646421
23	0x3de9228e	0.11383544
24	0xbda6fbe6	-0.081535146
25	0xbc88bd28	-0.01669176
26	0x3e3206cd	0.17385407
27	0xbd3353b8	-0.043781012
28	0xbd58135a	-0.05275283
29	0x3df09e42	0.11748935
30	0x3dd57c6e	0.10424124
31	0xbe16fd27	-0.14745007

emb_net.v_lins1.5.weight f4 [32, 32]
0	0xbdbc41e7	-0.091922574
1	0xbd2f9024	-0.042862073
2	0xbd94a97e	-0.072588906
3	0x3d69f954	0.057122543
4	0x3dfe528e	0.1241809
5	0xbe34dec1	-0.17663099
6	0xbd3ab268	-0.045580298
7	0x3dd76762	0.105177656
8	0xbd63973c	-0.05556415
9	0x3d922fba	0.07138009
10	0xbda1b5d5	-0.0789601
11	0x3e265f81	0.1624737
12	0xbd93efdb	-0.07223483
13	0xbdc4ee59	-0.09615774
14	0x3e1396a1	0.14412929
15	0x3e1b3865	0.15158232
16	0xbd1055c8	-0.035238057
17	0xbe201375	-0.15632422
18	0xbd5f3abc	-0.054499373
19	0xbdf93496	-0.12168233
20	0xbcb2c998	-0.021824643
21	0x3e133083	0.14373975
22	0x3d45fd88	0.04833749
23	0xbe039a32	-0.1285179
24	0xbd8f9002	-0.07009889
25	0x3e1e5cf7	0.15465151
26	0xbd601640	-0.05470872
27	0xbe0d4766	-0.13796768
28	0x3d90f74e	0.070784196
29	0xbc368d50	-0.01114209
30	0x3dd03b1a	0.10167523
31	0x3e188c1f	0.14897202
32	0xbb51ae00	-0.0031994581
33	0xbdf2b6bb	-0.11851259
34	0x3dfc047e	0.12305544
35	0x3ddef996	0.108874485
36	0xbe147c23	-0.1450048
37	0x3e069821	0.1314397
38	0xbc3ea960	-0.011637062
39	0xbe07689b	-0.13223498
40	0x3dcc6b5a	0.09981413
41	0x3d494ac8	0.049143583
42	0xbde85a9b	-0.113454066
43	0x3da11356	0.07865016
44	0x3d195e10	0.03744322
45	0xbdd31875	-0.10307399
46	0xbd99f8a1	-0.07518125
47	0x3de74832	0.11293067
48	0x3da33296	0.07968633
49	0x3c936590	0.017992765
50	0xbe2b1fc2	-0.16711333
51	0x3db8a592	0.09015955
52	0x3d7637d4	0.060111836
53	0x3e072159	0.13196315
54	0x3b883480	0.004156649
55	0x3d48f27c	0.049059376
56	0xbbcf8740	-0.0063332617
57	0xbc68bd70	-0.014205322
58	0x3defaac6	0.11702494
59	0x3e300e3b	0.17192928
60	0xbdcd8866	-0.100357816
61	0xbcfa34c8	-0.030542746
62	0x3d567624	0.05235876
63	0xbc2e7510	-0.010648027
64	0xbdfc47be	-0.12318371
65	0xbdbad2b9	-0.091222234
66	0x3c1dd410	0.009633079
67	0xbd43a4b8	-0.04776451
68	0xbe238c9d	-0.15971608
69	0xbd3876f4	-0.045035318
70	0xbe2c5511	-0.16829325
71	0xbe2fc059	-0.17163219
72	0xbcfadc48	-0.030622616
73	0x3dcaef32	0.09908904
74	0xbd870a68	-0.06593782
75	0x3c645460	0.013936132
76	0xbca8c8b8	-0.020603523
77	0xbcbcbee8	-0.02304025
78	0x3e086aeb	0.13322036
79	0x3e19b121	0.15008976
80	0x3e1faceb	0.15593307
81	0xbd021db8	-0.031766623
82	0x3c3d1ed0	0.011542991
83	0x3e063971	0.1310785
84	0x3ce8b698	0.02840738
85	0xbe10853c	-0.14113325
86	0x3d59d998	0.05318603
87	0x3d130fc0	0.035903692
88	0x3ce51f78	0.027969107
89	0xbd3c8238	-0.046022624
90	0x3ddc2992	0.107501164
91	0x39c02200	0.00036646426
92	0x3a5e6700	0.0008483976
93	0xbe1fba35	-0.15598376
94	0x3a18a000	0.00058221817
95	0x3defb0a6	0.11703615
96	0x3dee9ee2	0.11651398
97	0xbe034226	-0.12818202
98	0xbdcf98dd	-0.10136578
99	0xbd33ecf4	-0.043927148
100	0x3dda84ae	0.10669838
101	0x3df3520e	0.11880885
102	0x3cf54d58	0.029944107
103	0x3e0ae375	0.1356333
104	0x3d5dcff8	0.054153413
105	0x3e06a9fb	0.1315078
106	0xbdc2d542	-0.09513332
107	0xbafe0980	-0.0019381493
108	0xbd2c82c0	-0.04211688
109	0xbd20132c	-0.039080784
110	0xbd435144	-0.047684923
111	0x3e318efb	0.17339699
112	0x3e16712b	0.14691608
113	0xbe1b506d	-0.15167399
114	0x3df5936e	0.119910106
115	0xbe02feb8	-0.1279248
116	0x3d1a4ee0	0.037672877
117	0x3e15203f	0.14563082
118	0xbcc44bb0	-0.023961872
119	0xbddb81e5	-0.10718135
120	0xbdd86193	-0.10565486
121	0x3e311889	0.17294516
122	0xbbf75ec0	-0.007549137
123	0x3e22883f	0.15872286
124	0xbdd220b7	-0.10260146
125	0x3df99a6e	0.12187658
126	0xb9a7b200	-0.00031985343
127	0x3e07fb21	0.13279392
128	0xbe2b7ceb	-0.16746871
129	0x3d482aa8	0.048868805
130	0x3dda4e86	0.106595084
131	0x3d9d776e	0.07688795
132	0xbe02f742	-0.12789634
133	0xbd96a32f	-0.073553436
134	0x3da95fb2	0.082702056
135	0x3db9171a	0.090376094
136	0xbde379a0	-0.111071825
137	0x3df68932	0.12037887
138	0xbe32818e	-0.17432234
139	0x3da1166e	0.07865606
140	0xbb808300	-0.0039218664
141	0x3be7caa0	0.0070737153
142	0x3d5ed06c	0.054397985
143	0xbda8b4d5	-0.08237616
144	0xbe26efc2	-0.16302398
145	0xbda5e99b	-0.08101197
146	0xbe1ca64c	-0.15297812
147	0x3e32be33	0.17455368
148	0x3defa35a	0.11701079
149	0x3d9a0486	0.07520394
150	0xbd9ece90	-0.077542424
151	0xbe25c2c4	-0.16187578
152	0x3e204389	0.15650763
153	0xbe0e4ed9	-0.13897265
154	0xbdc2fb57	-0.095205955
155	0xbd4d3838	-0.050102443
156	0xbe0d19a8	-0.13779318
157	0x3e145b5d	0.14487977
158	0xbd84eaf3	-0.064901255
159	0xbd358a8c	-0.04432158
160	0xbe27dbfc	-0.16392511
161	0xbe26bbe0	-0.16282606
162	0x3e2c7031	0.16839673
163	0x3d8ef98a	0.069811895
164	0x3e2ee395	0.17079003
165	0xbd653386	-0.05595734
166	0x3d11842c	0.03552644
167	0x3dc5e09a	0.0966198
168	0x3d71d9b8	0.059045523
169	0x3e061beb	0.13096587
170	0xbcc75e90	-0.024337083
171	0x3d739c84	0.059475437
172	0x3e0cf6e9	0.13766064
173	0xbcf78318	-0.030213878
174	0xbce13430	-0.027490705
175	0x3c813e38	0.015776739
176	0x3dd435fe	0.10361861
177	0xbdd83632	-0.10557212
178	0x3d856e8c	0.06515226
179	0xbe2415b7	-0.16023909
180	0x3e250b8b	0.16117685
181	0x3d9c13be	0.07620953
182	0x3e328fa5	0.17437609
183	0x3d7e9048	0.062149316
184	0x3e1f6a85	0.15567978
185	0xbc972530	-0.01845035
186	0x3e2f8ddd	0.1714396
187	0x3deb5b12	0.1149198
188	0xbdc09a94	-0.094044834
189	0x3d30902c	0.043106243
190	0xbe3286fb	-0.17434303
191	0xbe31d46e	-0.17366192
192	0xbdb7cb95	-0.08974377
193	0x3d956de4	0.072963506
194	0xbe0ec314	-0.13941604
195	0xbd50b114	-0.050950125
196	0x3d8a9d94	0.06768337
197	0xbd80d51b	-0.06290647
198	0x3dadf50e	0.08494006
199	0xbe0f3768	-0.1398598
200	0x3d92d416	0.071693584
201	0xbe07c46b	-0.13258521
202	0x3c182260	0.009285539
203	0xbe256b9c	-0.16154331
204	0x3d86e082	0.0658579
205	0x3e0a4f55	0.13506825
206	0x3e272ee7	0.16326486
207	0x3e0c5f71	0.13708283
208	0x3ca007b8	0.01953493
209	0xbe3344cc	-0.17506713
210	0x3dd1daba	0.10246797
211	0x3daf69be	0.085650906
212	0xbcada738	-0.0211979
213	0xbe053913	-0.13010053
214	0xbe32ce27	-0.17461453
215	0xbd9cd4a6	-0.07657747
216	0x3dcec622	0.100963846
217	0x3d44ae50	0.0480178
218	0x3da027d6	0.07820098
219	0xbd5c034e	-0.05371409
220	0x3cbb8070	0.022888392
221	0xbbe0f1e0	-0.0068647712
222	0x3dfffd4a	0.12499483
223	0xbe230eea	-0.15923658
224	0xbd14c92c	-0.036324665
225	0xbdd11259	-0.10208578
226	0xbd4a181c	-0.0493394
227	0x3d9ea342	0.07745983
228	0x3e2120a5	0.15735109
229	0xbdd75ad4	-0.10515371
230	0x3e13f68f	0.14449523
231	0xbd994593	-0.07483973
232	0x3e165f83	0.14684872
233	0x3df6deca	0.120542124
234	0x3cbeb668	0.023280337
235	0x3e0e9233	0.13922958
236	0x3e0d3f19	0.13793601
237	0x3e2561df	0.16150616
238	0xbd49dddc	-0.049283847
239	0xbd4133b0	-0.047168434
240	0x39822c00	0.00024828315
241	0xbe254445	-0.16139324
242	0xbe00b96b	-0.12570731
243	0xbe16d168	-0.1472832
244	0xbe2d54d1	-0.16926886
245	0x3dc6a546	0.09699492
246	0x3dbada56	0.091236755
247	0xbd8f3cb9	-0.06994004
248	0x3caf5fa8	0.021407917
249	0xbe17611c	-0.14783138
250	0x3dfe9b9e	0.124320254
251	0xbb878f00	-0.00413692
252	0xbc71d7b0	-0.014760897
253	0x3e16b765	0.14718397
254	0x3de8e4ce	0.11371766
255	0xba7d4d00	-0.0009662658

emb_net.v_lins1.5.bias f4 [32]
0	0xbdf41ed9	-0.11919946
1	0x3e01ef85	0.12689026
2	0xbdca6cc9	-0.0988403
3	0xbcf7a240	-0.030228734
4	0x3cc6cf28	0.024268702
5	0xbac8dd00	-0.0015324652
6	0xbe2b58be	-0.16733071
7	0x3c9f3320	0.019433558
8	0x3e164b11	0.14677073
9	0xbc11f250	-0.008907869
10	0x3de410b2	0.11135997
11	0xbbf10740	-0.0073556006
12	0xbd6f2bee	-0.058391504
13	0x3baae0c0	0.0052147806
14	0x3a74f400	0.000934422
15	0x3e34e411	0.17665125
16	0xbdd78109	-0.105226584
17	0xbd5e7706	-0.05431273
18	0xbe2a179d	-0.1661057
19	0x3c394a90	0.011309281
20	0x3a09ba00	0.00052538514
21	0x3c5f04c0	0.013611972
22	0x3da25f22	0.079283014
23	0xbe1f561a	-0.15560189
24	0xbdc953b0	-0.09830415
25	0xbc387c70	-0.011260137
26	0xbdf9b2f0	-0.12192333
27	0x3e31e2cd	0.17371674
28	0xbe2dae36	-0.16960987
29	0x3d33551c	0.04378234
30	0x3e14e183	0.14539151
31	0xbd8aadeb	-0.067714535
