or/GFlowNet and ACO to solve TSP/DeepACO/pretrained/pctsp/pctsp100.pt (torch, 366452 bytes, 230 tensors)

emb_net.v_lin0.weight f4 [32, 2]
0	0xbee3b7a1	-0.44476035
1	0x3f118231	0.5683928
2	0xbeb21315	-0.34780183
3	0x3ee5dbe6	0.44894332
4	0x3e9a381e	0.3012094
5	0xbe64c7a5	-0.22341783
6	0x3eb55c8a	0.35422164
7	0x3f2f4a27	0.6847252
8	0xbf2f4209	-0.68460137
9	0xbe7e1342	-0.24812034
10	0xbe24e3e1	-0.16102554
11	0xbd7501f9	-0.059816334
12	0x3e6a7320	0.22895479
13	0xbec394d3	-0.3819948
14	0x3c207102	0.009792568
15	0xbe5b3014	-0.21405059
16	0xbd395d0b	-0.04525475
17	0xbc290cc1	-0.010317982
18	0x3e70f053	0.23529176
19	0x3ee4e98d	0.44709435
20	0xbf31faeb	-0.69523495
21	0xbf261649	-0.64877754
22	0xbe73b9c0	-0.23801327
23	0x3e91b4a5	0.28458133
24	0xbef035de	-0.46916097
25	0x3f18ce6d	0.5968998
26	0x3e9fc602	0.31205755
27	0xbe3f27f7	-0.18667589
28	0x3e03d5d6	0.1287454
29	0x3e482d54	0.19548541
30	0x3f295c1a	0.6615616
31	0xbe9ed823	-0.31024274
32	0xbeceaf82	-0.40368277
33	0xbeb8ff83	-0.3613244
34	0x3e163fe0	0.14672804
35	0xbe4cdfe5	-0.20007284
36	0x3cead53f	0.028666137
37	0xbe81136a	-0.25210124
38	0x3e192df4	0.14958936
39	0x3ef847ef	0.4849238
40	0x3e9ab3fb	0.3021544
41	0x3e9cfc3f	0.30661198
42	0x3f0ec95e	0.5577601
43	0x3baa8c9e	0.005204751
44	0xbf194cc3	-0.59882754
45	0xbeb778cf	-0.35834357
46	0x3ec51d85	0.38499084
47	0xbe95794b	-0.29194102
48	0xbf0adb70	-0.54241085
49	0xbf01c6f8	-0.5069423
50	0xbef69c3f	-0.4816608
51	0x3eb8d0bb	0.3609675
52	0xbe01f593	-0.12691335
53	0xbeabcca9	-0.3355458
54	0x3f08e54d	0.53474885
55	0xbd7a18e7	-0.061058905
56	0x3f30dd42	0.6908761
57	0x3eab75c9	0.334883
58	0x3e18dab0	0.14927173
59	0xbf1df16e	-0.6169652
60	0xbe961284	-0.29311
61	0x3f2934cb	0.6609618
62	0xbefeeaeb	-0.49788603
63	0xbf34964d	-0.7054184

emb_net.v_lin0.bias f4 [32]
0	0xbee4f69c	-0.44719398
1	0x3e61c939	0.22049417
2	0xbba5b5a1	-0.0050570522
3	0xbe99785a	-0.29974633
4	0x3f19d046	0.60083425
5	0xbdd995ce	-0.10624276
6	0x3e3189e5	0.17337759
7	0xbe690135	-0.22754367
8	0xbe106b8a	-0.14103523
9	0xbe8d24fd	-0.27567282
10	0x3e50113a	0.20319071
11	0x3e14695c	0.14493316
12	0x3e9b1d1f	0.30295655
13	0x3f23a784	0.63927484
14	0xbda30772	-0.079604045
15	0xbe573f6c	-0.21020287
16	0xbecdf6bd	-0.4022731
17	0xbe046dfd	-0.12932582
18	0x3ec14d81	0.37754443
19	0x3e5b1e30	0.21398234
20	0xbe1094eb	-0.14119308
21	0x3f0945cf	0.53622144
22	0x3f01c69d	0.50693685
23	0x3f13e375	0.57768947
24	0x3ef499a9	0.47773483
25	0x3ee095c9	0.43864277
26	0xbea222d6	-0.31667203
27	0x3e9ab8bf	0.30219075
28	0x3eb67339	0.35634783
29	0xbea177a8	-0.31536603
30	0xbea9c02c	-0.33154428
31	0xbf1479a8	-0.5799813

emb_net.v_lins1.0.weight f4 [32, 32]
0	0x3dffc7c3	0.124892734
1	0x3da599d3	0.0808598
2	0x3d6f3300	0.058398247
3	0xbddbbdd5	-0.10729567
4	0xbe11d22b	-0.14240329
5	0xbd14cab3	-0.03632612
6	0xbda6cadf	-0.08144163
7	0xbdef69f0	-0.11690128
8	0x3e13e506	0.14442834
9	0xbbd08142	-0.006363065
10	0xbddac824	-0.10682705
11	0x3de0e97f	0.10982036
12	0xbd7b9a3b	-0.061426383
13	0xbd938a9a	-0.072041705
14	0x3e15c888	0.14627278
15	0xbe2f8f41	-0.17144491
16	0xbdec6fd8	-0.1154477
17	0xbbf52509	-0.0074812216
18	0xbcb8f2a4	-0.022576638
19	0x3dc91f3e	0.09820412
20	0x3dfbc0ed	0.12292657
21	0xbd4d1bfa	-0.05007551
22	0xbe133d2d	-0.14378805
23	0x3ccaaf23	0.024741715
24	0x3deb2cd4	0.1148316
25	0xbdf220d9	-0.118226714
26	0x3e212c00	0.15739441
27	0xbdd399b2	-0.103320494
28	0x3e0c24e1	0.13685943
29	0xbd8cf41f	-0.068825
30	0x3ce827a3	0.028339213
31	0x3de7f73c	0.11326453
32	0xbdb58df1	-0.08864964
33	0x3da7e100	0.08197212
34	0x3e2fbdf1	0.171623
35	0xbde54352	-0.11194481
36	0xbe0751fc	-0.13214868
37	0xbd97d5ba	-0.07413812
38	0xbcf0b045	-0.029380927
39	0x3c6ab9d1	0.014326529
40	0xbe358232	-0.17725447
41	0xbe1d6c9a	-0.1537346
42	0xbdbfb3ea	-0.09360488
43	0x3c5ba788	0.013406642
44	0xbd9158b8	-0.07097
45	0x3df8af35	0.12142793
46	0x3dbae0a2	0.091248766
47	0x3dc2382f	0.094833724
48	0x3dfc70ef	0.12326228
49	0x3bdb0d55	0.006684939
50	0x3d4b9d48	0.049710542
51	0xbe1dc445	-0.15406902
52	0x3df21820	0.11821008
53	0xbdf30801	-0.11866761
54	0x3e0c2888	0.13687336
55	0x3de86afa	0.11348529
56	0x3dbd8323	0.09253528
57	0x3e15f255	0.14643224
58	0xbd6e0a7e	-0.058115475
59	0x3e073029	0.13201965
60	0x3d9bb7bf	0.07603406
61	0x3e2be4cf	0.16786502
62	0x3d89d365	0.067297734
63	0xbe2cd433	-0.16877823
64	0xbcf0b16e	-0.02938148
65	0xbdc5a4a5	-0.09650544
66	0x3d2038c1	0.039116625
67	0x3e07f846	0.13278303
68	0x3db098e0	0.086229086
69	0x3d85970a	0.06522949
70	0xbdc2e80b	-0.09516915
71	0x3d9b8410	0.07593548
72	0xbdc2743a	-0.09494825
73	0x3df5cc8d	0.120019056
74	0xbe1c34ab	-0.15254466
75	0x3d9c9144	0.07644895
76	0x3e20e8f4	0.15713865
77	0x3e087404	0.13325506
78	0xbd239fb2	-0.03994722
79	0xbdd11a2b	-0.10210069
80	0x3e02669d	0.12734456
81	0x3e14a740	0.14516926
82	0x3dd858f4	0.105638415
83	0x3e032296	0.12806162
84	0xbe34ac6a	-0.17643896
85	0xbd52613c	-0.05136226
86	0x3dbf919d	0.093539454
87	0x3d87e2c8	0.06635052
88	0xbe3bfc6c	-0.1835801
89	0xbcae2d90	-0.02126196
90	0x3e0bcca2	0.1365228
91	0xbd9d85e8	-0.07691556
92	0x3e230ea5	0.15923555
93	0x3e0654a5	0.13118227
94	0xbd1a37f9	-0.037651036
95	0xbe3401cc	-0.1757881
96	0xbd6a1584	-0.057149425
97	0x3d1fc262	0.039003737
98	0x3cde0299	0.027100848
99	0xbcef96d1	-0.02924672
100	0xbd57d120	-0.05268967
101	0x3db21ecc	0.0869728
102	0x3c8c4a47	0.017125262
103	0xbe014854	-0.12625247
104	0xbd0bae81	-0.034101967
105	0xbe159b14	-0.14609939
106	0x3e26d1f4	0.16291028
107	0xbe15d33d	-0.14631362
108	0xbe19d458	-0.15022409
109	0xbdc79ae7	-0.09746342
110	0xbd064bf1	-0.032787267
111	0x3cf25729	0.029582577
112	0xbdaef5d1	-0.085429795
113	0xbdcdb753	-0.10044732
114	0xbe29a035	-0.1656502
115	0x3df09835	0.11747781
116	0xbe252ebb	-0.16131108
117	0xbd272eac	-0.040815994
118	0x3d51ad29	0.05119053
119	0x3e1f82be	0.15577218
120	0x3dd922cb	0.10602339
121	0xbdfb6546	-0.12275176
122	0xbc23cae0	-0.0099971
123	0x3e29b758	0.16573846
124	0xbe297762	-0.16549447
125	0x3be29bf0	0.006915562
126	0x3b8c2489	0.0042768163
127	0xbde47d0a	-0.11156662
128	0xbd85acb0	-0.06527078
129	0xbd8afd84	-0.067866355
130	0x3e2407e6	0.16018638
131	0xbd909060	-0.07058787
132	0xbc17d656	-0.00926741
133	0x3d8e4ca3	0.06948211
134	0x3d9eec89	0.07759959
135	0xbe356deb	-0.17717712
136	0xbe0373c2	-0.12837127
137	0xbcae7895	-0.021297732
138	0xbdb26220	-0.08710122
139	0x3d78ab2b	0.060710113
140	0x3d8d9a97	0.06914251
141	0x3e2f9264	0.17145687
142	0xbdcfc3e0	-0.10144782
143	0xbdaf3c5e	-0.08556436
144	0x3c98747c	0.018610232
145	0xbc1cd95a	-0.009573305
146	0x3e08b070	0.13348556
147	0x3c060784	0.008180503
148	0xbd2ec7a2	-0.042670853
149	0x3cc950b6	0.024574619
150	0xbda8e17d	-0.082461335
151	0xbddf5f1b	-0.10906812
152	0xbd9ee094	-0.07757679
153	0x3e1a64bc	0.1507749
154	0x3e17710a	0.14789215
155	0xbd90acd0	-0.07064211
156	0x3d88de2c	0.06683001
157	0xbe18e574	-0.1493128
158	0xbe248e5c	-0.16069931
159	0x3dfaf804	0.122543365
160	0xbdaf7620	-0.085674524
161	0xbccfdbc3	-0.025373345
162	0xbdb39ae2	-0.08769776
163	0x3ddb2bd2	0.107017174
164	0xbe1f3cd4	-0.15550548
165	0x3d4cf885	0.050041694
166	0xbd12a1b8	-0.03579876
167	0x3dc1c885	0.09462074
168	0x3d205d64	0.039151564
169	0x3d41c826	0.047310017
170	0x3cb60604	0.022219665
171	0x3dcaff72	0.099120036
172	0xbe1bc1a3	-0.15210585
173	0x3d5e8534	0.05432625
174	0xbda9057c	-0.08252999
175	0xbda99027	-0.08279448
176	0xbe007691	-0.1254523
177	0x3d83380b	0.06407174
178	0xbdade0fd	-0.08490179
179	0x3dab9077	0.08377164
180	0xbe27836b	-0.16358726
181	0xbd52c7ab	-0.05145995
182	0x3b1c98e6	0.0023894846
183	0x3dd4c2ac	0.10388693
184	0x3bf31183	0.007417859
185	0x3d99201e	0.07476829
186	0x3e15bca6	0.14622745
187	0xbdc28817	-0.09498613
188	0x3d82c27c	0.06384751
189	0xbda8bff7	-0.082397394
190	0x3d9be5d8	0.076121986
191	0xbe257886	-0.16159257
192	0x3e1ebe5f	0.15502308
193	0xbc07e381	-0.008293987
194	0x3d953499	0.07285423
195	0x3db9a056	0.09063785
196	0x3e08b898	0.13351667
197	0x3ce0f677	0.027461274
198	0x3d218037	0.039428916
199	0x3dd34bf0	0.10317218
200	0xbe3015c8	-0.17195809
201	0x3d44abfd	0.048015583
202	0xbdb00f60	-0.085966825
203	0x3e12cdef	0.1433637
204	0x3ce80149	0.028320925
205	0xbe00e903	-0.12588887
206	0xbd267134	-0.040635303
207	0xbca33c8f	-0.019926338
208	0x3de9d944	0.11418393
209	0x3cc7237e	0.024308916
210	0x3d14c5da	0.0363215
211	0x3e1ac6e8	0.15114939
212	0xbccbf612	-0.024897609
213	0xbd7104d2	-0.058842488
214	0xbd66f439	-0.056385253
215	0x3d873b2f	0.06603085
216	0xbe0ab393	-0.13545065
217	0x3e1890fe	0.1489906
218	0xbd89d3fa	-0.067298844
219	0xbd9d5738	-0.07682651
220	0xbced7d28	-0.028990343
221	0x3e2f4c84	0.17119032
222	0x3e2f8f4d	0.17144509
223	0x3c84839d	0.01617604
224	0x3d99c0ac	0.07507452
225	0xbe1d6274	-0.15369588
226	0x3e1e2019	0.15441932
227	0x3e3e5f5e	0.18591067
228	0xbcc60353	-0.024171507
229	0xbdee0d9f	-0.11623692
230	0x3e21b693	0.15792303
231	0x3df261c3	0.11835053
232	0xbd235843	-0.039879095
233	0xbde810ab	-0.11331304
234	0xbe362c03	-0.17790227
235	0x3db3e2e8	0.08783513
236	0xbe024c74	-0.12724477
237	0xbdd5a90c	-0.10432634
238	0x3e19108a	0.14947715
239	0x3e131a24	0.1436544
240	0xbdbe97bb	-0.09306284
241	0x3cc4f911	0.024044545
242	0x3ddad62e	0.10685383
243	0xbe1e611e	-0.15466735
244	0x3e1e1dc2	0.15441039
245	0xbe0946ec	-0.13405961
246	0xbd430f64	-0.0476221
247	0xbd5928df	-0.053017493
248	0xbd700e53	-0.05860741
249	0x3e12fc6e	0.14354107
250	0x3bac3b9d	0.00525613
251	0x3e0d0539	0.13771524
252	0x3dd62b14	0.10457435
253	0x3ce45002	0.027870182
254	0x3d1b6dcc	0.037946507
255	0x3dc84ca1	0.09780241

emb_net.v_lins1.0.bias f4 [32]
0	0x3dcdf87c	0.1005716
1	0xbe27b59f	-0.16377877
2	0x3d8725e1	0.06599022
3	0xbe1d4d73	-0.15361576
4	0xbdb9e3f2	-0.0907668
5	0x3d25ae3c	0.040449366
6	0xbe1d2301	-0.15345384
7	0xbdc4aedc	-0.09603664
8	0xbd9dfcc5	-0.077142276
9	0x3e0c56e1	0.13705017
10	0x3e10813f	0.14111803
11	0xbe2d9876	-0.1695269
12	0x3df08bb7	0.117453985
13	0xbe108793	-0.14114217
14	0x3e07d7bf	0.13265894
15	0xbde3a01b	-0.11114522
16	0x3d9472db	0.072484694
17	0xbd2b70bd	-0.041855562
18	0xbb75157b	-0.0037396837
19	0xbe08867f	-0.13332556
20	0xbd4b62f3	-0.049654912
21	0x3d258698	0.04041156
22	0xbdcb7004	-0.09933475
23	0xbd8bc8b2	-0.06825389
24	0xbe073d33	-0.1320694
25	0xbca3d553	-0.019999182
26	0xbe0f3089	-0.13983358
27	0xbd890957	-0.066912346
28	0x3dfcc522	0.123422876
29	0x3c199147	0.009373016
30	0xbd99ea19	-0.07515354
31	0x3e041a3c	0.12900633

emb_net.v_lins1.1.weight f4 [32, 32]
0	0xbda75e42	-0.08172275
1	0x3d0186b8	0.03162262
2	0xbbde972f	-0.006792925
3	0xbe0f3850	-0.13986325
4	0x3d9eb651	0.07749618
5	0xbdff9736	-0.12480013
6	0xbe1c262c	-0.15248936
7	0x3df1bd1c	0.11803648
8	0x3e1816fc	0.14852518
9	0xbca92622	-0.020648066
10	0xbd47a955	-0.048745472
11	0x3d5ef1de	0.05442988
12	0x3c362c4e	0.0111189615
13	0x3cdc8fc5	0.026924023
14	0x3dce9b13	0.10088172
15	0xbcb7588c	-0.02238109
16	0x3deb152e	0.11478649
17	0xbd368623	-0.044561516
18	0x3d01057e	0.03149938
19	0x3dc4ea4e	0.096150026
20	0xbcf650a3	-0.030067747
21	0x3dc6838a	0.09693058
22	0xbdd12ae1	-0.102132566
23	0xbd61eef1	-0.055159513
24	0x3dc84666	0.097790524
25	0xbde9beb9	-0.114133306
26	0xbe1793cd	-0.14802475
27	0x3ccdb1c3	0.025109177
28	0x3dcdbd94	0.10045925
29	0xbd67642b	-0.056492012
30	0x3e0da2fd	0.13831706
31	0xbd4ee708	-0.050513297
32	0xbdd99dd4	-0.106258065
33	0x3d5ed2ed	0.054400373
34	0x3d74ad08	0.059735328
35	0xbe229bdb	-0.15879767
36	0x3c18d229	0.00932745
37	0x3d242b10	0.04008013
38	0xbe358040	-0.17724705
39	0x3db2c665	0.08729247
40	0xbd4d14b5	-0.050068576
41	0x3e27c6db	0.16384451
42	0xbd83202d	-0.064026214
43	0xbdd8cec7	-0.10586315
44	0x3dceb7be	0.1009364
45	0x3e23a025	0.15979059
46	0xbcadf911	-0.021236928
47	0xbce02a36	-0.027363878
48	0xbe2df40e	-0.1698763
49	0xbd8d7b15	-0.06908242
50	0x3c62a096	0.013832232
51	0xbe01e94a	-0.12686649
52	0x3c648c49	0.013949462
53	0x3d802c26	0.06258421
54	0xbe05af84	-0.13055235
55	0xbdecd801	-0.11564637
56	0xbcf45d58	-0.029829666
57	0x3da5f2f3	0.081029795
58	0x3bf2ea3e	0.0074131778
59	0x3dd2febb	0.10302492
60	0xbba8e22a	-0.005153914
61	0x3dd3c334	0.103399664
62	0x3dbaf25d	0.091282584
63	0x3d29ff91	0.041503493
64	0xbd75641b	-0.05990992
65	0xbdcf5016	-0.10122697
66	0xbe233d1e	-0.15941283
67	0xbdb5006e	-0.088379726
68	0xbe198a10	-0.14994073
69	0x3d1b7c58	0.03796038
70	0x3dfaa300	0.12238121
71	0xbda1ba25	-0.078968324
72	0x3d987ebe	0.07446049
73	0x3e298241	0.16553594
74	0xbda73c00	-0.08165741
75	0xbe18f86e	-0.14938518
76	0x3c8adeba	0.016951907
77	0xbdb7a2fe	-0.08966635
78	0x3d53f8b0	0.05175084
79	0xbe0d6b62	-0.13810495
80	0xbe11e241	-0.14246465
81	0x3d09db13	0.03365619
82	0x3df9f9f0	0.12205875
83	0x3b173f19	0.002307838
84	0xbc57a504	-0.013161901
85	0x3e2e86a8	0.17043555
86	0xbde22a09	-0.11043174
87	0xbde9a3e7	-0.11408215
88	0x3d1a86c3	0.037726175
89	0x3d83d7a1	0.06437612
90	0x397c92bf	0.0002408726
91	0xbcc56140	-0.024094224
92	0x3d863888	0.06553751
93	0x3e257fce	0.16162035
94	0xbd982569	-0.074290104
95	0xbdabf11e	-0.08395599
96	0x3d8e8d95	0.069605984
97	0x3db97717	0.09055918
98	0x3d916cf2	0.07100858
99	0x3c0b694b	0.0085089905
100	0xbcdfe589	-0.02733113
101	0x3d83573d	0.06413124
102	0xbe2d1c4a	-0.16905323
103	0xbe1d5721	-0.15365268
104	0x3d1b3bfe	0.03789901
105	0xbcb26eb2	-0.0217813
106	0x3c5c3c68	0.013442136
107	0x3e23a5ca	0.15981212
108	0x3cd14fb2	0.025550697
109	0x3da977aa	0.08274777
110	0x3d7c929c	0.061663255
111	0x3c407000	0.011745453
112	0x3d26cd97	0.04072341
113	0x3e15ac1a	0.14616433
114	0x3dde296c	0.10847744
115	0x3d0c47a4	0.03424801
116	0x3ceb4608	0.028719917
117	0xbbadc25e	-0.0053027114
118	0x3e1afed6	0.15136275
119	0x3be0da51	0.006861963
120	0xbdd07755	-0.10179011
121	0xbd0508ce	-0.0324791
122	0xbda80cbc	-0.08205554
123	0xbd615a64	-0.055017844
124	0xbe0f495e	-0.13992831
125	0xbdcd3e97	-0.10021704
126	0xbe2c8f3a	-0.16851512
127	0xbe0e160a	-0.13875595
128	0x3d90984c	0.07060298
129	0xbd5fd11e	-0.05464279
130	0xbcb14fce	-0.0216445
131	0xbbc6ae27	-0.006063241
132	0xbdf952de	-0.12174009
133	0xbc99d6ba	-0.018779147
134	0xbcb4cc2b	-0.022070011
135	0x3d88f2e0	0.0668695
136	0x3e19569c	0.14974445
137	0xbd899f54	-0.067198426
138	0xbdedac4a	-0.11605127
139	0x3ccc74ff	0.024958132
140	0x3e001727	0.12508832
141	0xbd62a3db	-0.055332046
142	0x3dbda7f8	0.09260553
143	0x3e21d883	0.15805249
144	0xbdcc0770	-0.09962356
145	0x3c63021a	0.0138554815
146	0xbde753d8	-0.11295289
147	0x3d14147a	0.03615234
148	0xbe267e23	-0.16259055
149	0x3c79ce7b	0.015246983
150	0xbe33680c	-0.1752016
151	0xbceb2280	-0.028702974
152	0xbe121ae2	-0.14268067
153	0x3c9aa9e3	0.018879836
154	0xbd8e065f	-0.06934809
155	0x3d01c5d3	0.0316828
156	0xbdeb971b	-0.115034305
157	0x3e10f673	0.14156513
158	0xbe08e16a	-0.13367239
159	0xbd305cf1	-0.043057386
160	0x3e068f9a	0.13140717
161	0x3dbbbbba	0.091666654
162	0x3dd37baf	0.10326325
163	0xbe2def83	-0.16985898
164	0x3d93c03a	0.07214399
165	0x3d12890b	0.035775226
166	0xbda5b5c0	-0.08091307
167	0xbd3d96c1	-0.04628635
168	0xbe0cb74e	-0.137418
169	0xbc9ac96a	-0.01889487
170	0x3d9a4716	0.0753309
171	0xbe22bd56	-0.15892538
172	0x3d0a2dba	0.033735014
173	0x3df42571	0.11921204
174	0x3df91875	0.12162868
175	0x3d7f440f	0.062320765
176	0xbcc869ac	-0.02446445
177	0x3d6b3186	0.057420276
178	0x3db5c60b	0.08875664
179	0xbe267137	-0.16254126
180	0x3e1ca536	0.15297398
181	0x3c8e2e8d	0.017356182
182	0xbd8c2a05	-0.06843952
183	0x3dd66aea	0.10469611
184	0x3db109f9	0.0864448
185	0xbdb8e33d	-0.09027717
186	0xbdcdf46f	-0.10056388
187	0x3d7e14ec	0.06203167
188	0x3e1637ab	0.14669673
189	0x3e0caf49	0.13738741
190	0xbe004f29	-0.12530197
191	0x3dc34d00	0.09536171
192	0xbd389917	-0.045067873
193	0xbbcdb04b	-0.0062771193
194	0x3dac89b7	0.084247045
195	0x3d8e47ef	0.06947314
196	0x3e0cc6f9	0.13747777
197	0xbcd08b7f	-0.025457142
198	0xbc2e3783	-0.010633352
199	0x3dbcf776	0.09226887
200	0xbcf0833d	-0.029359454
201	0xbdc38920	-0.09547639
202	0xbde05662	-0.10953976
203	0xbdfc5878	-0.123215616
204	0x3e2d12df	0.1690173
205	0xbe2f6ecc	-0.1713211
206	0x3c874289	0.016511219
207	0xbdbe747b	-0.09299561
208	0x3e21b151	0.15790297
209	0xbe0f61c3	-0.14002137
210	0xbe1e6929	-0.15469803
211	0x3d0010af	0.03126591
212	0xbdc5daff	-0.09660911
213	0x3e197bd3	0.14988641
214	0xbdd18299	-0.10229988
215	0xbdd679b7	-0.10472434
216	0xbdbf57b2	-0.093428984
217	0xbdb130f6	-0.08651917
218	0x3d3bafb0	0.045821846
219	0x3e0bc84b	0.13650624
220	0xbc7a9f55	-0.015296777
221	0xbe305c24	-0.17222649
222	0x3cb21aef	0.021741359
223	0xbdf0b128	-0.1175254
224	0xbe2ac9c5	-0.16678531
225	0x3ab493e9	0.0013776991
226	0xbe23baef	-0.15989278
227	0x3e3083f0	0.1723783
228	0xbce1b84d	-0.027553702
229	0xbda3a711	-0.0799085
230	0x3e2f6863	0.17129664
231	0xbe03c1c7	-0.12866889
232	0x3e29fac9	0.16599573
233	0x3df83848	0.1212011
234	0x3d86f7d3	0.065902375
235	0xbdc75622	-0.097332254
236	0xbdf81a3f	-0.12114381
237	0x3cf4aaa4	0.029866524
238	0xbe339c6b	-0.17540137
239	0xbd8d6893	-0.069047116
240	0xbc99a51e	-0.018755492
241	0xbcc110cc	-0.02356758
242	0xbdcf8a46	-0.101337954
243	0x3dae9168	0.08523828
244	0xbdf61628	-0.12015945
245	0x3e05b5c7	0.13057624
246	0x3e1fe56f	0.15614866
247	0xbe1e43dd	-0.15455575
248	0x3df2f0e1	0.1186235
249	0x3d25958b	0.04042582
250	0x3c6283c1	0.013825358
251	0xbd299253	-0.04139931
252	0xbdcb5ff4	-0.09930411
253	0xbe07fa8c	-0.1327917
254	0x3e098506	0.1342965
255	0x3d4c3fb5	0.049865443

emb_net.v_lins1.1.bias f4 [32]
0	0xbc9000d8	-0.017578527
1	0xbcb8af45	-0.022544513
2	0xbe28be3f	-0.16478823
3	0xbd22f198	-0.039781183
4	0x3e242e05	0.1603318
5	0x3d9abd08	0.07555586
6	0xbb23d66f	-0.0024999639
7	0xbd53a1aa	-0.051667847
8	0x3bcbf9ca	0.0062248455
9	0xbcefa6d7	-0.02925436
10	0xbb9855e1	-0.0046489094
11	0xbd8d4814	-0.068985134
12	0x3da71248	0.08157784
13	0x3d94b2cd	0.07260666
14	0xbc53e1dc	-0.012932267
15	0xbdcf4273	-0.10120096
16	0x3df70bde	0.1206281
17	0x3d96682f	0.0734409
18	0xbe0cc134	-0.13745576
19	0x3c231b41	0.009955228
20	0xbd888962	-0.06666829
21	0x3def1fe8	0.116760075
22	0xbe09a6bb	-0.13442509
23	0xbe1fff8f	-0.15624832
24	0x3e1b7f71	0.15185334
25	0x3e2e0316	0.16993365
26	0xbe3339e3	-0.17502551
27	0xbdc40583	-0.09571364
28	0xbdcf45a2	-0.10120703
29	0xbb8acdce	-0.0042359596
30	0x3d8012fe	0.062536225
31	0x3e16a46a	0.14711156

emb_net.v_lins1.2.weight f4 [32, 32]
0	0xbde4e7d3	-0.111770295
1	0x3ddffa8b	0.10936459
2	0x3e1ce8a8	0.15323126
3	0x3de2bcc7	0.11071163
4	0xbdaa3ac9	-0.08311994
5	0xbe054413	-0.1301425
6	0x3dd39ec0	0.103330135
7	0x3c51e681	0.012811304
8	0xbe09606e	-0.13415691
9	0xbe28c758	-0.16482294
10	0x3c3c9a06	0.011511331
11	0xbe23c142	-0.15991691
12	0xbddc58df	-0.10759138
13	0xbd6a6f9d	-0.05723535
14	0x3d8d973f	0.069136135
15	0x3d988cc2	0.074487224
16	0xbce58f0b	-0.02802231
17	0xbdc6a3dc	-0.096992224
18	0xbd7d98dc	-0.061913356
19	0xbe18e2fa	-0.14930335
20	0xbdc5ac16	-0.096519634
21	0x3d2f33ca	0.042774
22	0xbe220fcc	-0.15826339
23	0x3d130be2	0.035900004
24	0xbc714b5d	-0.014727441
25	0xbe033697	-0.12813793
26	0x3dcb7691	0.09934724
27	0xbde2b6a9	-0.11069996
28	0xbe0bc1b7	-0.13648115
29	0xbe25cac4	-0.1619063
30	0x3df4c520	0.11951661
31	0x3e165f08	0.14684689
32	0x3e29494e	0.1653187
33	0x3ce29203	0.027657514
34	0x3de5153f	0.11185693
35	0xbe1c80b8	-0.15283477
36	0x3d1cebfc	0.03831099
37	0x3d8241ca	0.063602045
38	0x3e076a0b	0.13224046
39	0xbd0722c4	-0.03299214
40	0xbe2390e3	-0.15973239
41	0x3e222da0	0.15837717
42	0x3d9f4ee9	0.07778723
43	0xbd8efefa	-0.06982227
44	0xbdebf7e1	-0.115218885
45	0xbd45fcf1	-0.048336927
46	0x3e103e70	0.14086318
47	0xbd05d24c	-0.032671258
48	0x3df0daa7	0.117604546
49	0xbdd83ed7	-0.10558861
50	0x3cd6e5b0	0.02623257
51	0xbd8fcf73	-0.0702199
52	0x3e26462f	0.1623771
53	0xbd315e40	-0.043302774
54	0x3e1be3d9	0.15223636
55	0xbe1da58a	-0.1539518
56	0x3cc41616	0.023936313
57	0xbd2dd3ed	-0.042438436
58	0xbd2851d1	-0.04109365
59	0xbdc3b8d9	-0.09556741
60	0xbce00350	-0.02734533
61	0x3d81ed7c	0.06344125
62	0x3d335ef8	0.04379174
63	0x3e147143	0.14496331
64	0xbe2dbdfa	-0.16967002
65	0x3d737fc6	0.059448026
66	0x3d0a00da	0.03369222
67	0xbdbfef09	-0.09371764
68	0xbe37d3cc	-0.17951888
69	0x3d2362d5	0.039889175
70	0x3d89ad15	0.06722466
71	0xbd4f6001	-0.050628666
72	0xbe08255e	-0.13295504
73	0x3d855273	0.065098666
74	0xbbb544f6	-0.0055319024
75	0xbda8c2d6	-0.08240287
76	0x3dfc1099	0.12307853
77	0x3db97548	0.09055573
78	0xbd6b7fa2	-0.057494767
79	0x3e0a9ba6	0.13535938
80	0xbda6a4dc	-0.08136913
81	0xbd8d9829	-0.06913788
82	0x3e0ec57f	0.13942526
83	0x3b43e4fd	0.0029891126
84	0xbe07f879	-0.13278379
85	0x3d9ffcd6	0.078118965
86	0xbab0bcba	-0.0013483979
87	0xbe256076	-0.16150078
88	0x3c6631c9	0.014049956
89	0xbc5f47e1	-0.013627977
90	0x3db81229	0.08987839
91	0xbd9f8134	-0.077883154
92	0x3db00e62	0.08596493
93	0xbce96d44	-0.028494485
94	0x3d8d4621	0.06898142
95	0x3dcf82e2	0.10132386
96	0xbdb59e63	-0.088681005
97	0x3dce36e9	0.10069067
98	0xbe0e28d3	-0.1388276
99	0x3c1c3554	0.009534199
100	0x3cb74951	0.022373827
101	0x3e25557e	0.16145894
102	0x3e12b894	0.14328223
103	0xbe1868c1	-0.1488371
104	0x3daf458f	0.08558189
105	0xbe27d31e	-0.16389129
106	0x3c84db40	0.016217828
107	0xbe065103	-0.13116841
108	0xbe280700	-0.1640892
109	0xbd5f637f	-0.054538246
110	0xbe146d51	-0.14494826
111	0x3e0fd588	0.140463
112	0x3e246d14	0.16057235
113	0x3d4a24a0	0.049351335
114	0x3e0867c8	0.1332084
115	0xbdc47d5e	-0.095942244
116	0xbe1e4ffd	-0.154602
117	0x3de3f8fb	0.11131474
118	0xbdf3b54d	-0.11899815
119	0xbe3cff77	-0.18456827
120	0xbc09b262	-0.008404346
121	0xbdc372d4	-0.09543386
122	0x3e002d34	0.12517244
123	0x3d078f36	0.03309556
124	0xbd9d460e	-0.076793775
125	0xbe102e4c	-0.14080161
126	0xbdb1671f	-0.08662247
127	0xbe2039a7	-0.15646993
128	0x3df9d385	0.12198547
129	0xbe0590fd	-0.1304359
130	0x3ddaadcf	0.106776826
131	0xbd468e63	-0.048475634
132	0xbe135441	-0.14387609
133	0x3d2a56d7	0.041586723
134	0xbd1b3e5a	-0.03790126
135	0x3cc1ee60	0.023673236
136	0xbda40ee2	-0.08010651
137	0xbe039f07	-0.12853633
138	0x3e0ea41c	0.1392979
139	0xbd04f14f	-0.032456692
140	0xbe2851fb	-0.16437523
141	0xbc88f159	-0.016716646
142	0xbde22843	-0.110428356
143	0xbd455fcf	-0.048187073
144	0xbe454670	-0.19265151
145	0xbe2462df	-0.16053341
146	0x3dcfc072	0.10144128
147	0x3d369976	0.044579946
148	0x3e090abf	0.13383006
149	0xbcbde350	-0.02317968
150	0x3e2ab070	0.16668868
151	0xbd196152	-0.037446328
152	0xbd15e5a5	-0.03659596
153	0xbe0e45f7	-0.13893877
154	0x3e22520f	0.15851615
155	0x3dbb28ca	0.09138639
156	0xbd7e01f1	-0.06201357
157	0xbdb9d663	-0.09074094
158	0x3e254c19	0.1614231
159	0x3ce93bd7	0.028470917
160	0x3da100a2	0.07861449
161	0xbd29f820	-0.041496396
162	0x3d35b693	0.04436357
163	0xbd9504fd	-0.07276342
164	0x3e2040d7	0.15649734
165	0xbe2adb3e	-0.16685197
166	0x3d8f2d15	0.069910206
167	0x3d7443b9	0.059634898
168	0x3c17b924	0.00926045
169	0xbdf6fb45	-0.120596446
170	0x3db1e135	0.08685533
171	0xb9fc67dd	-0.0004814257
172	0x3ddffcb5	0.10936872
173	0x3d6b1450	0.05739242
174	0xbe22aa3d	-0.15885253
175	0x3d21f205	0.03953745
176	0x3e16d931	0.1473129
177	0x3db1d215	0.08682648
178	0x3b226770	0.0024780892
179	0xbcf5c2e3	-0.030000156
180	0x3e04945f	0.12947224
181	0xbe123993	-0.14279775
182	0x3e1943a5	0.1496721
183	0x3e203f90	0.15649247
184	0xbe015a50	-0.12632108
185	0xbdef7383	-0.11691954
186	0xbc719e25	-0.014747177
187	0x3e2910e5	0.16510351
188	0x3d70a942	0.058755167
189	0xbe2577b2	-0.16158941
190	0xbe03d313	-0.12873487
191	0x3e10aec3	0.14129166
192	0x3df7e01a	0.12103291
193	0xbe09c925	-0.13455637
194	0x3da024c9	0.07819516
195	0xbe246a9d	-0.16056295
196	0xbbaebdf9	-0.005332705
197	0xbe42f042	-0.19036964
198	0x3da36690	0.079785466
199	0x3d214b7a	0.03937862
200	0xbe2a33a7	-0.16621266
201	0x3db20c33	0.08693733
202	0xbe3e0885	-0.18557937
203	0x3d086f19	0.033309076
204	0xbe25ec46	-0.16203412
205	0x3c7fa910	0.0156042725
206	0xbd9353a9	-0.07193691
207	0xbd9ab0f9	-0.07553286
208	0x3c762ad1	0.015024857
209	0x3d6ef750	0.058341324
210	0xbd5a14d1	-0.05324251
211	0xbe3208ae	-0.17386124
212	0x3e14ff23	0.14550452
213	0x3e11a220	0.14222002
214	0xbe13eed9	-0.14446582
215	0xbc234631	-0.009965465
216	0xbd9deea6	-0.07711534
217	0x3debb933	0.11509933
218	0xbcd3e46e	-0.02586576
219	0x3cd1de83	0.025618797
220	0xbc8da0e3	-0.01728863
221	0x3db88f93	0.090117596
222	0xbe3e6ec9	-0.18596949
223	0x3d0b6679	0.034033272
224	0xbdd3f4a9	-0.103493996
225	0xbc40de23	-0.0117717115
226	0x3db11dc6	0.08648257
227	0xbda4a503	-0.08039286
228	0xbdc71262	-0.09720303
229	0xbdc52c8d	-0.09627638
230	0xbdfc78be	-0.12327717
231	0x3e0d3488	0.1378957
232	0xbe0301f0	-0.12793708
233	0x3c76fc78	0.015074842
234	0x3e1ead35	0.1549576
235	0xbddb8cbf	-0.107202046
236	0x3e0cdef1	0.1375692
237	0xbd262f46	-0.040572427
238	0x3dc219e1	0.09477592
239	0xbd28cb1f	-0.041209336
240	0x3d09b3a6	0.03361859
241	0x3e0cd4c4	0.13753039
242	0xbd6711b1	-0.056413356
243	0x3e0a0f0c	0.13482302
244	0x3d47a04a	0.048736848
245	0xbdcfd626	-0.101482674
246	0xbd3590fc	-0.04432772
247	0x3dde03c0	0.10840559
248	0x3db2265e	0.08698724
249	0x3da10851	0.07862914
250	0xbd1ddd59	-0.03854117
251	0x3cfd0d47	0.03089012
252	0x3d91b899	0.07115287
253	0xbcad57bf	-0.021160005
254	0xbd8f7c4e	-0.07006131
255	0x3da78909	0.08180434

emb_net.v_lins1.2.bias f4 [32]
0	0xbc56a32b	-0.013100426
1	0x3c8d15d8	0.01722233
2	0x3e171cd4	0.14757091
3	0x3e006aaa	0.12540689
4	0x3e0146ac	0.12624615
5	0x3c99ce3e	0.018775102
6	0xbd9498df	-0.0725572
7	0xbe04d143	-0.12970452
8	0x3d6cc844	0.057808176
9	0x3d89fb92	0.06737436
10	0x3dee7e4d	0.11645184
11	0x3d1f9817	0.038963404
12	0x3e285c43	0.16441445
13	0x3e22d78f	0.15902542
14	0xbd28c3e0	-0.041202426
15	0x3b283969	0.0025668985
16	0x3d8eda6a	0.06975253
17	0x3dee52ac	0.11636862
18	0x3d11783f	0.035515066
19	0x3e23734d	0.15961953
20	0xbcb3c100	-0.021942616
21	0x3ba29a17	0.0049622166
22	0xbe0df34b	-0.1386234
23	0x3ce41ab4	0.027844764
24	0xbdc31684	-0.09525779
25	0x3dfa86aa	0.122327164
26	0xbd11ea02	-0.035623558
27	0xbdf51d72	-0.11968507
28	0xbcb6e7ea	-0.022327382
29	0x3e16a91a	0.14712945
30	0xbb582035	-0.0032978181
31	0x3db85c82	0.090020195

emb_net.v_lins1.3.weight f4 [32, 32]
0	0x3d969470	0.07352531
1	0xbe24073f	-0.16018389
2	0x3e1e0187	0.1543027
3	0xbccfbeb0	-0.025359482
4	0xbdd8926c	-0.10574803
5	0x3dd0704d	0.1017767
6	0xbe069899	-0.13144149
7	0xbd7ae162	-0.061250098
8	0xbc91f4cd	-0.017816925
9	0xbda9c1ec	-0.08288941
10	0x3d60cfc6	0.05488565
11	0x3d62f360	0.05540788
12	0xbd640ce0	-0.05567634
13	0x3dbf0a3f	0.09328126
14	0xbd1983da	-0.03747926
15	0xbe01d173	-0.12677555
16	0x3dcb1c32	0.09917487
17	0xbdb75cfa	-0.08953281
18	0xbdb41ad9	-0.08794183
19	0x3d9fd720	0.07804704
20	0xbdd8a689	-0.10578639
21	0x3c1b967e	0.009496329
22	0xbd2ee97a	-0.04270313
23	0x3d9942a2	0.07483412
24	0xbe05d85d	-0.13070817
25	0xbd56576a	-0.05232946
26	0xbc94a4c0	-0.018144965
27	0xbbe9a226	-0.0071299253
28	0x3e21556b	0.1575524
29	0x3d498218	0.049196333
30	0x3e066356	0.13123831
31	0xbdad2ed7	-0.084561996
32	0x3da351a8	0.07974559
33	0xbe20b05b	-0.15692274
34	0xbdb472c5	-0.08810953
35	0x3e1c846c	0.1528489
36	0xbe163a92	-0.1467078
37	0xbd878bcf	-0.06618463
38	0x3e215a8d	0.15757199
39	0xbd9e51c3	-0.077304386
40	0xbd1c2b8f	-0.03812748
41	0x3e17f4d7	0.14839493
42	0xbe1de276	-0.15418419
43	0x3ceef57e	0.029169794
44	0xbd43b141	-0.047776464
45	0x3e0945f0	0.13405585
46	0xbd54cb39	-0.05195162
47	0x3e1f9aef	0.15586446
48	0x3dea39a1	0.11436773
49	0x3e07a916	0.13248095
50	0x3c45a25f	0.012062638
51	0xbdfdf202	-0.12399675
52	0xbe23aa5a	-0.15982953
53	0x3e23630f	0.15955757
54	0xbdaf45ba	-0.08558221
55	0x3e3299a5	0.17441423
56	0xbc5af129	-0.013363161
57	0xbe1b0e2f	-0.1514213
58	0x388699a7	6.418238e-05
59	0x3dbe38f0	0.09288204
60	0xbdfc1d94	-0.12310329
61	0x3d3c8637	0.046026435
62	0xbe033f19	-0.12817039
63	0x3c5404cc	0.012940597
64	0xbc837bea	-0.016050298
65	0x3e12b54c	0.14326972
66	0x3d4a6991	0.049417082
67	0x3e15481e	0.14578292
68	0xbddd7185	-0.10812668
69	0xbe351b9b	-0.17686312
70	0xbd05b4ee	-0.03264325
71	0xbc0e9602	-0.008702757
72	0xbd3cf264	-0.0461296
73	0x3d5accf6	0.053418122
74	0x3a80bd50	0.0009822045
75	0x3e1907ec	0.14944428
76	0xbcd71422	-0.026254717
77	0x3e1bd4f5	0.15217955
78	0xbe11eb12	-0.14249828
79	0xbda9ab3f	-0.08284616
80	0x3e264c0a	0.16239944
81	0x3dcd6615	0.10029236
82	0x3b766a56	0.0037600002
83	0x3de8be70	0.11364448
84	0xbe370631	-0.17873456
85	0x3dfafae7	0.12254887
86	0x3dcbf91f	0.099596255
87	0xbd42425c	-0.047426566
88	0x3d17c4d7	0.037052955
89	0x3deb427f	0.114872925
90	0x3e33dd9b	0.17565005
91	0xbdb7ea40	-0.089802265
92	0xbd55dc2e	-0.052211933
93	0xbdd40bca	-0.10353811
94	0x3cc99c5f	0.024610696
95	0x3e0bd8ee	0.13656971
96	0x3ad9d509	0.0016619276
97	0x3d325db5	0.043546397
98	0xbbd1e9c2	-0.00640604
99	0x3de667db	0.112502776
100	0xbd06d07f	-0.03291368
101	0xbe27bdaf	-0.16380952
102	0x3dcb8cfd	0.09939001
103	0xbd6932ca	-0.0569332
104	0xbe14199a	-0.14462891
105	0xbd8f68b3	-0.07002392
106	0x3e19e327	0.15028058
107	0x3e1cdfe2	0.1531978
108	0x3e2a47e0	0.1662898
109	0x3e0930d9	0.1339754
110	0x3c37e73f	0.011224567
111	0x3e165ba0	0.1468339
112	0x3e249e0d	0.16075917
113	0x3e0e2f43	0.13885216
114	0x3dd98353	0.10620751
115	0x3e0225cc	0.12709731
116	0x3e2115f5	0.15731032
117	0xbd3f04b8	-0.04663536
118	0x3dcb60ff	0.0993061
119	0x3daf8257	0.08569782
120	0xbdc1b752	-0.09458794
121	0x3db78754	0.08961359
122	0xbd7064f8	-0.05869004
123	0xbdd42b25	-0.10359792
124	0x3c715c30	0.014731452
125	0x3dbe1b30	0.09282529
126	0x3e22aa22	0.15885213
127	0x3e08ab8d	0.13346691
128	0x3e14bb0d	0.14524479
129	0x3c34b074	0.011028398
130	0x3cabde51	0.020980032
131	0xbe3194a2	-0.17341855
132	0xbe1d85ee	-0.15383121
133	0x3d1e4158	0.038636535
134	0x3da19f3d	0.078917004
135	0x3e076d51	0.13225295
136	0xbd685640	-0.05672288
137	0xbe207d4b	-0.15672795
138	0x3cdd1cae	0.026991215
139	0xbe0c2ffb	-0.13690178
140	0x3d6a832f	0.057254013
141	0x3e182763	0.14858775
142	0xbd854fb3	-0.06509342
143	0xbd1953d2	-0.037433453
144	0xbdefc614	-0.11707702
145	0xbc9cb515	-0.019129315
146	0x3c496abf	0.012293517
147	0x3d3316cb	0.04372291
148	0x3ddff952	0.10936226
149	0xbc4378a0	-0.011930615
150	0xba3078be	-0.0006731859
151	0x3b6830c0	0.0035429448
152	0x3e0d1e04	0.13780981
153	0xbe01fbe5	-0.12693746
154	0xbe2a4df6	-0.16631302
155	0x3ce40a10	0.02783683
156	0xbc0b2d51	-0.008494691
157	0xbd6f8084	-0.05847217
158	0xbe1b96f7	-0.15194307
159	0x3e091c77	0.13389765
160	0x3dcaefcf	0.09909021
161	0xbe351b5d	-0.1768622
162	0xbdd91fca	-0.106017664
163	0xbd912087	-0.07086282
164	0x3d452165	0.04812755
165	0x3cde6c3d	0.027151221
166	0xbe249654	-0.1607297
167	0xbda65354	-0.08121362
168	0x3d9b92f6	0.0759639
169	0x3c4aca40	0.012377322
170	0x3c7ff52b	0.015622417
171	0x3e230dc8	0.15923226
172	0xbdf87d3b	-0.12133261
173	0x3df7cac1	0.12099219
174	0xbe02a1c9	-0.12757029
175	0xbe25b003	-0.16180424
176	0x3e0bc23c	0.13648313
177	0xbe372477	-0.17885004
178	0xbc223256	-0.009899696
179	0x3dd9fb2e	0.10643612
180	0xbcc3458d	-0.023836875
181	0xbe1d33b0	-0.15351748
182	0xbe221a26	-0.15830287
183	0xbc7891e8	-0.0151715055
184	0x3cc8214c	0.02442994
185	0xbe21189a	-0.15732041
186	0x3e0bfb59	0.136701
187	0xbdb35ff8	-0.08758539
188	0xbb81d466	-0.0039620874
189	0xbd2662ea	-0.040621676
190	0x3d3ee5ca	0.046605863
191	0xbd82b115	-0.06381432
192	0xbd9b3ee8	-0.07580358
193	0xbce1d233	-0.027566051
194	0xbd1ce6be	-0.03830599
195	0x3ba0744e	0.004896677
196	0x3dfc9f99	0.12335128
197	0xbc1f9874	-0.0097409375
198	0xbe25fe0d	-0.16210194
199	0xbd526a0a	-0.051370658
200	0x3dd2943a	0.10282178
201	0x3d108d90	0.035291255
202	0xbd04943f	-0.03236794
203	0xbd88670e	-0.06660281
204	0xbd880785	-0.06642059
205	0x3e15f25a	0.14643231
206	0xbdec3313	-0.11533179
207	0xbd929f8e	-0.07159339
208	0x3de8d471	0.11368645
209	0xbe03267e	-0.12807652
210	0x3d9cefc0	0.07662916
211	0x3e118abd	0.1421308
212	0xb9debab7	-0.00042482253
213	0x3d479914	0.04872997
214	0x3d02e7d2	0.031959362
215	0xbe110d93	-0.14165334
216	0x3e2fdc9f	0.17174004
217	0x3dff4ed4	0.12466207
218	0x3e0c818e	0.13721296
219	0x3b4e8103	0.0031510002
220	0xbe214088	-0.15747273
221	0x3da60689	0.08106715
222	0x3e25ff6a	0.16210714
223	0x3da4f55f	0.08054613
224	0xbe03ace7	-0.12858926
225	0x3c1fc869	0.009752371
226	0x3e24bd04	0.16087729
227	0xbdf75b6b	-0.120779835
228	0xbda40224	-0.08008221
229	0x3e164eca	0.14678493
230	0xbe3646e3	-0.17800479
231	0x3b0caddb	0.002146593
232	0xbd5118fa	-0.05104921
233	0x3df09015	0.117462315
234	0xbc60bb71	-0.0137165645
235	0x3ae0e3b8	0.0017157709
236	0xbe067a14	-0.13132507
237	0xbe1689b8	-0.14700973
238	0x3df6e26b	0.120549046
239	0xbd8ce310	-0.06879246
240	0xbd7cf7c3	-0.06175972
241	0xbdc129a5	-0.09431771
242	0x3de79272	0.11307229
243	0x3cbf6fe4	0.023368783
244	0xbd914ae5	-0.07094363
245	0xbe2ed20e	-0.17072317
246	0xbdfe3824	-0.12413052
247	0xbcf65485	-0.030069599
248	0x3debcc9e	0.11513637
249	0x3ab6570d	0.0013911441
250	0xbe1d959b	-0.15389101
251	0xbde994cb	-0.11405333
252	0xbe1bf777	-0.15231119
253	0xbcda8ebd	-0.026679391
254	0x3e1ff6f6	0.15621552
255	0xbd30f940	-0.043206453

emb_net.v_lins1.3.bias f4 [32]
0	0xbe042af5	-0.12907012
1	0xbe1b4eb1	-0.15166737
2	0x3c302189	0.010750183
3	0xbd23301e	-0.03984081
4	0x3e14c6a2	0.14528897
5	0xbdf40262	-0.11914517
6	0x3d14bad2	0.03631098
7	0x3e1ed80c	0.15512103
8	0xbe082f6b	-0.13299339
9	0x3d4514c7	0.048115518
10	0xbc479a30	-0.012182757
11	0xbdb672ea	-0.08908637
12	0x3e3128ee	0.1730077
13	0xbd296eac	-0.04136531
14	0x3e01ba76	0.12668785
15	0xbe02ea6e	-0.1278474
16	0x3d710843	0.05884577
17	0xbd629909	-0.055321727
18	0x3de09398	0.10965651
19	0x3ddc9a8c	0.10771665
20	0x3b7e6057	0.0038814747
21	0x3b4ff99c	0.0031734472
22	0xbd8edffa	-0.06976314
23	0xbd03f2f7	-0.03221413
24	0xbe0d6ae6	-0.1381031
25	0xbdaba44a	-0.08380945
26	0x3d40a275	0.04702993
27	0x3e2e59df	0.1702647
28	0x3e2da9a0	0.16959238
29	0x3e0769f3	0.1322401
30	0x3dd63fa3	0.104613565
31	0x3dae89c8	0.085223734

emb_net.v_lins1.4.weight f4 [32, 32]
0	0x3d4a2b63	0.049357783
1	0x3d11ab03	0.03556348
2	0x3e14b081	0.14520456
3	0xbd00cee2	-0.0314473
4	0xbe18f671	-0.1493776
5	0xbd2de8de	-0.042458408
6	0xbdf2a190	-0.11847222
7	0x3c7682c6	0.015045827
8	0x3e1de0f6	0.15417847
9	0x3dd1a57a	0.1023664
10	0xbe1fa8d2	-0.15591744
11	0x3ddd6bcd	0.10811577
12	0xbe04214b	-0.12903325
13	0x3df4a443	0.11945393
14	0x3e0e02fd	0.13868327
15	0xbcb69653	-0.022288477
16	0xbdb0a354	-0.08624902
17	0x3e2959c5	0.1653815
18	0x3e1c22d2	0.15247658
19	0xbe045674	-0.12923604
20	0xbd0f687d	-0.035011757
21	0xbe09d0e6	-0.13458595
22	0xbccd31d7	-0.02504818
23	0xbdab250a	-0.08356674
24	0xbdcaa42b	-0.09894594
25	0x3ca63bb0	0.020292133
26	0xbe0a275e	-0.1349158
27	0xbd169acc	-0.03676872
28	0xbd5dcff3	-0.054153394
29	0x3dfb6438	0.122749746
30	0x3e147658	0.1449827
31	0x3c03ed4f	0.008052184
32	0xbc7cea70	-0.015436754
33	0x3cf118b9	0.029430734
34	0x3d9261ff	0.071475975
35	0xbe06de5f	-0.13170765
36	0xbe25b4c3	-0.16182236
37	0x3dcd041f	0.10010552
38	0x3e268574	0.16261846
39	0xbcb713d3	-0.02234832
40	0xbde26e33	-0.11056175
41	0xbcb591e7	-0.022164298
42	0xbd09a391	-0.033603255
43	0x3cbca77f	0.023029087
44	0xbdb93b3c	-0.09044501
45	0x3c2ca952	0.010538416
46	0xbe332ee2	-0.17498353
47	0x3e131335	0.14362796
48	0xbe36e55a	-0.17860928
49	0xbd8ef8ec	-0.06981072
50	0x3de240ad	0.11047492
51	0x3e034986	0.12821016
52	0xbba11e7e	-0.004916965
53	0x3dd70005	0.104980506
54	0x3e1c9787	0.15292178
55	0x3d8c71b1	0.068576224
56	0x3e036425	0.12831171
57	0x3ddb4dfa	0.10708232
58	0x3da45521	0.080240496
59	0xbdec4c30	-0.11537969
60	0xbca351f1	-0.019936534
61	0x3e0123f1	0.12611367
62	0xbda47496	-0.080300495
63	0x3ddd1f08	0.10796934
64	0x3d837a50	0.06419814
65	0xbd82e509	-0.06391341
66	0x3dfae0b9	0.12249894
67	0xbde33204	-0.11093524
68	0xbdb5383e	-0.08848618
69	0x3d1d5687	0.038412597
70	0x3df504d5	0.11963812
71	0xbd2d5930	-0.042321384
72	0x3e060375	0.13087256
73	0xbca5d3df	-0.02024263
74	0x3caae3f0	0.020860642
75	0xbd8e7721	-0.06956316
76	0x3dc37d0e	0.09545337
77	0xbcf80f8e	-0.030280855
78	0xbd67bdef	-0.05657762
79	0x3a589150	0.00082613993
80	0xbcd00be9	-0.025396304
81	0xbe07945d	-0.1324019
82	0x3d8ab3ca	0.06772573
83	0x3e1c17e8	0.15243495
84	0x3dd5e328	0.10443717
85	0x3dddde7c	0.10833451
86	0xbdccfa09	-0.10008628
87	0x3d5be25f	0.05368268
88	0xbe1d15a7	-0.15340291
89	0xbd93b607	-0.07212453
90	0xbdd5a9ae	-0.104327545
91	0xbcae6967	-0.021290494
92	0xbe38b217	-0.18036686
93	0xbd048664	-0.032354727
94	0x3ddf543a	0.10904737
95	0xbd9e7647	-0.07737403
96	0x3e21fd2f	0.15819238
97	0xbe2b6479	-0.16737546
98	0x3dcc517a	0.09976478
99	0x3dfc11a0	0.12308049
100	0x3e1d4768	0.1535927
101	0x3e076b8b	0.13224618
102	0xbe1b3497	-0.1515678
103	0x3e19a3b0	0.15003848
104	0x3d028d56	0.03187307
105	0x3e00498d	0.12528057
106	0x3e2055f2	0.15657786
107	0x3b994f03	0.0046786084
108	0xbe04f4b5	-0.12983973
109	0x3e2c8594	0.16847831
110	0x3de7aff1	0.11312855
111	0x3de46a1f	0.111530535
112	0x3cf5a44a	0.029985566
113	0x3dfc5b5e	0.123221144
114	0x3ddf8a0a	0.10915001
115	0xbe28619a	-0.16443482
116	0x3ba4dcb4	0.0050311927
117	0x3d5274ea	0.05138103
118	0xbce8bc58	-0.028410122
119	0xbce3342f	-0.027734844
120	0x3be0adfd	0.0068566785
121	0xbe278e8c	-0.16362971
122	0x3e08f4f1	0.13374688
123	0x3dcb3509	0.09922225
124	0x3d0e1d01	0.03469563
125	0x3dc10197	0.09424131
126	0xbe341437	-0.17585836
127	0x3d06aa84	0.03287746
128	0xbe38e985	-0.1805783
129	0xbe1a8961	-0.15091468
130	0xbd6cd788	-0.057822734
131	0xbe2df66b	-0.16988532
132	0xbde664b5	-0.11249677
133	0x3de0cf19	0.10977001
134	0xbe212ea0	-0.15740442
135	0xbcf05722	-0.029338423
136	0x3dc37532	0.095438376
137	0x3dce4f0a	0.10073669
138	0x3e21e316	0.15809283
139	0xbda42ac9	-0.08015973
140	0x3dfd9bc9	0.12383229
141	0xbdae3f13	-0.08508124
142	0xba3de1d1	-0.0007243427
143	0x3d5762c1	0.052584413
144	0x3c93d4bc	0.018045776
145	0x3e2efe65	0.17089231
146	0xbe0f2c3e	-0.13981721
147	0x3ddeef5f	0.108855
148	0x3d537e8a	0.05163435
149	0x3d6ef5af	0.05833977
150	0x3e0fc945	0.14041622
151	0x3e101742	0.14071372
152	0x3ceb9ee9	0.028762298
153	0x3e1ec481	0.15504648
154	0xbd87f8c0	-0.06639242
155	0xbdf5c15d	-0.11999772
156	0x3c982964	0.018574424
157	0x3e34ad91	0.17644335
158	0x3c9ff289	0.01952483
159	0xbe24c9f5	-0.16092665
160	0x3dc43aee	0.095815524
161	0xbddaaf4e	-0.10677968
162	0x3aa1783d	0.0012319159
163	0x3e008872	0.1255205
164	0xbc41c99f	-0.011827855
165	0xbd8c832d	-0.06860957
166	0xbd5da134	-0.054108813
167	0xbdb119ef	-0.086475246
168	0x3dbe567a	0.09293838
169	0x3d041b0a	0.03225235
170	0x3df6e3de	0.12055181
171	0x3d83118f	0.063998334
172	0xbd9ccb63	-0.076559804
173	0xbce4121c	-0.027840666
174	0x3dbdf163	0.092745565
175	0x3de01f06	0.10943417
176	0xbe35b69c	-0.17745441
177	0xbe1dbd6b	-0.15404288
178	0x3ce2fdbf	0.027708886
179	0xbcc9bae8	-0.024625257
180	0x3dde057f	0.10840892
181	0xbde936ca	-0.11387403
182	0x3e07960b	0.1324083
183	0xbd8731f3	-0.06601324
184	0xbddead94	-0.10872951
185	0x3dfa785c	0.12229988
186	0xbdf63f72	-0.1202382
187	0xbc92d37e	-0.017923113
188	0x3dc574eb	0.09641441
189	0x3e2eb95a	0.17062894
190	0xbd4f0e53	-0.05055077
191	0xbd312cba	-0.043255545
192	0xbe39dae2	-0.18149903
193	0x3da9f376	0.082983896
194	0xbd3bde24	-0.045866147
195	0x3c802728	0.015643671
196	0x3e211f8e	0.15734693
197	0x3cbad611	0.022807153
198	0xbd68bdaf	-0.05682152
199	0xbce7bf09	-0.028289335
200	0xbd3cb018	-0.046066374
201	0x3c2887b8	0.010286264
202	0x3dff4052	0.1246344
203	0x3dc49d12	0.09600271
204	0xbe3bf7e2	-0.18356279
205	0xbe2631dd	-0.16229959
206	0x3dc245c6	0.094859645
207	0xbe21b3d1	-0.15791251
208	0xbe42401a	-0.18969765
209	0xbaf1c813	-0.0018446468
210	0xbce7c57b	-0.028292408
211	0xbdba85cd	-0.09107552
212	0xbdd3c47a	-0.10340209
213	0x3e0f0a92	0.13968876
214	0xbe287075	-0.16449149
215	0x3e07a1df	0.13245343
216	0xbd94b46a	-0.07260974
217	0x3e1ae283	0.1512547
218	0xbd5e5019	-0.054275606
219	0x3d92bb44	0.07164624
220	0xbe0723da	-0.1319727
221	0x3d493a61	0.04912794
222	0x3d7038c0	0.05864787
223	0x3e1b959f	0.15193795
224	0x3c164d8a	0.00917376
225	0x3d3a7478	0.04552123
226	0xbe03ec69	-0.12883152
227	0x3dd68acc	0.10475692
228	0x3e365b7e	0.17808339
229	0x3d986aab	0.0744222
230	0xbdbcbdc4	-0.092158824
231	0x3d7b6f28	0.061385304
232	0xbd92c843	-0.07167103
233	0xbe3a6909	-0.1820413
234	0xbce8adb1	-0.028403135
235	0xbd53291e	-0.051552884
236	0xbdd940f6	-0.106080934
237	0xbd9c6e9b	-0.07638284
238	0x3e1cc1a4	0.15308243
239	0x3e3175ee	0.17330143
240	0x3dec67bf	0.115432255
241	0xbd4bce93	-0.04975755
242	0x3cc2701b	0.023735097
243	0x3e0f89ee	0.1401746
244	0x3e2e1ffe	0.17004392
245	0xbe1953f2	-0.14973429
246	0x3e246d16	0.16057238
247	0x3dabc0d3	0.08386388
248	0xbd3a85ac	-0.045537636
249	0xbdeebe76	-0.11657421
250	0xbdd4ba30	-0.10387075
251	0xbe0ae6ea	-0.13564649
252	0x3e26a593	0.16274099
253	0x3e0a2432	0.1349037
254	0xbdbc5c28	-0.09197265
255	0xbe12a8e7	-0.14322244

emb_net.v_lins1.4.bias f4 [32]
0	0xbdb621f3	-0.08893194
1	0x3e12eaab	0.14347331
2	0xbde1de44	-0.11028722
3	0xbdc44aec	-0.09584603
4	0x3e0231a6	0.12714252
5	0xbd042c11	-0.032268587
6	0x3daf2063	0.08551099
7	0xbe0e8021	-0.13916065
8	0xbdd02be3	-0.10164621
9	0xbc45fcf1	-0.012084232
10	0x3d133dfe	0.035947792
11	0xbe0ab047	-0.13543807
12	0xbd869172	-0.0657071
13	0x3e0d67a1	0.13809063
14	0xbd5e95c5	-0.05434205
15	0x3d829404	0.06375888
16	0xbd40294f	-0.046914395
17	0xbd984fda	-0.074371055
18	0xbe1518cb	-0.14560239
19	0xbdcb8c9b	-0.09938928
20	0xbe1b428c	-0.15162104
21	0xbe2992cf	-0.1655991
22	0x3d19120c	0.037370726
23	0xbe17db83	-0.14829831
24	0x3e03faa3	0.12888579
25	0xbd37cd68	-0.044873625
26	0x3e1683b7	0.14698683
27	0xbe1ef18e	-0.15521833
28	0x3d69ee43	0.05711199
29	0x3cae6115	0.021286527
30	0xbc11daae	-0.008902235
31	0x3e083a46	0.1330348

emb_net.v_lins1.5.weight f4 [32, 32]
0	0x3d091f4c	0.033477113
1	0x3d95f490	0.07322037
2	0xbdd33f8b	-0.10314854
3	0x3c7966d0	0.015222266
4	0x3d549802	0.05190278
5	0x3d83c815	0.06434647
6	0x3dd1a48d	0.10236464
7	0xbe1a67b9	-0.1507863
8	0x3c950d46	0.018194806
9	0x3df37d2e	0.118891105
10	0x3dd3f82b	0.10350069
11	0xbdc47bbe	-0.095939144
12	0x3c9096ee	0.017650094
13	0x3db65c12	0.0890428
14	0x3d54d0b2	0.05195684
15	0x3c41f801	0.011838914
16	0x3da2bfdb	0.0794675
17	0x3cd29cd8	0.025709555
18	0xbe17298b	-0.14761941
19	0x3da29a35	0.07939569
20	0x3e1e76d0	0.15475011
21	0x3dc0af70	0.09408462
22	0xbc2b8899	-0.010469579
23	0x3c5b3255	0.013378699
24	0x3cc61114	0.024178065
25	0xbd261876	-0.04055067
26	0x3c81fad4	0.015866674
27	0xbce53f9d	-0.027984435
28	0x3da1974a	0.07890184
29	0xbcbb0d02	-0.022833351
30	0x3cba4de1	0.022742214
31	0x3e2c8b20	0.16849947
32	0xbc80f7b7	-0.01574312
33	0xbc1a8c80	-0.009432912
34	0xbd9eef52	-0.077604905
35	0x3dd57230	0.1042217
36	0x3d12bb9b	0.035823446
37	0xbce474e8	-0.027887776
38	0x3e0d985a	0.13827649
39	0x3db5d61a	0.08878727
40	0x3d9c95d1	0.07645763
41	0x3dcf93c1	0.10135604
42	0xbd31b7ff	-0.043388363
43	0x3c8bb515	0.01705412
44	0xbd10efcb	-0.035384934
45	0x3da2794c	0.07933292
46	0x3dd95071	0.10611046
47	0xbcdfce40	-0.027320027
48	0x3ca941db	0.020661285
49	0xbe259cbb	-0.16173069
50	0x3c26e9a7	0.010187543
51	0x3e3947c5	0.18093784
52	0xbe09dce0	-0.13463163
53	0xbd99ded6	-0.07513206
54	0x3da066c3	0.078321
55	0xbde4bd10	-0.11168873
56	0xbe0071aa	-0.1254336
57	0xbc78f775	-0.015195717
58	0x3d8b264a	0.067944124
59	0x3e0bd063	0.13653712
60	0x3e1b4b9a	0.15165558
61	0x3dfe3900	0.12413216
62	0x3c5d7266	0.013516044
63	0xba4e5f33	-0.0007872462
64	0xbe2b7978	-0.16745555
65	0x3e1b2180	0.15149498
66	0xbd68479c	-0.056708917
67	0xbc17c654	-0.009263594
68	0x3cec5d73	0.028853154
69	0x3e2bb9f7	0.16770159
70	0x3e1b4b98	0.15165555
71	0xbe1c59cb	-0.15268628
72	0x3d2eb61f	0.042654153
73	0xbdb55a81	-0.08855153
74	0x3e04f5d9	0.12984408
75	0x3de460fa	0.11151309
76	0x3d7cf8ff	0.0617609
77	0x3dd0f865	0.102036275
78	0x3e0e60bd	0.1390409
79	0xbe146ddb	-0.14495032
80	0x3b489196	0.0030604354
81	0x3ceb981b	0.028759053
82	0xbd151aec	-0.036402628
83	0xbd7df039	-0.061996672
84	0xbd207d53	-0.03918202
85	0xbe173b21	-0.1476865
86	0x3d97aa90	0.07405579
87	0xbdac4e57	-0.0841338
88	0xbc9db7ef	-0.019252745
89	0xbdedee8a	-0.11617763
90	0x3dde5ac3	0.10857155
91	0x3e21b434	0.15791398
92	0x3cbd062b	0.02307423
93	0x3de273b7	0.11057227
94	0x3d85a435	0.06525461
95	0x3e1ca721	0.1529813
96	0xbe31988d	-0.1734335
97	0xbd5faa37	-0.05460569
98	0xb9a0c6cd	-0.00030665696
99	0x3cc6d9e5	0.024273822
100	0x3dc50378	0.09619802
101	0xbcca8760	-0.024722755
102	0xbda777e8	-0.08177167
103	0xbd6251cf	-0.0552538
104	0x3cd4905d	0.025947744
105	0x3e1bbb2b	0.15208118
106	0xbe0d8d1a	-0.13823357
107	0xbc8fa7b0	-0.017536014
108	0x3da7e701	0.081983574
109	0x3d2cfe5e	0.04223477
110	0x3d90d80a	0.07072456
111	0x3dc1efcb	0.09469565
112	0xbded7627	-0.115948014
113	0x3d777b34	0.06042023
114	0x3e28cdd9	0.16484775
115	0xbd82e0ef	-0.06390559
116	0xbdf54cba	-0.11977525
117	0xbd8218ce	-0.06352387
118	0xbd44b84f	-0.048027333
119	0xbe2a972a	-0.16659227
120	0xbca33c3c	-0.019926183
121	0x3db3365c	0.087506026
122	0x3d13194b	0.035912793
123	0x3e14db13	0.14536695
124	0x3b9190d1	0.0044423123
125	0xbd44472d	-0.04791944
126	0x3e2c5706	0.16830072
127	0x3dab8582	0.08375074
128	0x3e0e8fdb	0.13922064
129	0x3df768aa	0.1208051
130	0x3dd361a2	0.10321356
131	0xbe052a35	-0.13004382
132	0xbd19f626	-0.03758826
133	0xbe26b3c7	-0.16279517
134	0xbd82a8f7	-0.06379884
135	0x3cfb7843	0.030696994
136	0x3be51fc5	0.0069923126
137	0x3db7a6e6	0.0896738
138	0xbe03e1d8	-0.12879121
139	0x3dba7e95	0.09106175
140	0x3da55ee4	0.080747396
141	0xbd374356	-0.04474195
142	0x3d3f4fac	0.04670684
143	0x3e18232e	0.1485717
144	0xbd52ecdb	-0.051495414
145	0xbdc82c39	-0.0977406
146	0x3d9f5a20	0.07780862
147	0x3db78d60	0.08962512
148	0xbd6ba2e8	-0.057528406
149	0xbdb92445	-0.09040121
150	0xbd68cd00	-0.05683613
151	0xbe1e2f93	-0.15447836
152	0x3d18ac87	0.03727391
153	0xbe001eb1	-0.12511708
154	0x3d0f67ec	0.035011217
155	0x3dab5e06	0.08367543
156	0x3ca45d27	0.02006395
157	0x3d6e67a4	0.05820431
158	0xbe213622	-0.15743306
159	0x3dc26f0a	0.09493835
160	0xbbad3186	-0.0052854447
161	0x3c8a6eed	0.016898597
162	0x3d92f771	0.07176102
163	0x3e1ae460	0.1512618
164	0x3df33afc	0.11876485
165	0xbd1dc5fb	-0.038518887
166	0x3de0ba67	0.109730534
167	0xbe40978e	-0.18807814
168	0xbd8c2bfd	-0.068443276
169	0x3cdf8b62	0.027288143
170	0x3bc810d5	0.006105522
171	0x3dd46685	0.103711165
172	0x3e0e1e46	0.13878736
173	0xbd6e8ddd	-0.05824076
174	0x3d803f8e	0.06262122
175	0x3e306ac8	0.17228234
176	0x3e19bb21	0.1501279
177	0x3de5851b	0.112070285
178	0xbe18fbe3	-0.14939837
179	0x3dbded20	0.09273744
180	0x3c297030	0.010341689
181	0xbe19f939	-0.15036477
182	0x3cc23946	0.02370895
183	0xbd72ef62	-0.059310324
184	0xbe16dd60	-0.14732885
185	0x3e0cd04f	0.13751338
186	0xbdcc78b8	-0.09983963
187	0x3e0fda82	0.14048198
188	0x3c816247	0.015793933
189	0xbe2608c5	-0.16214283
190	0xbdd1e33a	-0.10248418
191	0x3bfd5f6e	0.0077323234
192	0x3e1b045c	0.15138382
193	0x3dbfaf4f	0.09359609
194	0xbdc1656b	-0.09443172
195	0x3bf235b7	0.007391657
196	0xbd3ca044	-0.04605128
197	0x3cfff530	0.031244844
198	0x3c0427ef	0.008066162
199	0x3d5660f3	0.05233855
200	0xbdca1180	-0.09866619
201	0xbddf51e5	-0.10904292
202	0xbd671e9b	-0.056425672
203	0x3e255f9c	0.16149753
204	0xbb2c3d07	-0.0026281492
205	0x3d555fc6	0.05209329
206	0xbe10c861	-0.14138938
207	0x3df6b861	0.12046886
208	0x3d6d7235	0.057970244
209	0x3cb2efef	0.021842925
210	0xbd915e3e	-0.070980534
211	0xbe04a299	-0.12952651
212	0x3e00b3cc	0.12568587
213	0x3e1d4b31	0.15360714
214	0xbda67924	-0.081285745
215	0xbca24104	-0.019806392
216	0xbe0cecc4	-0.13762194
217	0x3e140236	0.14453968
218	0xbe038d2a	-0.12846819
219	0xbb701649	-0.0036634377
220	0xbe039c38	-0.12852561
221	0x3d18e222	0.037325032
222	0x3bb5d27c	0.0055487733
223	0x3e1d0f86	0.15337953
224	0x3e0a87ed	0.13528414
225	0x3d7d04a1	0.061771993
226	0xbb6580c8	-0.0035019387
227	0x3d4ff892	0.050774164
228	0xbdd7ca2f	-0.1053661
229	0x3db240bf	0.087037556
230	0x3cf4da55	0.029889265
231	0xbe0de0c4	-0.13855273
232	0xbdd228cd	-0.102616884
233	0xbdb6090e	-0.08888446
234	0x3d110547	0.035405423
235	0xbe14fcfd	-0.14549632
236	0xbe13a980	-0.14420128
237	0xbdf074bf	-0.117410176
238	0xbd2c2e3a	-0.042036273
239	0x3da6ec98	0.081505954
240	0x3e1e3159	0.15448512
241	0xbe25e13c	-0.16199201
242	0x3ded7619	0.11594791
243	0x3d21718a	0.03941492
244	0xbe21a4b5	-0.15785487
245	0x3d1311cd	0.035905648
246	0x3dfe4447	0.124153666
247	0x3e2f862f	0.1714103
248	0x3e3218d3	0.17392282
249	0x3d876e65	0.06612853
250	0x3b28eaab	0.0025774639
251	0xbdd8758f	-0.105692975
252	0xbe32b386	-0.17451295
253	0x3dda588a	0.10661419
254	0x3e17642c	0.14784306
255	0x3d5dab59	0.054118488

emb_net.v_lins1.5.bias f4 [32]
0	0xbb9b86ad	-0.004746279
1	0x3dd010a5	0.10159425
2	0x3dc68818	0.096939266
3	0x3c209ebf	0.009803473
4	0x3dbf8dc7	0.09353214
5	0x3d9988d4	0.07496801
6	0x3c8390de	0.016060289
7	0xbc6d0c71	-0.014468298
8	0xbe1821bb	-0.14856617
9	0x3baf168b	0.0053432635
10	0x3db4a63d	0.0882077
11	0x3e2b4c7e	0.16728398
12	0x3dfc4e31	0.12319601
13	0x3d1fffaf	0.0390622
14	0xbdbfbe14	-0.093624264
15	0xbdf413c8	-0.119178355
16	0xbe2e3d0b	-0.17015474
17	0xbd73122e	-0.05934351
18	0x3c9043fd	0.017610544
19	0xbe174e77	-0.14776026
20	0x3dd567c1	0.1042018
21	0xbc573ef9	-0.013137572
22	0xbe123a3e	-0.1428003
23	0xbd2bdd76	-0.04195925
24	0xbc803d25	-0.015654156
25	0x3d8a954c	0.06766757
26	0xbd84ba05	-0.06480793
27	0x3df14104	0.11779979
28	0xbc9a2bfa	-0.018819798
29	0x3e05beae	0.1306102
30	0x3dfd74d2	0.12375797
31	0xbd6bd0ee	-0.057572298
