or/GFlowNet and ACO to solve TSP/DeepACO/tsp/pretrained/smtwtp/smtwtp100.pt (torch, 366714 bytes, 230 tensors)

emb_net.v_lin0.weight f4 [32, 2]
-0.5236985 -0.19211827 0.43981174 0.18889482 0.69706017 -0.24637714 -0.58523047 0.69697475
0.42759764 -0.2365746 -0.46192172 -0.3797397 -0.35203916 0.07419693 -0.6221539 0.11427142
0.6780584 -0.18083961 0.07442265 -0.1402407 -0.08661822 -0.45390922 -0.50165135 0.36418208
-0.64655894 -0.5023287 0.40646312 0.3699871 -0.25722086 -0.53542995 0.52632874 0.48915365
-0.27085763 0.50787294 0.25435975 -0.66333115 -0.7085509 0.5733034 -0.34795767 0.021406664
-0.36553282 0.1500946 0.6501474 -0.12015307 -0.59629786 -0.6270242 -0.48949802 -0.40874034
-0.12404648 -0.4995517 0.47072953 -0.08270643 0.71028465 -0.3700404 0.028552378 -0.029835971
0.44660515 0.58979607 0.48243856 -0.03531043 0.09383919 0.14110377 -0.28312185 0.480471
00000000: 1b11 06bf a7ba 44be 012f e13e a56d 413e
00000010: 8972 323f 4a4a 7cbe aad1 15bf f06c 323f
00000020: 14ee da3e 9d40 72be 0181 ecbe 3e6d c2be
00000030: 7a3e b4be 8ff4 973d 7a45 1fbf 2207 ea3d
00000040: 3c95 2d3f 052e 39be e76a 983d 429b 0fbe
00000050: e564 b1bd ca66 e8be 396c 00bf 1376 ba3e
00000060: e384 25bf 9d98 00bf ef1b d03e f36e bd3e
00000070: 74b2 83be f011 09bf 7bbd 063f 5972 fa3e
00000080: daad 8abe f603 023f 713b 823e 12d0 29bf
00000090: 9763 35bf 03c4 123f 8227 b2be 075d af3c
000000a0: 1e27 bbbe 66b2 193e 0f70 263f d012 f6bd
000000b0: faa6 18bf a884 20bf 7c9f fabe 6a46 d1be
000000c0: 150c febd 3ec5 ffbe 7603 f13e fd61 a9bd
000000d0: 37d5 353f ef75 bdbe ade6 e93c 916a f4bc
000000e0: 6ea9 e43e e0fc 163f 3002 f73e aba1 10bd
000000f0: c32e c03d 827d 103e 59f5 90be 4b00 f63e

emb_net.v_lin0.bias f4 [32]
0.20713492 0.35698116 -0.48702005 -0.54565686 -0.4797766 0.2191729 -0.09281077 0.43820307
0.48147935 0.3585255 0.5185398 -0.31203583 -0.30665517 -0.48775685 -0.23265733 0.19995782
-0.41521868 -0.34760508 0.020013852 0.6293016 -0.43286052 -0.283729 -0.3001915 0.046850603
-0.20419727 -0.43268844 0.29029328 0.5571939 0.069160104 -0.03963233 0.23102653 0.031447433
00000000: 2d1b 543e 3cc6 b63e b15a f9be 2bb0 0bbf
00000010: 47a5 f5be dc6e 603e 9313 bebd 275c e03e
00000020: 7684 f63e a890 b73e 06bf 043f 29c3 9fbe
00000030: e801 9dbe 44bb f9be b93d 6ebe bec1 4c3e
00000040: 8b97 d4be 4bf9 b1be 17f4 a33c e919 213f
00000050: e59f ddbe ed44 91be b3b2 99be 6be6 3f3d
00000060: 1719 51be 5789 ddbe 52a1 943e 42a4 0e3f
00000070: d0a3 8d3d 8355 22bd 3892 6c3e 06cf 003d

emb_net.v_lins1.0.weight f4 [32, 32]
0.026767254 0.028863654 0.16884686 -0.059195288 0.13607918 -0.061340965 -0.02989982 -0.074643545
0.17017461 0.06406006 -0.070784576 -0.08068373 0.1558076 0.16918807 -0.008372456 0.142971
0.116368786 -0.08009644 0.021087065 -0.035343185 -0.012980834 0.035706893 -0.041400358 -0.0802744
-0.024900883 0.015527889 0.08641605 -0.09792356 0.1304275 0.121114835 0.057074293 0.07333137
0.13773109 0.007599175 -0.119063795 0.071595445 0.032441974 -0.14864646 -0.13429472 0.021712944
0.027160361 -0.0631348 0.15654369 -0.14912081 -0.059063137 0.055795833 0.09924294 0.12002061
0.1136363 0.118591025 -0.1409239 -0.046582818 0.084750876 0.06704754 -0.043261886 -0.16041231
-0.07663559 -0.04236138 0.08208774 0.15262802 0.052378774 -0.07733466 0.055990964 -0.050560355
-0.11196795 0.02971682 -0.023956865 -0.025469258 0.1690531 0.16165446 0.031930387 0.08467941
-0.12621275 -0.14697754 -0.16734652 0.17022647 0.08569826 0.1376863 -0.12668473 -0.03926304
0.09028782 0.15123074 0.07162197 0.100354716 -0.012355059 0.0757242 -0.031453833 -0.057697788
-0.029683143 0.14133547 -0.13752006 -0.11903376 -0.16466583 -0.011526167 0.022474602 -0.14997464
0.1687222 0.08796774 0.049366623 -0.08293203 -0.031949088 -0.10067596 0.14305596 -0.12731417
-0.041938752 0.022909418 -0.1703661 0.099375024 0.12799837 -0.0047356635 0.02924262 -0.096484
-0.17567895 -0.020164847 0.15917547 -0.02645798 0.123180166 -0.018412128 0.0060820878 0.09590323
-0.16076173 -0.12146784 0.09104164 -0.05401268 0.1665682 0.030887082 -0.14475498 0.17542182
0.04680741 0.06480828 -0.038706332 -0.14462715 0.043988198 0.014509261 -0.10426346 -0.002166137
0.0895095 -0.050560683 0.10363196 0.17246412 0.106819704 -0.005391106 -0.110312164 0.12097727
0.057317793 -0.070448495 -0.06569123 -0.042518526 -0.14688909 -0.1125238 0.06306064 -0.12544239
0.13729005 -0.1605629 -0.1027977 0.12510116 0.15716837 0.009215683 -0.06252297 -0.123708606
0.1667204 0.10953568 -0.13792476 -0.07561138 -0.12260719 -0.1577514 -0.17233458 -0.041470766
-0.01832509 -0.15872093 -0.0016305596 -0.035026744 -0.121756576 0.119967386 -0.051315323 0.08306797
-0.17323452 0.13384797 0.06846359 -0.07338091 0.14957322 0.14499594 -0.043381706 -0.029106438
0.031869233 -0.04805851 -0.12724006 0.1387643 -0.12081541 0.13217191 -0.050363496 -0.095691554
0.15935569 -0.100816354 0.06446421 -0.13991511 0.112547085 0.10864465 0.06659967 0.12669428
-0.039978355 0.07916935 -0.046458304 -0.0037367046 -0.080415025 0.018402025 -0.04789087 -0.0918564
-0.14333189 0.06856477 -0.16023491 -0.10835278 0.07837321 -0.067377426 -0.1398442 0.03786561
-0.14639513 -0.1453194 0.05643326 -0.1478427 -0.14477476 0.05607082 0.15143825 -0.08940615
-0.13730107 0.16211905 -0.013108611 0.066280216 0.13589911 0.011817008 -0.023699254 -0.044206485
0.049662426 -0.17177968 0.013487533 0.10948743 -0.084801964 -0.004212722 0.09650992 0.15088339
0.12663566 0.0073946416 0.03802465 0.0044671297 -0.10275652 0.16201873 0.08324109 0.051070973
0.045334816 -0.104166105 -0.12726137 -0.061799355 -0.012971297 -0.08868647 0.034790367 -0.023611173
00000000: 0047 db3c 7873 ec3c 31e6 2c3e c276 72bd
00000010: 5758 0b3e aa40 7bbd 78f0 f4bc b7de 98bd
00000020: 4142 2e3e ec31 833d 81f7 90bd 833d a5bd
00000030: 078c 1f3e a33f 2d3e a02c 09bc fd66 123e
00000040: c252 ee3d 9a09 a4bd c8be ac3c 04c4 10bd
00000050: 90ad 54bc 6441 123d 6c93 29bd e866 a4bd
00000060: f0fc cbbc b068 7e3c e6fa b03d 268c c8bd
00000070: c98e 053e 0e0b f83d bcc6 693d c22e 963d
00000080: 6109 0d3e 8002 f93b b8d7 f3bd a2a0 923d
00000090: e0e1 043d c736 18be 8e84 09be 58df b13c
000000a0: 687f de3c d14c 81bd fd4c 203e 20b3 18be
000000b0: 30ec 71bd 2c8a 643d e23f cb3d 5ecd f53d
000000c0: 26ba e83d dadf f23d 5b4e 10be a0cd 3ebd
000000d0: de91 ad3d 3850 893d 6033 31bd 2043 24be
000000e0: 1ff3 9cbd 2083 2dbd 9e1d a83d 854a 1c3e
000000f0: 208b 563d a261 9ebd c856 653d 6018 4fbd
00000100: 744f e5bd b070 f33c 3041 c4bc e8a4 d0bc
00000110: 411c 2d3e bf88 253e 70c9 023d 666c ad3d
00000120: ea3d 01be 4881 16be e35c 2bbe d94f 2e3e
00000130: 9282 af3d a3fd 0c3e a4b9 01be 48d2 20bd
00000140: d2e8 b83d 3bdc 1a3e 8aae 923d c686 cd3d
00000150: e06c 4abc 4a15 9b3d bcd5 00bd 8454 6cbd
00000160: 102a f3bc 3fba 103e 0fd2 0cbe f9c7 f3bd
00000170: 299e 28be 40d8 3cbc a81c b83c f492 19be
00000180: 83c5 2c3e 6e28 b43d a834 4a3d 45d8 a9bd
00000190: 0cdd 02bd 332f cebd 437d 123e a55e 02be
000001a0: f8c7 2bbd 88ac bb3c 7374 2ebe 2285 cb3d
000001b0: 0112 033e a02d 9bbb 388e ef3c 6799 c5bd
000001c0: 2fe5 33be c030 a5bc e5fe 223e 68be d8bc
000001d0: e245 fc3d 08d5 96bc 404c c73b ea68 c43d
000001e0: b99e 24be 22c4 f8bd 0a74 ba3d 663c 5dbd
000001f0: db90 2a3e e806 fd3c a63a 14be c7a1 333e
00000200: 20b9 3f3d 34ba 843d 888a 1ebd 2419 14be
00000210: f82c 343d 40b8 6d3c 1588 d5bd c0f5 0dbb
00000220: c250 b73d b818 4fbd fe3c d43d 6f9a 303e
00000230: 4ac4 da3d e0a7 b0bb 58eb e1bd eec2 f73d
00000240: 10c6 6a3d 4d47 90bd 2089 86bd e827 2ebd
00000250: 186a 16be e172 e6bd f025 813d f873 00be
00000260: c395 0c3e 9a6a 24be 9a87 d2bd 851a 003e
00000270: bff0 203e 60fd 163c 0b0c 80bd f05a fdbd
00000280: c1b8 2a3e 3e54 e03d 263c 0dbe 24da 9abd
00000290: 7a19 fbbd 9589 21be 7a78 30be 40dd 29bd
000002a0: 801e 96bc bd87 22be 80b8 d5ba 3478 0fbd
000002b0: 835b f9bd 76b1 f53d 0430 52bd 8a1f aa3d
000002c0: 6464 31be 710f 093e a436 8c3d bb48 96bd
000002d0: b929 193e d179 143e 04b1 31bd a070 eebc
000002e0: 5089 023d 00d9 44bd 384b 02be 3b18 0e3e
000002f0: 126e f7bd 1358 073e f449 4ebd eff9 c3bd
00000300: 232e 233e ce78 cebd d005 843d e845 0fbe
00000310: 167f e63d 1681 de3d 6865 883d 25bc 013e
00000320: 58c0 23bd 8a23 a23d 104b 3ebd 80e3 74bb
00000330: a2b0 a4bd d8bf 963c 3829 44bd 351f bcbd
00000340: 98c5 12be b06b 8c3d 9f14 24be 10e8 ddbd
00000350: 2282 a03d 2dfd 89bd 5133 0fbe f818 1b3d
00000360: 9be8 15be 9cce 14be 9026 673d 1464 17be
00000370: d63f 14be 84aa 653d a112 1b3e 921a b7bd
00000380: a798 0cbe 8902 263e 80c5 56bc ecbd 873d
00000390: 2329 0b3e 209c 413c f024 c2bc dc11 35bd
000003a0: d46a 4b3d 03e7 2fbe d0fa 5c3c f23a e03d
000003b0: a7ac adbd e00a 8abb fea6 c53d 2d81 1a3e
000003c0: c7ac 013e c04e f23b bcbf 1b3d 0061 923b
000003d0: 0372 d2bd 3de8 253e 4e7a aa3d cc2f 513d
000003e0: 00b1 393d 0a55 d5bd ce50 02be 5221 7dbd
000003f0: 9085 54bc 41a1 b5bd 5880 0e3d 386c c1bc

emb_net.v_lins1.0.bias f4 [32]
-0.090944745 -0.122124515 0.12038796 0.1632656 0.16477899 0.01000163 -0.15359348 -0.033431917
0.00959456 -0.049966753 -0.15267603 0.15282233 -0.06263064 0.05235742 0.17034979 0.007848844
0.07596041 -0.150904 0.12071909 -0.07834817 0.01961343 0.09170611 -0.06280913 -0.15838861
0.17480983 0.08260198 -0.11445217 -0.17606851 0.0981995 -0.09149484 -0.08239515 -0.0023700893
00000000: 3d41 babd 6b1c fabd f68d f63d 192f 273e
00000010: d3bb 283e e0dd 233c 9c47 1dbe e8ef 08bd
00000020: 8032 1d3c f0a9 4cbd 1b57 1cbe 757d 1c3e
00000030: 7e44 80bd bc74 563d 2d70 2e3e 7098 003c
00000040: 2291 9b3d 9486 1abe 923b f73d 0175 a0bd
00000050: 58ac a03c 6ad0 bb3d 13a2 80bd a030 22be
00000060: 5901 333e 3a2b a93d e665 eabd 4e4b 34be
00000070: d21c c93d a661 bbbd cabe a8bd 8053 1bbb

emb_net.v_lins1.1.weight f4 [32, 32]
0.17075063 0.06010841 -0.041176498 -0.17064042 -0.08505748 0.124626175 0.13106354 0.03565514
0.16661747 0.036232382 0.08536826 0.07004562 0.051911265 0.017055377 0.065883264 -0.0042504817
0.13740711 -0.01253058 0.10521905 0.053791746 0.09441538 0.10959171 0.16084684 0.08629678
-0.07301229 -0.11603331 0.0039938986 -0.16390853 -0.06563485 0.007111728 -0.08931505 0.065598786
-0.117958784 0.03399904 -0.051635206 0.15282361 0.07916959 0.092233285 0.12801383 -0.089967355
0.029751629 -0.12131157 0.0999905 0.077626094 -0.08634288 -0.10806591 0.12184413 -0.06639697
0.11529921 -0.097811624 0.08585797 0.17439143 0.03777045 0.17263524 0.15247764 0.04630582
0.04443395 -0.15755124 0.06323798 -0.087274194 0.12368278 -0.11302495 0.1599931 -0.14290152
0.1300355 0.1366287 -0.10541814 0.13889702 0.07657792 0.054134548 0.090297416 0.113082305
0.05201912 -0.16614482 -0.062233046 0.11286874 -0.11322721 0.10128303 0.14014678 0.012965113
0.07624759 -0.15520638 -0.14326698 -0.093411915 -0.07251403 0.12706546 0.040448308 0.107636675
-0.1510673 -0.07701171 0.16507824 0.06615321 0.10232924 -0.032739446 0.15593351 0.008391917
-0.020798206 0.15841101 0.035057977 -0.08658939 -0.1474192 -0.114343554 -0.07310685 -0.015237942
0.059020445 0.05453497 0.14233755 0.0454998 -0.045128986 -0.1628358 0.047274306 -0.022135392
0.033998936 -0.16584234 0.04731454 -0.06416782 -0.08243097 0.07339455 0.027427122 0.13866822
0.012652174 0.16977607 0.030930057 0.040948525 -0.06898642 -0.074478075 -0.061237432 -0.08675941
-0.033217385 0.044454753 0.13338049 -0.06582796 0.1603222 0.11232518 -0.034932986 0.119412586
-0.12014547 -0.11480449 -0.12932152 0.0035634935 0.11253713 -0.03930959 -0.01474902 -0.107559495
-0.13638055 0.04892412 -0.17124043 0.008652493 0.135401 -0.1198425 0.08801551 0.13976859
-0.15863365 -0.16897044 -0.1476105 0.025499955 -0.11059742 -0.09711074 0.17176665 0.15811722
-0.16059846 0.099433824 0.0373227 -0.13848674 -0.12665752 -0.031447917 -0.061016053 -0.084154144
0.028255105 -0.03320986 -0.08678485 0.11388247 -0.15374151 0.15599348 -0.14821534 0.16068698
-0.16499448 0.12305267 -0.12981798 -0.012194976 0.15084384 -0.16483681 0.09780724 -0.14113098
0.015646026 0.022761703 -0.021263614 -0.17389861 0.15301917 0.14144643 0.096716926 0.09607704
0.08707403 0.1004888 0.13042642 -0.13289906 -0.17328916 -0.13441771 0.017415315 0.014610037
-0.10149142 0.15683992 -0.022793695 0.14075176 -0.029433355 -0.111667484 0.07508181 0.07017909
0.13157813 0.11869015 -0.046379596 0.12458415 -0.03405948 0.13044561 0.06744334 0.034150198
0.026936412 0.06373419 0.09871791 -0.08915622 0.07763861 -0.033728376 -0.14516017 -0.15496309
-0.10831645 0.16386725 -0.030160978 0.037762612 -0.09973784 0.073558524 0.16349067 0.0051173866
0.0984671 0.17113848 0.05666715 -0.12261662 0.10740779 -0.13267604 -0.10471074 -0.008210421
-0.09298612 0.16032107 0.07013853 -0.059618905 0.059137195 -0.077342354 0.14592002 0.03840278
0.124766186 -0.16719033 0.11749382 0.16158809 -0.09071359 0.14085986 -0.064816855 -0.12527269
00000000: 41d9 2e3e 3c34 763d b0a8 28bd 5dbc 2ebe
00000010: 9e32 aebd 023c ff3d 8535 063e 200b 123d
00000020: c59d 2a3e 6868 143d 8ed5 ae3d 1474 8f3d
00000030: e8a0 543d b8b7 8b3c ceed 863d a047 8bbb
00000040: 73b4 0c3e 104d 4dbc 167d d73d bc54 5c3d
00000050: da5c c13d 9e71 e03d 09b5 243e 5ebc b03d
00000060: 7887 95bd dfa2 edbd 40df 823b a3d7 27be
00000070: 906b 86bd 8009 e93b cfea b6bd a858 863d
00000080: 6094 f1bd 9442 0b3d 707f 53bd cb7d 1c3e
00000090: aa23 a23d cee4 bc3d 0f16 033e ce40 b8bd
000000a0: b0b9 f33c 3372 f8bd d2c7 cc3d 6efa 9e3d
000000b0: 89d4 b0bd a951 ddbd 6a89 f93d 22fb 87bd
000000c0: fe21 ec3d 7651 c8bd 4ed6 af3d ab93 323e
000000d0: 30b5 1a3d 4bc7 303e 1923 1c3e 2cab 3d3d
000000e0: 6000 363d 1d55 21be ea82 813d d0bc b2bd
000000f0: 664d fd3d a079 e7bd 3bd5 233e c754 12be
00000100: 0728 053e 65e8 0b3e 77e5 d7bd 053b 0e3e
00000110: e2d4 9c3d 30bc 5d3d daed b83d b297 e73d
00000120: 0012 553d de21 2abe 14e8 7ebd ba27 e73d
00000130: abe3 e7bd 7a6d cf3d a382 0f3e a06b 543c
00000140: b227 9c3d 6cee 1ebe 94b4 12be bf4e bfbd
00000150: 3c82 94bd 731d 023e 20ad 253d 9e70 dc3d
00000160: 63b1 1abe 51b8 9dbd 450a 293e 567b 873d
00000170: fe91 d13d cc19 06bd 09ad 1f3e 407e 093c
00000180: 0061 aabc 7f36 223e f498 0f3d c755 b1bd
00000190: 0ff5 16be f42c eabd 0bb9 95bd 90a8 79bc
000001a0: 6cbf 713d 1060 5f3d efc0 113e 005e 3a3d
000001b0: 2cd9 38bd 6ebe 26be b4a2 413d 4855 b5bc
000001c0: 7842 0b3d 93d2 29be e4cc 413d 6b6a 83bd
000001d0: 92d1 a8bd e24f 963d d8ae e03c 0bff 0d3e
000001e0: 104b 4f3c c7d9 2d3e 0861 fd3c a4b9 273d
000001f0: c148 8dbd f687 98bd 1ad4 7abd ebae b1bd
00000200: f40e 08bd 3016 363d e594 083e cfd0 86bd
00000210: 812b 243e be0a e63d e415 0fbd 968e f43d
00000220: d40e f6bd 9e1e ebbd dc6c 04be 8089 693b
00000230: de79 e63d 1803 21bd e0a5 71bc 2748 dcbd
00000240: 58a7 0bbe a864 483d a759 2fbe 30c3 0d3c
00000250: 8fa6 0a3e fc6f f5bd 7a41 b43d 7f1f 0f3e
00000260: dc70 22be 9606 2dbe 3527 17be 48e5 d03c
00000270: e680 e2bd ffe1 c6bd 99e3 2f3e 7be9 213e
00000280: ec73 24be f6a3 cb3d b0df 183d 78cf 0dbe
00000290: 82b2 01be 88cf 00bd f8eb 79bd 0259 acbd
000002a0: 4077 e73c 1007 08bd 41bc b1bd 363b e93d
000002b0: 6a6e 1dbe c1bc 1f3e c3c5 17be 218b 243e
000002c0: 50f4 28be 0a03 fc3d 01ef 04be 70cd 47bc
000002d0: cf76 1a3e fbca 28be 2a4f c83d a484 10be
000002e0: 182c 803c c076 ba3c 0831 aebc 7a12 32be
000002f0: 0fb1 1c3e 55d7 103e 8613 c63d 0ac4 c43d
00000300: de53 b23d 12cd cd3d 818e 053e b116 08be
00000310: b772 31be cca4 09be 90aa 8e3c f05e 6f3c
00000320: bcda cfbd a59a 203e d8b9 babc 3b21 103e
00000330: 381e f1bc ecb1 e4bd 7ec4 993d 0eba 8f3d
00000340: 6bbc 063e d213 f33d 88f8 3dbd fa25 ff3d
00000350: f481 0bbd 8993 053e bc1f 8a3d 14e1 0b3d
00000360: c0a9 dc3c 1287 823d 9e2c ca3d 8997 b6bd
00000370: fe00 9f3d c426 0abd dea4 14be a5ae 1ebe
00000380: 04d5 ddbd d1cc 273e 2814 f7bc f8ac 1a3d
00000390: 5a43 ccbd daa5 963d 196a 273e c0af a73b
000003a0: 1ea9 c93d ed3e 2f3e d01b 683d 6c1e fbbd
000003b0: 9ef8 db3d 3adc 07be 9672 d6bd 0085 06bc
000003c0: 826f bebd 352b 243e caa4 8f3d f432 74bd
000003d0: d839 723d ab65 9ebd 0f6c 153e 3c4c 1d3d
000003e0: 6a85 ff3d f133 2bbe 9aa0 f03d 5977 253e
000003f0: 0cc8 b9bd 913d 103e b3be 84bd 7c47 00be

emb_net.v_lins1.1.bias f4 [32]
0.17206575 0.07571764 -0.035935014 0.15142153 -0.037044704 0.14925389 -0.007884622 0.12800656
-0.17084892 0.114384934 -0.16311508 0.03731893 0.08504923 0.018621132 0.040808916 -0.10534042
-0.111916505 0.031739667 -0.0751437 0.1633067 0.01836501 -0.09540767 -0.02577351 -0.0641703
-0.10363627 -0.06066794 -0.090506665 -0.012523234 0.07163286 -0.13715984 0.022926554 0.16295306
00000000: 0132 303e da11 9b3d 9830 13bd 3f0e 1b3e
00000010: 30bc 17bd 03d6 183e 802e 01bc 2714 033e
00000020: 05f3 2ebe a642 ea3d a407 27be bcdb 183d
00000030: 4a2e ae3d 588b 983c 4027 273d b8bc d7bd
00000040: 7b34 e5bd 7401 023d f1e4 99bd df39 273e
00000050: 3872 963c 1965 c3bd f822 d3bc b86b 83bd
00000060: 413f d4bd f27e 78bd 8f5b b9bd 402e 4dbc
00000070: 40b4 923d a173 0cbe 78d0 bb3c 2bdd 263e

emb_net.v_lins1.2.weight f4 [32, 32]
0.06900686 0.14459924 -0.053730488 -0.12880963 -0.16647205 0.12281881 -0.05902236 -0.051461235
0.02091457 0.12800504 -0.07765064 0.009630278 0.009002313 0.024398983 -0.14423136 0.15733795
0.09322749 -0.17677608 -0.07177294 -0.11667885 -0.01749073 -0.05319179 0.13128288 -0.17065714
0.044136897 0.11718814 0.03932455 -0.1638569 -0.033514604 0.09463434 0.16900559 0.11173676
0.065789044 0.16109441 0.121521994 -0.1236736 0.11039822 -0.1637187 -0.087616615 -0.09733153
-0.13566963 0.04808703 -0.14079091 -0.049750715 0.16238926 0.021897882 -0.16664796 -0.054466665
-0.14391944 0.071816504 -0.15244405 -0.081280135 -0.13084249 0.060206726 -0.17032534 0.14179929
0.050156966 0.15633337 0.07158239 0.11735715 0.019824356 -0.13293491 0.036111623 -0.042860523
-0.08341011 -0.006785184 0.061855197 0.109136924 0.06326775 0.09222059 0.1731853 0.13803296
0.066246286 0.14554657 0.026944622 0.106990054 -0.16476782 -0.0044746697 -0.10098623 -0.113988176
0.0894057 0.04041502 0.11989556 -0.13311666 0.13179989 0.16350223 -0.09525234 -0.07629149
-0.14154097 0.15477087 0.1580937 0.032083705 -0.06838507 0.05133392 -0.0795805 0.06738217
-0.14101341 0.027833879 -0.08452283 -0.042014375 -0.05230055 0.04083574 -0.037400395 -0.0054968297
-0.053148948 -0.020337135 0.120070204 0.07624452 0.15475671 0.028000757 0.15498386 0.111687794
0.1182753 -0.14788526 -0.16766651 -0.17208822 0.097419456 -0.14853019 0.07411225 -0.017232582
0.002394572 -0.16362387 -0.09740866 -0.0554512 0.001821205 -0.1432163 -0.11705771 -0.15749961
-0.1637796 -0.025026917 -0.02125813 -0.09723558 0.14777742 0.1600921 -0.031981453 0.056471363
0.089133784 0.16728245 -0.14571121 0.0061048716 -0.06962482 -0.05068752 0.12166883 0.09732126
0.1170357 -0.10020061 -0.17538448 0.00593476 -0.08819875 -0.12749022 -0.1502434 -0.17109342
-0.021808997 -0.15142532 -0.12082774 -0.0065757334 -0.15431048 0.11754541 0.16608258 -0.047958985
-0.052227743 -0.07467085 0.006952226 0.13491048 0.107605025 0.07039145 0.027616426 0.010373667
0.15618698 0.068381265 -0.16311766 -0.026162595 -0.028820962 -0.102097705 -0.15434934 -0.12528926
-0.057305254 -0.1164642 0.0080432 0.006545931 -0.005771026 0.040312007 0.024804726 0.12805243
0.13553156 0.042186588 -0.018966004 0.016439691 0.11829667 0.03043276 -0.11678782 -0.10855058
-0.14119852 0.1378481 0.101633295 -0.11760107 0.15187268 -0.04476139 0.16008927 0.037305117
0.17512693 0.016198516 -0.022496939 0.052688822 -0.030696884 -0.055652425 0.14578612 -0.14125931
0.16880102 -0.06786673 0.09209515 -0.051244095 -0.14661786 -0.07451215 0.13464506 0.018346727
-0.04366952 -0.09167757 -0.05397901 0.11599983 0.056127146 -0.091432236 0.042085826 -0.12186772
-0.12407309 -0.064414226 -0.12958299 -0.025139287 -0.098314136 -0.055126138 0.09756638 -0.07070174
-0.027568698 -0.17531028 -0.0583006 0.042863443 -0.11379181 -0.018981338 -0.15386373 -0.06830543
0.038309023 0.003153652 -0.0010429025 0.0420859 0.055488154 -0.078420594 0.013989359 0.036303982
-0.16462584 0.1746128 -0.06639496 0.10667001 0.042096004 -0.027850538 0.09461589 -0.13862665
00000000: 7853 8d3d d311 143e 8014 5cbd ace6 03be
00000010: a677 2abe 6e88 fb3d 6ec1 71bd 04c9 52bd
00000020: 0855 ab3c c113 033e 4c07 9fbd 50c8 1d3c
00000030: 707e 133c 60e0 c73c 63b1 13be 331d 213e
00000040: 0eee be3d ca04 35be b1fd 92bd 52f5 eebd
00000050: b848 8fbc a2df 59bd 056f 063e bfc0 2ebe
00000060: e4c8 343d 5600 f03d c812 213d 1aca 27be
00000070: 9c46 09bd a6cf c13d cd0f 2d3e 3ed6 e43d
00000080: 68bc 863d eff5 243e 86e0 f83d 9648 fdbd
00000090: 7618 e23d e0a5 27be 5770 b3bd c155 c7bd
000000a0: fbec 0abe e8f6 443d 7e2b 10be 68c7 4bbd
000000b0: 5f49 263e 3063 b33c c3a5 2abe 7018 5fbd
000000c0: 9e5f 13be 8814 933d 4b1a 1cbe 3376 a6bd
000000d0: 93fb 05be 549b 763d c469 2ebe d533 113e
000000e0: 6471 4d3d db15 203e ca99 923d f258 f03d
000000f0: b066 a23c 1720 08be c8e9 133d 848e 2fbd
00000100: ebd2 aabd 4056 debb e05b 7d3d 2e83 df3d
00000110: 8692 813d 26de bc3d 7d57 313e 8358 0d3e
00000120: 22ac 873d 290a 153e f8ba dc3c 9a1d db3d
00000130: e5b8 28be 40a0 92bb ded1 cebd a272 e9bd
00000140: 561a b73d 388a 253d ce8b f53d bc4f 08be
00000150: 8df6 063e 216d 273e a913 c3bd b63e 9cbd
00000160: 1ef0 10be 417c 1e3e 51e3 213e 346a 033d
00000170: 790d 8cbd 8443 523d 1afb a2bd aaff 893d
00000180: d265 10be e003 e43c 4e1a adbd 4417 2cbd
00000190: 1a39 56bd 6043 273d 2831 19bd c01e b4bb
000001a0: b6b2 59bd 109a a6bc 5ee7 f53d 1626 9c3d
000001b0: 8b78 1e3e d861 e53c 17b4 1e3e 92bc e43d
000001c0: 523a f23d 3c6f 17be c5b0 2bbe e537 30be
000001d0: da83 c73d 4c18 18be 2ac8 973d 582b 8dbc
000001e0: 40ee 1c3b 048d 27be 317e c7bd cc20 63bd
000001f0: 80b5 ee3a 4ba7 12be f4bb efbd 9447 21be
00000200: d7b5 27be 4005 cdbc 8825 aebc 7323 c7bd
00000210: f752 173e 2fef 233e fcfe 02bd 844e 673d
00000220: c68b b63d 174c 2b3e 5235 15be 600b c83b
00000230: 7597 8ebd b89d 4fbd 822d f93d 5e50 c73d
00000240: 6ab0 ef3d fa35 cdbd fd97 33be 6078 c23b
00000250: 8ca1 b4bd cc8c 02be 68d9 19be 1d33 2fbe
00000260: c8a8 b2bc 3d0f 1bbe 8974 f7bd 4079 d7bb
00000270: 9103 1ebe a6bb f03d 8d11 2a3e a470 44bd
00000280: c2ec 55bd 08ed 98bd 80cf e33b f925 0a3e
00000290: 0660 dc3d 6429 903d d83b e23c 50f6 293c
000002a0: 7bef 1f3e 7a0b 8c3d 5108 27be f052 d6bc
000002b0: f019 ecbc 9a18 d1bd c10d 1ebe d44b 00be
000002c0: eab8 6abd c884 eebd a0c7 033c 407f d63b
000002d0: e01a bdbb 341e 253d 4833 cb3c 2d20 033e
000002e0: c9c8 0a3e d8cb 2c3d 985e 9bbc 88ac 863c
000002f0: 8645 f23d 204e f93c 742e efbd c44f debd
00000300: 5896 10be 0d28 0d3e 1e25 d03d d4d8 f0bd
00000310: 8384 1b3e b857 37bd 71ee 233e 40cd 183d
00000320: 7954 333e c0b2 843c 804b b8bc 3cd0 573d
00000330: 0878 fbbc ccf3 63bd f548 153e 48a6 10be
00000340: 2dda 2c3e b6fd 8abd 629c bc3d 54e5 51bd
00000350: fe22 16be d399 98bd 65e0 093e e04b 963c
00000360: d0de 32bd 73c1 bbbd 1819 5dbd 5291 ed3d
00000370: 94e5 653d d340 bbbd 3062 2c3d c895 f9bd
00000380: 081a febd 9beb 83bd 67b1 04be e8f0 cdbc
00000390: ec58 c9bd f2cb 61bd e2d0 c73d 13cc 90bd
000003a0: c0d7 e1bc 8a84 33be 9ccc 6ebd 9491 2f3d
000003b0: ae0b e9bd c07e 9bbc 748e 1dbe b8e3 8bbd
000003c0: ece9 1c3d 80ad 4e3b 00b2 88ba 4462 2c3d
000003d0: 8c47 633d fa9a a0bd a033 653c 7cb3 143d
000003e0: ad93 28be b3cd 323e 15fa 87bd ce75 da3d
000003f0: dc6c 2c3d d026 e4bc fac5 c13d 25f4 0dbe

emb_net.v_lins1.2.bias f4 [32]
-0.070156336 0.13389872 0.12305786 -0.056402512 -0.057250805 -0.15700497 0.1767502 -0.059246793
-0.121087536 -0.15358225 -0.03350699 0.023751453 0.0750279 0.13339506 0.088507846 0.037801743
0.07097238 -0.16321138 -0.05627293 -0.022293076 0.1397432 0.020641193 -0.11618306 -0.0780178
0.052983537 -0.14014319 -0.07280221 0.040269077 0.027762115 0.1159765 0.0131753385 -0.14431192
00000000: 20ae 8fbd bf1c 093e c205 fc3d 5206 67bd
00000010: d27f 6abd e9c5 20be 01fe 343e c4ac 72bd
00000020: befc f7bd aa44 1dbe a03e 09bd 6892 c23c
00000030: 3aa8 993d b798 083e 9a43 b53d 00d6 1a3d
00000040: f859 913d e220 27be 727e 66bd f89f b6bc
00000050: d718 0f3e b817 a93c 62f1 edbd ccc7 9fbd
00000060: 4405 593d b281 0fbe 5319 95bd 30f1 243d
00000070: 606d e33c 1685 ed3d 60dd 573c 81c6 13be

emb_net.v_lins1.3.weight f4 [32, 32]
-0.10487969 -0.036782265 -0.13287622 0.048693955 0.059659287 0.016417414 -0.027527705 0.15221651
-0.0750134 -0.032235473 0.015294641 -0.09312121 0.116613194 0.108283386 0.137774 -0.096778855
0.061476946 0.08736001 0.16793634 0.015368104 0.14083497 -0.06824715 -0.08017833 -0.036820546
-0.15396148 -0.1565195 0.027962282 -0.083047494 0.0038685352 0.13236527 -0.1171373 0.123424694
0.15940972 -0.030461818 0.1606989 0.14593817 0.1011212 -0.015068993 0.13717733 -0.12273292
-0.11083394 -0.04016839 -0.17286043 -0.027846396 0.10674067 -0.14244206 0.040059805 -0.096142836
0.054243416 0.1473021 0.11693226 -0.08416251 -0.033713624 -0.1283701 -0.16080247 -0.08686836
-0.077354304 -0.06788894 -0.13928267 0.07341938 -0.07463412 -0.056366116 0.10739334 0.03586705
0.08334856 0.1089191 0.047601193 0.109469965 0.05343297 0.096667245 0.05292417 0.11507924
0.06924325 0.09167151 0.13607989 0.016615242 -0.041536078 -0.09010967 -0.096497335 0.04937303
-0.045608446 0.036496237 0.09716822 0.13560958 0.17604156 0.10157175 0.12593292 0.16255225
-0.14661835 -0.15914237 0.09679325 0.16811939 -0.15964971 -0.15323599 -0.02429089 0.112650946
-0.0050777495 -0.04866585 -0.17638597 -0.017184362 -0.12522745 0.11742757 -0.16636789 0.14509206
0.105541304 -0.02846095 0.17381622 -0.028946564 0.058161065 -0.015131056 0.04922828 -0.007989466
-0.022970662 0.117772415 0.16724245 -0.016112953 -0.05478987 -0.16025372 -0.07825962 -0.12601241
0.17088805 -0.06176652 0.09503277 -0.17655262 0.102430865 -0.10511909 -0.022478476 -0.060242683
-0.08580259 0.011738464 -0.16864029 -0.13601276 -0.071080804 0.044189766 0.06737663 -0.065564245
-0.052248433 0.07371257 -0.00092853606 -0.070771724 0.13479497 0.16887029 0.061952353 -0.05841197
-0.11542888 -0.018698096 -0.14330442 -0.121064946 -0.117725186 -0.1457227 0.0625065 -0.0055568516
0.028632969 0.0323323 0.09523849 0.14464717 0.08607839 -0.040571466 -0.033752203 -0.17562506
0.1418115 -0.17643541 0.0038389266 -0.15078816 -0.11952374 0.1741872 0.12478824 -0.009270817
-0.14268383 0.037585944 0.16653223 0.15986831 0.039655983 0.043713465 0.11827026 -0.16579118
-0.11736943 -0.12899342 -0.017566696 -0.073347 0.017847404 -0.11542519 0.15000163 0.088372305
0.044153452 0.14111276 0.06472984 0.1615559 0.13279758 -0.15840077 0.084642574 0.14661984
-0.17294839 0.051161975 0.043647587 0.04694082 -0.15052673 -0.052095316 -0.102849014 -0.060525842
-0.06542792 -0.009376287 0.1511652 -0.012069359 -0.15062225 -0.17567508 -0.08045981 -0.020884797
-0.12968016 -0.060849592 -0.043990925 0.14641856 0.036556095 0.13212098 -0.09059092 -0.11923061
0.09376706 -0.017956704 -0.0944185 0.09085111 0.030042127 -0.14682849 -0.16638117 -0.08094962
0.15872662 -0.012365386 -0.064468876 -0.04633729 0.08638297 0.056108028 -0.17446955 0.029928878
-0.06811759 -0.11819455 -0.12464062 -0.06616773 -0.008114725 0.09855573 0.14657958 -0.1108037
0.10358213 -0.024930865 -0.055784345 0.14562596 0.06895363 0.045544386 0.052813143 0.11145501
-0.049601093 -0.079734944 0.017724797 0.08242808 0.09788458 -0.10808178 0.0019922554 -0.052566707
00000000: 2acb d6bd 00a9 16bd b410 08be 5073 473d
00000010: 4c5d 743d d07d 863c c881 e1bc a5de 1b3e
00000020: a0a0 99bd 5809 04bd 6096 7a3c 55b6 bebd
00000030: e6d2 ee3d aec3 dd3d a114 0d3e fe33 c6bd
00000040: 40cf 7b3d cee9 b23d 81f7 2b3e 80ca 7b3c
00000050: 0b37 103e 29c5 8bbd 8934 a4bd 24d1 16bd
00000060: 14a8 1dbe a646 20be 2811 e53c ce14 aabd
00000070: 4087 7d3b c38a 073e aee5 efbd 16c6 fc3d
00000080: 4d3c 233e 108b f9bc 418e 243e d170 153e
00000090: a218 cf3d f0e3 76bc 3778 0c3e 665b fbbd
000000a0: e8fc e2bd 9c87 24bd 5302 31be 201e e4bc
000000b0: da9a da3d 55dc 11be c015 243d 89e6 c4bd
000000c0: 582e 5e3d 5dd6 163e 2e7a ef3d 655d acbd
000000d0: 4c17 0abd 7473 03be 67a9 24be 0ae8 b1bd
000000e0: ef6b 9ebd 5b09 8bbd 1ea0 0ebe e65c 963d
000000f0: c6d9 98bd 28e0 66bd 0af1 db3d 54e9 123d
00000100: a6b2 aa3d fa10 df3d 78f9 423d ca31 e03d
00000110: 88dc 5a3d 7af9 c53d 04c7 583d aaae eb3d
00000120: 68cf 8d3d 46be bb3d 8758 0b3e b01c 883c
00000130: bc21 2abd 6b8b b8bd 65a0 c5bd 603b 4a3d
00000140: eccf 3abd 147d 153d 2200 c73d 3ddd 0a3e
00000150: 3d44 343e da04 d03d 8ff4 003e 1974 263e
00000160: 1f23 16be 38f6 22be 8a3b c63d 7d27 2c3e
00000170: 377b 23be e5e9 1cbe b0fd c6bc 8ab5 e63d
00000180: 4063 a6bb d855 47bd 869e 34be 38c6 8cbc
00000190: a03b 00be de7d f03d 585c 2abe 0393 143e
000001a0: 0a26 d83d f026 e9bc e1fc 313e 5821 edbc
000001b0: 4c3a 6e3d 40e8 77bc 98a3 493d 40e6 02bc
000001c0: f82c bcbc aa32 f13d 9b41 2b3e 50ff 83bc
000001d0: 586b 60bd 8d19 24be 9446 a0bd 6609 01be
000001e0: 47fd 2e3e e4fe 7cbd 8aa0 c23d 36ca 34be
000001f0: 46c7 d13d ad48 d7bd c824 b8bc 08c1 76bd
00000200: 45b9 afbd b052 403c 0ab0 2cbe ee46 0bbe
00000210: d092 91bd 5400 353d c2fc 893d 8c46 86bd
00000220: 7402 56bd 9ef6 963d 0069 73ba c4f0 90bd
00000230: b107 0a3e 55ec 2c3e c0c1 7d3d 6441 6fbd
00000240: fa65 ecbd c02c 99bc 65be 12be e6f0 f7bd
00000250: e719 f1bd 5538 15be 6803 803d 4016 b6bb
00000260: b08f ea3c e06e 043d 660c c33d 631e 143e
00000270: de49 b03d 442e 26bd c03f 0abd 0ed7 33be
00000280: 0937 113e 7cab 34be 8096 7b3b 3668 1abe
00000290: ddc8 f4bd 215e 323e fa90 ff3d a0e4 17bc
000002a0: b61b 12be b8f3 193d 6d87 2a3e 85b4 233e
000002b0: 506e 223d e40c 333d ae37 f23d 2ac5 29be
000002c0: 625f f0bd da16 04be 08e8 8fbc f436 96bd
000002d0: b834 923c 0b64 ecbd 079a 193e 8afc b43d
000002e0: 40da 343d dd7f 103e 1491 843d e96e 253e
000002f0: 17fc 073e d033 22be 1659 ad3d 8323 163e
00000300: 6219 31be 388f 513d d0c7 323d 0445 403d
00000310: ae23 1abe e661 55bd 81a2 d2bd f2e9 77bd
00000320: 13ff 85bd 009f 19bc 0dcb 1a3e 90be 45bc
00000330: b83c 1abe 2be4 33be 1dc8 a4bd 9816 abbc
00000340: e0ca 04be 6c3d 79bd d42f 34bd bfee 153e
00000350: d8bb 153d b94a 073e bb87 b9bd 2e2f f4bd
00000360: f208 c03d f019 93bc 7d5e c1bd 2610 ba3d
00000370: e81a f63c 355a 16be d35f 2abe eac8 a5bd
00000380: 3b89 223e 3098 4abc 4208 84bd 2ccc 3dbd
00000390: 8ee9 b03d 88d1 653d 25a8 32be 682d f53c
000003a0: 3c81 8bbd fc0f f2bd 9543 ffbd f282 87bd
000003b0: a0f3 04bc 96d7 c93d f518 163e 0ded e2bd
000003c0: de22 d43d d03b ccbc 207e 64bd f91e 153e
000003d0: 9037 8d3d c08c 3a3d 9852 583d 8642 e43d
000003e0: 842a 4bbd 134c a3bd 9833 913c 0ed0 a83d
000003f0: b677 c83d fb59 ddbd 8090 023b 3050 57bd

emb_net.v_lins1.3.bias f4 [32]
0.03985983 -0.17677195 0.12554537 0.111176565 0.14970808 -0.016176194 -0.07261297 -0.15895262
-0.002389416 -0.09898261 -0.1503469 0.11846213 -0.11371241 -0.058316804 0.028023496 0.105034366
-0.08152286 0.11010347 -0.048137575 0.08536099 0.003915414 0.13606067 0.1258171 -0.097673655
-0.11951272 0.15762486 -0.13592419 -0.15798646 0.14986874 -0.09803563 0.16821663 0.026491612
00000000: 1044 233d b503 35be f78e 003e 8ab0 e33d
00000010: 134d 193e f083 84bc 1cb6 94bd 7ac4 22be
00000020: c097 1cbb 65b7 cabd 8af4 19be 469c f23d
00000030: 0de2 e8bd 9add 6ebd 8891 e53c 421c d73d
00000040: 75f5 a6bd ee7d e13d e82b 45bd bed1 ae3d
00000050: e04c 803b 7d53 0b3e 33d6 003e 2009 c8bd
00000060: 16c3 f4bd 6968 213e b62f 0bbe 34c7 21be
00000070: 3177 193e e8c6 c8bd fb40 2c3e f004 d93c

emb_net.v_lins1.4.weight f4 [32, 32]
-0.05999673 0.022082776 0.016373485 -0.018063933 -0.16187732 0.17523916 0.017519102 -0.1698603
0.14263843 -0.06669241 0.025438085 0.08260052 -0.051487938 -0.12452337 -0.1394436 -0.053398855
0.063046336 0.043713212 -0.09790169 0.105560794 -0.015524313 -0.11734515 -0.074843995 -0.100317106
-0.1519283 -0.08456925 -0.10839084 0.068764776 -0.00425452 -0.07977943 -0.17350967 0.07481696
-0.020224541 -0.08058416 0.059680358 -0.11522502 -0.12351598 -0.11900934 -0.12100147 0.007357195
0.13556884 0.0031210333 0.16074629 -0.022144571 -0.1676895 0.1118667 0.16105445 -0.05390116
0.0822217 0.15888123 0.046288535 0.16281308 0.0033888817 -0.13129948 -0.051141053 0.04584323
-0.06980376 0.11435802 0.033876345 -0.007956848 0.06575781 0.04929459 -0.064140946 -0.08045157
-0.088902645 0.1044669 0.07717146 -0.034302354 0.089492515 0.08420445 0.12931977 0.010828853
0.08094491 0.14582188 0.0669909 -0.0020157546 0.12463854 -0.02084294 0.02956009 0.13796856
-0.07777501 -0.050534725 -0.1035063 -0.035349384 -0.04507038 -0.095866986 0.12484418 -0.045203984
0.0065078735 -0.043623775 0.035974026 -0.064240165 0.078702584 -0.13734005 -0.027971178 -0.04785776
0.026843667 0.07330404 -0.1384686 0.12281339 0.08468495 0.03347659 0.12688853 0.023277804
-0.1651179 0.14823307 -0.032123134 -0.13112323 0.028506756 -0.044627562 -0.048758313 0.05291453
0.12948917 0.04438573 -0.17659685 0.047677815 -0.007133499 -0.074420035 -0.06160084 -0.05703082
-0.09274766 0.009839207 -0.00049857795 0.13264735 -0.04009731 -0.06648151 -0.07251079 -0.024137333
0.11431451 0.12846099 0.08505608 -0.045540884 0.07457565 0.122124 -0.13919874 0.06299187
0.017541721 -0.044561088 0.10696532 0.036831707 -0.14525834 0.17626761 0.077487394 -0.02680698
0.051583573 -0.014776215 -0.10850251 -0.12509121 0.10927485 0.07697196 0.08405377 -0.08403409
0.016186237 0.031147137 0.061148062 0.034933716 -0.059754454 -0.08861238 0.17247055 -0.09328722
0.033053502 -0.017993212 -0.10393742 -0.13376816 -0.09892982 -0.0075208247 0.08375774 0.157836
0.09176628 0.0377288 -0.04538612 0.045285523 0.0802135 -0.16133447 -0.071066685 -0.15572122
-0.14214507 -0.15064177 -0.14907622 -0.0655103 -0.029341206 0.11181615 -0.1327418 -0.039408624
-0.09117851 0.12467025 -0.035997406 -0.17238413 0.15451701 -0.08295008 -0.02654457 0.0792955
0.09518565 0.005828932 0.115184024 -0.07661939 -0.074269935 -0.1379272 0.07927553 0.1391402
-0.14744122 -0.027254745 0.040777072 -0.16428357 0.035513878 0.13991342 -0.041128963 0.06353232
-0.08944166 0.12714644 -0.07290349 -0.11228548 0.04445532 0.10647456 -0.04869075 -0.08856671
-0.07908114 0.09513892 -0.070703 -0.124757916 -0.06387209 0.11910443 0.124166206 -0.12055065
-0.15493472 0.065972805 0.15622969 0.07501154 0.10808344 -0.08523009 -0.075981155 -0.17532067
0.088529125 -0.1542076 -0.0102045685 -0.1195744 0.13293202 -0.11408324 -0.054817304 0.09941836
-0.0054835826 0.10292782 -0.13492844 0.08289768 0.12539421 0.11687957 0.085798725 0.002200991
0.13103758 -0.08890463 0.16391517 0.15613069 -0.13756381 0.112497374 0.12864529 0.14368807
00000000: 22bf 75bd f0e6 b43c b021 863c d0fa 93bc
00000010: 2bc3 25be e571 333e 3884 8f3c dcef 2dbe
00000020: cf0f 123e 0896 88bd 8863 d03c 762a a93d
00000030: 04e5 52bd 1c06 ffbd 4eca 0ebe c2b8 5abd
00000040: 701e 813d a00c 333d ae80 c8bd 4230 d83d
00000050: b059 7ebc a752 f0bd cf47 99bd 0e73 cdbd
00000060: 1893 1bbe a532 adbd 04fc ddbd 8cd4 8c3d
00000070: 8069 8bbb 6663 a3bd 85ac 31be a239 993d
00000080: f0ad a5bc 4f09 a5bd 6473 743d 18fb ebbd
00000090: f2f5 fcbd 2bbb f3bd 9ecf f7bd a014 f13b
000000a0: 8fd2 0a3e 408a 4c3b ad9a 243e 8868 b5bc
000000b0: ccb6 2bbe 5e1a e53d 75eb 243e 76c7 5cbd
000000c0: da63 a83d c3b1 223e 0c99 3d3d 79b8 263e
000000d0: 0018 5e3b 5f73 06be 4879 51bd 1cc6 3b3d
000000e0: 46f5 8ebd 8a34 ea3d ecc1 0a3d 705d 02bc
000000f0: 08ac 863d 20e9 493d 545c 83bd cbc3 a4bd
00000100: 9712 b6bd bef2 d53d 120c 9e3d a080 0cbd
00000110: da47 b73d 6273 ac3d 676c 043e 806b 313c
00000120: 72c6 a53d 5552 153e 8632 893d c01a 04bb
00000130: 7e42 ff3d d0be aabc 0028 f23c a147 0d3e
00000140: 8148 9fbd 80fd 4ebd 1cfb d3bd 84ca 10bd
00000150: b89b 38bd e955 c4bd 4eae ff3d d027 39bd
00000160: 0040 d53b d8ae 32bd 8059 133d 5990 83bd
00000170: d22e a13d dfa2 0cbe d023 e5bc 8006 44bd
00000180: 40e7 db3c 6e20 963d b6ca 0dbe 9685 fb3d
00000190: 4e6f ad3d c01e 093d 11ef 013e 18b1 be3c
000001a0: ab14 29be 69ca 173e 8c93 03bd 2b45 06be
000001b0: 0087 e93c 64cb 36bd ccb6 47bd e8bc 583d
000001c0: cf98 043e d0cd 353d ced5 34be d049 433d
000001d0: 20c0 e9bb 8869 98bd 2a51 7cbd 2699 69bd
000001e0: 7cf2 bdbd a034 213c 00b3 02ba b5d4 073e
000001f0: 143d 24bd 7527 88bd 8980 94bd a8bb c5bc
00000200: ba1d ea3d 478b 033e e231 ae3d 1489 3abd
00000210: 1ebb 983d 261c fa3d 1d8a 0ebe e201 813d
00000220: a8b3 8f3c b085 36bd a210 db3d d8dc 163d
00000230: 9abe 14be 7f7f 343e b6b1 9e3d 509a dbbc
00000240: 4c49 533d f017 72bc 9036 debd e917 00be
00000250: 7ecb df3d 7aa3 9d3d 6224 ac3d 111a acbd
00000260: 0099 843c 4828 ff3c 6476 7a3d a816 0f3d
00000270: 16c1 74bd 687a b5bd 1f9c 303e 5f0d bfbd
00000280: 1c63 073d 8066 93bc 24dd d4bd 85fa 08be
00000290: b89b cabd 4071 f6bb 2e89 ab3d c39f 213e
000002a0: f6ef bb3d 8489 1a3d cce6 39bd 507d 393d
000002b0: fa46 a43d dd34 25be 698b 91bd 6275 1fbe
000002c0: 7a8e 11be d641 1abe 70a7 18be 442a 86bd
000002d0: f85c f0bc deff e43d 77ed 07be f06a 21bd
000002e0: ccbb babd 1e53 ff3d 0472 13bd 7785 30be
000002f0: b539 1e3e bbe1 a9bd 0074 d9bc ae65 a23d
00000300: b2f0 c23d a000 bf3b 9ae5 eb3d a0ea 9cbd
00000310: d61a 98bd ca3c 0dbe 365b a23d c57a 0e3e
00000320: d5fa 16be 5845 dfbc dc05 273d f439 28be
00000330: 0077 113d 7745 0f3e d876 28bd 3c1d 823d
00000340: 302d b7bd ad32 023e 6d4e 95bd eef5 e5bd
00000350: c816 363d 560f da3d f46f 47bd 7762 b5bd
00000360: 4bf5 a1bd 32d8 c23d bccc 90bd 1481 ffbd
00000370: 5fcf 82bd 06ed f33d da4a fe3d 42e3 f6bd
00000380: 35a7 1ebe c01c 873d adfa 1f3e a69f 993d
00000390: da5a dd3d 1d8d aebd 029c 9bbd 4387 33be
000003a0: c24e b53d 99e8 1dbe 1031 27bc 6ce3 f4bd
000003b0: 551f 083e 79a4 e9bd 1c88 60bd da9b cb3d
000003c0: a0af b3bb d2cb d23d ae2a 0abe 42c6 a93d
000003d0: 5767 003e 8e5e ef3d 3eb7 af3d 803e 103b
000003e0: b72e 063e a113 b6bd 61d9 273e b9e0 1f3e
000003f0: 87dd 0cbe 0665 e63d 97bb 033e f722 133e

emb_net.v_lins1.4.bias f4 [32]
0.10614301 0.04905665 -0.13699584 0.07860015 0.11584963 0.09779622 -0.1256483 -0.12839748
0.07438581 0.06789842 0.06949496 0.052048147 -0.14112215 -0.105586916 0.015586048 -0.03030634
-0.0005494058 0.14603074 -0.01253818 -0.05809789 0.083929315 -0.13685088 -0.1194382 -0.104729965
0.105929 0.020976007 -0.000418514 -0.12663895 -0.04847616 0.08104743 -0.16537382 -0.13430293
00000000: 8261 d93d a0ef 483d a348 0cbe 1ef9 a03d
00000010: 9242 ed3d 6249 c83d f3a9 00be a17a 03be
00000020: 9657 983d 540e 8b3d 6053 8e3d 7030 553d
00000030: 5382 10be f43d d8bd a05c 7f3c 0045 f8bc
00000040: 0006 10ba 1589 153e f06c 4dbc 0ef8 6dbd
00000050: 22e3 ab3d a322 0cbe 049c f4bd aa7c d6bd
00000060: 4ef1 d83d e0d5 ab3c 006c dbb9 a4ad 01be
00000070: f08e 46bd 32fc a53d c157 29be b586 09be

emb_net.v_lins1.5.weight f4 [32, 32]
0.061064944 -0.025880083 -0.08461911 0.07653864 -0.05410081 0.1563315 -0.07023296 -0.1506493
-0.030053154 -0.10104199 -0.0010722429 0.027439564 -0.04605548 -0.078863874 0.011737093 -0.14415349
-0.16183333 -0.1656869 0.17120822 0.16354765 0.050052643 0.06382769 0.12805457 0.17010204
0.024962023 -0.13471955 -0.11646466 0.13721733 -0.11986616 0.17028196 0.10459186 0.15013517
-0.13048822 -0.03338696 -0.01911597 -0.1613725 -0.13012561 0.14033543 0.12317456 0.12163122
0.14349021 0.095263794 0.15210615 0.026063144 0.108508185 -0.018158838 0.15726323 0.0110770315
0.012736574 0.0691351 0.08208428 0.03801018 -0.051027477 -0.036909834 -0.12978153 -0.16211212
-0.08108084 0.11579685 -0.17085645 0.11593677 0.00820367 0.0017313361 0.014816433 -0.05002448
0.09315197 0.02340594 -0.017071038 0.007413715 0.087708995 -0.08199973 -0.13242242 0.16771509
-0.02790688 0.095278606 -0.14136891 -0.10106058 0.1354977 -0.034509674 0.15006573 -0.16030414
0.069393516 0.09705959 0.031854674 -0.12165928 -0.10801552 0.11952017 -0.12179963 -0.05770108
0.06617278 -0.0058516413 -0.14933473 -0.038788587 -0.049956843 0.14392374 -0.0529133 0.16751917
-0.1196454 0.029761046 0.023739234 -0.059215665 -0.14530815 -0.12687075 -0.01123178 0.16246931
-0.13518384 -0.11131787 0.12771334 -0.14521673 -0.1408921 -0.15379602 0.02609177 0.03200707
0.08247404 0.05121845 -0.00931564 0.04099135 0.050838694 -0.05717566 0.15181844 -0.083767384
-0.14857952 0.07581742 -0.12503251 0.1743121 0.12823163 -0.13237429 0.13734894 -0.12710422
0.13179676 0.008301973 -0.10872443 -0.047782958 0.096222416 0.09088339 -0.022334456 0.07594313
0.054541156 0.13345365 0.14375313 -0.13665369 0.035633728 -0.16587855 -0.15283138 -0.012028262
-0.0409787 -0.034574747 0.047317445 -0.06540013 0.11645858 -0.048976004 -0.06104248 0.111146495
0.07440777 0.05688396 0.1217245 -0.0032766163 -0.13056433 -0.007588893 0.027879909 -0.11384199
-0.06629577 -0.0017495602 0.03840117 -0.014422983 -0.0042034537 0.017875746 0.043177783 0.0026791692
-0.11788041 -0.079097874 -0.07882388 -0.040837362 0.113899365 0.091901764 -0.009338751 0.077733174
-0.005289331 0.1668327 -0.15827797 0.12737726 0.022018015 0.14902909 -0.039756402 -0.12808019
0.14640878 -0.02800271 0.092979476 -0.115673624 -0.0983969 -0.08429355 0.13622607 -0.124768555
-0.07705413 -0.064889625 0.0483914 -0.17526466 -0.05604028 -0.073669635 -0.060702905 -0.062262334
0.06491344 -0.049338385 0.008632898 -0.1751622 -0.052884012 0.07903473 0.09819092 0.123089656
-0.17293851 0.037556082 0.011974469 0.006422043 -0.12794468 0.11043079 0.17248984 0.11990543
-0.11455271 0.10932164 0.09245281 0.14781238 0.09975012 -0.04030615 0.06874882 -0.16933
-0.020668626 -0.036514 0.14419188 -0.17108956 -0.074750975 -0.08902673 0.065901846 0.06393011
0.09667294 -0.13874763 -0.11683662 -0.16775261 0.022861764 0.05888945 -0.12241341 0.10572986
-0.039081022 0.054914385 0.15040435 -0.14019637 0.1251993 -0.045444295 -0.17072621 0.033647656
0.08220048 -0.103187576 -0.045308605 0.06289205 0.05986777 -0.17210247 -0.1747041 -0.04447192
00000000: 3c1f 7a3d 7802 d4bc c94c adbd 4ac0 9c3d
00000010: d098 5dbd 5d15 203e 4cd6 8fbd cf43 1abe
00000020: 0832 f6bc 1aef cebd 808a 8cba f0c8 e03c
00000030: aca4 3cbd 6283 a1bd f04c 403c f99c 13be
00000040: a3b7 25be d4a9 29be 3551 2f3e 0979 273e
00000050: 0004 4d3d 18b8 823d bd20 033e 3b2f 2e3e
00000060: 287d cc3c ecf3 09be 0685 eebd b382 0c3e
00000070: 647c f5bd 655e 2e3e 4234 d63d 09bd 193e
00000080: b49e 05be c4c0 08bd 1899 9cbc d53e 25be
00000090: a63f 05be 17b4 0f3e f242 fc3d ca19 f93d
000000a0: 19ef 123e aa19 c33d b7c1 1b3e 6082 d53c
000000b0: 8a39 de3d d8c1 94bc 9d09 213e 707c 353c
000000c0: 10ad 503c b496 8d3d ce1b a83d 90b0 1b3d
000000d0: 3002 51bd c42e 17bd 73e5 04be b800 26be
000000e0: b60d a6bd e626 ed3d fef4 2ebe 4270 ed3d
000000f0: b068 063c 00ee e23a a0c0 723c 78e6 4cbd
00000100: 76c6 be3d d0bd bf3c 90d8 8bbc c0ee f23b
00000110: c6a0 b33d 79ef a7bd be99 07be 81bd 2b3e
00000120: f89c e4bc 6e21 c33d 03c3 10be d9f8 cebd
00000130: e9bf 0a3e 045a 0dbd d5aa 193e c526 24be
00000140: 301e 8e3d 2ec7 c63d 0c7a 023d 8028 f9bd
00000150: 3e37 ddbd fec6 f43d 1672 f9bd f857 6cbd
00000160: 9885 873d 20bf bfbb 34eb 18be c8e0 1ebd
00000170: 8c9f 4cbd bf60 133e 9ebb 58bd 258a 2b3e
00000180: a608 f5bd 70cd f33c c878 c23c 208c 72bd
00000190: a9cb 14be 68ea 01be 8005 38bc 5b5e 263e
000001a0: a26d 0abe a0fa e3bd 49c7 023e b2b3 14be
000001b0: 0546 10be b47c 1dbe 68be d53c d819 033d
000001c0: 26e8 a83d 70ca 513d a0a0 18bc 8ce6 273d
000001d0: 3c3c 503d 0631 6abd 4b76 1b3e 3c8e abbd
000001e0: 3b25 18be 2a46 9b3d 8608 00be df7e 323e
000001f0: 274f 033e 208d 07be 33a5 0c3e 9c27 02be
00000200: bbf5 063e 0005 083c eaaa debd 10b8 43bd
00000210: 4210 c53d 1221 ba3d c0f6 b6bc 1288 9b3d
00000220: 8c66 5f3d 13a8 083e 0534 133e f2ee 0bbe
00000230: acf4 113d 11dc 29be d47f 1cbe 3012 45bc
00000240: 48d9 27bd 409e 0dbd f0cf 413d 81f0 85bd
00000250: d681 ee3d 109b 48bd ae07 7abd c6a0 e33d
00000260: 1a63 983d 28ff 683d b24a f93d 80bc 56bb
00000270: a8b2 05be 40ac f8bb 6864 e43c fd25 e9bd
00000280: 14c6 87bd 8051 e5ba 8c4a 1d3d 604e 6cbc
00000290: 20bd 89bb 2870 923c 30db 303d 0095 2f3b
000002a0: 496b f1bd 11fe a1bd 6a6e a1bd 1445 27bd
000002b0: 1244 e93d fe36 bc3d 9001 19bc 9232 9f3d
000002c0: 2052 adbb 31d6 2a3e 9f13 22be 2f6f 023e
000002d0: 205f b43c 159b 183e 9cd7 22bd 7427 03be
000002e0: 2fec 153e f065 e5bc 066c be3d 4be6 ecbd
000002f0: 5084 c9bd 19a2 acbd d97e 0b3e a886 ffbd
00000300: 8ece 9dbd dae4 84bd 1036 463d 9478 33be
00000310: 7e8a 65bd 1be0 96bd 9ca3 78bd ca06 7fbd
00000320: 56f1 843d 0c17 4abd 0071 0d3c b85d 33be
00000330: e89c 58bd f6dc a13d 5218 c93d 6e16 fc3d
00000340: cb16 31be 68d4 193d 9030 443c 0070 d23b
00000350: ee03 03be 8a29 e23d 2da1 303e fa90 f53d
00000360: 9c9a eabd 06e4 df3d e657 bd3d 215c 173e
00000370: ca49 cc3d 1018 25bd 2ecc 8c3d d864 2dbe
00000380: 4051 a9bc b48f 15bd 09a7 133e 1a32 2fbe
00000390: 0a17 99bd a553 b6bd 8cf7 863d caed 823d
000003a0: 76fc c53d dc13 0ebe 0a48 efbd 57c7 2bbe
000003b0: 9848 bb3c 1036 713d e2b3 fabd e688 d83d
000003c0: 6c13 20bd e8ed 603d 9903 1a3e a38f 0fbe
000003d0: 3f34 003e cc23 3abd dad2 2ebe 20d2 093d
000003e0: ba58 a83d 0254 d3bd 8495 39bd 8ccd 803d
000003f0: e837 753d a13b 30be a2e5 32be 3028 36bd

emb_net.v_lins1.5.bias f4 [32]
0.003688395 -0.16536841 -0.012922794 0.10010643 -0.04392749 0.08305301 0.032084644 0.09497474
0.097146556 0.09360589 -0.05456318 0.15560676 -0.057714924 0.07720356 -0.14831424 -0.03478323
0.16361831 0.12920319 -0.11986163 -0.07505734 0.16609307 -0.15072878 -0.029075906 -0.081716076
-0.17630823 0.030211642 0.0007748008 -0.06691491 -0.10728784 0.17306782 -0.12687033 0.13397942
00000000: 00b9 713b 5656 29be 20ba 53bc 9a04 cd3d
00000010: 50ed 33bd b217 aa3d 306b 033d 1e82 c23d
00000020: c6f4 c63d 72b4 bf3d a47d 5fbd 6157 1f3e
00000030: 7c66 6cbd e61c 9e3d b0df 17be dc78 0ebd
00000040: 8f8b 273e d74d 043e 047a f5bd aab7 99bd
00000050: 4d14 2a3e a558 1abe 9830 eebc c25a a7bd
00000060: 258a 34be 687e f73c 001c 4b3a af0a 89bd
00000070: bab9 dbbd b138 313e 4cea 01be e731 093e
