or/GFlowNet and ACO to solve TSP/DeepACO/tsp/pretrained/tsp/tsp20.pt (torch, 350946 bytes, 230 tensors)

emb_net.v_lin0.weight f4 [32, 2]
00000000: 554d 28bf 1ab5 10be 1f8b a9be fcd8 45be
00000010: f553 1ebf 66dc 923e 680e 21bf c0e1 11bd
00000020: a017 853e e248 7abe ead0 c83e 9be1 b33d
00000030: 7dca c53e fc24 e63e d044 9ebe 0e08 793e
00000040: 1c24 9ebe 7cbc 5e3e 8d4b bfbe f233 a43e
00000050: b9e7 123e 6f29 92be f219 acbe 616c 403e
00000060: b4df 293f 5f0e b33e a5ab 8bbd af66 00bd
00000070: a3e1 ca3e df49 fabe 00d0 6f3e b9e6 66be
00000080: e17d d03e 2b2a 83be 7498 db3c ff5f 733e
00000090: a709 fa3e 77af d5bd 897e 243f 2f5a 18bf
000000a0: efe2 f9bd 1fda 36bf bc18 763d e56a 543e
000000b0: 2fcd 92be 8618 943e 64d9 f5bd 0592 1ebf
000000c0: 601e 093f b377 df3e 566c b93e 61cb 0b3f
000000d0: 63cd 823e 4f86 bd3e 39a0 173f 57a5 06be
000000e0: 0065 0ebf 0ba6 b1be 213e bdbd 0814 98bd
000000f0: 9b4b 4a3b 2a94 d43e 16ff 693e 35ea 07bf
-0.65743 -0.14131585 -0.33113953 -0.19321054 -0.6184686 0.28683776 -0.6291261 -0.035615683
0.25994587 -0.24441865 0.3922189 0.08783265 0.3863105 0.44950092 -0.30911875 0.24319479
-0.30886924 0.21751589 -0.37362328 0.3207088 0.14346208 -0.28547236 -0.33613545 0.18791343
0.6635697 0.34971902 -0.06819848 -0.031347927 0.39625272 -0.48884484 0.2341919 -0.22548951
0.40721038 -0.2561811 0.026806094 0.23767088 0.4883549 -0.10433858 0.6425558 -0.5951261
-0.12201487 -0.71426576 0.060082182 0.20743902 -0.28672168 0.2892496 -0.120043546 -0.6194156
0.53561974 0.4364601 0.36215466 0.54607207 0.25547323 0.37016532 0.59228855 -0.1314901
-0.55622864 -0.34696993 -0.09240366 -0.07425696 0.0030867818 0.4151929 0.22851214 -0.53091747

emb_net.v_lin0.bias f4 [32]
00000000: 1460 5fbe eb00 2cbe 8fa3 db3e 2aac 84be
00000010: d448 92be 9bde f9bd 6384 3bbe b100 42be
00000020: fbc1 2fbf 4d1f 213f fd0e c43e fcef acbe
00000030: 2821 debe 5398 f83c 91d5 cb3e d4be 02bf
00000040: dc7a 88be 3465 943e 36c4 e6be 0f73 9dbd
00000050: 55e6 06bf 1767 293f 93f5 c13e ad3b 28bf
00000060: 8fdf c7be 9918 773e 4cba 073d 17d7 433e
00000070: b212 18bf 0f3a c3be 94dd aa3e 17e7 0abf
-0.21813995 -0.16797225 0.42898223 -0.259126 -0.28571188 -0.12200662 -0.1831222 -0.18945576
-0.68655366 0.62938386 0.38292685 -0.33776844 -0.4338467 0.030346071 0.39811376 -0.5107243
-0.26656234 0.28983462 -0.45071572 -0.07687961 -0.5269521 0.6617293 0.3788267 -0.6571606
-0.3903775 0.24130477 0.03313665 0.19125019 -0.59403527 -0.38130233 0.33372176 -0.54258865

emb_net.v_lins1.0.weight f4 [32, 32]
00000000: 7526 14bd 823a b03d c39b a83d 7bbf 093c
00000010: cfc3 7e3d d3be 9a3d bbda 11bd 8577 75bd
00000020: 4d94 fb3d 2317 243e 44db c53d a7c3 b2bd
00000030: 8b48 25be 669c 2abe f699 603c df36 68bd
00000040: 864d 13bd cd2b 2fbd 7ae3 2e3e 237d 353e
00000050: 7d03 0d3b 0fe7 91bd d4ca 953d 919c 913b
00000060: 0447 38be aa89 273d 1b2f 1c3e dc64 0abe
00000070: 53e9 f2bc cf8c 4c3d 504d 25be 26a7 0bbe
00000080: 1fd6 fc3d 3b50 8abd 7952 c93d 96aa 0c3c
00000090: f042 433d a06f e1bd 98bd 27bd cd37 e63d
000000a0: e629 9e3d 54ea 61bd 1743 d13c 0fd3 053e
000000b0: 9ae4 19be 55c1 da3d 3341 47bd 9cf6 ffbc
000000c0: 5559 b63d 252f 19be d478 abbc a1c8 313e
000000d0: 3306 813d 8749 8bbd dc71 2dbd 3f90 0d3e
000000e0: 9741 843d 67f0 ee3d cb68 eebd d901 673d
000000f0: 15bb c43c d87d f13c cf6b 243e 633a d03d
00000100: bb2d f73d a688 9d3d 46c7 ad3d 94dc f8bc
00000110: 9a89 2dbe d03f 1dbe bfec e0bd 487e d6bd
00000120: 14b4 b83d 05de 853d 499f 6cbd 8a8b febd
00000130: a391 2e3e 17b1 083e 1c6c 953d fee7 243e
00000140: fd1e e5bd 214a c7bd 81b4 efbd e78f bebc
00000150: 917b 24be fe96 113e 1548 643c 4ac4 a93d
00000160: 842f c9bd 07ae 8cbc 96c5 c43c 98ad 7bbd
00000170: 0b03 263e 4b7b a5bd a1b4 6f3d 0870 03be
00000180: 5556 2bbc 031c 23bd 1294 ba3d 00ef 093e
00000190: c978 123d 1f80 c3bc 481e 46bd 0335 143e
000001a0: ce99 10bd f592 083e 6fc7 a2bd 4071 213e
000001b0: 77a4 2f3e 653d 023e 9da7 c63d 70d8 713d
000001c0: a96f ccbd 560e fb38 5774 443d 5268 61bd
000001d0: 65fa 1a3d b1fd cd3d 82eb 22be 69b8 1dbe
000001e0: 0934 dfbd c4e8 963c 9846 13bd 7860 c33c
000001f0: 5bac 05bd 50db e0bd f4a8 b33c 7710 f33d
00000200: 6480 dbbd e43a 163e a2c9 523d 567f 343e
00000210: 59c7 2ebe c98a 33be 1485 823d d27b 1fbe
00000220: b61b 0bbe 3f22 ca3d 8689 9b3d 7019 1cbe
00000230: 1b71 f43d 36c0 0ebd aa90 f93d 9540 e6bd
00000240: b395 34be d9dc d9bd 8b98 12bd d756 3dbe
00000250: edc9 dfbc 6fc6 9dbd 1503 03bd 2b6d 81bc
00000260: 5be3 963b 6dd5 27be ab10 cb3d 1aef edbd
00000270: e385 ba3d ea93 1c3e b0ee 46bd c940 263c
00000280: f2a2 a33d dc2c 94bc 36de 20be bc4b 7b3d
00000290: 7eb6 b73d 62b0 b4bd 13c5 fabd 6624 1ebd
000002a0: 057b d53c 7220 c6bd eab5 f23a fac0 aebd
000002b0: a2cf 8dbd 2d05 dbbc f206 7abd 7152 103e
000002c0: 8f25 553d e566 1c3e 866e 293e 0fc4 0a3d
000002d0: 2e74 8fbd 37ce d13d 5445 5cbc bec1 083e
000002e0: 299c 25bd eab2 1b3e 2e07 9f3c 1a25 04bd
000002f0: 01e1 f9bd df7d 063e 25c2 8e3c ed38 873d
00000300: d2d8 8f3d 450d 52bc 6efc b3bd ead3 5ebd
00000310: 2c34 47bc a3fd ee3d 42ed d9bb 0c39 2abd
00000320: 812b b1bc 79ab 043d 41b1 0b3e 1554 0a3e
00000330: c4c2 4abb 5c18 963c 3585 1f3e 190e 963d
00000340: 4744 b8bc d242 e03d 464a b03d b3ea 53bd
00000350: f9ea 8f3d 87fd 9b3c d197 7dbd e16a 6cbc
00000360: 8ef4 303e 9649 703d 7956 0fbe 72d6 ef3d
00000370: cfb1 323d 21e2 a73d 5dc8 bd3b bc0e 873d
00000380: 74e7 343d 17f6 1b3e 0f5f b23d 7351 b1bd
00000390: 39a2 cc3d b407 28bb efcf ee3d f221 88bd
000003a0: 9845 63bd 22b5 213e 370f 163d 0003 9f3c
000003b0: c023 a03c a229 073c 502d 6d3c f00d 15be
000003c0: c104 373e bc06 2a3e 5224 e5bd 47dc 573d
000003d0: 4ed0 1d3e 4ba3 033d 4594 913d a328 0f3e
000003e0: 32ae 993d 452a 05bd 67a4 16be 73e3 97bd
000003f0: f8e5 dbbd f790 593b 806c 02be a675 f73d
-0.036169488 0.086049095 0.08232834 0.008407469 0.062198456 0.07555928 -0.03560899 -0.059928436
0.122841455 0.16024451 0.09660962 -0.08728724 -0.16140954 -0.16661224 0.013708582 -0.056692954
-0.035962604 -0.04276638 0.17078963 0.17723517 0.0021516972 -0.07124149 0.07314077 0.004443713
-0.1799584 0.04090277 0.15252344 -0.13515037 -0.029652273 0.049938973 -0.16142774 -0.13637981
0.12345528 -0.06753584 0.098301835 0.008585593 0.04767126 -0.11007619 -0.040952295 0.11241112
0.07722835 -0.055155113 0.025544686 0.13068794 -0.15028611 0.106814064 -0.048646163 -0.031245522
0.089037575 -0.1495939 -0.020931639 0.1736169 0.063000105 -0.068011336 -0.042344913 0.13824557
0.06457823 0.11666947 -0.116410814 0.056398246 0.024014989 0.029478952 0.1605675 0.101673864
0.12069269 0.07692079 0.08485274 -0.030378617 -0.16947022 -0.15356374 -0.10982656 -0.10473305
0.09018722 0.065364875 -0.057769094 -0.12428959 0.17047743 0.13348804 0.07296011 0.16104123
-0.11187551 -0.09730936 -0.1170435 -0.023261977 -0.16062762 0.14217755 0.013933201 0.08289392
-0.09823516 -0.017172826 0.024019998 -0.06144485 0.16212098 -0.08080157 0.05852187 -0.12835705
-0.010457595 -0.039821636 0.091102734 0.13470078 0.03575972 -0.023864804 -0.048368722 0.14473347
-0.03530293 0.1333731 -0.07948195 0.15765858 0.17152582 0.12718733 0.096999384 0.0590443
-0.09982235 0.00011971283 0.047962513 -0.05503113 0.03783645 0.100581534 -0.15910152 -0.15402378
-0.10898597 0.018421538 -0.035955995 0.02384971 -0.032635074 -0.109793305 0.021931149 0.11868375
-0.10717848 0.14670902 0.051461823 0.176267 -0.17068233 -0.17533411 0.06373039 -0.15574577
-0.1358479 0.09869813 0.0759459 -0.15244079 0.11935636 -0.034851275 0.121857956 -0.11242787
-0.1763523 -0.106378265 -0.035790008 -0.18490158 -0.027317965 -0.07703864 -0.03198536 -0.015799126
0.0046047396 -0.16390009 0.099152885 -0.11617871 0.09107568 0.152908 -0.048567474 0.010147282
0.07990064 -0.018087797 -0.15709767 0.061351523 0.089703545 -0.08822705 -0.1224462 -0.03860893
0.026059637 -0.09674157 0.0018517349 -0.08532901 -0.069243684 -0.026735866 -0.06104178 0.14093949
0.05203777 0.15273626 0.16546068 0.033878382 -0.070045814 0.102444105 -0.0134442635 0.13355157
-0.04043213 0.15204969 0.019412603 -0.032261945 -0.12201119 0.13133954 0.01742656 0.066026546
0.07023777 -0.0128205465 -0.087883815 -0.054401316 -0.012158435 0.11669471 -0.006650598 -0.04155831
-0.02162719 0.03239009 0.13641836 0.13508637 -0.0030938843 0.018322162 0.15578158 0.07326908
-0.022493495 0.10950245 0.086079165 -0.0517375 0.07027239 0.01904179 -0.06191236 -0.014429779
0.1728079 0.058663927 -0.1399783 0.11710824 0.043626603 0.081974275 0.0057917074 0.06594607
0.044166043 0.15230595 0.08709537 -0.08658113 0.09991879 -0.0025639357 0.11660754 -0.066470996
-0.05548629 0.15791753 0.036635604 0.01941061 0.019548297 0.008249672 0.014476135 -0.14556098
0.17872907 0.16604131 -0.11188568 0.052700307 0.15411493 0.03213815 0.07108358 0.13980345
0.07503928 -0.032511014 -0.14711152 -0.07416429 -0.107372224 0.0033197978 -0.12736702 0.120829865

emb_net.v_lins1.0.bias f4 [32]
00000000: 743d 6fbd feb4 05be de24 9d3d dee7 ff3d
00000010: dd80 18be 5f60 e8bc fe93 13be 7a25 093e
00000020: 502c 223e ef25 6d3d 96f8 6d3c 91c4 38bc
00000030: 8111 d33d 5fcf 863d 57ef 00be ac23 fc3c
00000040: e5b5 0c3e 7649 003e 9b96 f6bd 0989 0abe
00000050: cb9c f53d fea6 0f3e beba cebd 6640 e8bd
00000060: 0d39 bb3c a45c cdbd 4e12 ba3d e0a2 823d
00000070: 47d9 033e 7293 44bd 1dd2 42bd b76c 0abe
-0.058408216 -0.13057324 0.076730475 0.12495397 -0.14892907 -0.028366266 -0.14411923 0.13393202
0.15837216 0.057897504 0.0145246 -0.011277334 0.10306073 0.06582522 -0.12591301 0.030778728
0.13741262 0.12528023 -0.120404445 -0.13528837 0.119927965 0.14028546 -0.10094212 -0.11340408
0.022854352 -0.100274354 0.090855226 0.06378722 0.12875853 -0.047992177 -0.04756366 -0.13518034

emb_net.v_lins1.1.weight f4 [32, 32]
00000000: c380 083e 1877 9d3d 808a d4bb 5eed fabd
00000010: 2252 073e 6765 2a3e 9652 0abd a151 00be
00000020: 9ef8 79bd 5fba e53d f718 31be 7554 99bd
00000030: 0459 7cbc 290c ef3d bbd6 89bc 5c68 0ebe
00000040: 076f 05be 8a08 223d 7787 babc 56ad 69bd
00000050: 619c b73d 6ffb 973d 713c 803c 7d6d 89bd
00000060: 64a9 03be d702 42be b835 aa3d 253a c4bc
00000070: 61bc 043e 878e 83bd 6053 22be 9b95 f3bd
00000080: 3a52 08be 8e96 16bd e7b2 20be 0227 a03d
00000090: 6a5e f43d fe6e f1ba 4288 39be bb19 3c3d
000000a0: 1060 33bd d6c7 fe3c d4e7 5abd 87c2 14be
000000b0: 68bc 14be afb1 293d 790e 85bd 2028 183e
000000c0: fcfa f8bc 7eab 843c 8e64 ee3d 4bcb 173e
000000d0: 1246 953d cb1e 0d3e 776b 0b3e e247 283e
000000e0: d57c 1ebe 8236 923d 610e bdbd 9315 11be
000000f0: c6d5 dc3c 75d4 f13d 7f9c 153e 5191 63bc
00000100: 8dae 733d 5f17 ceba 52c0 123d bb8f 0cbd
00000110: 259d 81bd 7a48 fdbd 7e7b 35be ab9a b4bc
00000120: feda 143e 9441 3e3d 184b b03c 773f 25be
00000130: 44ba debc 7c3a 2fbe 6de9 673c 9732 55bd
00000140: 4231 0a3e fc03 db3d 1600 0abe 408b d33d
00000150: 5865 1dbd 81c6 3dbe 6a92 98bd 906a 573c
00000160: 6940 b53d 1015 f53b 6e27 003e 6b01 1dbe
00000170: 735a 8ebd 74bd 2ebe 1e12 18bd ed42 0bbe
00000180: 903a fa3d d23e e93d b58a 98bd 7d01 203e
00000190: dbdf ecbd a665 07be 3260 0cbd eb75 673d
000001a0: 0873 233e b069 e5bd cea3 113e 576b 943d
000001b0: cf40 b4bd 9c2b d9bd 68aa 7d3d 42bd 3d39
000001c0: 5f8f 123e 2439 ce3c 425e 25be a6c1 17bd
000001d0: 5ba3 9bbd 7d3d c1bd 801e c2bc 2b89 a93d
000001e0: acba d5bd 69dd 0cbd 72e8 7dbd 9586 fb3d
000001f0: 3ce3 043e 6538 1c3e d479 313e 76a3 9fbd
00000200: 63de 09be 1b48 f43d cdc2 9e3d 6089 0b3d
00000210: 5d86 ddbd 8931 11be aa39 6cbd 4cd6 073e
00000220: f1a1 b0bd 36c7 03be dbb7 693d 4f9e 173e
00000230: ea11 a53c ad9a 183d bcc5 cf3d 2915 81bd
00000240: bace 20be df48 913c c39e d8bd b8e4 6d3d
00000250: 62b4 adbd 6ebe 223e 1214 95bc def8 073e
00000260: 6209 f5bd b341 12be eaff c5bd bebc 88bd
00000270: cabd 123e e4fd 18be 78f5 80bd e438 693d
00000280: c01d a53c e8ce 94bd 9e5a d63d 184b d1bd
00000290: 0aad b43d de71 3d3d 52a0 c8bd 393d f43c
000002a0: 239c 803d 9d5d 57bc 8a38 60bd 1409 b23d
000002b0: 2701 91bd a5de 00bd e49a 2fbc c007 7e3c
000002c0: 232a df3c d794 143d 8a7d 1cbe b75d d9bd
000002d0: a4e8 0a3d 86a8 1c3e 3381 e3bd 1a84 3cbd
000002e0: f4d5 d9bd 7498 0ebe 0e97 1dbe b759 433d
000002f0: 84b9 aabc b232 b0bd d0bc 363e 603e a6bc
00000300: 9f65 173d bc1c 2c3e 03e1 09be 057c 92bd
00000310: 3819 15be 6c9e 5e3d c938 37bd b8db 34be
00000320: 537a ba3b e443 043a 1f50 1b3e d212 093d
00000330: 9643 0bbe 2b19 ca3d 0e68 f13d c9c3 8c3d
00000340: 4f20 a4bd 2150 ca3d 8dcc 8abd 6cd4 cc3b
00000350: e35f 413d 7493 98bd f7b0 1d3e c918 1d3e
00000360: cffa 023c c400 0dbd 00e0 c6bd e913 e63d
00000370: 1a17 aabd 457e 193e 2c01 f73c ce2d 023e
00000380: 7cfc b43d 0261 f63d aa0a 54bd f313 ecbc
00000390: 52ca 1fbe fc4a c43d 7068 06bd 5638 f6bd
000003a0: 8cb7 4dbd 56b3 23be a7e4 0c3e 3caf fbbc
000003b0: 4f44 33bd 54e1 c43c 0fd4 633c 7843 e63d
000003c0: 977f dcbd daa0 0a3e b903 c4bd e09e 883c
000003d0: 3fb2 0dbd f124 b13c 5e8e 77bc 7b7f 833d
000003e0: 14ef e0bd 244b e4bd 30f0 e43d f288 16be
000003f0: 225e 063e 562f 28be f91f e4bc 0257 833d
0.13330369 0.07688731 -0.006486237 -0.122523054 0.13214925 0.16640244 -0.033770166 -0.12531139
-0.061028115 0.11217188 -0.1729468 -0.07486812 -0.015402082 0.11672241 -0.016826024 -0.13906997
-0.13030635 0.039558925 -0.022769673 -0.05705007 0.08965374 0.07421004 0.01565382 -0.06710336
-0.12857586 -0.18946396 0.08311027 -0.023953507 0.12962486 -0.06423669 -0.15852118 -0.11893769
-0.13312617 -0.036764674 -0.15693246 0.0781994 0.119320706 -0.0018419919 -0.18118384 0.045922976
-0.043792784 0.031101149 -0.053443745 -0.14527331 -0.14524996 0.041429218 -0.06496901 0.14859056
-0.030393116 0.016195055 0.11640273 0.14823644 0.072887555 0.13781278 0.13615213 0.16433671
-0.15477307 0.07139303 -0.09231258 -0.14168386 0.026957404 0.11808101 0.1461048 -0.013889627
0.059492636 -0.0015723518 0.035827942 -0.03431676 -0.06328801 -0.123673394 -0.1772289 -0.022046408
0.14536664 0.04644926 0.021520182 -0.16137491 -0.027188428 -0.17112154 0.014154774 -0.0520502
0.13495353 0.10694119 -0.13476595 0.10329294 -0.038426727 -0.18532754 -0.07449801 0.013147965
0.08850176 0.0074793175 0.12515041 -0.15332572 -0.069508456 -0.17064458 -0.037126653 -0.13599749
0.12218201 0.11388935 -0.07448331 0.15625568 -0.115661345 -0.1322237 -0.034271426 0.05650894
0.1596185 -0.11201799 0.14222643 0.07247036 -0.08801424 -0.10604021 0.06193009 0.00018094949
0.14312504 0.025173731 -0.16149238 -0.037049912 -0.07599517 -0.09435556 -0.023696184 0.08278116
-0.104359955 -0.03439084 -0.061989255 0.12281529 0.12977308 0.15255888 0.1733163 -0.077948496
-0.1346374 0.119278155 0.07751999 0.034066558 -0.108166434 -0.14179052 -0.05767218 0.13265342
-0.08624638 -0.12868962 0.057060104 0.14806484 0.020150144 0.037256885 0.10145137 -0.06302864
-0.1570386 0.017734943 -0.105771564 0.05807945 -0.08481671 0.15892956 -0.018198047 0.13278529
-0.1196468 -0.14282875 -0.09667952 -0.06676625 0.14330211 -0.14940602 -0.062968194 0.05693902
0.020155787 -0.07266027 0.104665026 -0.10219401 0.08822067 0.04625117 -0.09796204 0.02981435
0.06279781 -0.013144878 -0.05474142 0.08693138 -0.07080298 -0.03146233 -0.010718081 0.015504777
0.027241772 0.036274757 -0.15282264 -0.10613578 0.03391327 0.15298662 -0.11108627 -0.04602442
-0.106365114 -0.13925344 -0.15389654 0.04769298 -0.020840414 -0.08603419 0.17845464 -0.020293415
0.036962148 0.16807836 -0.13464741 -0.07152561 -0.14560401 0.0543503 -0.04473189 -0.17661941
0.0056908517 0.0005045517 0.15167283 0.033465214 -0.136 0.09868082 0.11787425 0.068732806
-0.08013975 0.098785646 -0.06777296 0.0062509086 0.047210585 -0.074499995 0.15399538 0.15341486
0.007994368 -0.03442456 -0.09710693 0.11234266 -0.083051875 0.14989574 0.030151926 0.12712786
0.0883722 0.120302215 -0.051767983 -0.028818106 -0.15604523 0.09584615 -0.032814443 -0.12022464
-0.050223872 -0.1598638 0.13759099 -0.030723207 -0.043766316 0.024033226 0.013905539 0.112433374
-0.10766523 0.13537923 -0.095710225 0.01667732 -0.034593817 0.02162406 -0.015109627 0.06420799
-0.109831005 -0.111471444 0.11178625 -0.14700678 0.13121846 -0.16424307 -0.027847277 0.0641308

emb_net.v_lins1.1.bias f4 [32]
00000000: b6ce 013e b0c6 22be 4f38 c9bd 83ec 133e
00000010: e1f7 2f3e e028 e03d 16c6 34be c3ae 8ebb
00000020: a40a c53d b63d eabc 2239 0b3e db07 1c3e
00000030: 85f6 0bbd 3dec 623d 2fad 86bb e8d3 753c
00000040: 1b7e 213e 2437 143d 2c16 083e 4319 913d
00000050: 6f85 0dbd 4dcf 243e 6f3d edbd d46e 05be
00000060: 442e 8d3d cf43 023e 431c eabd a50b 693c
00000070: 735a d9bd abbe ab3d 98e8 f8bd 67f7 16be
0.1267651 -0.15896106 -0.09825193 0.14445691 0.17184402 0.10945296 -0.17653689 -0.0043543293
0.0962117 -0.02859388 0.13596013 0.15237372 -0.034170646 0.055401076 -0.0041100006 0.015004136
0.15770762 0.0361854 0.13289708 0.070848964 -0.03455108 0.16094704 -0.11583983 -0.13030559
0.0689359 0.1272118 -0.11431172 0.014223968 -0.10612955 0.083859764 -0.12153739 -0.14742814

emb_net.v_lins1.2.weight f4 [32, 32]
00000000: 8a89 2bbd e28d 1c3e 3cb6 8dbd 608d 29be
00000010: a43d 73bd 6a26 873d 0f95 a43d 88f2 173e
00000020: ce88 a73c 24a0 a03d cfd2 b6bc 0ce4 a4bd
00000030: aec2 73bc 869a 1e3e 1091 c53c bc7f 4e3d
00000040: d998 063c 9cc9 c8bd 03ed 27bd a3de 87bd
00000050: 4510 223e 5309 01bc 6218 ea3c 44fd fc3d
00000060: 3e01 6dbd 0c34 d73d 3484 e1bd 5373 e8bd
00000070: 7d28 833d 53cc c63b b841 073e 8c22 403c
00000080: ad4c 063c 5290 043e 876c 1cbd 4d90 cabd
00000090: 41c7 173e a52c 55bd 2e93 0dbe cbf8 303e
000000a0: 6808 0ebe abeb 5dbd 6648 043e 9ad2 e8bd
000000b0: 844d f93d ed40 2c3e e64b ca3d 7570 15bc
000000c0: 6e24 6abd c09c d73d 64d7 12be 27be cbbc
000000d0: b577 2abe d313 5cbd ab3f 413c bc35 87bd
000000e0: 5418 703d 5419 b5bd ddb9 08be 3847 0d3e
000000f0: c560 283d eb8e 14bd 8d8b 143c 8699 00be
00000100: d33d 2cbd 5092 063e e52a aebd 3a0c 1abe
00000110: 80c7 943d 0db8 f7bd 3862 c8bd 39c0 213e
00000120: d7a9 3bbe d8e5 edbd 3d9f b53d 4a4a 0bbc
00000130: 5f3f 843d 4f8e 153e 2ced 23bc 4faf 11be
00000140: a9c4 cd3c b30d 1bbe 6204 cb3c c337 69bb
00000150: c791 d9bd c7c1 a73d 4c4a 293d c344 0b3c
00000160: 5ba3 fd3d 09fb e73d b306 503d 9cec ab3c
00000170: c94a 9a3c bea6 ef3b 377b d63d eeda edbd
00000180: b160 503d dee4 233e 3b07 113d cd39 81bd
00000190: 6163 e73d 1506 e8bc 7a11 b0bd 8665 f6bd
000001a0: b357 5a3d 6bc9 9bba c205 2abe 2b67 cd3d
000001b0: f05b 0a3e 2156 8ebd be09 0cbe 7004 52bc
000001c0: 2f54 80bd 622d d83c 1ea7 15be c063 14be
000001d0: 6791 b0bd f77f 11be cc07 433d d256 113e
000001e0: 8d96 f93b 5716 af3d 0806 043d ca46 90bd
000001f0: 68f6 e4bd cbdc 813d 9dbb febc 4ac4 22be
00000200: 642d 353e 47d0 06be ede6 ab3d a427 e73c
00000210: 25c7 133e f3ac 6dbd 1b1c 403d 9569 0bbe
00000220: ca4a 06be 87a2 bdbb 54cb 223e 5435 00bc
00000230: 8392 adbc 0121 cf3d 9c47 98bc cdc9 fcba
00000240: e4d2 cfbd 722f ecbd 3c50 2a3e 63b8 dcbd
00000250: 6ae1 1bbe b545 983d fe23 b43b 3222 173d
00000260: 92b0 0dbe 6a1c d13d 8dac b93d 6f72 79bd
00000270: b9f4 c4bd 63ab 853d b52e 413d 9a06 d0bd
00000280: 849b b6bb e89f 333d f390 c5bd cbac ad3c
00000290: cfe0 393d c471 d53d 485a 03be 1e48 103e
000002a0: bf2a 263c df49 c4bb 1a9a 9c3d a082 863c
000002b0: 2b88 21be 6dd2 20be 04b9 9bbc 1234 383e
000002c0: 0788 0dbe 31f4 203e 5e8b a1bd 8255 b33d
000002d0: 2b6b bc3c 5b6a 0ebe c857 0d3e 9bb4 01be
000002e0: 5c19 5abd 5e0b 8cbd 3c52 153e d2fd 07be
000002f0: e3d5 27be 13a2 e83c 7fe0 62bd 2b5b d4bd
00000300: b6f9 c7bd 9ca8 14be 03bb 1d3e a1aa 06be
00000310: cb28 943d 6c08 a63d cc8d a037 306c 923d
00000320: 7537 893d 4fb7 17be 1a1e 123e 7ea5 ec3c
00000330: bf42 1c3e d2dd 9dbd 1d72 ccbd 9209 2c3e
00000340: ed13 41be 9b27 ebbd 8a56 0b3e f895 b13d
00000350: 25df f8bd 9653 ddbd cad6 e83d 7cbe 923d
00000360: ed65 60bd 211f 20be 31bc 25be 5e25 ff3d
00000370: b917 2a3d edac de3d d501 283a 4013 1d3e
00000380: 4050 8b3d 9e37 133d 4689 d33d 89e1 9fbd
00000390: 151e 3bbe 44a4 f13d c16d 313d c3d6 013c
000003a0: 607e 5f3c bd5b 12bd f13e 2dbd df97 0dbe
000003b0: 5188 ea3c 909b 3cbc fcbd 0a3e 1f69 d9bd
000003c0: a95c 873d f8da 30be 134b 28be 1b83 d13d
000003d0: fa3a e83d a715 e93a 387e d43c a34b 2b3e
000003e0: d783 16be f12c 08bd fe63 0fbe 7598 2fbd
000003f0: cb75 a8bd 6e9e 823d 48ac 663d a425 8eb9
-0.041879214 0.15288499 -0.06919524 -0.16557837 -0.059384957 0.06599124 0.08036243 0.14838612
0.020450976 0.078430444 -0.022317318 -0.08051309 -0.014877958 0.15488634 0.024117023 0.050414786
0.008215153 -0.09804079 -0.040997516 -0.066342615 0.15826519 -0.007875758 0.02857608 0.12352994
-0.057862513 0.10507974 -0.11011544 -0.11350121 0.06404207 0.006066838 0.13208663 0.011726987
0.008196992 0.12945679 -0.038189437 -0.098908044 0.14822103 -0.05204453 -0.13825676 0.17282407
-0.13870394 -0.05417983 0.12918243 -0.11368294 0.12172988 0.16821642 0.09877758 -0.00912105
-0.05716365 0.105279446 -0.14339978 -0.024870945 -0.16647227 -0.053729843 0.011794965 -0.06602046
0.05861695 -0.088427216 -0.13352151 0.13796699 0.04110791 -0.03626911 0.009066475 -0.12558565
-0.042051148 0.13141751 -0.08504275 -0.15043727 0.07264614 -0.12095652 -0.09784359 0.15795983
-0.18326508 -0.11616105 0.08868263 -0.008501599 0.064573996 0.14605068 -0.010005277 -0.14227031
0.025118189 -0.15141945 0.024782363 -0.0035586215 -0.10623508 0.08191257 0.04133062 0.008500281
0.12384673 0.11327178 0.05078764 0.020986848 0.018834488 0.0073135784 0.1047272 -0.11614023
0.050873462 0.16005275 0.035407286 -0.06309853 0.11298252 -0.028323213 -0.085970834 -0.12031083
0.053306293 -0.0011885589 -0.16603759 0.10029443 0.13511634 -0.069500215 -0.13675591 -0.012818441
-0.06266057 0.026388828 -0.14614531 -0.14491177 -0.08621483 -0.14208971 0.047614858 0.14193276
0.007616824 0.08549183 0.032232314 -0.07044752 -0.11179811 0.06340941 -0.03109532 -0.15895191
0.17693096 -0.13165389 0.08393655 0.028217144 0.14431436 -0.058026265 0.046901803 -0.13614495
-0.13114467 -0.005787197 0.15897876 -0.007825214 -0.021188026 0.10113717 -0.018588834 -0.0019286216
-0.10147646 -0.11532487 0.1663217 -0.107773565 -0.15222707 0.074351706 0.0054974547 0.036897846
-0.13836887 0.10210498 0.090661146 -0.060900148 -0.0961699 0.0652683 0.047163684 -0.10157509
-0.005572738 0.04385367 -0.096467875 0.021200558 0.04538041 0.1042209 -0.12827408 0.1409001
0.010142027 -0.0059902514 0.0764658 0.016419709 -0.157746 -0.15705271 -0.01900912 0.17988613
-0.13821422 0.15718152 -0.0788791 0.08756544 0.02300032 -0.13907759 0.13803017 -0.12666552
-0.05324684 -0.068381056 0.14582151 -0.13280419 -0.16390185 0.028397596 -0.055389877 -0.103689514
-0.097644255 -0.14517444 0.1540337 -0.13151027 0.07234343 0.08107075 1.9139516e-05 0.071495414
0.06700031 -0.1481602 0.14269295 0.028887507 0.15259837 -0.077083245 -0.09982703 0.16800526
-0.18855257 -0.114821635 0.13607231 0.086711824 -0.121519364 -0.108069584 0.11369093 0.07165238
-0.054784704 -0.15636875 -0.1618507 0.12458299 0.04152653 0.10872827 0.00064089644 0.15339375
0.06802416 0.035941713 0.10328917 -0.07806689 -0.18273194 0.11798909 0.04331756 0.007924738
0.01364097 -0.03573202 -0.042296354 -0.13827465 0.028629454 -0.011511698 0.13549036 -0.106157534
0.066094704 -0.1727103 -0.16434889 0.102300845 0.11339374 0.0017782942 0.025939092 0.16728072
-0.1469873 -0.033245984 -0.14002988 -0.042870004 -0.08225592 0.06377874 0.056316644 -0.00027112395

emb_net.v_lins1.2.bias f4 [32]
00000000: 733b fa3d d2c6 973d 10c4 833d b3f9 e63d
00000010: f4be e8bd 8b04 c23c b090 aabd cda7 e6bd
00000020: cef2 70bd 28c6 f03c e0fc 93bd f8b2 11bd
00000030: 5ff1 d93d 6e37 ea3d 51bb 283d 8a37 7fbd
00000040: 1cc6 13be 070a a4bc 4dd2 223e e73e cfbb
00000050: d156 a1bd e096 1a3e 1900 613d 5ca6 15bd
00000060: de0d 233b 1139 073e c692 d7bd e81e c53d
00000070: 3db5 ee3c 1baa dfbd 8cec f9bd 7198 04be
0.1221837 0.07410969 0.0643388 0.11278095 -0.113645464 0.023683807 -0.08328378 -0.11262474
-0.058825307 0.029391363 -0.072259665 -0.03557107 0.10641741 0.114363536 0.041194264 -0.062308826
-0.14431041 -0.020024313 0.15900536 -0.006324637 -0.07877887 0.15096617 0.054931734 -0.036535606
0.0024880092 0.13205363 -0.10526042 0.096250355 0.029139156 -0.10921117 -0.12203321 -0.12948777

emb_net.v_lins1.3.weight f4 [32, 32]
00000000: 3652 46bd 5a44 f0bd c713 fbbd 2563 23be
00000010: 5ca8 b83d f32f 13be 9ded 293d 4e20 2dbd
00000020: 20b6 94bc c10c 993d 665d f8bd 07f0 073d
00000030: 5f8a 36be 33e4 1b3b f3b1 0cbe bf9a 063d
00000040: b9c9 acbd 4360 083e 3d51 813d 4ff5 193d
00000050: 6b5b 3cbe 6b88 313e 3b3f 203e 8f24 dbbd
00000060: aaca b43b 0036 393e 1d74 663b 2cfd 183d
00000070: 5937 37bd 2cf9 013e 4276 04bc 93f1 9dbd
00000080: ebd7 683d 4269 473d 7c82 d6bc a120 78bd
00000090: bcf3 edbd 4171 11be 0275 06be e85c 85bc
000000a0: a616 a8bc 0556 d63c e066 c73d 153d e4bb
000000b0: 495e 173e 90fa 053d 9e1d 093e 9e23 acbd
000000c0: 8d30 993d a071 ce3c 6f5f 1cbe 7975 bbbd
000000d0: 515f 26be 7818 d43d b86f 343a 7d6e b8bd
000000e0: fe3c 1a3d a648 943d de62 813d c29b 27be
000000f0: 3993 ffbb e1f8 eebc b658 eabd 352c 003e
00000100: 7e5d c2bd 89bc aebc c9d1 253e 09ad 9b3d
00000110: 8c84 72bc a581 eebd 8d4e 5dbd 4140 24be
00000120: 3e77 85bd 0fa2 ec3c 4645 983d b54d 29be
00000130: 137c 23be 6ecc 123e 5d4e f1bd 627c 14be
00000140: efad 263e 8069 bb3d 4151 1d3e 282e c6bc
00000150: 7991 123e a2d9 213e 61a5 d4bd eca9 353d
00000160: d6d4 7c3b 1448 9abd 886a 463c 87e2 09be
00000170: f2a5 373d 6d90 f1bd e317 8abc b4cd 243d
00000180: 0697 253b 603a ec3d a592 a93c 54f9 4d3d
00000190: ad43 21be 7c65 a7b7 c105 69bd bd70 03be
000001a0: b773 25be a65d 063e f008 2abe 4e7d c53d
000001b0: 520f 783c 947a 32bc a4ec b43d 556b 1abe
000001c0: 372f 84bc d0c7 203e c827 17be b934 a1bb
000001d0: be51 1b3e 0ac0 5b3d 8230 263e d452 3a3e
000001e0: 6e40 563d fe17 543d 6e23 c8bc 47f4 323e
000001f0: a7b4 0abc a9f7 8dbd 0bb6 c73d 20d5 c3bd
00000200: 1778 873c 611b edbd d0d8 e1bc 7373 81bd
00000210: e6df 2e3e 9b99 a23d f74e 733d 1804 dd3d
00000220: 464b dcbd e5d8 29be d080 b53d fc00 a93d
00000230: 961e f33d b3c3 b73d 4bbe 61bd 9484 f3bd
00000240: a9be 0e3d 3a6c b83d 4287 413e c087 c7bc
00000250: c621 08be 33bc dc3d 6a5c 22be df3d e4bd
00000260: 516f a2bd 7fe3 8fbc 3102 d3bd ebcf d13c
00000270: a355 f43a bfdf a1bd 701a 7dbd c547 5a3d
00000280: 2585 07be 0bb9 88bd 5e22 d0bd b64c 28be
00000290: 8bab bdbd 3e19 b73d c433 d43d e6d1 57bd
000002a0: 34fd eebd bcb7 9dbd 4380 81bc 04f0 0b3e
000002b0: 3e86 fb3d f0f4 03be f572 51bd a34f c33d
000002c0: f707 2c3e ff43 edbd 8d7b 893d dabe 933d
000002d0: 236b 02be c754 223d 86af e73d d4ec d53b
000002e0: 8210 dabd 66cb 903d 5ca5 cfbc c710 28be
000002f0: 91f1 0a3e 3600 07be b108 07bd ee66 1fbe
00000300: 62c0 28bd 43d4 883d f56c cebd 439a af3d
00000310: d6f3 013d 22ab 9cbd 5902 123e bc2b 2b3d
00000320: a4e0 913d 5b65 22be 66be 2f3c be73 29be
00000330: bffe dcbc 92b4 043c ab5d 2abe 9afb a0bd
00000340: 4919 dc3d 63f0 97bd 7965 fbbb 9c34 f03d
00000350: 484c 24be f3f0 343e 789d bb3c 8d0e a1bd
00000360: 98cb 8b3d 6890 8abc e00b 2ebd 6c21 863d
00000370: 6e0e d43d 65d1 e73d c22c 1cbd ea92 e5bd
00000380: 9530 f9bd f058 42bd 76c5 50bd 8acf e8bd
00000390: b85a 173e e1fd cd3d 6405 213d 36a6 92bc
000003a0: 2b1c e13d 4d41 0a3d 044f a0bd 6851 4cbc
000003b0: 944f a33d abab 26be 03fb 49bd 89f2 f5bd
000003c0: d199 4e3d dc7f 293e e396 b5bd cd90 da3d
000003d0: a258 b1bd 9bf8 9fbb 3548 25be 048c 1cbe
000003e0: 04af 053e c558 3fbd d1c4 eb3d cc42 053e
000003f0: 187c 2cbe 3ad0 9d3d 60b5 033e 81f7 ee3c
-0.048418246 -0.11731787 -0.122596316 -0.1595579 0.09016487 -0.1437376 0.04148637 -0.042267136
-0.01815325 0.07473136 -0.12127189 0.033187892 -0.17826222 0.002378714 -0.13739757 0.03286242
-0.08436913 0.13317971 0.06314323 0.03758746 -0.18394248 0.17337196 0.1564912 -0.107003324
0.0055173235 0.18087006 0.0035164424 0.03735082 -0.044730518 0.12692708 -0.0080848355 -0.07712092
0.05684654 0.048684366 -0.026185267 -0.060577992 -0.11618754 -0.14203359 -0.13130572 -0.016279653
-0.020518612 0.026164064 0.09736419 -0.0069652894 0.1478206 0.03270966 0.13390204 -0.08405231
0.074799635 0.025200665 -0.1527078 -0.091532655 -0.16247298 0.103562295 0.00068831025 -0.09005449
0.037655823 0.07240419 0.063176855 -0.1636801 -0.0077995327 -0.02917141 -0.114427015 0.12516864
-0.094904885 -0.021330135 0.16193308 0.07601363 -0.014802109 -0.116458215 -0.05402999 -0.16040136
-0.06516884 0.02888587 0.07435088 -0.16533549 -0.159653 0.14335796 -0.11782525 -0.14500573
0.16277288 0.09150982 0.15363027 -0.02419193 0.14313306 0.15805677 -0.10383106 0.044351503
0.0038579009 -0.07533279 0.01211036 -0.1346532 0.044835992 -0.11795125 -0.016857093 0.040235236
0.002526702 0.11534572 0.020699808 0.050286606 -0.15748473 -1.9955209e-05 -0.056890253 -0.12835975
-0.16157423 0.13121662 -0.16604972 0.096430406 0.015140371 -0.010893483 0.08834198 -0.15080006
-0.016135795 0.15701222 -0.14761269 -0.004919615 0.15167901 0.05364994 0.16229442 0.18195659
0.05230754 0.051780693 -0.024430957 0.17475997 -0.008465922 -0.06932003 0.09751519 -0.09562135
0.016536755 -0.11577488 -0.027569205 -0.06320848 0.17077598 0.07939454 0.05940148 0.107917964
-0.10756545 -0.16586645 0.0886246 0.08252141 0.11871068 0.089728735 -0.05511312 -0.11890522
0.034849796 0.090050176 0.18899253 -0.024356723 -0.13294134 0.10778084 -0.15855566 -0.111446135
-0.07931388 -0.017564533 -0.10303152 0.025611838 0.0018641244 -0.07904004 -0.06179279 0.0532911
-0.13234384 -0.06675919 -0.10162805 -0.16435513 -0.09261235 0.089403614 0.10361436 -0.05269041
-0.116693884 -0.0770106 -0.01580823 0.13665777 0.12281464 -0.12886405 -0.051135022 0.09536674
0.16799913 -0.11585235 0.067130186 0.072141364 -0.12736182 0.03963163 0.11312775 0.0065284763
-0.1064768 0.07070045 -0.025347404 -0.1641265 0.13568713 -0.13183674 -0.032967273 -0.15566608
-0.041199096 0.06681111 -0.10079376 0.08574345 0.03172668 -0.076498285 0.14258708 0.041789755
0.07122925 -0.15858977 0.010726547 -0.16548058 -0.026976941 0.008099692 -0.16637294 -0.07860489
0.1074701 -0.07418897 -0.0076720086 0.117287844 -0.16044724 0.1767004 0.022902235 -0.078641035
0.06825942 -0.016914561 -0.042491794 0.065493435 0.10354315 0.11319236 -0.038128622 -0.11209662
-0.121674694 -0.0474481 -0.050969563 -0.1136771 0.147807 0.10058189 0.03931178 -0.017901521
0.10991701 0.033753682 -0.07827571 -0.012470581 0.07974163 -0.16276424 -0.04931165 -0.120091505
0.05043966 0.1655268 -0.0886667 0.1067215 -0.086594835 -0.004881931 -0.16140826 -0.15287787
0.13055044 -0.046715517 0.11512149 0.13013762 -0.16844213 0.07705732 0.12862158 0.029170753

emb_net.v_lins1.3.bias f4 [32]
00000000: d8a7 7abd 7ff4 02be 04ed c73d ab0e 92bd
00000010: 1b6e 6a3d 36dd 793d 3649 cbbd b82c b7bd
00000020: 6021 213c 9e29 933d 5ca2 f73b fca8 90bd
00000030: 6335 39bd 62b7 213e 0242 da3c 7fa9 a73b
00000040: ca25 853d 9837 b8bd 351f 2d3d aaf8 33be
00000050: 9e6b 7a3d 8d8f 893d afb8 c7bd 15e5 e53d
00000060: dc57 c03d 733c 003e 5404 e43d 0fa5 01be
00000070: 61e0 21be 1959 7abd b1d2 d1bd 4f96 153d
-0.061195225 -0.1278858 0.09762004 -0.07131704 0.05723391 0.06100198 -0.09926073 -0.08944076
0.009834617 0.07185672 0.0075571965 -0.07063481 -0.04521693 0.15792611 0.026642803 0.005116641
0.06501348 -0.08994979 0.04226609 -0.17575327 0.061137788 0.06716833 -0.097520225 0.112253346
0.09391758 0.1252306 0.11133638 -0.12660621 -0.1580825 -0.061120126 -0.10245264 0.0365203

emb_net.v_lins1.4.weight f4 [32, 32]
00000000: 3d71 09bb 60c9 b13d 4fea 1d3e b87d 203e
00000010: 3ba2 9abd 48ff 17be f2fd c53c 63e0 313d
00000020: 7649 1abe 7f0a 0ebe b793 1a3e 3957 eabd
00000030: e1e3 2dbe 84c5 49bd 693d b83d 3e1e c03d
00000040: 7b7a 9c3b 86f4 093e 5060 0cbe 0703 91bd
00000050: a123 e4bd a4f0 c13d de6f 133d 9fc3 d0bd
00000060: 0457 0cbc ade4 fdbd b8f4 4f3d 6222 d5bd
00000070: b9fd a93c 0c94 c2bd f1e9 42bd f660 cebd
00000080: 2718 e1bd 6a2e 433d 8234 55bd bf44 e73b
00000090: a6f1 95bd 76a9 da3c 4422 01be 69d5 f13d
000000a0: 8f7e dabd 0996 8bbc 878a b6bd 88fc 583d
000000b0: c2af af3c beab 04bd b0c8 a03d b039 183e
000000c0: a1b8 3cbe 0b9d bf3d eac2 6d3d 8096 bb3d
000000d0: ca57 30bd 652f ee3c ad6f 10be 7a8f b63d
000000e0: 5e3a ebbd 8934 e43d c71c 2fbe 3872 42bd
000000f0: 4f7a f03d 3d61 5fbd 2080 0cbe 21e9 993d
00000100: dc9f 40bb 2b2d 00bc 9aed 55bd 4fe9 fe3d
00000110: ecde 853d 40c3 1f3d 0370 12bd 7e69 23be
00000120: b0b7 1f3e 02b1 b93d a616 e6bd 1f98 e9bb
00000130: cb20 d83d ad9e 5dbd 7066 413e cd56 39bd
00000140: 429b 3d3e 7c87 983d 11af afbd 61cc e13c
00000150: 94b1 b8bc 7898 eebd 50d4 b8bc 42cb 773c
00000160: 6bbc bcbd 44d7 7dbd b010 03be 8c56 8bbc
00000170: 9947 2cbe e929 0cbe 8d08 e9bd d6d1 8b3c
00000180: 428f 98bd d754 d93d 29ca 23be 0ffd f1bd
00000190: 0e39 8abb 534d 9bba 0267 7dbd 9202 b8bd
000001a0: 2721 eabd 4773 733c 9a5a dcbd 5e57 1dbe
000001b0: e78d c0bd aff5 d9bd aa2a 063d e581 063e
000001c0: 72f8 823d a23e ab3d c99d 2e3e ab27 2fbc
000001d0: 0bbc 02bd edc6 293c 316c 5b3d 1741 9fbd
000001e0: 3e26 23bb 40e0 f3bd f4da e03d 8d3b 32be
000001f0: 5ded b63d 4f5f 393d d009 36bd 82fd e5bd
00000200: 471e 083e 8596 2a3d 4111 40bd ab6c 2fbd
00000210: 4d13 b3bc bff8 3cbd 4ab2 bcbc c240 b5bd
00000220: 08ea 973c 9f80 1fbe 7eff 51bd e9c6 8abc
00000230: 4cbb ebbd e92f 693d 6653 0d3d bea2 b33d
00000240: 8172 cabd d910 9a3d 03d4 033e 84ad 23be
00000250: 9ffd d93c 48c4 b63d 2e9f f83d 8490 c03d
00000260: eadf 213d cc33 e2bd 9c64 ea3d 71bd 0fbe
00000270: 80d5 87bc 8aa2 6e3c 8c6e 1f3e 8322 90bd
00000280: 7e98 84bd b8a7 963d 5f8c e8bd 8e24 e13d
00000290: a41d f83d b314 c8bc 4fd9 9e3d aff4 cc3d
000002a0: 721d 2ebb e558 2d3e f3f3 0cbe 592e b43d
000002b0: 4050 69bd ad07 0bbe 42be 713b 1285 01be
000002c0: 370a b83d f1e1 3a3d eb50 073d 3d81 42bb
000002d0: 8896 02be 2fc6 013e 1712 08be 4dc6 b1bd
000002e0: 6a3f 063e cc80 7abd 52a2 52bd 6a90 2abe
000002f0: c321 dfbd 5e16 e2bc 7bf6 f1bd 13ea d9bc
00000300: 43ec 3a3e ce85 12bd 1b00 803c d94a 853d
00000310: c2fa 223e 4450 77bb 710f 15be 5033 0cbe
00000320: 160b 06be 6509 5a3d 7b4c d73d c127 c73d
00000330: 6169 b4bd 23dc f2bb 2441 0b3d 0bdc 6dbd
00000340: ad22 5b3c 9ffa 193d 7997 16be c821 7b3d
00000350: 832d 0dbd 25e7 44bd 34dd b8bd e941 f1bd
00000360: 572e 21be fa21 ab3d 6fc2 87bb 771c ec3d
00000370: 5db6 18be e131 d5bd 24f1 453d 5cb6 efbd
00000380: ec99 123e 7465 f93d a9fe 3abe 8105 f33d
00000390: f274 b9bd 0324 103e 0b8f 1d3d 10c6 963d
000003a0: cb7d a83c 57d7 0d3e 4feb f93b bd29 1bbe
000003b0: bcb8 223e 6c3b b53b ff77 8ebd 6c81 2a3d
000003c0: 968c 10be 0757 3b3c f050 693c f5c3 b3bc
000003d0: d1c5 0a3e 520a 2fbd d0e7 93bc 12a4 713d
000003e0: f056 a43d 3ac3 a1bd cfaf 0c3e a7df fa3b
000003f0: f3b9 27be 109a c93d 0706 efbd f5ef aebc
-0.0020972036 0.08680987 0.15421413 0.15672958 -0.07550474 -0.14843476 0.024168942 0.043426882
-0.15067086 -0.13871191 0.15095411 -0.11442418 -0.1698146 -0.04926063 0.08996088 0.09380768
0.004775343 0.13472185 -0.13708615 -0.070806555 -0.11139608 0.09469727 0.035995357 -0.10193562
-0.008565668 -0.12397132 0.05077049 -0.104069486 0.020750867 -0.09500894 -0.047586385 -0.100770876
-0.10990935 0.047651686 -0.05205203 0.0070577557 -0.073214814 0.026692133 -0.12610728 0.11808283
-0.106686704 -0.017039316 -0.08913141 0.052975208 0.021446113 -0.03239035 0.07850778 0.14865756
-0.18429805 0.093561254 0.058047213 0.09159565 -0.043052472 0.029075334 -0.14105101 0.08914085
-0.11485742 0.11142833 -0.17100821 -0.04747221 0.117420785 -0.054536093 -0.13720751 0.07515169
-0.0029392159 -0.007823269 -0.052228548 0.12446844 0.065366596 0.039004564 -0.035751354 -0.15958211
0.15597415 0.09066965 -0.112347886 -0.00712873 0.1055313 -0.054106403 0.18886733 -0.045248795
0.18516257 0.074477166 -0.08578313 0.027563276 -0.022545613 -0.11650175 -0.022562176 0.015124144
-0.092156254 -0.06197287 -0.12799335 -0.017009042 -0.16824187 -0.13687862 -0.11378584 0.017067831
-0.07449199 0.10611885 -0.15995087 -0.11815845 -0.004218227 -0.0011848606 -0.061865814 -0.08984865
-0.114321046 0.014859027 -0.107594684 -0.15365359 -0.09402066 -0.106425636 0.03275553 0.13135488
0.063950434 0.08361556 0.17052378 -0.01069061 -0.031917613 0.010362369 0.053569976 -0.07776087
-0.002489462 -0.11908007 0.10979262 -0.1740553 0.08931992 0.04525691 -0.04444295 -0.112299934
0.132928 0.041647453 -0.046891455 -0.042828243 -0.02185979 -0.04613566 -0.023034234 -0.08850242
0.018544212 -0.15576409 -0.051269047 -0.01694055 -0.115103334 0.056930456 0.034503363 0.08771275
-0.09885121 0.07522745 0.12873845 -0.1598416 0.026610194 0.089241564 0.12139736 0.09402564
0.03952018 -0.11045036 0.11444971 -0.1403711 -0.016581297 0.0145651195 0.15569514 -0.070378326
-0.06474398 0.073562086 -0.11354899 0.109933004 0.121150285 -0.024423933 0.07756292 0.10007607
-0.0026567844 0.16928442 -0.13764934 0.087979026 -0.056961298 -0.13577147 0.0036887084 -0.12648419
0.08986323 0.04562563 0.033036154 -0.0029679083 -0.12752736 0.12673257 -0.1328815 -0.08680401
0.13110128 -0.061157987 -0.051424332 -0.16656652 -0.108951114 -0.027598556 -0.118145905 -0.026600873
0.18254189 -0.035772137 0.01562505 0.06508417 0.15915969 -0.003773705 -0.14556672 -0.13691449
-0.13090166 0.053231616 0.10512634 0.09724379 -0.08809162 -0.0074114962 0.03399767 -0.058071177
0.013374967 0.037592527 -0.1470622 0.061311513 -0.03446723 -0.048072 -0.09026566 -0.117801495
-0.15740333 0.0835609 -0.0041430513 0.11528867 -0.14913316 -0.10409904 0.048325673 -0.11704704
0.14316529 0.12177554 -0.18261208 0.11866284 -0.09055509 0.14076237 0.038466495 0.07361996
0.020567795 0.13851677 0.007626928 -0.1515264 0.15890783 0.0055307653 -0.06956481 0.041627333
-0.1411613 0.011434323 0.014240488 -0.021944026 0.13552023 -0.04273445 -0.018054873 0.05899436
0.080243945 -0.07898565 0.1373894 0.007656056 -0.16379528 0.09843838 -0.116710715 -0.021354655

emb_net.v_lins1.4.bias f4 [32]
00000000: 1363 263e ce16 63bc eda5 fd3d de60 383d
00000010: 1290 6e3d 30e7 f23d 6cef d13d 5607 d73d
00000020: f231 e93c dea6 193e 018b 0e3e 4a87 00be
00000030: 3cfd d53c 561d 5f3d d31a 8c3d 52df 11bc
00000040: 03ad 23be e2f9 27be 782b ce3d de9d 2abe
00000050: b6f2 7d3a 03eb 2cbe 135e 81bd d19d aabb
00000060: 15f6 64bd a232 103e aba4 2c3e ebaf fb3d
00000070: 6a78 19be 24f2 a03d 6518 1abe f0a2 04be
0.16248731 -0.0138604175 0.123851635 0.045014255 0.058242865 0.11860502 0.10250744 0.10499446
0.028466199 0.15005061 0.13920213 -0.12551609 0.026121728 0.054471336 0.06841054 -0.008903341
-0.15983967 -0.16403916 0.10066885 -0.16661784 0.0009687351 -0.16886525 -0.06316771 -0.0052068015
-0.055898745 0.14081815 0.16859691 0.12289413 -0.1498734 0.07858685 -0.15048368 -0.1295278

emb_net.v_lins1.5.weight f4 [32, 32]
00000000: 4ff5 133e 0542 08be 7674 64bd a71c 11be
00000010: b3e5 fabd c1ea 08bd 11a6 ccbd c37b 1bbe
00000020: a336 c7bc 9dc3 1bbb 5e0a 853d 2ba8 8c3d
00000030: fc77 01bd 00ca 133d fa1c 6c3d 05c1 30bd
00000040: 6e8c 063e ec81 1abd f347 41be 6c13 59bc
00000050: 8280 afbc 883d a03d 727d 08bd 5b58 3ebd
00000060: 357f 8cbd 861a 1b3e e019 b2bd c592 8b3d
00000070: 6819 233d e144 313e 6320 c73d 0677 30bd
00000080: 21b5 ca3d 2e39 18bd f21d 793d 18a0 773d
00000090: aca2 d0bd 0cb2 cebd 65c7 0e3e 4ea4 dcbd
000000a0: 08fd 523d 8887 4e3d 634f 16be 288c 3fbd
000000b0: 809c 3c36 4db3 42bd bcb3 81b9 e721 833d
000000c0: b200 173e 6516 643d d324 183e ed6b 58bd
000000d0: b961 0abe 7f5a 023e 6c9c b33d 3de5 2dbe
000000e0: 19e7 aa3c 1728 2e3e c8e2 873d 281d 2f3e
000000f0: 4c23 873d 98be b0bd b72d f63d 30fe ea3d
00000100: 20dc 89bd 2415 1bb9 4a39 e4bd b65d 01bd
00000110: d442 eebd bd69 afbc 1c3f 273d 4339 e5bd
00000120: 7819 b8bd 2de4 013e 3db0 3d3d 08d7 dfbd
00000130: 1de2 8cbd 0260 22be a307 cf3c 48b8 9bbd
00000140: 73e1 8dbd 473e 8dbd cf25 35be 1874 9a3d
00000150: 9770 053e 6421 b33d 9e1c 00be 7f65 773d
00000160: de7e a03d 2f8d 97bd 14cb 993d a267 813d
00000170: eec3 7bbd 0c4a 053e 369b 32be b973 d33d
00000180: 3ad1 ce3c aef3 c3bd a44e 94bc d5cb 25be
00000190: 5ada adbd c9ba 503d 0e03 753c 6e47 14be
000001a0: f3eb d63c 00f0 eabd fd31 0e3d 42c8 b4bd
000001b0: 7d24 e23d e2a5 ee3d 7f56 a8bd ba89 f23c
000001c0: 515c 713d 8158 b1bd 9327 f1bb 0618 2dbd
000001d0: a74a 37be c4d9 913c 98d3 cebd 80a7 20be
000001e0: 7597 2cbe ad9a 9dbb ac58 27bc 7148 803d
000001f0: df65 e8bd bd93 6e3b 617e 1d3e 6b5f 05be
00000200: 5f58 e3bd 657d 01be cc25 08be b80d 073e
00000210: 41e0 e6bd 0606 f83d a3fc dfbd 3b4e 0d3e
00000220: bcd2 303e db62 21be eb6e 3a3e f730 3c3d
00000230: 3623 0cbd 3562 29be 8936 5cbd 5338 92bd
00000240: da0a 2dbc e83c 95bd ac5f e9bd 226f 0e3d
00000250: d3b3 0d3e 9b25 84bd 902c ef3d cdcd 3fb9
00000260: 1b27 efbd 0587 17be be58 c7bd 5e28 2abe
00000270: 86c6 8d3d 1d91 e73d 7959 fa3c 8bb8 be3d
00000280: 7768 fa3d 690a 0bbe 41b9 ab3d 1f42 b5bd
00000290: 3dca 873c daeb 2dbd 214f 17be 8d91 473b
000002a0: 1164 d63c 28b3 803d 26c0 873d 59e5 11be
000002b0: 0042 583d 7a63 8b3d d2a8 afbd 29ca d03d
000002c0: 9fd6 953d 5217 1a3e 605b 4abd 74b6 2cbe
000002d0: eef7 133e 02e6 c9bd bcb3 ef3d b366 23be
000002e0: a4f2 2fbe bd23 9d3d 4dd5 e2bc 8d3c 133e
000002f0: 02d4 cb3d b53b 113e 0d9d 6e3d 36bc b43d
00000300: 8f73 a2bd 7779 d5bd fb67 29be c353 0a3e
00000310: 699a 22be c135 263d 5b6c e5bd 283a 013e
00000320: deba 2f3d 0f8e 783c 01be 21bc d4a8 29be
00000330: 0b9d 1dbe f84a fd3c d9b2 5b3d 9747 1b3e
00000340: 591f 1bbe abde 393d da00 073e 6ad5 1cbe
00000350: 9f23 16be 42b5 173e fa95 453d 5f3e 8abd
00000360: 5bed 9ebc 9b05 93bc b1e4 133e c11e 90bd
00000370: db04 fcbd 3b2f eabd 6d08 f1bb 54c5 dc3d
00000380: 3f02 ddbd 2359 02be f016 14be 3511 39bc
00000390: f9d3 f0bd 529c 6abd 23b6 b5bc 2b66 c9bd
000003a0: d801 043c dcf8 163e 3bff efbc dee7 2cbe
000003b0: 8a33 7e3d 8473 5d3d be84 87bd a3ae 03be
000003c0: 7782 1fbe 2784 923d ea0e b63d 67c3 3ebb
000003d0: 15ff bbbd 22c9 163e aa65 14be f486 933d
000003e0: fe87 15be 1ae9 31be ade0 28be ae5c d83d
000003f0: b5c5 303e e52f 8d3d 857a f4bd 5dec 1fbe
0.14449047 -0.13306434 -0.05577513 -0.14171086 -0.12250843 -0.033427004 -0.09992612 -0.1518393
-0.024318045 -0.0023767718 0.06496118 0.06868013 -0.031608567 0.036081314 0.05764482 -0.043152828
0.13139507 -0.03772156 -0.18875103 -0.013249259 -0.021423582 0.07824236 -0.03332276 -0.04647098
-0.068602 0.15146837 -0.086963415 0.068151034 0.03981915 0.17311431 0.09722974 -0.04308226
0.09897829 -0.037163906 0.060819574 0.06045541 -0.10187277 -0.100925535 0.1394325 -0.10773526
0.05151084 0.05042222 -0.14678721 -0.046764523 2.8105278e-06 -0.047534276 -0.0002473871 0.06402951
0.14746359 0.05568542 0.14857797 -0.0528373 -0.1351384 0.12729834 0.087700695 -0.16981979
0.02086215 0.1700748 0.06635052 0.17100966 0.06598529 -0.08630103 0.12020438 0.11474264
-0.06731439 -0.00014789827 -0.111437395 -0.03158351 -0.1163384 -0.021412725 0.04083167 -0.111925624
-0.08989233 0.12684698 0.046310652 -0.10929686 -0.06879065 -0.15856937 0.025272196 -0.07603508
-0.06927767 -0.06896644 -0.17690204 0.075416744 0.13031231 0.08746603 -0.12510917 0.06039953
0.07836698 -0.073999755 0.07509437 0.063185945 -0.06146615 0.13016528 -0.17442021 0.10324807
0.025246251 -0.095679626 -0.018103905 -0.16191037 -0.08488913 0.050959382 0.014954342 -0.14480373
0.026235556 -0.114715576 0.03471564 -0.08827259 0.11042116 0.116527334 -0.08219623 0.029606689
0.05892593 -0.08659459 -0.007359454 -0.04225924 -0.17899571 0.017804034 -0.10098952 -0.15688896
-0.16854651 -0.0048096986 -0.010214012 0.06263817 -0.11347555 0.0036403977 0.15380241 -0.1302468
-0.1110084 -0.1264549 -0.13295668 0.13188827 -0.11273242 0.12110524 -0.109368585 0.13799374
0.17267889 -0.15760367 0.18206374 0.045945134 -0.034213267 -0.1654137 -0.053762946 -0.07139649
-0.010561669 -0.072870076 -0.11395201 0.034773953 0.13838129 -0.06452485 0.116784215 -0.00018291846
-0.11677381 -0.147976 -0.09733723 -0.16616961 0.06922631 0.11306975 0.030560242 0.093125425
0.12226956 -0.1357819 0.08384944 -0.08850502 0.016575927 -0.042461254 -0.14776279 0.0030451745
0.026170762 0.06284171 0.06628446 -0.14247645 0.052797318 0.06806083 -0.08577122 0.10194809
0.07316326 0.15047958 -0.04940355 -0.16866475 0.14450046 -0.09858324 0.117042035 -0.15957145
-0.17182404 0.07672832 -0.0276896 0.14378567 0.09952547 0.14182933 0.058255244 0.08824961
-0.07932197 -0.10423558 -0.16543572 0.13508515 -0.15879215 0.040578607 -0.11202308 0.12619841
0.04290282 0.015170588 -0.009871961 -0.16568309 -0.15391938 0.030919537 0.05363736 0.15164028
-0.15148677 0.04537837 0.13183919 -0.15315786 -0.14662026 0.14815238 0.048238732 -0.067501776
-0.01940029 -0.017947009 0.14442708 -0.07037116 -0.123056136 -0.1143479 -0.0073557408 0.10779825
-0.10791444 -0.12729315 -0.14461875 -0.011295606 -0.117591806 -0.057277985 -0.022181576 -0.0983394
0.00805708 0.1474337 -0.029296508 -0.16885325 0.06206087 0.054065242 -0.066171154 -0.12859587
-0.15577112 0.07154112 0.088895634 -0.0029108168 -0.091795124 0.14725164 -0.14491907 0.07203475
-0.14602658 -0.17374077 -0.16491957 0.10564552 0.17262919 0.06893901 -0.11937431 -0.15617509

emb_net.v_lins1.5.bias f4 [32]
00000000: 8981 453d 17b4 a4bb 2ceb 50bd 3516 52bd
00000010: 31d5 c43d 8039 c2bd f703 fa3d 8858 573d
00000020: 5b16 043d 81d4 6fbd 062a 15be 9f7e f9bd
00000030: 762b 29be b700 cbbd 6555 1fbe a69e a13d
00000040: 3571 1fbe aa06 dfbd d754 20be 4153 023e
00000050: 1776 713d d008 5b3c c1b6 6cbd d2de afbb
00000060: 3863 173e 33d3 383d e91c bb3d 117c fb3c
00000070: 6a1e 67bd 7c74 2dbd a38a d3bd 0331 d23d
0.048219237 -0.005026351 -0.051005527 -0.05129071 0.096109755 -0.094836235 0.122077875 0.052574664
0.032247882 -0.05855227 -0.14566812 -0.12182354 -0.16520485 -0.09912246 -0.15559919 0.07891588
-0.15570529 -0.10889943 -0.15657364 0.12727071 0.05895051 0.0133688 -0.057791475 -0.0053671384
0.14783943 0.04512329 0.091363735 0.030698808 -0.05642549 -0.042347416 -0.10329177 0.102632545
