or/GFlowNet and ACO to solve TSP/DeepACO/tsp/pretrained/bpp/bpp120.pt (torch, 348733 bytes, 225 tensors)

emb_net.v_lin0.weight f4 [32, 1]
-0.94075996 -0.19307713 -0.49385905 -0.2689661 -0.881333 0.40332222 -0.89406776 -0.06284569
0.34330305 -0.35168564 0.5640187 0.13188612 0.5506203 0.63571143 -0.418462 0.36663702
-0.45478067 0.31192872 -0.5198675 0.45033905 0.19277303 -0.39263666 -0.46595597 0.2591988
0.92168236 0.47848094 -0.10057639 -0.053758968 0.56656224 -0.6797492 0.32932514 -0.32187474
00000000: a5d5 70bf 03b6 45be 18db fcbe edb5 89be
00000010: 0a9f 61bf 4080 ce3e a0e1 64bf 3eb5 80bd
00000020: 6bc5 af3e 2410 b4be 8863 103f 280d 073e
00000030: 74f5 0c3f fcbd 223f a740 d6be d9b7 bb3e
00000040: 03d9 e8be 1fb5 9f3e 0916 05bf d792 e63e
00000050: 4b66 453e ac07 c9be c891 eebe b5b5 843e
00000060: 60f3 6b3f 74fb f43e fffa cdbd 5d32 5cbd
00000070: 390a 113f 0b04 2ebf 4e9d a83e c4cc a4be

emb_net.v_lin0.bias f4 [32]
0.59401274 -0.36134762 0.046086855 0.3410711 0.6980091 -0.15700881 0.93495643 -0.843767
-0.16087148 -0.997414 0.09158558 0.2702364 -0.39446658 0.4227216 -0.1483504 -0.87524045
0.7500421 0.623389 0.50807816 0.8074081 0.37814716 0.53628665 0.837587 -0.21597514
-0.7581718 -0.4764776 -0.13122888 -0.09973351 -0.016053671 0.5926498 0.3003967 -0.7421001
00000000: 3811 183f 8e02 b9be 92c5 3c3d dfa0 ae3e
00000010: b9b0 323f ebc6 20be 4e59 6f3f 1d01 58bf
00000020: 7ebb 24be 8656 7fbf 3891 bb3d 6d5c 8a3e
00000030: 86f7 c9be f76e d83e 2be9 17be c20f 60bf
00000040: c202 403f 6c96 1f3f 6911 023f 4cb2 4e3f
00000050: 819c c13e 154a 093f 1a6c 563f 9628 5dbe
00000060: 8c17 42bf dff4 f3be dd60 06be 1541 ccbd
00000070: fd82 83bc e6b7 173f 99cd 993e 46fa 3dbf

emb_net.v_lins1.0.weight f4 [32, 32]
-0.0332209 -0.059701066 0.12640528 -0.044149563 -0.054071408 -0.04611991 -0.025070226 -0.040429875
-0.19036503 0.13762103 0.07528382 -0.09417266 -0.12525792 -0.012773378 0.081215285 -0.10636082
-0.046987206 0.054642342 -0.0941291 -0.038799174 -0.15198672 0.18357317 0.114996016 -0.17439519
-0.10550798 0.059713338 0.028600618 0.06528529 -0.16295214 -0.074692264 0.06112646 -0.15439741
-0.029810084 0.07038575 0.09870252 0.017935902 0.058439653 0.071915075 -0.013378552 -0.048027243
0.13103415 0.16490866 0.07292871 -0.08097369 -0.1471506 -0.18219592 -0.006020291 -0.06062815
-0.037177943 -0.032375593 0.17424709 0.15985444 -0.02418131 -0.04580017 0.09300798 -0.010223904
-0.16105986 0.06455839 0.1745288 -0.13151377 -0.04899902 0.045527793 -0.15160613 -0.1584739
0.13595808 -0.058788702 0.10723007 0.023054777 0.04718413 -0.123484135 -0.03359807 0.13054596
0.07654794 -0.05494409 0.0056187157 0.14751612 -0.15785939 0.09596514 -0.05676702 -0.033894967
0.08811675 -0.15634972 -0.02259224 0.15684557 0.062548794 -0.060996983 -0.03434748 0.1410071
0.064683765 0.11827251 -0.09733409 0.063663796 0.019190265 0.03492513 0.15058011 0.09404504
0.14466503 0.054905184 0.09436276 -0.011240186 -0.13294083 -0.16840735 -0.08699395 -0.1370688
0.06587322 0.031800307 -0.07386139 -0.15271437 0.15944856 0.10727553 0.06185482 0.17727476
-0.07122849 -0.12935658 -0.08051374 -0.036534023 -0.18025245 0.16251871 0.027456408 0.07488104
-0.10888628 -0.0289684 0.008283012 -0.06218675 0.14421241 -0.057714537 0.028295126 -0.14281474
-0.0057234005 -0.06296488 0.090913095 0.13805605 0.058104225 -0.024067419 -0.030072592 0.12962553
-0.049694654 0.11237795 -0.08686711 0.13693896 0.16808343 0.1126324 0.086417526 0.059286375
-0.07184342 -0.0066738473 0.075940326 -0.054775428 0.022892151 0.11846657 -0.14853522 -0.16856314
-0.113360256 0.013909249 -0.020014757 0.053799182 -0.050202258 -0.100401 0.014882061 0.10447029
-0.081974246 0.14191517 0.066920914 0.20050721 -0.13785398 -0.18568026 0.08396318 -0.14100596
-0.1598961 0.066088796 0.06598864 -0.15363811 0.11640613 -0.05491053 0.10817174 -0.07661674
-0.14412414 -0.13847725 -0.0034532445 -0.19773279 -0.029526686 -0.06405113 -0.017108873 0.0030060133
0.006836437 -0.17092599 0.123043515 -0.08495346 0.088558644 0.18594792 -0.07954736 -0.0037103884
0.07438482 -0.00036525202 -0.16925919 0.05522124 0.061049037 -0.08377336 -0.14194885 -0.033382814
0.047408942 -0.06660381 0.009420167 -0.06681529 -0.05638581 -0.010147221 -0.04523691 0.14340632
0.023555787 0.17284934 0.13652124 0.04339098 -0.05956067 0.08436733 -0.02912519 0.14263542
-0.025673922 0.1680641 0.01891359 -0.06654158 -0.10175605 0.107648134 0.037249416 0.083682716
0.10126559 -0.033567715 -0.066837735 -0.02408639 0.022122692 0.08207934 0.017316911 -0.066827014
-0.0480492 -0.00047861828 0.11050454 0.11654768 -0.020291248 -0.007266162 0.13339415 0.1061274
0.011287464 0.07435344 0.110129334 -0.07800124 0.04338036 0.043742746 -0.03547124 -0.019850936
0.16846061 0.059799083 -0.15293849 0.10016306 0.00781526 0.116801605 -0.029411402 0.040885784
00000000: a312 08bd 1b89 74bd 6370 013e 2cd6 34bd
00000010: fb79 5dbd 3be8 3cbd 1360 cdbc cc99 25bd
00000020: 0def 42be 87ec 0c3e 672e 9a3d 98dd c0bd
00000030: 9d43 00be 6e47 51bc 3354 a63d b4d3 d9bd
00000040: a875 40bd a6d0 5f3d c2c6 c0bd e2eb 1ebd
00000050: 68a2 1bbe 9bfa 3b3e 0883 eb3d a794 32be
00000060: 9114 d8bd f995 743d d84b ea3c 4bb4 853d
00000070: eddc 26be 42f8 98bd bd5f 7a3d 5b1a 1ebe
00000080: 4734 f4bc 6726 903d 8c24 ca3d 50ee 923c
00000090: 6b5e 6f3d 3648 933d b731 5bbc 37b8 44bd
000000a0: d12d 063e d1dd 283e a65b 953d 89d5 a5bd
000000b0: a6ae 16be 9191 3abe dc45 c5bb 3955 78bd
000000c0: e647 18bd 459c 04bd d46d 323e e2b0 233e
000000d0: e217 c6bc f698 3bbd f87a be3d 2982 27bc
000000e0: e0ec 24be 3037 843d aeb7 323e 8cab 06be
000000f0: 32b3 48bd 5a7b 3a3d a33e 1bbe fb46 22be
00000100: 9838 0b3e 6ccc 70bd 709b db3d 5fdd bc3c
00000110: 2544 413d 40e5 fcbd 219e 09bd d7ad 053e
00000120: 2bc5 9c3d 0e0d 61bd 341d b83b 770e 173e
00000130: e4a5 21be 5f89 c43d 8984 68bd 73d5 0abd
00000140: 8e76 b43d 241a 20be 5c13 b9bc 209c 203e
00000150: 9519 803d f9d7 79bd f1af 0cbd 2a64 103e
00000160: ec78 843d dc38 f23d 1857 c7bd 2a62 823d
00000170: e734 9d3c a70d 0f3d ac31 1a3e b09a c03d
00000180: 1223 143e 42e4 603d 4341 c13d c228 38bc
00000190: a421 08be fa72 2cbe e229 b2bd c35b 0cbe
000001a0: 8ae8 863d 0a41 023d a444 97bd 2861 1cbe
000001b0: 7c46 233e 46b3 db3d 7b5b 7d3d 8487 353e
000001c0: 3ee0 91bd 0d76 04be 63e4 a4bd b3a4 15bd
000001d0: 1994 38be 4e6b 263e 43ec e03c 3b5b 993d
000001e0: c5ff debd 234f edbc 78b5 073c 89b7 7ebd
000001f0: 6bac 133e 1466 6cbd 2ecb e73c 073e 12be
00000200: 5d8b bbbb bbf3 80bd a530 ba3d 915e 0d3e
00000210: b2fe 6d3d 0929 c5bc cc5a f6bc 8ebc 043e
00000220: 9f8c 4bbd 6926 e63d 62e7 b1bd ba39 0c3e
00000230: 101e 2c3e d1ab e63d acfb b03d 45d6 723d
00000240: a522 93bd 4ab0 dabb 9a86 9b3d 335c 60bd
00000250: 5288 bb3c 9a9e f23d 9e19 18be d19b 2cbe
00000260: 6c29 e8bd 9ee3 633c fdf5 a3bc 885c 5c3d
00000270: e2a0 4dbd 0a9f cdbd e3d3 733c 85f4 d53d
00000280: 1de2 a7bd 3652 113e d50d 893d c351 4d3e
00000290: 9829 0dbe f722 3ebe e3f4 ab3d de63 10be
000002a0: cebb 23be 9059 873d 0d25 873d 4f53 1dbe
000002b0: 5666 ee3d dde9 60bd 2589 dd3d 3de9 9cbd
000002c0: 4795 13be fbcc 0dbe d44f 62bb 777a 4abe
000002d0: f3e1 f1bc 3d2d 83bd e827 8cbc 8900 453b
000002e0: 3104 e03b 3907 2fbe 3dfe fb3d 14fc adbd
000002f0: 3c5e b53d 2269 3e3e bae9 a2bd fd29 73bb
00000300: 1257 983d 4c7f bfb9 4852 2dbe ab2f 623d
00000310: 8e0e 7a3d 5e91 abbd 0a5b 11be 6bbc 08bd
00000320: e12f 423d 9467 88bd 0b57 1a3c 74d6 88bd
00000330: cff4 66bd 8840 26bc 574a 39bd 1bd9 123e
00000340: 11f8 c03c 6bff 303e 39cc 0b3e beba 313d
00000350: e4f5 73bd c7c8 ac3d f397 eebc 050f 123e
00000360: 1e52 d2bc ff18 2c3e acf0 9a3c f446 88bd
00000370: 7a65 d0bd a076 dc3d d892 183d d861 ab3d
00000380: 5564 cf3d 4d7e 09bd 39e2 88bd d250 c5bc
00000390: a63a b53c 3719 a83d 32dc 8d3c 9adc 88bd
000003a0: 3dcf 44bd 0fef fab9 3450 e23d 8db0 ee3d
000003b0: d539 a6bc fc18 eebb 7a98 083e 5359 d93d
000003c0: 0eef 383c 9e46 983d 7d8b e13d 1dbf 9fbd
000003d0: 9baf 313d 982b 333d 4a4a 11bd 6e9e a2bc
000003e0: f080 2c3e e2ef 743d e89b 1cbe 4a22 cd3d
000003f0: 940b 003c ae35 ef3d 2ef0 f0bc da77 273d

emb_net.v_lins1.0.bias f4 [32]
-0.013828349 -0.14721361 0.1413516 0.14791845 -0.12760523 -0.045897614 -0.10783298 -0.096488275
0.16217555 -0.08561622 0.07967968 0.094439685 0.024025947 -0.112399675 -0.0129549 -0.03475959
0.17661996 0.121659674 0.01925144 0.09244256 -0.13836433 0.10150802 0.08292902 0.17683621
-0.050078046 -0.11708889 0.14730112 0.17235519 0.01416643 0.041419413 0.1716924 -0.14967169
00000000: 4d90 62bc 2abf 16be 79be 103e ef77 173e
00000010: f2aa 02be 23ff 3bbd 8ad7 dcbd a59b c5bd
00000020: 5911 263e 8f57 afbd 1a2f a33d 9869 c13d
00000030: 10d2 c43c cd31 e6bd ca40 54bc 1260 0ebd
00000040: dddb 343e b528 f93d 32b5 9d3c 8652 bd3d
00000050: 61af 0dbe 70e3 cf3d b1d6 a93d 8d14 353e
00000060: a31e 4dbd 4dcc efbd 1bd6 163e e17d 303e
00000070: 501a 683c 67a7 293d 22d0 2f3e 8943 19be

emb_net.v_lins1.1.weight f4 [32, 32]
-0.055739414 -0.12841667 0.08470885 0.11644694 -0.15358196 -0.03314492 -0.16469657 0.12947148
0.13699889 0.06616676 -0.009366089 -0.0033389288 0.1094761 0.050982557 -0.13545816 0.026026424
0.14294468 0.11383251 -0.1267388 -0.13163789 0.121216424 0.14072366 -0.09127253 -0.115969576
0.029162167 -0.09809342 0.09636077 0.06422536 0.13246304 -0.03901171 -0.053577885 -0.1353831
0.15226166 0.086173445 0.016121333 -0.11252628 0.14279948 0.1670674 -0.049291693 -0.10632252
-0.07312132 0.123077184 -0.1443314 -0.08421541 0.0032529985 0.11929457 -0.031005438 -0.13386008
-0.116813056 0.06600344 -0.004998826 -0.03446628 0.1180387 0.062336642 0.0067781955 -0.05338083
-0.108881794 -0.16784598 0.08382272 -0.0015277605 0.15462765 -0.068439886 -0.16484311 -0.098950095
-0.1217629 -0.037757255 -0.15254344 0.07483605 0.1260421 0.007812428 -0.16986306 0.06373347
-0.034164727 0.041362684 -0.05005055 -0.13180906 -0.14005598 0.054966275 -0.0531261 0.16158837
-0.01747356 0.02575639 0.11520793 0.16738622 0.06585298 0.15301925 0.14067389 0.17788403
-0.14434908 0.074536115 -0.0848545 -0.122275546 0.023088796 0.12869431 0.15557417 -0.00036536192
0.07722674 -0.0049445103 0.032102507 -0.04852145 -0.077361256 -0.11573407 -0.17292853 -0.020201221
0.16127886 0.08109253 0.004426561 -0.15425615 -0.025237978 -0.16986072 0.031131644 -0.06976456
0.14217255 0.10764513 -0.1515389 0.096022256 -0.04623192 -0.17896716 -0.05756286 0.016832927
0.09214118 0.0052967775 0.14352259 -0.16542776 -0.081514195 -0.17382959 -0.024028763 -0.11249326
0.11910689 0.123228155 -0.065547206 0.17236458 -0.10498032 -0.14282677 -0.025313439 0.045008827
0.14942491 -0.11075039 0.12884355 0.06394921 -0.09567253 -0.12521547 0.07583459 -0.022474907
0.15186803 0.011854871 -0.15384324 -0.06528826 -0.07873846 -0.09247861 -0.0066054515 0.066228144
-0.11968578 -0.042022612 -0.0654216 0.1182013 0.12662 0.16332625 0.16377877 -0.07784955
-0.10771066 0.13324855 0.08144867 0.038982604 -0.08163241 -0.14401956 -0.04359591 0.15242256
-0.091625184 -0.13697872 0.061832268 0.15055951 0.0095395995 0.042710923 0.13056953 -0.049402848
-0.16348524 0.008857529 -0.08680043 0.05867742 -0.11378109 0.1766966 -0.0005500149 0.13975365
-0.1282283 -0.15316956 -0.09000305 -0.032736097 0.12992264 -0.11447337 -0.07338087 0.04855622
0.020555742 -0.07984727 0.11871928 -0.095013686 0.09062235 0.049198385 -0.08992891 0.029229637
0.060939617 -0.036496054 -0.04702954 0.08873354 -0.06726233 -0.032804787 -0.02029416 0.022554237
0.027452052 0.039523017 -0.14559779 -0.11656226 0.032768354 0.15270486 -0.10756674 -0.043435894
-0.1021696 -0.12899514 -0.1554318 0.06040834 -0.0053848648 -0.07706611 0.17651798 -0.025256755
0.025555821 0.17864294 -0.12679383 -0.05983065 -0.14055514 0.055190727 -0.041357327 -0.17536783
0.0020911917 0.0049490817 0.1599577 0.034643643 -0.13071537 0.09997271 0.11193867 0.070183806
-0.058837052 0.10309614 -0.052832074 0.006663276 0.058857873 -0.074986055 0.1570347 0.15704027
0.011524236 -0.028381437 -0.08890779 0.11766574 -0.06994198 0.15359199 0.027370382 0.13865855
00000000: 034f 64bd a97f 03be d57b ad3d bc7b ee3d
00000010: 9744 1dbe f8c2 07bd 38a6 28be 2c94 043e
00000020: 7049 0c3e 7082 873d 3974 19bc eed1 5abb
00000030: 0135 e03d 16d3 503d 8bb5 0abe 5e35 d53c
00000040: 1760 123e 0521 e93d d1c7 01be 15cc 06be
00000050: 5140 f83d dd19 103e 18ed babd 7581 edbd
00000060: 7fe5 ee3c 34e5 c8bd cc58 c53d 9688 833d
00000070: 64a4 073e beca 1fbd 7c74 5bbd dea1 0abe
00000080: 7bea 1b3e b47b b03d e310 843c 2e74 e6bd
00000090: 073a 123e b713 2b3e 16e6 49bd 9fbf d9bd
000000a0: a1c0 95bd e40f fc3d 9ccb 13be 2179 acbd
000000b0: 4230 553b b650 f43d 1eff fdbc 9e12 09be
000000c0: af3b efbd d02c 873d 31cd a3bb 842c 0dbd
000000d0: 46be f13d b554 7f3d a01b de3b dba5 5abd
000000e0: 6bfd debd d1df 2bbe 3fab ab3d 233f c8ba
000000f0: b656 1e3e 362a 8cbd a2cc 28be 59a6 cabd
00000100: d45e f9bd 5aa7 1abd 5934 1cbe a543 993d
00000110: 2e11 013e 65ff ff3b 95f0 2dbe b286 823d
00000120: 50f0 0bbd eb6b 293d ce01 4dbd f4f8 06be
00000130: d66a 0fbe 5124 613d c19a 59bd 6c77 253e
00000140: b624 8fbc 11ff d23c 23f2 eb3d 4b67 2b3e
00000150: eddd 863d 14b1 1c3e d10c 103e 3b27 363e
00000160: 3fd0 13be 64a6 983d 32c8 adbd 9a6b fabd
00000170: b724 bd3c 71c8 033e d64e 1f3e 0c8e bfb9
00000180: 0e29 9e3d 8f05 a2bb eb7d 033d 6ebe 46bd
00000190: 946f 9ebd fc05 edbd 2d14 31be 087d a5bc
000001a0: 4926 253e d713 a63d af0c 913b 53f5 1dbe
000001b0: e0bf cebc f8ef 2dbe ca07 ff3c b9e0 8ebd
000001c0: ae95 113e 0d75 dc3d 032d 1bbe 51a7 c43d
000001d0: af5d 3dbd 2b43 37be 09c7 6bbd 35e5 893c
000001e0: 84b4 bc3d 9790 ad3b 96f7 123e e565 29be
000001f0: eaf0 a6bd 6200 32be f8d7 c4bc de62 e6bd
00000200: 50ee f33d 0b5f fc3d 9d3d 86bd 5780 303e
00000210: ecff d6bd 2e41 12be 215e cfbc 2d5b 383d
00000220: d802 193e 1ad1 e2bd 90ef 033e cef7 823d
00000230: f6ef c3bd 7c38 00be 2a4f 9b3d 4c1d b8bc
00000240: 4b83 1b3e ef3a 423c 1589 1dbe dab5 85bd
00000250: a141 a1bd 6d65 bdbd 8b72 d8bb 9fa2 873d
00000260: d11d f5bd e71f 2cbd c3fb 85bd 8613 f23d
00000270: aca8 013e ff3e 273e 9fb5 273e 966f 9fbd
00000280: 6897 dcbd 4f72 083e 8fce a63d 39ac 1f3d
00000290: e52e a7bd dd79 13be a091 32bd a914 1c3e
000002a0: fca5 bbbd 2644 0cbe d543 7d3d 462c 1a3e
000002b0: fb4b 1c3c a6f1 2e3d 05b4 053e a45a 4abd
000002c0: ad68 27be 2b1f 113c 6dc4 b1bd bc57 703d
000002d0: 0f06 e9bd f4ef 343e e02e 10ba 951b 0f3e
000002e0: 484e 03be 7bd8 1cbe 8553 b8bd 4916 06bd
000002f0: 710a 053e 0471 eabd b648 96bd e3e2 463d
00000300: 8464 a83c f786 a3bd 1823 f33d 8996 c2bd
00000310: 3698 b93d 3f84 493d a62c b8bd fe72 ef3c
00000320: d29b 793d e37c 15bd 0ca2 40bd eeb9 b53d
00000330: d5c0 89bd 505e 06bd f03f a6bc aac3 b83c
00000340: 20e3 e03c e3e2 213d 9617 15be 32b8 eebd
00000350: 1c38 063d aa5e 1c3e f34b dcbd d6e9 31bd
00000360: 4c3e d1bd 4d17 04be 8429 1fbe bc6e 773d
00000370: 8573 b0bb d6d4 9dbd 21c1 343e 41e7 cebc
00000380: 715a d13c 2dee 363e 3ed6 01be fc10 75bd
00000390: b0ed 0fbe ac0f 623d 4d66 29bd a093 33be
000003a0: 600c 093b e82b a23b f4cb 233e 7ee6 0d3d
000003b0: 40da 05be 7ebe cc3d 1a40 e53d 87bc 8f3d
000003c0: 1fff 70bd 1224 d33d 7266 58bd 9c57 da3b
000003d0: f414 713d 4a92 99bd b4cd 203e 2acf 203e
000003e0: 26d0 3c3c 3080 e8bc 4a15 b6bd bcfa f03d
000003f0: be3d 8fbd 3847 1d3e da37 e03c 82fc 0d3e

emb_net.v_lins1.1.bias f4 [32]
-0.06344449 0.09158433 -0.017732576 -0.012764393 0.10060048 0.11034678 -0.06693705 0.103931926
0.004145262 -0.114374734 -0.0030215804 0.15642461 0.11650128 0.14418483 -0.026541516 0.13722329
0.13865945 0.09785983 -0.019760689 -0.11865195 -0.033287875 0.021827457 -0.08449858 0.11131638
-0.17027567 -0.07957626 -0.09856755 -0.07178327 0.024342014 -0.034009468 0.05590838 0.0741848
00000000: 2fef 81bd 9190 bb3d e843 91bc bf21 51bc
00000010: a007 ce3d 7efd e13d 4b16 89bd 43da d43d
00000020: fad4 873b 4d3d eabd b505 46bb c62d 203e
00000030: 3998 ee3d 30a5 133e 986d d9bc 4384 0c3e
00000040: befc 0d3e bc6a c83d 2be1 a1bc cbff f2bd
00000050: de58 08bd 7fcf b23c 970d adbd d8f9 e33d
00000060: bf5c 2ebe e1f8 a2bd c9dd c9bd 1b03 93bd
00000070: e768 c73c 834d 0bbd 2f00 653d 33ee 973d

emb_net.v_lins1.2.weight f4 [32, 32]
0.123399936 -0.1569945 -0.087860644 0.1401208 0.15822728 0.11785947 -0.17226206 -0.008619349
0.10734807 -0.023843832 0.14210771 0.15314661 -0.028142424 0.063386574 0.0030178577 0.017449781
0.15487143 0.045321994 0.14807259 0.07488812 -0.020816049 0.157692 -0.116003215 -0.12700406
0.078338295 0.13224496 -0.12224275 0.019685352 -0.09745889 0.07572498 -0.11201967 -0.1545067
-0.050675947 0.13724397 -0.092352174 -0.18221511 -0.070318855 0.07333966 0.058211967 0.12167127
0.051522765 0.07377193 0.012280971 -0.08046139 0.010320619 0.16796972 0.027272835 0.057824943
-0.009350624 -0.093450814 -0.04725261 -0.039483592 0.14900832 -0.041939765 0.011769686 0.15770715
-0.036310513 0.10619584 -0.11722284 -0.117044546 0.10333035 -0.0092665125 0.121321395 -0.0117026465
0.00089872396 0.12157753 -0.02258803 -0.11301937 0.14283237 -0.068732634 -0.15746005 0.15413211
-0.15020807 -0.05422212 0.1349731 -0.12451384 0.1268438 0.15800251 0.086055204 -0.018191867
-0.05094075 0.117888644 -0.13256736 -0.015778318 -0.16181362 -0.07399639 0.006544313 -0.055866964
0.06296697 -0.073500104 -0.14103481 0.1363223 0.044423025 -0.04087398 -0.00061285717 -0.13385814
-0.008418554 0.14613248 -0.09006646 -0.123872705 0.09397313 -0.11357589 -0.06967086 0.19632933
-0.16617315 -0.08616782 0.09115189 8.5207146e-05 0.049337935 0.14684099 0.013947124 -0.139911
0.027473891 -0.1734684 0.036365017 -0.011849708 -0.120851204 0.1008021 0.057225686 0.0067302654
0.10211829 0.097686425 0.069829896 0.036106046 0.019565094 0.029810306 0.090024136 -0.10726916
0.0676642 0.16910014 0.059740152 -0.047116414 0.12439633 -0.01975626 -0.05923856 -0.10803514
0.06119706 0.0042015016 -0.18279563 0.124725334 0.13469225 -0.08626301 -0.11485877 -0.007122185
-0.043951474 0.031915683 -0.124322005 -0.16176338 -0.09064112 -0.11674456 0.07390743 0.15053745
-0.0040930086 0.07144918 0.058244452 -0.040674582 -0.12314973 0.07422285 -0.015655031 -0.14169846
0.1905014 -0.12120134 0.10122175 0.034103736 0.1727804 -0.05808954 0.06870087 -0.121160366
-0.12367987 -0.0030156362 0.17696777 0.005993343 0.0030180493 0.1104113 -0.0027612473 0.018105885
-0.07359445 -0.09062235 0.1821656 -0.0949809 -0.1432848 0.07367743 0.011245771 0.05930916
-0.11431734 0.11178707 0.09403489 -0.04001645 -0.07750871 0.08609369 0.065027766 -0.07261585
0.012375309 0.03036316 -0.061031368 0.033489887 0.06131372 0.11945251 -0.11322817 0.16404632
0.019898864 0.0023333735 0.09067718 0.03376037 -0.13736443 -0.13418093 -0.011668088 0.19184573
-0.13357368 0.1851633 -0.08180488 0.116271555 0.038120814 -0.12287777 0.1382151 -0.107507035
-0.022231488 -0.024480252 0.14061448 -0.11888837 -0.14396492 0.038829334 -0.032968637 -0.08837054
-0.10459174 -0.1503342 0.15204042 -0.12108634 0.06258586 0.08530252 0.023874527 0.088809
0.06288416 -0.14525723 0.11627088 0.027706778 0.15592244 -0.10087298 -0.08015367 0.14704509
-0.16496322 -0.11703403 0.13390504 0.061597556 -0.1395796 -0.11175681 0.13871777 0.05550627
-0.051938947 -0.15268107 -0.14900738 0.12936008 0.013840211 0.09932385 0.007925969 0.17705113
00000000: 1bb9 fc3d 2bc3 20be 48f0 b3bd d47b 0f3e
00000010: 5506 223e 4e60 f13d 7765 30be 2c38 0dbc
00000020: 4ed9 db3d 2454 c3bc af84 113e 77d2 1c3e
00000030: f18a e6bc d2d0 813d 40c7 453b d8f2 8e3c
00000040: 9e96 1e3e 8ea3 393d 57a0 173e f15e 993d
00000050: 6b86 aabc 037a 213e 1893 edbd 5a0d 02be
00000060: d46f a03d 396b 073e 685a fabd 2d43 a13c
00000070: 8798 c7bd b315 9b3d 926a e5bd 0137 1ebe
00000080: 9591 4fbd af89 0c3e 2323 bdbd 9996 3abe
00000090: 5503 90bd 1b33 963d ac6f 6e3d c92e f93d
000000a0: 8909 533d bd15 973d 2036 493c f1c8 a4bd
000000b0: d017 293c 4100 2c3e 486b df3c d9d9 6c3d
000000c0: 5c33 19bc 2463 bfbd f48b 41bd 8cb9 21bd
000000d0: a395 183e 08c9 2bbd a4d5 403c fc7d 213e
000000e0: 55ba 14bd 347d d93d 8712 f0bd 0db5 efbd
000000f0: dd9e d33d 92d2 17bc 5a77 f83d 75bc 3fbc
00000100: 5898 6b3a a4fd f83d 880a b9bc b376 e7bd
00000110: a642 123e b2c3 8cbd 353d 21be cfd4 1d3e
00000120: 25d0 19be 0418 5ebd 6336 0a3e 1d01 ffbd
00000130: 57e3 013e 69cb 213e b63d b03d 1c07 95bc
00000140: 3fa7 50bd 9a6f f13d bdbf 07be 8841 81bc
00000150: 78b2 25be 6b8b 97bd ad71 d63b c2d4 64bd
00000160: d4f4 803d 3987 96bd 6e6b 10be 1398 0b3e
00000170: ebf4 353d 796b 27bd 26a8 20ba 1c12 09be
00000180: faed 09bc c1a3 153e c474 b8bd f9b0 fdbd
00000190: fc74 c03d 7a9a e8bd 99af 8ebd 8e0a 493e
000001a0: 4b29 2abe c178 b0bd d8ad ba3d 3db1 b238
000001b0: 9316 4a3d 7c5d 163e 7a82 643c d444 0fbe
000001c0: ed10 e13c b3a1 31be 7cf3 143d 4725 42bc
000001d0: d680 f7bd 5571 ce3d 7b65 6a3d 8f89 dc3b
000001e0: 6523 d13d d20f c83d fa02 8f3d efe3 133d
000001f0: fa46 a03c be34 f43c 935e b83d efaf dbbd
00000200: 8793 8a3d 9628 2d3e 17b2 743d 24fd 40bd
00000210: 81c3 fe3d e1d7 a1bc 22a4 72bd 8741 ddbd
00000220: c5a9 7a3d c0ac 893b c72e 3bbe ff6f ff3d
00000230: c4ec 093e a9aa b0bd 133b ebbd 3861 e9bb
00000240: 7606 34bd 05ba 023d 899c febd 4da5 25be
00000250: 0da2 b9bd c617 efbd c75c 973d 7d26 1a3e
00000260: a51e 86bb f353 923d bc91 6e3d 649a 26bd
00000270: ed35 fcbd 2602 983d fb3e 80bc 6719 11be
00000280: cd12 433e 6838 f8bd 594d cf3d 5cb0 0b3d
00000290: 58ed 303e 4cef 6dbd 0bb3 8c3d ed22 f8bd
000002a0: df4b fdbd fba1 45bb 0a37 353e ce63 c43b
000002b0: 77ca 453b 521f e23d 0bf6 34bb cb52 943c
000002c0: b0b8 96bd 3698 b9bd 9e89 3a3e 5985 c2bd
000002d0: 40b9 12be 31e4 963d 2f40 383c 29ee 723d
000002e0: 361f eabd 9ff0 e43d 5d95 c03d 4ae8 23bd
000002f0: e3bc 9ebd e351 b03d 472d 853d 9eb7 94bd
00000300: cfc1 4a3c 29bc f83c 07fc 79bd b12c 093d
00000310: 1824 7b3d 84a3 f43d 2ce4 e7bd c2fb 273e
00000320: f102 a33c 83eb 183b f5b4 b93d 5048 0a3d
00000330: 43a9 0cbe ba66 09be 822b 3fbc 3573 443e
00000340: 8ac7 08be 739b 3d3e 5189 a7bd c81f ee3d
00000350: 9224 1c3d 57a7 fbbd 4288 0d3e a62c dcbd
00000360: cf1e b6bc cf8a c8bc 3efd 0f3e bf7b f3bd
00000370: 8a6b 13be 820b 1f3d 1f0a 07bd 9dfb b4bd
00000380: 3234 d6bd 35f1 19be 7cb0 1b3e 1dfc f7bd
00000390: 042d 803d 16b3 ae3d 8394 c33c 7ee1 b53d
000003a0: 69c9 803d 50be 14be 6d1f ee3d 53f9 e23c
000003b0: 22aa 1f3e 7e96 cebd 9b27 a4bd fd92 163e
000003c0: 1eec 28be 8aaf efbd 671e 093e b84d 7c3d
000003d0: f4ed 0ebe c1e0 e4bd 080c 0e3e 8b5a 633d
000003e0: efbd 54bd 6d58 1cbe 6495 18be f876 043e
000003f0: 0dc2 623c 4d6a cb3d ecdb 013c e44c 353e

emb_net.v_lins1.2.bias f4 [32]
-0.12418357 0.038638167 0.09591412 -0.1299802 -0.16740748 0.029525775 0.09514281 -0.07914166
-0.03514865 -0.06646059 0.12148389 0.045599602 -0.1278531 0.15311168 0.044038817 -0.15512536
0.050831854 -0.09386442 -0.083802484 -0.13531967 -0.15284456 0.11049062 0.059345316 0.11328166
-0.0056072874 -0.07367908 -0.1259276 -0.042486124 0.022873258 -0.13477929 0.11631579 -0.003083945
00000000: f553 febd 0e43 1e3d 9f6e c43d 8819 05be
00000010: de6c 2bbe 0ae0 f13c 3cda c23d 0615 a2bd
00000020: 08f8 0fbd 7d1c 88bd 8ccc f83d a6c6 3a3d
00000030: eceb 02be 4fc9 1c3e 0c62 343d 2fd9 1ebe
00000040: 1035 503d fd3b c0bd a3a0 abbd 3d91 0abe
00000050: 4983 1cbe e848 e23d 1314 733d 3700 e83d
00000060: 56bd b7bb 0fe5 96bd 2af3 00be ee05 2ebd
00000070: b360 bb3c 9503 0abe f936 ee3d 031c 4abb

emb_net.v_lins1.3.weight f4 [32, 32]
0.12098069 0.07226805 0.06568192 0.10638776 -0.1375656 0.033510238 -0.080607556 -0.115381055
-0.051946767 0.026647689 -0.06388338 -0.033171557 0.11458115 0.12069381 0.049351014 -0.054456722
-0.15040621 -0.012026006 0.15803877 0.0016856557 -0.06713004 0.15836504 0.05729528 -0.030050993
0.009776426 0.13625064 -0.10630249 0.09950442 0.03706938 -0.1127531 -0.11588056 -0.13376589
-0.049895473 -0.11382204 -0.113395005 -0.16653384 0.093373105 -0.16780028 0.036840167 -0.04392942
0.002160196 0.09089326 -0.09297946 0.034064714 -0.16474643 0.020652432 -0.15623179 0.049189918
-0.087646104 0.13474606 0.07914579 0.039757457 -0.16323845 0.15208404 0.15451923 -0.097465016
0.009129451 0.17445326 -0.0044926377 0.046353474 -0.023535952 0.12227788 -0.027003044 -0.09579778
0.046923943 0.015975544 -0.038520623 -0.09250041 -0.14652556 -0.12135495 -0.15230761 -0.024252554
-0.024426473 -0.005859884 0.09452631 -0.021704528 0.1442292 0.04964406 0.12380227 -0.080639064
0.043907527 0.021813378 -0.18873498 -0.09557913 -0.16527349 0.10657735 -0.03777451 -0.09533704
0.040232252 0.094732456 0.021728117 -0.16675767 0.002053142 -0.04529019 -0.11095342 0.10571259
-0.0887856 -0.019265175 0.1640857 0.08823371 -0.011249658 -0.119029544 -0.040112935 -0.15349995
-0.05943562 0.042524766 0.07646142 -0.1613843 -0.16368221 0.144589 -0.11970985 -0.15087032
0.16807736 0.0864671 0.16534877 -0.030067595 0.14997163 0.16149312 -0.092677765 0.04546763
0.0030256275 -0.08080862 0.02724065 -0.119587496 0.044612568 -0.110224485 -0.017482476 0.057472218
0.003238982 0.11492366 0.021355323 0.05999838 -0.15395333 -0.010581487 -0.05766463 -0.13687046
-0.16967598 0.12854014 -0.17159845 0.10007706 0.0027017412 -0.01713206 0.08363558 -0.16343683
-0.024861088 0.14702092 -0.14729193 -0.018421352 0.15089595 0.055352222 0.16257046 0.16485311
0.03696821 0.042785693 -0.01629151 0.17635511 -0.017594948 -0.06896959 0.0889483 -0.09871315
-0.012560559 -0.14795762 -0.04743577 -0.06926884 0.16319975 0.07122429 0.04202251 0.0796403
-0.111988574 -0.18221809 0.07752134 0.078361064 0.11006993 0.06865812 -0.07094614 -0.13067514
0.024695626 0.086767755 0.16486101 -0.03496731 -0.13681771 0.096596204 -0.17074998 -0.13321322
-0.08124609 -0.015603587 -0.1155206 0.02548515 -0.019942423 -0.099570684 -0.065452754 0.047584765
-0.1403236 -0.07157654 -0.100167 -0.16232549 -0.083427355 0.09417497 0.09591395 -0.043009233
-0.10863613 -0.08090522 -0.00340539 0.1326907 0.1202536 -0.12875885 -0.06941903 0.10517926
0.15342261 -0.12210799 0.062147487 0.07816613 -0.1312623 0.038734134 0.10493701 0.009157946
-0.10830272 0.070125975 -0.03772737 -0.16837169 0.13980028 -0.13545163 -0.03171934 -0.16478343
-0.025363294 0.07594685 -0.08539672 0.11911077 0.02823642 -0.093062684 0.15216522 0.060419194
0.07211276 -0.12103106 0.006292841 -0.15349934 -0.017539443 0.010080829 -0.16368385 -0.07910371
0.14668268 -0.06409517 0.00092345406 0.13283145 -0.15263149 0.17011236 0.0326 -0.08165897
0.06881344 -0.022385776 -0.01940628 0.07543478 0.101234786 0.111054055 -0.036735944 -0.09733766
00000000: b9c4 f73d 4501 943d 3e84 863d d3e1 d93d
00000010: ffdd 0cbe 0842 093d 9315 a5bd e74c ecbd
00000020: 22c6 54bd 414c da3c 4ad5 82bd e6de 07bd
00000030: 86a9 ea3d 512e f73d 4a24 4a3d 030e 5fbd
00000040: 1604 1abe ba08 45bc ead4 213e 38f1 dc3a
00000050: 797b 89bd 722a 223e 75ae 6a3d 802d f6bc
00000060: 4d2d 203c 4a85 0b3e 1fb5 d9bd f9c8 cb3d
00000070: 10d6 173d 19eb e6bd c952 edbd edf9 08be
00000080: 325f 4cbd 881b e9bd a43b e8bd d987 2abe
00000090: 663a bf3d d6d3 2bbe b7e5 163d 56ef 33bd
000000a0: 1392 0d3b 3f26 ba3d 046c bebd 7187 0b3d
000000b0: 4ab3 28be 4a2f a93c 3afb 1fbe 5e7b 493d
000000c0: cd7f b3bd dffa 093e 3017 a23d b7d8 223d
000000d0: fb27 27be ebbb 1b3e 4a3a 1e3e bd9b c7bd
000000e0: b193 153c e0a3 323e fa36 93bb 24dd 3d3d
000000f0: 78ce c0bc d36c fa3d 7d35 ddbc a031 c4bd
00000100: 5233 403d 25df 823c cdc7 1dbd db70 bdbd
00000110: cc0a 16be f288 f8bd 87f6 1bbe 4bad c6bc
00000120: 071a c8bc 4504 c0bb 0397 c13d b2cd b1bc
00000130: d2b0 133e 9257 4b3d 0b8c fd3d 1826 a5bd
00000140: 61d8 333d f8b1 b23c be43 41be febe c3bd
00000150: 743d 29be 3a45 da3d 72b9 1abd 1140 c3bd
00000160: 93ca 243d 1703 c23d 2aff b13c 86c2 2abe
00000170: 028e 063b 3582 39bd 8c3b e3bd d87f d83d
00000180: 3ad5 b5bd 00d2 9dbc 1506 283e e0b3 b43d
00000190: 7c50 38bc c3c5 f3bd 764d 24bd 172f 1dbe
000001a0: c472 73bd 732e 2e3d ce97 9c3d ed41 25be
000001b0: 4f9c 27be 240f 143e 702a f5bd c07d 1abe
000001c0: 791c 2c3e aa15 b13d 3051 293e 5150 f6bc
000001d0: 2a92 193e 745e 253e d7cd bdbd 443c 3a3d
000001e0: 9b49 463b fd7e a5bd c927 df3c 4aea f4bd
000001f0: abbb 363d 60bd e1bd 6937 8fbc fd67 6b3d
00000200: 1a45 543b 195d eb3d 5cf1 ae3c dcc0 753d
00000210: f1a5 1dbe f95d 2dbc bf31 6cbd c527 0cbe
00000220: 8abf 2dbe 07a0 033e 81b7 2fbe 34f5 cc3d
00000230: b20f 313b 8958 8cbc 2249 ab3d fc5b 27be
00000240: 7ba9 cbbc a78c 163e b2d3 16be 60e8 96bc
00000250: 7884 1a3e 03b9 623d df78 263e 41cf 283e
00000260: fa6b 173d 0d40 2f3d c675 85bc 6f96 343e
00000270: 4823 90bc ee3f 8dbd 872a b63d 1f2a cabd
00000280: ceca 4dbc 3482 17be 034c 42bd d2dc 8dbd
00000290: d61d 273e 0ade 913d cc1f 2c3d 741a a33d
000002a0: 445a e5bd 6197 3abe 82c3 9e3d c47b a03d
000002b0: 586c e13d a19c 8c3d 364c 91bd b4cf 05be
000002c0: 7b4e ca3c 4bb3 b13d 53d1 283e e239 0fbd
000002d0: f119 0cbe 3bd4 c53d 15d9 2ebe 0c69 08be
000002e0: 5a64 a6bd 30a6 7fbc 1096 ecbd 3cc6 d03c
000002f0: 4b5e a3bc b7eb cbbd 180c 86bd 3ee8 423d
00000300: fdb0 0fbe b996 92bd 5b24 cdbd a738 26be
00000310: f6db aabd cfde c03d 886e c43d 732a 30bd
00000320: 9f7c debd a3b1 a5bd f72c 5fbb 12e0 073e
00000330: 8547 f63d 5cd9 03be 902b 8ebd 3968 d73d
00000340: d11a 1d3e c113 fabd 5d8e 7e3d 9015 a03d
00000350: a069 06be afa7 1e3d 37e9 d63d 360b 163c
00000360: d1cd ddbd 359e 8f3d 0488 1abd a169 2cbe
00000370: ce27 0f3e d5b3 0abe 23ec 01bd fdbc 28be
00000380: afc6 cfbc 068a 9b3d 7ae4 aebd 59f0 f33d
00000390: 1150 e73c a697 bebd 33d1 1b3e 1e7a 773d
000003a0: dbaf 933d 22df f7bd 2d34 ce3b ee2e 1dbe
000003b0: e1ae 8fbc 102a 253c bd9c 27be 2001 a2bd
000003c0: fc33 163e 5444 83bd f413 723a f804 083e
000003d0: 6e4b 1cbe ef31 2e3e 9487 053d d13c a7bd
000003e0: 10ee 8c3d 6062 b7bc ebf9 9ebc 8d7d 9a3d
000003f0: 2f54 cf3d 4f70 e33d 6e78 16bd f858 c7bd

emb_net.v_lins1.3.bias f4 [32]
-0.05484509 -0.00057204906 0.16737466 -0.057931107 0.10323148 -0.16114101 0.15141433 0.03696746
-0.12553696 0.01137743 0.029665561 -0.13951536 -0.07898327 0.13227437 -0.0223613 -0.049998578
0.00864896 0.14869468 -0.075912386 0.16239908 -0.030907294 0.13223256 -0.13507548 -0.14728162
-0.071000256 0.0204616 -0.012367182 -0.07998639 -0.047677364 -0.11958041 -0.14145458 0.10102048
00000000: 3fa5 60bd 90f5 15ba 4364 2b3e 2b49 6dbd
00000010: 076b d33d 2602 25be 5c0c 1b3e 316b 173d
00000020: c38c 00be 6668 3a3c 3105 f33c 1ddd 0ebe
00000030: fbc1 a1bd ef72 073e 0c2f b7bc 4fcb 4cbd
00000040: 5eb4 0d3c 6b43 183e f477 9bbd f24b 263e
00000050: 4b31 fdbc f967 073e 3a51 0abe fed0 16be
00000060: 9568 91bd 169f a73c b99f 4abc e8cf a3bd
00000070: 5749 43bd 93e6 f4bd 78d9 10be d3e3 ce3d

emb_net.v_lins1.4.weight f4 [32, 32]
-0.065528296 -0.13032661 0.08964813 -0.081039734 0.053435225 0.053307146 -0.10497518 -0.10002813
0.0031511756 0.066856265 -0.0011609327 -0.080496855 -0.056613173 0.14774571 0.026836157 -0.0029461174
0.05823034 -0.09832573 0.043714643 -0.18390433 0.055121273 0.06438417 -0.09846115 0.10356893
0.08474248 0.11686464 0.105657935 -0.10916785 -0.17105527 -0.065943815 -0.1112925 0.027684953
-0.02565041 0.063948266 0.14014043 0.16866219 -0.08506564 -0.14796704 0.022174496 0.027368505
-0.13923094 -0.1614114 0.16136602 -0.11689303 -0.15911968 -0.034471802 0.08474254 0.08963677
0.003743267 0.13921912 -0.15144525 -0.095699616 -0.10824339 0.08909246 0.038845215 -0.1101938
0.018211495 -0.11139515 0.052683763 -0.09663166 0.018084515 -0.116526164 -0.042927712 -0.085687265
-0.117500596 0.03311648 -0.061718702 -0.027594924 -0.076605715 0.03252904 -0.12357933 0.11011724
-0.11772744 -0.031703167 -0.09912543 0.048523292 0.018778136 -0.028140403 0.06648547 0.14221844
-0.18983619 0.089321405 0.05580894 0.07568665 -0.04889902 0.021672446 -0.13962032 0.087571
-0.117167994 0.1107842 -0.1939245 -0.03815633 0.11724473 -0.080876544 -0.144852 0.069695935
0.0060294224 -0.011447007 -0.044411186 0.13496548 0.07571483 0.029828511 -0.043881055 -0.16448346
0.15807988 0.09637672 -0.11971613 -0.012651278 0.08935136 -0.05493644 0.17548321 -0.05427982
0.17615528 0.070567295 -0.08625922 0.014557842 -0.026983278 -0.117856935 -0.016174156 0.0066072755
-0.10986121 -0.05468653 -0.13602333 -0.026850067 -0.17006199 -0.12452324 -0.12764038 0.010845427
-0.06808895 0.1049476 -0.15543312 -0.13801283 0.00028412754 0.011172735 -0.042177945 -0.08253006
-0.13401505 0.006547548 -0.13518375 -0.13316466 -0.111078344 -0.12161397 0.04825553 0.12880956
0.083372205 0.09059076 0.17761262 -0.017005747 -0.03581172 0.036643025 0.062831335 -0.07866382
-0.0014051307 -0.12433393 0.1275029 -0.15425311 0.06427368 0.045362517 -0.044232197 -0.06502949
0.14607531 0.061880477 -0.02497696 -0.04218217 0.009679091 -0.057585835 -0.012081337 -0.07822039
0.0051882053 -0.14279771 -0.05379253 -0.018136496 -0.111151785 0.042075686 0.041556273 0.08975876
-0.08817211 0.063166276 0.15876797 -0.17337923 0.01988954 0.103694156 0.12951386 0.10128384
0.031192843 -0.11202728 0.12193067 -0.12872422 -0.018105889 0.033000853 0.14496152 -0.05270406
-0.058958948 0.07070195 -0.105672345 0.07661559 0.12842216 0.00520141 0.10849876 0.115488894
-0.023244442 0.16050541 -0.15647358 0.107105516 -0.08384469 -0.14814089 0.024652526 -0.15425514
0.10952382 0.03335907 0.036607057 0.010174024 -0.10993736 0.14572915 -0.109756716 -0.1027828
0.12296386 -0.08491995 -0.015116624 -0.14081375 -0.14293195 -0.015219659 -0.15282446 -0.0030491103
0.1540008 -0.037605103 0.023304874 0.07751107 0.1416265 -0.019041555 -0.16575602 -0.16036342
-0.12599541 0.05034885 0.11979099 0.095320836 -0.057440124 0.0033032324 0.02320668 -0.051145386
0.0061828275 0.04796916 -0.15174815 0.06234642 -0.04178278 -0.076572776 -0.103120595 -0.107697845
-0.13465218 0.10136175 -0.023864139 0.11485046 -0.1344461 -0.13323076 0.055088744 -0.119588174
00000000: b333 86bd 5774 05be 7099 b73d 29f8 a5bd
00000010: e5de 5a3d 9858 5a3d 3afd d6bd 8cdb ccbd
00000020: f483 4e3b f0eb 883d 702a 98ba 89db a4bd
00000030: 37e3 67bd a74a 173e 80d7 db3c a613 41bb
00000040: f082 6e3d 005f c9bd 200e 333d 6b51 3cbe
00000050: d8c6 613d d9db 833d 00a6 c9bd f21b d43d
00000060: 778d ad3d ba56 ef3d 3063 d83d 6593 dfbd
00000070: 1d29 2fbe 8d0d 87bd 52ed e3bd 8ecb e23c
00000080: cf20 d2bc 4ff7 823d f980 0f3e c8b5 2c3e
00000090: e536 aebd ac84 17be 4aa7 b53c ea33 e03c
000000a0: 8e92 0ebe 0849 25be 223d 253e 9d65 efbd
000000b0: 45f0 22be 4e32 0dbd 7f8d ad3d 7c93 b73d
000000c0: 9951 753b 758f 0e3e 7714 1bbe 29fe c3bd
000000d0: b6ae ddbd 1c76 b63d 291c 1f3d 49ad e1bd
000000e0: 4630 953c 2423 e4bd eeca 573d d2e6 c5bd
000000f0: fa25 943c 45a5 eebd f8d4 2fbd ce7c afbd
00000100: 27a4 f0bd 25a5 073d c0cc 7cbd c00e e2bc
00000110: 75e3 9cbd 2c3d 053d 2917 fdbd 2685 e13d
00000120: 161b f1bd 2edb 01bd 4602 cbbd 5cc0 463d
00000130: 9bd4 993c b486 e6bc 8929 883d b6a1 113e
00000140: 6b64 42be 24ee b63d ea97 643d 9a01 9b3d
00000150: 574a 48bd 6a8a b13c a1f8 0ebe 6d58 b33d
00000160: c6f5 efbd d4e2 e23d 2594 46be d049 1cbd
00000170: 011e f03d 9aa2 a5bd 1554 14be bebc 8e3d
00000180: 7692 c53b 3a8c 3bbc 81e8 35bd 6434 0a3e
00000190: 6010 9b3d ec5a f43c 9fbc 33bd 5a6e 28be
000001a0: b1df 213e 2861 c53d bb2d f5bd 4e47 4fbc
000001b0: d9fd b63d 0805 61bd dfb1 333e 8454 5ebd
000001c0: 0d62 343e 9685 903d ada8 b0bd 0484 6e3c
000001d0: 090c ddbc fa5e f1bd aa7f 84bc d881 d83b
000001e0: eafe e0bd fcfe 5fbd b349 0bbe acf4 dbbc
000001f0: bb24 2ebe 0a06 ffbd 29b4 02be 05b1 313c
00000200: 3872 8bbd c4ee d63d dc29 1fbe 3c53 0dbe
00000210: f4f6 9439 d90d 373c c8c2 2cbd 8505 a9bd
00000220: 3e3b 09be d08c d63b 9c6d 0abe 515c 08be
00000230: 0b7d e3bd bf10 f9bd 97a7 453d a7e6 033e
00000240: 0cbf aa3d a687 b93d 15e0 353e a34f 8bbc
00000250: 4faf 12bd ff16 163d b7ad 803d 7f1a a1bd
00000260: 5d2c b8ba caa2 febd 1f90 023e 87f4 1dbe
00000270: eba1 833d 0cce 393d d22c 35bd 2e2e 85bd
00000280: c494 153e 6276 7d3d 7b9c ccbc 36c7 2cbd
00000290: 0d95 1e3c 20df 6bbd cdf0 45bc 0332 a0bd
000002a0: d201 aa3b 9039 12be 8e55 5cbd fd92 94bc
000002b0: 8ca3 e3bd 8e57 2c3d e936 2a3d 71d3 b73d
000002c0: 9493 b4bd 525d 813d 1294 223e 538a 31be
000002d0: 63ef a23c 9a5d d43d 489f 043e e76d cf3d
000002e0: 2288 ff3c 8f6e e5bd cab6 f93d 48d0 03be
000002f0: cd52 94bc e72b 073d cb70 143e 36e0 57bd
00000300: f07e 71bd 2fcc 903d be6a d8bd a2e8 9c3d
00000310: 1981 033e 9770 aa3b 9934 de3d 7185 ec3d
00000320: 216b bebc 885b 243e 9c3a 20be 235a db3d
00000330: c4b6 abbd 3fb2 17be 18f4 c93c 0ff5 1dbe
00000340: 064e e03d 85a3 083d 48f1 153d f3b0 263c
00000350: d726 e1bd 063a 153e 21c8 e0bd ca7f d2bd
00000360: 7ad4 fb3d 83ea adbd b7ab 77bc 7b31 10be
00000370: c15c 12be e05b 79bc 047e 1cbe 95d3 47bb
00000380: 63b2 1d3e cf07 1abd dde9 be3c 20be 9e3d
00000390: 8a06 113e 09fd 9bbc f2bb 29be 4f36 24be
000003a0: f104 01be 993a 4e3d fb54 f53d 9237 c33d
000003b0: 5646 6bbd 0b7b 583b ef1b be3c d37d 51bd
000003c0: 5199 ca3b 4f7b 443d de63 1bbe f65e 7f3d
000003d0: 6c24 2bbd 30d2 9cbd e430 d3bd b090 dcbd
000003e0: 43e2 09be c096 cf3d ba7e c3bc b836 eb3d
000003f0: 3dac 09be a56d 08be bca4 613d a5ea f4bd

emb_net.v_lins1.4.bias f4 [32]
0.07664212 0.14132167 0.16292965 -0.13716307 -0.09785624 0.14671096 0.1359531 -0.033526797
-0.117132485 0.00680281 0.0274197 -0.09969661 -0.1730643 0.06615087 0.09572643 -0.17509821
0.12735994 -0.12545379 0.1406046 0.17181754 -0.10373971 0.049435772 0.11503478 0.030303225
0.07970514 0.17058437 0.029296424 0.05477472 0.12064033 0.17621942 0.064470716 0.030905012
00000000: 8bf6 9c3d a1b6 103e 08d7 263e 7a74 0cbe
00000010: da68 c8bd 663b 163e 4a37 0b3e 6553 09bd
00000020: 28e3 efbd 1bea de3b 479f e03c bc2d ccbd
00000030: c537 31be 1b7a 873d 380c c43d f24c 33be
00000040: a56a 023e f576 00be a7fa 0f3e f0f0 2f3e
00000050: 7c75 d4bd 2a7d 4a3d 5b97 eb3d 783e f83c
00000060: 733c a33d abad 2e3e 0eff ef3c 755b 603d
00000070: 4712 f73d dd72 343e 3909 843d 822c fd3c

emb_net.v_lins1.5.weight f4 [32, 32]
0.17810962 -0.008521248 0.13722876 0.04105576 0.070808604 0.12465199 0.11608258 0.11587205
0.033469383 0.15642262 0.14516793 -0.11248039 0.027455851 0.05752053 0.08864223 -0.002415586
-0.15144463 -0.1588548 0.118792556 -0.15371147 0.013393175 -0.15887468 -0.05214867 0.0049331523
-0.05079531 0.14600812 0.18668132 0.14805499 -0.14701492 0.097104855 -0.14241323 -0.11412031
0.12654549 -0.13867569 -0.052834086 -0.1647462 -0.14199951 -0.03808843 -0.12051795 -0.16122468
-0.033528198 -0.019202387 0.055634636 0.07866898 -0.024662772 0.0355163 0.07306426 -0.04758867
0.14111675 -0.05608608 -0.17161426 -0.018054368 -0.018554682 0.060213555 -0.02477784 -0.047665462
-0.06463858 0.14564946 -0.086002566 0.09263022 0.029246733 0.14857692 0.09205802 -0.03236362
0.07490257 -0.043546215 0.048220493 0.03629224 -0.11643979 -0.09559534 0.1455309 -0.116696216
0.02865333 0.024561705 -0.17453203 -0.03940905 -0.0039998675 -0.06870269 0.012875774 0.03864599
0.14867692 0.04298969 0.14233501 -0.069047846 -0.15058936 0.11804366 0.08524924 -0.18178031
0.027180027 0.15509109 0.074763395 0.1762873 0.04169895 -0.10834187 0.11837377 0.1152042
-0.042273246 0.01484489 -0.094435275 -0.0349654 -0.09677112 -0.012920039 0.07028446 -0.08445179
-0.07294573 0.14831139 0.05911587 -0.080186754 -0.077227406 -0.15338217 0.03985931 -0.061015844
-0.068475254 -0.055605885 -0.15264672 0.087351374 0.15059233 0.1060528 -0.10695953 0.079501376
0.08227504 -0.074209586 0.096726276 0.08308453 -0.0598395 0.15542029 -0.16604598 0.11818404
0.03529483 -0.085260674 -0.002319007 -0.16237186 -0.07497331 0.047160037 0.036314316 -0.12778033
0.012194816 -0.13488421 0.019210285 -0.080462076 0.09917697 0.10217846 -0.060243126 0.022256771
0.07732596 -0.10229839 0.01023939 -0.050218035 -0.15566307 0.03570378 -0.07994974 -0.16615333
-0.17662038 -0.031567317 0.0140378885 0.08946589 -0.13837296 0.012849238 0.14149024 -0.114634365
-0.104709595 -0.121679924 -0.121897325 0.12024836 -0.10762123 0.13761534 -0.10330423 0.14426288
0.14430663 -0.16184938 0.16319942 0.054741785 -0.040465202 -0.18351649 -0.04695204 -0.06561729
0.0019198742 -0.10608383 -0.11663936 0.0509057 0.13166928 -0.058973763 0.12071712 0.0017921745
-0.13471712 -0.15586817 -0.09487888 -0.15185149 0.058740675 0.118428774 0.008445525 0.09910599
0.15771708 -0.111705415 0.094755806 -0.04470007 0.04963839 -0.0527474 -0.09602546 0.071143284
0.021786507 0.113036774 0.06195436 -0.12366116 0.024510534 0.057154074 -0.08257125 0.09190121
0.10923242 0.15033388 -0.07098331 -0.17395212 0.15765275 -0.061981343 0.1403405 -0.16103101
-0.18411739 0.060629066 0.0057669743 0.10931898 0.07836419 0.18155453 0.0645087 0.13711934
-0.09423602 -0.11093215 -0.15473905 0.13915084 -0.17528266 0.033435557 -0.10247635 0.1478555
0.062113695 0.027422512 0.0063384674 -0.16208278 -0.13895899 0.03348077 0.04931805 0.1658764
-0.15221028 0.062507905 0.12798871 -0.14239268 -0.12727636 0.14113948 0.047907725 -0.053245295
-0.0040465067 -0.014048688 0.15986401 -0.06376888 -0.1152405 -0.1231275 0.01063752 0.10947221
00000000: 5e62 363e b49c 0bbc b285 0c3e 162a 283d
00000010: 1a04 913d 8b49 ff3d b4bc ed3d 534e ed3d
00000020: 3117 093d 402d 203e e7a6 143e 1e5c e6bd
00000030: 18eb e03c a69a 6b3d 0f8a b53d cf4e 1ebb
00000040: 4d14 1bbe d5aa 22be 8349 f33d 8a66 1dbe
00000050: 0c6f 5b3c 0bb0 22be d899 55bd 48a6 a13b
00000060: be0e 50bd 2783 153e 6329 3f3e ba9b 173e
00000070: 148b 16be e9de c63d c6d4 11be e9b7 e9bd
00000080: 2495 013e 0001 0ebe 8e68 58bd 3ab3 28be
00000090: 5268 11be 9d02 1cbd 1dd2 f6bd 1518 25be
000000a0: dd54 09bd 534e 9dbc 25e1 633d 341d a13d
000000b0: 9509 cabc 8a79 113d b7a2 953d 56ec 42bd
000000c0: e980 103e 84ba 65bd a6bb 2fbe c1e6 93bc
000000d0: fdff 97bc 7da2 763d e6fa cabc dc3c 43bd
000000e0: 3b61 84bd 2225 153e 1d22 b0bd eab4 bd3d
000000f0: d896 ef3c 8c24 183e ea88 bc3d b78f 04bd
00000100: 8566 993d 845d 32bd da82 453d 2ca7 143d
00000110: fc77 eebd 7dc7 c3bd 0d06 153e 6dfe eebd
00000120: 63ba ea3c a135 c93c 86b8 32be 626b 21bd
00000130: 5211 83bb ffb3 8cbd e9f4 523c 424b 1e3d
00000140: c33e 183e f515 303d 45c0 113e f568 8dbd
00000150: 1934 1abe e0c0 f13d 2797 ae3d 9e24 3abe
00000160: a6a8 de3c 33d0 1e3e 8d1d 993d a884 343e
00000170: 85cc 2a3d 58e2 ddbd f26d f23d 2ef0 eb3d
00000180: b626 2dbd fb37 733c 4867 c1bd e137 0fbd
00000190: f02f c6bd 92ae 53bc 4df1 8f3d 0ff5 acbd
000001a0: 9264 95bd f1de 173e 7c23 723d f438 a4bd
000001b0: 6729 9ebd 3710 1dbe 8443 233d c0eb 79bd
000001c0: c13c 8cbd ffc2 63bd 6c4f 1cbe 47e5 b23d
000001d0: e034 1a3e 3632 d93d 990d dbbd 9ed1 a23d
000001e0: d17f a83d 32fb 97bd 6d18 c63d 3928 aa3d
000001f0: 431a 75bd 7f26 1f3e f507 2abe 790a f23d
00000200: 5091 103d 269d aebd 7bfa 17bb cf44 26be
00000210: 9b8b 99bd e22a 413d 52be 143d d9d8 02be
00000220: c4cc 473c 161f 0abe e35e 9d3c 4dc9 a4bd
00000230: 4c1d cb3d f142 d13d 7fc1 76bd d553 b63c
00000240: 135d 9e3d d181 d1bd 1dc3 273c 6db1 4dbd
00000250: 2466 1fbe 203e 123d b0bc a3bd 1924 2abe
00000260: f9db 34be bb4c 01bd 2cff 653c e439 b73d
00000270: a4b1 0dbe 9c85 523c d1e2 103e 6cc5 eabd
00000280: fc71 d6bd 5333 f9bd 4ea5 f9bd c644 f63d
00000290: 8568 dcbd 09eb 0c3e 2b91 d3bd a6b9 133e
000002a0: 1ec5 133e d8bb 25be c01d 273e ec38 603d
000002b0: d7be 25bd bfeb 3bbe c850 40bd 5c62 86bd
000002c0: 4aa4 fb3a 7b42 d9bd 9ee0 eebd 7f82 503d
000002d0: 50d4 063e 798e 71bd 8a3a f73d 66e7 ea3a
000002e0: 49f3 09be e89b 1fbe dc4f c2bd f57e 1bbe
000002f0: 109a 703d c98a f23d 195f 0a3c 15f8 ca3d
00000300: 9680 213e cfc5 e4bd 550f c23d 6c17 37bd
00000310: a051 4b3d a80d 58bd ffa8 c4bd 92b3 913d
00000320: 9e79 b23c d37f e73d dbc3 7d3d 1042 fdbd
00000330: 51ca c83c 641a 6a3d 1e1b a9bd b436 bc3d
00000340: 3fb5 df3d 20f1 193e b35f 91bd 8120 32be
00000350: b96f 213e 26e0 7dbd 6cb5 0f3e 50e5 24be
00000360: 4589 3cbe 2f56 783d e3f8 bc3b a1e2 df3d
00000370: 687d a03d 6ee9 393e 231d 843d 0369 0c3e
00000380: d1fe c0bd 6530 e3bd ea73 1ebe 8f7d 0e3e
00000390: 4c7d 33be b9f3 083d 1fdf d1bd 6f67 173e
000003a0: ee6a 7e3d 2da5 e03c ebb2 cf3b 07f9 25be
000003b0: 444b 0ebe 2223 093d b901 4a3d 81db 293e
000003c0: 03dd 1bbe 2504 803d 790f 033e 63cf 11be
000003d0: bc54 02be de86 103e e43a 443d bd17 5abd
000003e0: 8f98 84bb 782c 66bc 64b3 233e 4299 82bd
000003f0: 3603 ecbd 452a fcbd fe48 2e3c f732 e03d

emb_net.v_lins1.5.bias f4 [32]
-0.032652427 0.14219992 -0.033936605 -0.16033605 0.12124293 0.1151632 -0.11842111 0.10255119
-0.1487742 -0.14509457 -0.044998184 -0.09799057 0.111990206 -0.14364931 -0.1509666 0.034990843
-0.00607596 0.17023812 0.082990006 -0.0727255 0.1566954 0.024403851 -0.1690712 0.058688536
0.11829163 -0.055113945 0.17090772 0.08479393 0.13450536 0.033296015 -0.13693732 0.034904443
00000000: 8dbe 05bd db9c 113e 1c01 0bbd 222f 24be
00000010: 374e f83d afda eb3d c486 f2bd 5c06 d23d
00000020: 4458 18be ac93 14be 0450 38bd 48af c8bd
00000030: 1f5b e53d ce18 13be fd96 1abe 8f52 0f3d
00000040: d918 c7bb e752 2e3e aaf6 a93d 1bf1 94bd
00000050: c274 203e 96ea c73c 0021 2dbe 6463 703d
00000060: e242 f23d 29bf 61bd 6f02 2f3e 71a8 ad3d
00000070: c6bb 093e 6761 083d 4c39 0cbe f6f7 0e3d

emb_net.v_lins1.6.weight f4 [32, 32]
0.06340422 0.009665852 -0.038894657 -0.049676877 0.10944288 -0.08442067 0.14441238 0.06543893
0.03909726 -0.048048522 -0.13962893 -0.11228996 -0.15951554 -0.0941867 -0.1355204 0.08904168
-0.13925101 -0.09975109 -0.13435765 0.13689107 0.06892258 0.023941137 -0.03473274 0.004828584
0.1564182 0.049900424 0.111327186 0.039195344 -0.05077053 -0.021376224 -0.09414881 0.11736841
-0.11233281 -0.04044431 -0.048875146 0.09917598 -0.006802592 0.14071676 0.12822999 0.13979669
-0.043013435 -0.107341245 0.039088935 0.085744746 -0.08952801 -0.14823611 0.086248055 0.14504051
0.03798387 0.058865953 -0.0459696 -0.16334772 -0.10453119 -0.13797478 -0.15872228 -0.094542295
-0.104908265 0.00010968548 0.095536694 0.051781524 0.110174954 0.098859794 0.025782416 0.10638631
0.098549716 -0.16629858 0.13362266 0.07686081 0.0091585275 -0.09532963 -0.068896145 0.064310305
-0.07505359 -0.09128486 -0.13664736 0.06922701 0.029803252 0.13874589 0.017267346 0.12400422
0.116763905 -0.15219021 0.097241856 -0.078911886 0.11901869 -0.05481725 0.010471222 0.17922074
-0.14281204 0.077847436 0.18234015 -0.12185735 0.039975543 -0.04650137 0.08439109 -0.09140466
0.08602981 0.06794289 0.067403115 0.16134834 -0.11207085 0.17946981 0.1780629 0.17848958
-0.059907872 0.13694167 0.06158962 0.18450847 0.052991834 -0.14945082 -0.007982954 0.067514114
0.075799994 -0.14132488 -0.10044308 0.075687826 -0.051923867 0.14137883 0.12746109 0.16191006
-0.16499951 0.03552355 -0.14420581 -0.09428903 -0.101731785 0.15436016 -0.02186466 -0.040469326
-0.084892355 -0.15823764 0.06381383 0.0050538513 -0.17273463 -0.06609588 0.047812883 -0.044622295
0.1241244 0.15721868 0.16923575 -0.1510044 -0.10779392 0.11778866 -0.014215247 -0.13740578
-0.022340782 -0.058240112 -0.11720993 0.10195211 -0.10187493 0.0015215637 -0.0072677266 -0.063241675
0.028495701 0.15520434 0.08050573 -0.104319565 0.066641234 0.024891594 -0.05087334 -0.022160724
-0.16509064 -0.0834536 -0.115737885 0.09336601 0.056461703 -0.15225056 -0.09639963 -0.05523052
0.014785471 -0.075950794 -0.01748124 -0.09503283 -0.1199082 -0.09139986 -0.052204505 -0.023809997
0.05325205 -0.10427847 0.16107595 0.0896146 0.16424647 0.116950236 -0.11002632 0.04730524
0.1140463 0.14438681 0.0560831 -0.16619569 0.12569016 0.16036709 0.09625402 -0.08689846
0.051107112 -0.077736616 0.09174118 -0.090135045 -0.053102914 -0.032651138 0.063027844 0.09936682
-0.04751431 0.08894962 -0.07285256 0.0075158235 -0.12712629 0.07670862 0.15699598 -0.13028184
0.07854438 0.1673493 -0.048596576 0.0109683275 -0.028486557 -0.14433227 0.07559099 -0.11730843
0.0950855 0.064452365 0.19358893 0.14738867 0.0027155578 0.0053501804 -0.08338052 0.009729783
0.1662995 -0.03361399 -0.13013405 0.0429223 0.08949674 -0.1332619 0.0994495 -0.12237951
0.09353568 0.14879288 -0.1265325 -0.1600026 -0.046706196 -0.12023491 0.097587876 -0.06322059
0.1191006 0.17240512 -0.012092575 -0.14117573 0.066741794 0.12640485 0.14987494 -0.1547598
-0.14074837 -0.10832657 -0.036279533 0.054982115 0.1625663 -0.028072957 -0.14715594 -0.023085237
00000000: 12da 813d 865d 1e3c 0150 1fbd fb79 4bbd
00000010: 9723 e03d bfe4 acbd d7e0 133e d904 863d
00000020: 7324 203d 87ce 44bd e3fa 0ebe 47f8 e5bd
00000030: 0b58 23be f5e4 c0bd dcc5 0abe 7c5b b63d
00000040: d197 0ebe 4d4a ccbd 0d95 09be 2c2d 0c3e
00000050: 4827 8d3d 3420 c43c eb43 0ebd 1939 9e3b
00000060: 182c 203e 6364 4c3d 82ff e33d 4c8b 203d
00000070: c2f4 4fbd 311d afbc 17d1 c0bd d95e f03d
00000080: bf0e e6bd efa8 25bd 4e31 48bd c71c cb3d
00000090: 47e8 debb 0e18 103e b94e 033e dd26 0f3e
000000a0: db2e 30bd bad5 dbbd b81b 203d f19a af3d
000000b0: 765a b7bd 35cb 17be d2a2 b03d 8085 143e
000000c0: f994 1b3d 6d1d 713d 9f4a 3cbd a044 27be
000000d0: 7314 d6bd 4349 0dbe 1888 22be 649f c1bd
000000e0: 25da d6bd f206 e638 bea8 c33d dd18 543d
000000f0: 68a3 e13d 0177 ca3d a535 d33c 11e1 d93d
00000100: 6fd4 c93d 2d4a 2abe 61d4 083e 3369 9d3d
00000110: a60d 163c 2e3c c3bd 6c19 8dbd 1fb5 833d
00000120: b2b5 99bd 8ff3 babd 49ed 0bbe e4c6 8d3d
00000130: f325 f43c 6713 0e3e 4074 8d3c edf5 fd3d
00000140: ea21 ef3d c0d7 1bbe bd26 c73d 8e9c a1bd
00000150: 12c0 f33d 0e88 60bd 7d8f 2b3c a485 373e
00000160: 523d 12be 7a6e 9f3d 60b7 3a3e 5990 f9bd
00000170: 65bd 233d 3878 3ebd 3cd5 ac3d 5e32 bbbd
00000180: 6630 b03d a425 8b3d a50a 8a3d 8038 253e
00000190: 6785 e5bd efc6 373e 1f56 363e f9c5 363e
000001a0: f561 75bd 703a 0c3e 6645 7c3d caef 3c3e
000001b0: f70d 593d a309 19be f0ca 02bc d744 8a3d
000001c0: 073d 9b3d 78b7 10be 1ab5 cdbd 3802 9b3d
000001d0: 1fae 54bd 9dc5 103e 2985 023e c0cb 253e
000001e0: a2f5 28be 2481 113d b0aa 13be 9b1a c1bd
000001f0: c158 d0bd 9710 1e3e 841d b3bc 2ac3 25bd
00000200: 0bdc adbd 0c09 22be d3b0 823d c79a a53b
00000210: 59e1 30be 475d 87bd 71d7 433d dec5 36bd
00000220: ef34 fe3d effd 203e 234c 2d3e e6a0 1abe
00000230: 0fc3 dcbd 2e3b f13d 11e7 68bc 1ab4 0cbe
00000240: 0404 b7bc 2f8d 6ebd c30b f0bd 45cc d03d
00000250: cea3 d0bd 356f c73a 1c26 eebb da84 81bd
00000260: d16f e93c e3ed 1e3e 30e0 a43d 7fa5 d5bd
00000270: 337b 883d 75e9 cb3c 9060 50bd 688a b5bc
00000280: 850d 29be b9e9 aabd fc07 edbd ae36 bf3d
00000290: 6344 673d 92e7 1bbe 2b6d c5bd 6639 62bd
000002a0: c33e 723c 178c 9bbd d134 8fbc 93a0 c2bd
000002b0: 6e92 f5bd da2f bbbd 64d4 55bd 2f0d c3bc
000002c0: d21e 5a3d f38f d5bd 18f1 243e dc87 b73d
000002d0: 3a30 283e 9b83 ef3d 7b55 e1bd 24c3 413d
000002e0: 1b91 e93d 23da 133e 65b7 653d 342f 2abe
000002f0: ecb4 003e 4537 243e d420 c53d d2f7 b1bd
00000300: b155 513d 6034 9fbd cde2 bb3d b998 b8bd
00000310: 7182 59bd 33bd 05bd be14 813d d580 cb3d
00000320: 5d9e 42bd 382b b63d b933 95bd 4c47 f63b
00000330: 652d 02be 6919 9d3d 8ec3 203e 9a68 05be
00000340: e0db a03d 9d5d 2b3e 340d 47bd 80b4 333c
00000350: a45c e9bc d7cb 13be 73cf 9a3d 673f f0bd
00000360: 30bc c23d 9aff 833d 2d3c 463e 0eed 163e
00000370: 80f7 313b 9150 af3b 68c3 aabd ab69 1f3c
00000380: 6b4a 2a3e d3ae 09bd dc41 05be 4bcf 2f3d
00000390: 114a b73d cf75 08be 2eac cb3d 1ca2 fabd
000003a0: a28f bf3d 295d 183e bc91 01be b9d7 23be
000003b0: ff4e 3fbd b83d f6bd 27dc c73d cc79 81bd
000003c0: 04eb f33d f88a 303e f01f 46bc 5f90 10be
000003d0: ecaf 883d 4670 013e d178 193e 5a79 1ebe
000003e0: 5720 10be 52da ddbd d999 14bd ed34 613d
000003f0: c877 263e 42f9 e5bc 0cb0 16be 401d bdbc
