or/GFlowNet and ACO to solve TSP/DeepACO/pretrained/smtwtp/smtwtp500.pt (torch, 366714 bytes, 230 tensors)

emb_net.v_lin0.weight f4 [32, 2]
000000 f9 e8 bf bd 45 9b 22 3f 50 d8 9c 3e c3 08 20 3f
       -0.09370608 0.6351817 0.30633783 0.6251337
000010 90 c2 9e bc ee 53 9d be d9 38 cc 3e dd 64 22 3f
       -0.019379884 -0.30728096 0.3988712 0.63435155
000020 1b f6 b5 3e b9 af a2 3e 16 a7 45 3e 4c 2e 7e be
       0.35539326 0.3177469 0.1930202 -0.24822348
000030 c9 05 27 bf 1a ca 0e 3f 95 a5 e6 bd 7c 92 43 be
       -0.652432 0.5577713 -0.11262051 -0.19098848
000040 d3 b9 88 be a1 d7 22 3f f9 3e 21 bf 3a c7 ac 3e
       -0.26704273 0.63610274 -0.62986714 0.33745748
000050 e4 4b 99 3e e1 2b d1 be f4 44 20 be ca 78 b6 3d
       0.29940712 -0.4085379 -0.15651304 0.089097574
000060 56 82 1c bf e9 5a b5 3e 1d 64 ea be b3 65 2d be
       -0.61136377 0.3542092 -0.45779505 -0.16933326
000070 c8 2e 2e 3f cf dc 53 be bc c3 c7 be d1 a5 8d 3e
       0.6804013 -0.206897 -0.3901652 0.2766557
000080 b1 9f 89 be a2 a8 e8 3e db c1 4f bd af 85 fc 3e
       -0.26879647 0.45441157 -0.050721984 0.49320742
000090 3d 2c 11 3f a0 56 1b 3e a7 6e 2d bf d7 52 30 3f
       0.5670813 0.15169764 -0.6774697 0.68876404
0000a0 d8 07 94 3e 85 2b e1 be 23 ec 0f bf 23 b8 31 be
       0.28912234 -0.43978515 -0.5621969 -0.17355399
0000b0 85 c6 21 3f f2 cc ba 3e ce 23 ea be ec ed dc be
       0.6319354 0.36484486 -0.45730442 -0.4315027
0000c0 e1 4b d1 3e 19 c0 db 3d 1b f5 f2 3e cc 3b a0 be
       0.40878204 0.10729999 0.47452626 -0.3129562
0000d0 17 75 0c 3e d2 8a b8 3c de ce 2f 3e 30 8f 36 be
       0.13716541 0.022527132 0.17168757 -0.17828059
0000e0 32 8f d1 3d b8 79 2e 3f 15 eb 31 3e 42 a4 f9 be
       0.102323905 0.6815448 0.17374833 -0.4875813
0000f0 0e 69 18 bf 39 5c 0b bf ec d6 e6 3e b6 6e ba bd
       -0.595353 -0.54437596 0.45085847 -0.09103148

emb_net.v_lin0.bias f4 [32]
000000 34 22 b6 3e 1e 7e 93 3e 65 75 82 3e 4a 91 01 be
       0.3557297 0.28807157 0.2548019 -0.1265308
000010 bc 1c 17 3e 7c cb 7d bd 8e 2f 28 bf 25 e1 f7 3e
       0.14757055 -0.061961636 -0.6569756 0.4841396
000020 31 4f a6 3e a5 3e 86 3e a5 ef 01 3e 8b c8 15 3f
       0.32482293 0.2621967 0.12689073 0.5850913
000030 45 0c 09 3f 19 a6 9c 3e 55 6b ca 3e de 69 9f 3e
       0.53534347 0.30595472 0.39535013 0.31135458
000040 75 d0 59 3d 0e 7f 26 bf 72 f3 32 3f f2 bf b6 3e
       0.053177316 -0.6503762 0.6990272 0.35693318
000050 8c 1d 27 3e 3f 65 6e 3e 78 65 e9 bc e6 3e eb be
       0.16319865 0.2328081 -0.028490767 -0.45946425
000060 da 64 1f 3f 80 19 77 3e c5 19 00 3f fb 2e ca 3d
       0.6226326 0.24130821 0.5003932 0.09872242
000070 12 b7 64 be 7d 27 1c 3f 1c dd b9 bd 84 e4 12 3f
       -0.22335461 0.60997754 -0.090753764 0.5737994

emb_net.v_lins1.0.weight f4 [32, 32]
000000 11 a3 2d 3e 9c 69 04 3d 77 2b d9 bd 45 a2 2f 3e
       0.16956736 0.03232728 -0.106039934 0.17151745
000010 98 0d a1 bd 4b 54 11 3e a0 04 df bb 98 c8 25 be
       -0.07863921 0.14192311 -0.0068059713 -0.16189802
000020 2e 83 e6 3d a0 1a bc 3b 1e dd aa 3d da c8 e7 bd
       0.11255489 0.0057404786 0.08342956 -0.11317606
000030 51 77 24 3e 7d cc 31 3e 63 cc 17 3e c5 fe 26 be
       0.1606114 0.17363162 0.14824061 -0.16308124
000040 85 77 a7 bd ec 8d 20 3d f0 b1 73 bc 0c 64 00 be
       -0.081770934 0.039197847 -0.014873967 -0.12538165
000050 ef f7 19 3e 58 25 f1 3c e0 21 7b 3c b4 7f 0a be
       0.15035985 0.029436752 0.015327901 -0.13525277
000060 80 53 0b bc 9a 75 c4 3d 65 39 d7 bd ee d5 bd 3d
       -0.008503795 0.09592743 -0.10508994 0.092693195
000070 ff b5 a5 bd 08 c5 40 bd 54 94 76 bd f8 c1 0c 3d
       -0.080913536 -0.047062904 -0.06020005 0.03436467
000080 5b 34 19 be 4c a0 b4 bd 70 65 5e 3c bc d1 22 be
       -0.14961378 -0.08819637 0.013573989 -0.1590032
000090 59 7f 27 3e 3c 71 04 3d 50 e2 47 3c de 86 f2 bd
       0.16357173 0.03233455 0.012199953 -0.1184213
0000a0 c3 f8 2b be d8 37 cc 3c 41 7c 26 3e f4 72 6b 3d
       -0.16794114 0.024928972 0.16258337 0.057482675
0000b0 c0 30 b7 3c 7e f3 90 bd 58 87 2c be 7d 24 33 be
       0.022362113 -0.070776924 -0.16848505 -0.17494388
0000c0 69 4d 9b bd cb ae 08 be 49 5d d2 bd 8c 7e ea bd
       -0.07583124 -0.13347928 -0.10271699 -0.11449918
0000d0 40 de f2 bd 1c 9c da bd 6e 2f 10 be 26 b0 04 be
       -0.11858797 -0.10674307 -0.14080593 -0.1295782
0000e0 a0 c2 c7 3b c7 1a 83 bd 20 6b aa bc 70 d1 84 bc
       0.006096199 -0.06401592 -0.020803034 -0.016213149
0000f0 90 b2 18 bd 58 27 96 3c 7a af e4 3d 66 64 9f 3d
       -0.037279665 0.018329307 0.11166282 0.07782821
000100 87 ed 18 3e e8 a4 e6 bd 66 cb 9d bd e2 13 a1 bd
       0.1493436 -0.11261922 -0.07704811 -0.078651205
000110 8a 5d bd bd 66 36 ab 3d 0c 94 52 3d 70 7a 7a 3d
       -0.09246357 0.08359985 0.05141072 0.06115192
000120 f0 31 2e bc a2 2d 98 3d 7c ba 1a bd 8b 69 d1 bd
       -0.010632023 0.07430579 -0.0377755 -0.10225209
000130 03 f7 ce bd 27 26 0f 3e c1 fc 33 3e b4 b9 41 3d
       -0.101057075 0.13979398 0.17576887 0.04729624
000140 e8 52 42 bd 13 fc 05 3e f6 90 d7 3d 38 dc 21 3d
       -0.047442347 0.1308444 0.10525696 0.039516658
000150 fc 70 3c bd d0 2c a0 bc ad 02 0b 3e 89 7c 0c 3e
       -0.046006188 -0.019552618 0.1357524 0.13719381
000160 54 7a 68 3d 3c 39 34 bd d8 07 68 3d 20 37 3e bd
       0.056757286 -0.043999895 0.056648105 -0.04643929
000170 44 23 18 be 6f ef 01 3e 39 7b 2e 3e 00 ef a1 3a
       -0.14857203 0.12688993 0.17039193 0.0012354553
000180 f3 4a 0d 3e 19 d6 0b 3e ac 5c 47 3d 34 e6 71 bd
       0.13798122 0.1365589 0.048672363 -0.05905743
000190 c0 89 a2 3b 48 9f f9 3c b8 53 0d be 3e 5c e6 bd
       0.0049602687 0.030471459 -0.13801467 -0.112480626
0001a0 55 67 30 3e d8 a6 54 bd f8 10 f6 bc 02 8f e7 3d
       0.17226918 -0.051916927 -0.030037388 0.113065735
0001b0 44 c7 69 3d a0 a4 df 3c b0 81 14 bc eb 79 03 3e
       0.0570748 0.027300179 -0.009064123 0.12839477
0001c0 3c 1d 6f 3d ae 75 84 bd 3c 54 f8 bd 00 10 8d 3d
       0.05837749 -0.06467758 -0.121254414 0.068878174
0001d0 f2 f1 fe 3d 5e f2 d1 3d 37 79 18 be 34 45 00 3d
       0.12448491 0.10251306 -0.1488999 0.031315997
0001e0 88 04 6f bd bb 70 08 3e ac 6d 2d 3d 65 7e df bd
       -0.05835393 0.13324253 0.04234092 -0.1091278
0001f0 10 2f a5 3c e4 06 6d 3d 53 09 ca bd a6 06 e3 3d
       0.020164043 0.0578679 -0.0986506 0.110852525
000200 7a b1 f2 3d 24 b7 0a be 99 8f 0c be f6 08 95 bd
       0.11850257 -0.13546425 -0.13726653 -0.072771
000210 1a 5d 12 be 73 a8 d0 bd 75 cd 2a 3e c0 69 1b bb
       -0.14293328 -0.10188379 0.16679938 -0.0023714155
000220 23 b9 31 3e 00 52 94 bd 78 66 d4 bc 8c d4 4f 3d
       0.1735578 -0.07242203 -0.025927767 0.05073981
000230 03 e1 1d 3e a0 86 ad 3c da ad 93 3d d6 5e cf 3d
       0.15417866 0.021182358 0.07210894 0.101255104
000240 42 73 8f 3d 22 d8 5e bd 40 c8 26 3c 47 cb 0a 3e
       0.070044056 -0.05440534 0.010179579 0.13554107
000250 18 b3 e8 3c e5 65 14 3e 08 50 7d 3d a4 12 11 be
       0.028405711 0.14491995 0.061843902 -0.14167267
000260 96 ed 9f 3d 2c 00 2d bd 76 1a ad 3d 91 63 02 3e
       0.07808988 -0.042236492 0.08452313 0.12733294
000270 d5 05 32 3e ac 0b 5f 3d 00 98 90 bb 12 a8 f1 3d
       0.17385037 0.05445449 -0.004412651 0.11799635
000280 34 77 1f 3d 9b d9 27 3e ca fd f4 3d 6f 3b 8c bd
       0.03893204 0.16391604 0.11962469 -0.068472736
000290 50 5a 0f 3c 08 a6 4c 3d be 93 23 be e8 59 c9 3c
       0.0087495595 0.049963027 -0.15974328 0.024579003
0002a0 9c 8f 67 bd f0 0a 2c bd a8 f9 bd 3c 35 94 2d 3e
       -0.05653344 -0.04200262 0.023190334 0.16951068
0002b0 50 de 05 be 96 f4 c6 3d d4 a1 4d bd c0 10 95 bd
       -0.13073087 0.0971462 -0.05020316 -0.072785854
0002c0 10 1e 51 3d c5 07 23 3e 18 64 36 3d 1e 2e 97 3d
       0.05105406 0.15920933 0.04452905 0.07381843
0002d0 4a 92 89 3d de 61 31 be b8 5c a7 3c 30 a2 61 3d
       0.067173555 -0.1732249 0.020429954 0.055086315
0002e0 f7 1f 25 be cf 28 92 bd 92 9f e0 3d 9f 18 27 3e
       -0.16125475 -0.0713669 0.109679356 0.16317986
0002f0 8c 48 88 bd c1 73 1c be e5 e2 15 be b9 b3 28 be
       -0.06654462 -0.15278532 -0.14637335 -0.16474809
000300 09 c6 91 bd d8 cf f3 3c 73 7f 15 3e 70 4b d7 bc
       -0.0711785 0.029762194 0.145994 -0.026281089
000310 2e 1c e7 3d fc b1 fa bd a7 7c 17 be 56 9b ff 3d
       0.11284672 -0.12240979 -0.14793645 0.124808
000320 6f d8 00 3e 10 16 22 3d 9a 26 ed 3d f0 0a 81 bc
       0.12582563 0.03957182 0.11579628 -0.015752286
000330 ff 9e 2e be 5e da f3 3d c4 46 2b bd 31 4a 82 bd
       -0.1705284 0.119068846 -0.041815534 -0.06361807
000340 de 7e c5 3d 7a 5b 10 be f2 f2 ae 3d 3a 61 e3 bd
       0.096433386 -0.14097396 0.08542432 -0.11102529
000350 b8 99 3a 3d 80 1f 87 bb 2a ad f8 3d a1 2f 08 3e
       0.045556754 -0.004123628 0.121424034 0.13299419
000360 db 49 e0 bd 78 58 de bc 66 f1 bb 3d 58 03 62 bd
       -0.10951587 -0.027141795 0.091769025 -0.05517897
000370 5f 63 05 3e 80 cf 93 3a 52 64 be 3d 4a 15 cc bd
       0.13026188 0.001127705 0.09296478 -0.09964998
000380 22 07 64 bd 64 e1 4a bd bd 29 21 3e dd fe 20 3e
       -0.055670865 -0.049531356 0.15738578 0.15722223
000390 14 6a 42 bd f8 d0 b6 bc f0 0b 02 bd 14 6c 95 3d
       -0.047464445 -0.022316441 -0.031749666 0.07296005
0003a0 4e 81 bc 3d 7a e1 e8 bd 48 47 b0 bc 5d 02 df bd
       0.092043504 -0.11371131 -0.021518365 -0.10889123
0003b0 e0 4f 87 bb b0 7e dc bc a9 c0 2d be 5e 52 de 3d
       -0.004129395 -0.026915878 -0.16968025 0.10855554
0003c0 09 ac 0a be 58 28 4b bd ff f5 ca bd 5a 21 8b 3d
       -0.13542189 -0.04959902 -0.09910201 0.06793471
0003d0 88 7d ca bd 9c b9 f1 bd 8d 5b 19 3e 4e 40 b9 bd
       -0.098872244 -0.1180298 0.1497633 -0.09045468
0003e0 3a b6 2b be ae 20 fe 3d 9b 75 33 3e c5 5b 07 3e
       -0.16768733 0.12408577 0.17525332 0.13218601
0003f0 3c 66 2e bd 0e d8 d4 bd 62 eb 6b bd 4c 5b 44 bd
       -0.042577967 -0.10392772 -0.057597525 -0.04793863

emb_net.v_lins1.0.bias f4 [32]
000000 17 42 20 3e 68 12 0f bd 95 90 0a 3e 3b 85 2c 3e
       0.15650211 -0.034929663 0.13531716 0.16847698
000010 2f f0 2e be 2d 4b 33 3e 7c f5 1f 3d 74 06 02 be
       -0.1708381 0.17509146 0.03905247 -0.12697774
000020 b4 7e 8d 3d 02 d1 d2 3d 50 a4 0b bd 22 e8 db 3d
       0.06908932 0.10293771 -0.034092247 0.10737635
000030 9e 93 94 bd 72 ab 93 3d d6 48 a5 3d 90 dd 39 bc
       -0.07254718 0.07210435 0.08070533 -0.0113443285
000040 41 1a 8a bd de cc d8 bd c8 55 06 3d 1a 3d a7 3d
       -0.06743289 -0.1058595 0.03279665 0.08165951
000050 f8 57 a9 3c 0b fc 24 3e 40 f6 21 3d 99 55 2e 3e
       0.02067183 0.16111772 0.039541483 0.1702484
000060 e6 be b7 bd 22 d8 2b be 2a 96 e5 bd a8 8d 40 bd
       -0.08971958 -0.16781667 -0.11210282 -0.047010094
000070 97 c5 96 bd 1a 67 85 3d aa d2 f1 3d 1a 8b ab 3d
       -0.07361906 0.06513806 0.11807759 0.08376141

emb_net.v_lins1.1.weight f4 [32, 32]
000000 b8 06 30 bd 40 3a d5 bc b4 1b 8e 3d ba 2c da bd
       -0.042975157 -0.026028752 0.06938878 -0.10653062
000010 60 bf d0 bc 10 0b c1 3c 58 fa 9a bc a0 ef e0 bc
       -0.02548188 0.023564845 -0.018918201 -0.027458012
000020 f0 02 3f 3c b0 4e 5f 3c 20 96 1d bc 74 02 0b bd
       0.011658415 0.0136296 -0.009618312 -0.033937886
000030 a0 bd 90 bc 4a 74 c3 3d 23 3c 0f be 28 4d 75 bd
       -0.017668545 0.09543665 -0.13987784 -0.059888035
000040 ef e3 d6 bd e0 fb f0 3b 9f ba 8d bd a8 47 cb bc
       -0.10492694 0.0073542446 -0.06920361 -0.024814442
000050 72 93 ed bd 44 89 32 3d 89 f3 02 3e 40 9f 42 3d
       -0.116003886 0.043587938 0.12788214 0.047515154
000060 3d 2c 15 3e 76 2d ad 3d 30 34 72 3d 38 48 9e bc
       0.14567657 0.084559366 0.0591318 -0.019321546
000070 c0 ff 92 3c 6b ba f7 bd af 8b 2e 3e 54 ed 0f bd
       0.017944217 -0.12096103 0.17045473 -0.035138443
000080 54 0e 2f 3d 89 ff 15 3e b2 83 74 bd 30 83 21 bd
       0.042738274 0.1464826 -0.059695907 -0.03943175
000090 0b ef 94 bd ea 5c 9c 3d 60 c1 d4 3b bc 83 30 be
       -0.07272156 0.076349095 0.0064927787 -0.17237753
0000a0 38 92 91 bd d7 a1 2c 3e 96 01 de 3d f4 c8 14 3d
       -0.07107967 0.16858612 0.10840146 0.036324456
0000b0 b6 20 f2 3d 9d 2c 1c be 06 91 f1 3d 46 6c a7 3d
       0.11822645 -0.15251394 0.11795239 0.081749484
0000c0 38 3a 0d 3d 80 99 eb 3c 38 92 2d 3d dd 11 0f 3e
       0.03447935 0.028759718 0.042375773 0.13971658
0000d0 26 39 08 be 52 87 d9 bd 8e 6d fb 3d d2 90 b7 3d
       -0.1330305 -0.106215134 0.12276755 0.08963169
0000e0 02 1d bd 3d 3c 6e 1a be 73 30 99 bd c6 96 ad 3d
       0.092340484 -0.15081114 -0.07479944 0.084760234
0000f0 48 01 ca bd 80 2e 11 3b 14 46 39 bd 59 05 89 bd
       -0.09863526 0.002215296 -0.045232847 -0.06690473
000100 74 e2 88 bd 2a 43 0d be fe b9 c1 3d d9 61 00 3e
       -0.066838175 -0.13795152 0.09459303 0.12537326
000110 c0 8d 0b 3c 1b 10 2c 3e 21 25 da bd 3a e7 aa 3d
       0.008517683 0.16803019 -0.10651613 0.08344884
000120 e2 14 5f bd ea b9 e9 3d e6 2f dd 3d 63 c9 0c 3e
       -0.054463275 0.114124134 0.108001515 0.13748698
000130 8f 19 12 3e 00 9e f1 bd 7a 83 a0 bd 56 be f8 bd
       0.14267562 -0.11797714 -0.07837577 -0.12145679
000140 7c 43 77 3d 62 fc fe bd 4e ad ae 3d f0 f5 17 bc
       0.060367092 -0.12450482 0.08529149 -0.009274945
000150 69 4d 07 3e ab af 0d 3e c8 44 01 be b0 1d 88 3d
       0.13213123 0.13836543 -0.12623894 0.066462874
000160 fc 7e 34 be 10 0d 59 bc 74 ba c4 bd 6e 9b a4 bd
       -0.17626566 -0.013247743 -0.096058756 -0.08037458
000170 0c 44 1a be 9c 3f 88 bd 50 90 09 3c 81 85 04 3e
       -0.1506502 -0.066527575 0.008396223 0.12941553
000180 c9 b5 c7 bd a8 21 d4 3c 4a da d0 3d 60 56 6f 3c
       -0.0975147 0.025894955 0.10197885 0.014607996
000190 c4 bf 34 bd b8 60 8f 3d 72 3d 12 be 54 81 b6 bd
       -0.044128194 0.070008695 -0.14281252 -0.08911386
0001a0 5e d0 e6 3d 00 48 98 bc 26 f3 b3 3d e0 9f 77 bc
       0.11270212 -0.01858902 0.08786611 -0.015113801
0001b0 60 5c b8 3c 75 4c 18 3e 34 f3 0b be 02 29 c9 bd
       0.022504985 0.14872916 -0.13666993 -0.09822275
0001c0 18 9b 0d bd 60 91 b5 bd c2 4f a3 3d b3 9c 08 be
       -0.034571737 -0.08865619 0.07974197 -0.13341026
0001d0 05 22 00 be 5e 8a dd 3d 79 18 0f 3e be 8a 16 be
       -0.12512977 0.10817407 0.1397418 -0.14701363
0001e0 d0 d8 d5 bd 7e 6a 98 3d 04 72 5c 3d 42 1c c4 3d
       -0.10441744 0.07442187 0.05381967 0.09575702
0001f0 c8 9c b1 bc a0 ce aa bb a1 69 14 3e c0 c7 ce 3b
       -0.021681204 -0.00521262 0.14493419 0.006310433
000200 a7 3d 22 3e 40 68 68 bb 28 49 c0 3c 7b c6 f3 bd
       0.15843831 -0.0035462528 0.023472384 -0.119030915
000210 bb ab e9 bd b0 af 70 3d 17 88 0d 3e b8 2d 1d be
       -0.11409708 0.0587613 0.13821445 -0.15349472
000220 19 04 2f be f4 57 25 be a0 70 13 bd 0a 70 ba 3d
       -0.17091407 -0.16146833 -0.03599608 0.09103401
000230 e9 d6 a1 bd eb c3 12 be 1e 95 b6 3d 49 b6 05 3e
       -0.07902319 -0.1433255 0.089151606 0.13057818
000240 5b 70 d6 bd f0 63 ea bc 9c 54 1f 3d d0 65 a7 3c
       -0.10470649 -0.028612107 0.03889905 0.02043429
000250 70 1d d0 bc 90 00 f2 bd c1 72 25 3e b9 40 2a be
       -0.025404662 -0.118165135 0.16157056 -0.16626252
000260 85 e6 07 be d2 a8 d4 3d 98 91 47 3d 20 b7 0e 3c
       -0.1327153 0.103837624 0.048722833 0.008710653
000270 16 f6 13 be 48 19 ad bc 68 e9 46 bd b3 b4 23 3e
       -0.14449343 -0.02113022 -0.048562437 0.159869
000280 80 63 84 bc 80 b7 54 3d 69 54 01 3e 5d f7 1f be
       -0.016160727 0.05193281 0.12629856 -0.15621705
000290 b2 a4 c5 3d 74 8d 92 3d c8 6c 8c 3d 9a e6 8a 3d
       0.09650554 0.07155886 0.06856686 0.06782265
0002a0 c0 4c 0d 3b 50 38 65 3c 80 18 5f bc 14 44 13 3d
       0.002156064 0.013990477 -0.013616681 0.035953596
0002b0 92 56 12 be b5 53 9b bd 7a 69 c5 3d 22 fa e2 3d
       -0.14290836 -0.07584325 0.09639259 0.11082865
0002c0 f5 50 88 bd 10 a3 ba 3c ca f1 2e be 29 87 c1 bd
       -0.06656066 0.022782832 -0.17084423 -0.09449608
0002d0 c5 6b 26 be 4f 55 33 be 9f dc 2f 3e 8f cf 1d 3e
       -0.16252048 -0.17513011 0.17174004 0.15411209
0002e0 96 31 9e 3d 7d 60 2a 3e 5b da 19 be 55 86 0c be
       0.077243015 0.1663837 -0.15024702 -0.13723119
0002f0 65 65 1f 3e 1b 7e 00 3e 8b c9 8e bd b1 7e 2a be
       0.15566023 0.12548105 -0.06972035 -0.16649891
000300 cc 29 0c bd dc 38 cb bd 11 4f 0a be 7e 52 e0 bd
       -0.034219548 -0.099229544 -0.13506724 -0.10953234
000310 51 81 20 be d9 25 d3 bd 93 b7 dc bd fc 4d aa bd
       -0.1567433 -0.10309953 -0.107772015 -0.083156556
000320 90 0f 9e 3c 73 fa 1d 3e 4a b0 c3 3d 72 22 d0 3d
       0.01929453 0.1542757 0.09555109 0.1016282
000330 16 8b c8 3d de 22 63 bd 38 68 db bd 55 8f e1 bd
       0.097921535 -0.055453174 -0.107132375 -0.110136665
000340 d7 51 1e be f6 52 f4 3d 40 12 6a 3b c0 77 05 bb
       -0.15460907 0.11929886 0.0035716444 -0.0020365566
000350 f8 66 ec 3c 6e 9a 10 be 01 5a 91 bd dc 27 4e 3d
       0.028857693 -0.1412141 -0.07097245 0.05033098
000360 8a 33 c1 3d 42 46 cc 3d be 44 00 be d0 ad 70 bd
       0.094336584 0.09974338 -0.12526223 -0.05875951
000370 72 e1 df 3d 76 e2 ad bd 35 e6 00 3e b0 ce 66 3d
       0.10931672 -0.084904596 0.12587817 0.056349456
000380 32 bf f8 bd c5 cc 33 3e a7 95 2d 3e 03 66 e5 bd
       -0.121458426 0.17558582 0.16951619 -0.11201098
000390 7d 89 32 3e b2 48 c6 3d b8 6d 6a bd 12 60 1a be
       0.1743526 0.09681834 -0.057233542 -0.1507571
0003a0 67 d3 28 3e dd 50 1d be 09 75 a9 bd 93 15 2f 3e
       0.16486894 -0.15362878 -0.08274276 0.17098074
0003b0 b8 16 d2 bc a8 54 29 be 16 72 10 be 50 15 91 3d
       -0.025645599 -0.165362 -0.1410602 0.07084143
0003c0 33 a2 8e bd fd 1a ab bd b6 77 99 3d a9 e1 01 3e
       -0.06964531 -0.08354757 0.07493536 0.12683739
0003d0 f5 14 15 be c2 4e 07 be 92 4b d0 3d d6 f0 84 3d
       -0.14558776 -0.13213637 0.10170664 0.06491248
0003e0 d0 0a b1 bc 68 d1 d2 3c 3b fd 2b be 30 e4 e0 3c
       -0.021611601 0.025734618 -0.16795819 0.027452558
0003f0 66 e0 93 bd e1 70 2c be 36 6a f1 3d d5 d5 20 3e
       -0.07220535 -0.16839935 0.11787836 0.1570657

emb_net.v_lins1.1.bias f4 [32]
000000 16 0d 0e be 3f d6 21 be 91 71 19 3e 48 46 37 3d
       -0.1387218 -0.15804385 0.14984728 0.04474476
000010 00 54 92 3b fb 42 00 3e a2 89 6e bd b9 40 28 3e
       0.00446558 0.12525551 -0.058236726 0.1643094
000020 7c 86 13 be 2e 0d d8 3d 60 94 18 3c 80 de 73 bd
       -0.1440677 0.10549389 0.009312719 -0.059538364
000030 24 c2 c0 bd f0 72 49 bd c8 a5 1f be 97 70 07 3e
       -0.094120294 -0.04918188 -0.15590584 0.13226543
000040 da 25 ee bd 46 b9 f9 3d e9 0a 19 3e 98 d6 8c bc
       -0.11628313 0.12193541 0.14945568 -0.01719217
000050 80 d7 84 3c 94 a1 16 3d 90 2e 16 3d cb c6 33 3e
       0.01621604 0.036775187 0.0366655 0.17556302
000060 15 c2 2f be 5c 5c 63 3d 05 fe e5 bd 88 fd 98 3c
       -0.1716388 0.055508003 -0.11230091 0.01867558
000070 2c c9 3a 3d e0 55 1f bd 78 0b f2 bd f8 f8 9a 3c
       0.04560201 -0.038900256 -0.11818594 0.018917546

emb_net.v_lins1.2.weight f4 [32, 32]
000000 e3 a2 2c 3e 44 1d f9 bd 24 f7 67 3d e6 ae 67 bd
       0.16859011 -0.12163785 0.056632176 -0.05656328
000010 3c 07 ab bd 72 e9 08 be 3f c1 2f 3e 16 94 d9 3d
       -0.08350989 -0.13370302 0.17163561 0.10623948
000020 48 48 00 be b7 cc c2 bd 48 e4 84 bc 97 03 85 bd
       -0.12527573 -0.095117025 -0.016222134 -0.06494825
000030 5a 21 a7 bd 2e 57 83 3d 4c e8 5e 3d 7e 54 ea 3d
       -0.08160658 0.064131126 0.054420754 0.11441897
000040 00 99 b7 bb 08 49 92 bc 48 c2 23 bd a0 56 2f bc
       -0.005602956 -0.01785709 -0.039980203 -0.010701805
000050 e0 05 0f 3c fd 8d 1a be 98 13 23 be 36 05 bc bd
       0.008729428 -0.15093227 -0.15925443 -0.091806814
000060 56 61 6c bd e0 3c fb bb 68 ca 9a bc d8 e8 6f bd
       -0.057710014 -0.007667169 -0.018895343 -0.058571666
000070 0c 62 0e 3d b0 f9 86 3d 7b f2 24 3e be bf 6b bd
       0.034761474 0.06590593 0.16108124 -0.057555906
000080 90 34 29 bd d7 c1 86 bd 3e 44 f2 3d ea 20 e0 3d
       -0.041309893 -0.06579941 0.118294224 0.10943778
000090 a8 30 06 3d ca f3 b4 bd 37 ed aa bd 7c 21 1a be
       0.032761246 -0.088355616 -0.083460264 -0.15051836
0000a0 ea 36 ed bd e7 6b fa bd 92 7f ff 3d ff bb 30 be
       -0.1158274 -0.12227612 0.12475504 -0.17259215
0000b0 59 a1 03 3e a0 b9 40 bd 80 06 14 3b 1c d3 85 3d
       0.12854518 -0.047052026 0.0022586882 0.065344065
0000c0 20 63 89 3c 8c d2 3f 3d 79 10 f4 bd b8 ae 92 bc
       0.0167709 0.046831653 -0.119172044 -0.017905578
0000d0 21 c7 c8 bd f6 ba ae 3d 80 31 6b 3d 10 83 17 bd
       -0.09803606 0.08531754 0.057420254 -0.036990225
0000e0 af fa 1c 3e e1 9a 27 3e c0 6d cd bd 7e a1 88 3d
       0.15330003 0.16367675 -0.10030699 0.06671427
0000f0 60 f7 ab bb ef c6 ae bd ba aa a3 bd 4b 53 28 3e
       -0.0052479953 -0.08534037 -0.07991548 0.16438024
000100 78 17 56 bd 28 4a d9 bc 8a 3e a3 3d d0 7a 06 3c
       -0.052268475 -0.026524618 0.07970913 0.008207992
000110 33 1f 20 be e8 80 7a bd 7a d0 14 be 2c ed 78 3d
       -0.15636902 -0.06115809 -0.14532652 0.06077306
000120 c6 25 24 be e6 41 b0 bd 7e 8c ce bd f9 e3 30 be
       -0.16030034 -0.08606319 -0.100853905 -0.17274465
000130 89 3d 1a 3e 88 0f f0 3c d2 e5 7e bd fe b7 f7 3d
       0.15062536 0.02930428 -0.062230892 0.120956406
000140 f0 02 4f 3d 66 3f fc bd c4 c3 13 be eb 2b 19 3e
       0.05053991 -0.1231678 -0.14430147 0.1495816
000150 e0 01 7d 3d 71 8c 2c be 28 0b 41 3d 41 e0 bf bd
       0.061769366 -0.16850449 0.04712978 -0.09368945
000160 8f 60 04 3e fa ea f2 3d 1c 94 c7 bd 60 cd af 3b
       0.12927459 0.118612245 -0.097450465 0.005365059
000170 60 55 db 3c 96 f6 d9 3d c7 eb 10 3e f3 02 a4 bd
       0.026774108 0.10642736 0.14152442 -0.08008375
000180 50 7e 1e 3c f8 9b 90 bd 3b bb 04 3e 15 95 20 3e
       0.00967367 -0.07060999 0.12962048 0.1568187
000190 7b b2 29 3e 80 f7 c7 3a a6 85 05 be 3a 35 ee 3d
       0.16571991 0.0015256256 -0.13039264 0.11631246
0001a0 90 10 b0 3c 1f 1a 84 bd 22 82 cd 3d cc 37 f0 bd
       0.021492273 -0.06450295 0.100345865 -0.117293924
0001b0 40 1a 9f bb df e9 94 bd 2d 26 12 3e fd 56 09 3e
       -0.004855424 -0.0727117 0.14272375 0.1341209
0001c0 be b1 e9 3d e1 3c 15 be 1e e8 e8 bd c0 2f 41 3b
       0.11410855 -0.14574005 -0.11372398 0.0029477924
0001d0 60 7c 82 bb fe d3 c1 3d 72 d6 11 be 40 b4 e3 3c
       -0.003982112 0.094642624 -0.1424196 0.02779591
0001e0 14 52 18 be d6 3a df 3d 13 04 02 3e 96 e6 13 be
       -0.1487506 0.10899894 0.12696867 -0.1444343
0001f0 40 3b ad bb 28 5e 25 be aa e1 1e be 60 ec 55 bc
       -0.005286604 -0.16149199 -0.15515772 -0.0130568445
000200 38 19 84 3c d8 38 c8 bc 69 f6 29 3e 90 4b 65 bc
       0.016125306 -0.024441168 0.16597904 -0.013995066
000210 5c d4 0d 3d 26 17 c8 3d 34 4a 78 bd d6 14 9a 3d
       0.03462635 0.0977004 -0.06061764 0.075235054
000220 d0 13 b0 bd 57 08 08 be f0 9a 06 be 5a 7a fe 3d
       -0.08597529 -0.13284431 -0.13145041 0.124256805
000230 10 9b 3b bc 8c 35 6b 3d be 40 b8 3d 80 27 76 bb
       -0.011450544 0.057424113 0.089967236 -0.0037560165
000240 c0 36 04 bc d2 03 a1 3d 40 ea 3f 3d 1c 44 51 3d
       -0.008069694 0.07862057 0.046854258 0.051090345
000250 a8 0b 80 bd 4f 4c a9 bd 02 b4 56 bd 90 17 2c 3d
       -0.06252223 -0.08266508 -0.052417763 0.04201466
000260 59 11 18 3e a8 63 a3 bc d9 8b 0e be 80 71 7e 3c
       0.14850368 -0.01994498 -0.13920535 0.01552999
000270 00 cd 55 ba 2c 44 64 3d d8 96 c4 bd 9c 1f 6e 3d
       -0.00081558526 0.055729076 -0.09599084 0.058135614
000280 0a 5a d7 3d 87 91 0a 3e 82 ba a0 bd ba c8 bf 3d
       0.105152205 0.13532077 -0.078480735 0.093644574
000290 f8 8d 0f be 42 ae d3 3d f7 34 11 3e 0c e3 53 3d
       -0.14019 0.103359714 0.1418036 0.0517302
0002a0 e8 2d 55 3d 0a e9 ae 3d ad 63 94 bd 6e e0 b8 3d
       0.052045733 0.085405424 -0.07245574 0.090271816
0002b0 39 31 25 3e 37 cd 1e be d1 0b b6 bd e2 90 22 be
       0.16132058 -0.15507971 -0.088889726 -0.15875581
0002c0 28 93 51 3d 9c 66 10 be 11 33 01 3e 6b 26 18 be
       0.05116573 -0.14101642 0.12617137 -0.14858405
0002d0 00 c8 2c 3a 1c 7c 72 bd 10 3b bb bc 40 9e 21 bc
       0.00065910816 -0.05920039 -0.022855312 -0.00986439
0002e0 1a 87 0b be 2a 1b 27 be a1 11 94 bd 61 99 21 3e
       -0.13625756 -0.16318956 -0.07229925 0.15781166
0002f0 94 54 22 3d 1c a9 13 3d da b8 c1 3d bb 60 1b 3e
       0.03963144 0.036049947 0.09459086 0.15173618
000300 4c d8 3a bd b2 58 08 be a0 64 eb bd f8 31 be 3c
       -0.045616433 -0.13315085 -0.11493802 0.023217186
000310 ca 7e b1 3d e4 1a 5f 3d 59 ba 07 3e 00 41 ac bb
       0.08666761 0.054469004 0.1325468 -0.005256772
000320 c0 9a 56 3c de 59 b2 3d 4b f3 1e be 76 71 aa 3d
       0.013098419 0.08708547 -0.15522496 0.08322422
000330 ed 95 26 be 5e 4d 0b be 04 b1 21 bd 10 70 2d be
       -0.1626813 -0.13603732 -0.039475456 -0.1693728
000340 5f 88 1a 3e 4e 10 64 bd 00 0e 2b 3b 92 a4 01 be
       0.15091084 -0.05567961 0.0026100874 -0.12660435
000350 88 ed ee bc 5b fe 17 be ab cd 13 3e 90 a6 d4 3c
       -0.029165998 -0.14843123 0.14433925 0.02595833
000360 a4 33 13 3d 4d 24 cb bd 52 72 99 bd d0 d6 e9 3c
       0.03593792 -0.09919033 -0.07492508 0.028544813
000370 0f 45 0e 3e 23 2d c7 bd ba 2d 96 3d 80 73 6b 3b
       0.13893531 -0.09725406 0.073329404 0.0035926998
000380 a8 8d 8c 3c b0 a3 d2 bd 09 fd 1d 3e ca fd 04 be
       0.01715739 -0.10285127 0.15428557 -0.12987438
000390 f0 22 f6 bd 93 cd 29 3e 3c 11 0f 3d 4c 2d 53 bd
       -0.120183825 0.16582327 0.034928545 -0.05155687
0003a0 57 f1 fb bd e8 04 51 3d 08 2e 94 bc cc c8 2a be
       -0.12301891 0.05103007 -0.018088356 -0.1667816
0003b0 2a c3 a8 bd 10 aa 2f 3d 04 61 52 3d 78 c6 85 3c
       -0.082403496 0.042886794 0.051362053 0.016329989
0003c0 60 a8 f2 3c fa 46 10 be 08 3d c6 bd 40 14 b0 bb
       0.029621303 -0.14089575 -0.096796095 -0.0053735077
0003d0 0a 65 9d 3d 7e 77 a5 3d be b2 b1 bd 34 48 ce bd
       0.07685287 0.08079432 -0.086766705 -0.100723654
0003e0 d8 00 e4 bc 3b 88 14 be ca 8f a7 3d ae a3 de bd
       -0.027832434 -0.14505093 0.081817225 -0.10871063
0003f0 2f 38 2c 3e 0f d7 08 3e a1 f9 2d be 28 70 d7 3c
       0.16818307 0.13363288 -0.16989757 0.026298597

emb_net.v_lins1.2.bias f4 [32]
000000 50 e3 63 bd d3 67 a0 bd f7 8f 12 3e 58 3a b8 bd
       -0.055636704 -0.07832303 0.1431273 -0.08995503
000010 3f d3 b3 bd 81 d9 fc bd fa d1 02 be 04 24 30 bd
       -0.08780526 -0.12346173 -0.12775412 -0.043003097
000020 e5 dd 14 3e ac 90 00 be ac 46 cb bd 22 39 b9 3d
       0.14537771 -0.12555188 -0.09925589 0.090441
000030 30 09 b3 3c b5 9e da bd f0 41 fb bc e0 2e d6 bb
       0.021854967 -0.10674802 -0.03067109 -0.0065363497
000040 9a b5 ee bd 6b 2b 0d 3e a4 ba 37 3d f6 7f 27 be
       -0.116557315 0.13786094 0.04485573 -0.16357407
000050 a0 da 3a 3c 2a eb bd 3d 0c 66 3c 3d 76 e4 c2 bd
       0.011404663 0.092733696 0.045995757 -0.09516232
000060 fc e0 99 bd f5 55 2c 3e de 04 6e bd 7f 6a 34 3e
       -0.075136155 0.16829665 -0.05811011 0.1761875
000070 4b 05 32 3e a0 0f 60 bc 29 0b 14 3e 58 51 0d be
       0.17384832 -0.0136756 0.14457382 -0.13800561

emb_net.v_lins1.3.weight f4 [32, 32]
000000 46 93 de 3d 60 4d 86 3d be aa 9b 3d a8 72 d5 bc
       0.10867934 0.06557727 0.07600926 -0.026055649
000010 c6 e6 9e 3d 4e 72 ea 3d 1c 9d 52 3d c6 03 9d bd
       0.0775886 0.11447583 0.051419362 -0.07666735
000020 6f d9 08 be d4 d0 a2 bd d0 0e 0f bc 22 88 de 3d
       -0.13364194 -0.07949987 -0.008731559 0.10865809
000030 60 a4 0d bc 18 92 0a bd 0e 79 d8 3d f9 7a 0b 3e
       -0.008645147 -0.033830732 0.10569964 0.13621129
000040 c8 d2 13 be e7 c9 08 3e ec ed 18 3d 80 5c 7b 3d
       -0.14435875 0.1335827 0.037336275 0.06136751
000050 ac c7 1a 3d 90 9a 7c bc 00 25 86 bc 72 41 b6 bd
       0.03778808 -0.01541771 -0.016375065 -0.088992015
000060 5b 14 30 be a0 48 e5 3b 36 13 b6 3d d0 6d 7a bd
       -0.17195265 0.006997183 0.08890383 -0.06113988
000070 c2 09 da 3d dc db 47 bd f6 62 c7 3d 61 3a 2b 3e
       0.106463924 -0.04879366 0.09735672 0.16721489
000080 1c 94 9b bd d4 a0 26 be 3d 1e 28 3e 42 c9 c8 3d
       -0.07596609 -0.16272289 0.16417785 0.09804012
000090 88 1a 20 be 64 d1 c8 bd 4e c5 e3 3d f7 fa d5 bd
       -0.15635121 -0.09805563 0.11121617 -0.10448258
0000a0 40 a3 0f 3d 56 47 f4 3d d8 4d 12 be d9 1e 23 3e
       0.035067797 0.11927669 -0.14287508 0.15929736
0000b0 36 93 f4 bd 60 13 72 3d 2e 53 0b be c5 30 22 be
       -0.11942141 0.05910051 -0.1360595 -0.15838917
0000c0 e0 5f 1a bc fa 71 22 be aa 82 34 be 10 5a 1e bc
       -0.009422272 -0.15863791 -0.1762797 -0.009665027
0000d0 65 dd 2e be dd 6e 17 3e 40 31 62 bb ec b4 71 3d
       -0.17076643 0.14788385 -0.0034514219 0.05901043
0000e0 08 2d dc 3c cd 47 33 3e 04 53 87 3d e0 dd a1 bb
       0.026876941 0.17507859 0.06607631 -0.0049397796
0000f0 36 1f 1d be 24 8a 48 3d 88 66 2c be 79 cf ed bd
       -0.15343937 0.048959866 -0.16835988 -0.11611838
000100 98 2d 85 bd 36 7f c5 3d 50 11 0f 3c 00 61 c9 bb
       -0.06502837 0.09643404 0.008732155 -0.0061455965
000110 30 12 f3 3c 8d 94 16 be dc f6 a6 bd 00 78 dd b9
       0.029671758 -0.14705105 -0.081525534 -0.00042241812
000120 70 9f 6a bd 50 1f 28 be 8b 14 16 3e 30 78 17 bd
       -0.057280958 -0.16418195 0.14656274 -0.036979854
000130 66 ae 11 be 68 98 d6 bd 3b 49 2e 3e 6e 9c e7 3d
       -0.14226684 -0.10478288 0.17020123 0.113091335
000140 0f cf 87 bd 38 a9 12 be b1 38 00 be 50 4f d8 3c
       -0.0663129 -0.14322364 -0.12521626 0.026405007
000150 fc 1a 68 3d 70 b9 ba bc 80 37 b0 bd 2e 61 a4 3d
       0.05666636 -0.022793502 -0.08604336 0.08026348
000160 e0 6f e2 bb 84 c4 cb bd c8 73 2f be b5 fd 07 3e
       -0.006910309 -0.09949592 -0.17134011 0.13280375
000170 6c 55 76 3d d6 8a a4 bd 53 c8 03 3e a0 be 0c bd
       0.06014006 -0.08034293 0.12869386 -0.03436148
000180 a8 fd b0 bd 45 7c 23 3e d3 45 05 3e 1c af d0 bd
       -0.08642131 0.15965374 0.13014917 -0.101896495
000190 e4 d9 04 3d 18 05 49 3d 8c a3 44 bd 00 a8 25 ba
       0.03243436 0.049077123 -0.048007533 -0.00063192844
0001a0 2c f8 33 be 25 08 0b 3e 1a 79 a1 3d ab 8c 9e bd
       -0.17575139 0.13577326 0.078844264 -0.07741674
0001b0 c4 30 70 bd 71 87 03 3e 33 29 32 be d8 7f 5c bd
       -0.058640257 0.12844636 -0.17398529 -0.05383286
0001c0 55 4f 0d 3e 00 8f 91 3a 46 2b 0c be f8 40 53 3d
       0.13799794 0.0011105239 -0.13688383 0.05157563
0001d0 a0 74 fd bb d0 4a 25 bd d6 cf d8 bd e9 5e 11 3e
       -0.00773485 -0.04035455 -0.105865166 0.14196362
0001e0 c0 cb 51 3d 45 54 32 3e ff cb 0d 3e 4d 9b 91 bd
       0.0512197 0.17414959 0.1384735 -0.071096994
0001f0 68 72 82 3d 67 9d a5 bd 49 be 33 3e b8 19 f6 3c
       0.063694775 -0.08086663 0.17553057 0.03004156
000200 d7 c9 1e be 2a de a3 3d 52 46 89 3d ba c1 9a 3d
       -0.15506683 0.08001359 0.06702866 0.07556482
000210 28 51 53 3d 01 a4 ee bd 40 48 01 3c 36 86 ba 3d
       0.05159107 -0.11652375 0.007890761 0.0910763
000220 fc 7a 00 3d b3 ce 0a be be bd c0 3d 64 bc 24 be
       0.031367287 -0.13555412 0.094111905 -0.1608749
000230 83 a0 13 3e 6e a8 b9 3d 00 43 c8 bc 70 e6 3d 3d
       0.14416699 0.090653285 -0.02444601 0.04636234
000240 5e 69 d9 bd 50 c8 2e bc 28 23 52 3d e8 be 0f be
       -0.106158 -0.010667875 0.05130306 -0.14037669
000250 38 86 d0 bc c0 dc ef 3b c0 d9 67 3c 20 49 bc bc
       -0.025454625 0.0073200166 0.014151037 -0.022984087
000260 f0 31 55 bc b4 44 31 3d eb a9 bf bd 2e c2 e2 3d
       -0.013012394 0.04327841 -0.09358581 0.11072193
000270 2d 78 ac bd a0 b1 2c 3c 3e ba f2 bd b8 09 94 3d
       -0.08421359 0.010540396 -0.11851929 0.07228416
000280 c7 d6 01 3e b9 cb 25 3e 68 24 53 bd d6 cc e0 3d
       0.12679587 0.16190995 -0.05154839 0.10976569
000290 20 63 d1 bb 87 ca 18 be 48 a3 97 bc ce f6 29 be
       -0.0063899904 -0.14921008 -0.018510476 -0.16598055
0002a0 0a 35 f2 3d 31 af 00 be 68 d3 f3 bc 40 f1 57 bd
       0.11826523 -0.1256683 -0.029763892 -0.05272031
0002b0 1d cd 0a 3e 79 bf 06 3e 4d 23 e9 bd 82 22 7e bd
       0.13554807 0.13158979 -0.11383686 -0.062044628
0002c0 dc 92 3d bd a8 73 93 bd 90 96 76 3d 94 39 65 bd
       -0.046282634 -0.07199794 0.06020218 -0.055963114
0002d0 99 9e 1e 3e 88 63 56 bd 80 ed ea 3c 9e 19 2b be
       0.15490188 -0.052341014 0.028677702 -0.16708991
0002e0 7b 74 32 3e e4 d4 ee bd 5a 7e b8 3d 9b 7a c8 bd
       0.17427246 -0.116616994 0.09008475 -0.0978901
0002f0 60 ed a4 bb 12 a3 dd 3d 78 75 d9 3c 6c f8 2e 3d
       -0.00503318 0.10822119 0.026545271 0.042717382
000300 af a7 9c bd b5 61 1a 3e 3a 85 f6 3d 67 21 17 3e
       -0.076491706 0.15076335 0.1203713 0.14758836
000310 42 41 97 3d 49 c1 b0 bd ce ac e5 3d d5 c9 21 3e
       0.07385494 -0.08630616 0.112146005 0.15799649
000320 17 9a 32 3e 68 12 29 3d 46 71 f5 3d c4 94 02 be
       0.17441593 0.04127732 0.11984496 -0.12752062
000330 77 f2 8a bd 9e 82 d4 3d 3b 7f 1f 3e ba 90 b6 3d
       -0.06784528 0.10376476 0.15575878 0.08914323
000340 e1 e8 e8 bd 6d 18 16 3e 50 10 fc bd 75 c8 19 3e
       -0.11372543 0.14657755 -0.12307799 0.15017875
000350 ce 0c 81 3d 10 9c 04 3d c0 08 0d bb 68 33 22 3d
       0.063012704 0.032375395 -0.0021520108 0.039599806
000360 60 0a f4 bc 1b 17 19 3e b5 08 e5 bd 70 88 c3 bc
       -0.029790103 0.1495022 -0.11183301 -0.02386877
000370 dc ec 0b 3d 86 e2 9e 3d a1 dc cc bd 6c 67 73 3d
       0.034161434 0.0775805 -0.10003019 0.059424803
000380 4d 31 1a 3e 39 68 99 bd fa 93 7a bd 60 f6 01 bc
       0.1505787 -0.07490582 -0.061176278 -0.0079322755
000390 42 b2 87 3d 5d ac 0d 3e 55 12 fe bd 3d 5c 09 3e
       0.06625797 0.13835283 -0.1240584 0.13414092
0003a0 3d a4 06 3e 53 f1 0a 3e fc 1e 4e bd 52 5f c7 3d
       0.1314859 0.1356862 -0.050322518 0.09734978
0003b0 db 97 2c be a0 20 85 bd 82 6c d4 3d 98 a7 30 bd
       -0.16854803 -0.06500363 0.10372259 -0.04312858
0003c0 6c b4 4a bd c9 1f 18 be c7 31 11 3e f8 aa 37 3d
       -0.04948847 -0.14855875 0.14179145 0.044840783
0003d0 cc 7f 89 3d 08 82 75 3d 88 a5 c6 bc 84 af 5a 3d
       0.067138284 0.05993846 -0.024248853 0.05339004
0003e0 20 6c d9 bb 83 4e 12 3e 80 d2 63 3c c0 ea 1c 3c
       -0.006635204 0.14287762 0.013905168 0.009577453
0003f0 00 e8 fe 3a 60 ed 04 bd 20 f5 5c 3c c0 29 0d be
       0.0019447803 -0.03245294 0.013486177 -0.13785458

emb_net.v_lins1.3.bias f4 [32]
000000 66 f0 d5 3d 76 91 e5 3d 16 81 d9 3d 5e 9b dd 3d
       0.10446243 0.11209385 0.10620324 0.108206496
000010 da 24 af 3d f4 a9 49 bd b8 d4 fe bd 90 44 a1 3c
       0.08551951 -0.049234346 -0.12442917 0.019686013
000020 10 1e ac bc b6 51 10 be aa 9e 29 be e0 66 68 bc
       -0.021010429 -0.1409367 -0.16564432 -0.014184684
000030 c4 1b 13 be ae c7 b6 3d df ec 08 3e 8a f2 6f bd
       -0.1436606 0.08924805 0.13371609 -0.058580913
000040 98 a7 41 3d 28 d3 d5 bd ee bd f9 3d c8 63 1a bd
       0.04727897 -0.104406655 0.12194429 -0.037692815
000050 74 ea 5a bd f9 3b 22 be 56 eb 89 3d d0 c5 1e 3c
       -0.05344625 -0.1584319 0.0673434 0.009690717
000060 94 31 33 3d 76 d1 1c be d0 df 4a 3c a5 54 0c 3e
       0.043748453 -0.15314278 0.012382463 0.13704164
000070 bf 6d 0a 3e 55 76 a4 bd 96 45 c6 3d 18 eb 53 bd
       0.13518427 -0.080303825 0.09681241 -0.051737875

emb_net.v_lins1.4.weight f4 [32, 32]
000000 da 73 96 bd 31 fd 0e 3e 23 f8 af bd 9c 02 89 3d
       -0.07346316 0.13963772 -0.0859225 0.06689951
000010 95 83 03 3e 00 cf 79 bd 50 d3 50 bc 48 50 48 3d
       0.12843163 -0.060988426 -0.012745693 0.048904687
000020 98 1a ef bc 97 ac 19 3e b0 9a 49 bc a0 60 d6 bc
       -0.029187486 0.15007244 -0.012304947 -0.026169121
000030 62 7b e5 3d 11 5a 2d be 58 b6 c5 3c ae d8 e2 bd
       0.11205174 -0.16928889 0.0241348 -0.110764846
000040 ce 96 c9 3d b5 58 81 bd d6 17 04 be c4 7f 82 bd
       0.09843217 -0.06315748 -0.12899718 -0.063720256
000050 1a 1c d7 3d 50 56 29 be 12 2c 1b be 66 95 a9 3d
       0.10503407 -0.16536832 -0.1515353 0.082804486
000060 91 fb 32 3e 6e af 12 be 20 50 f4 bb 6e ee ef bd
       0.17478777 -0.14324734 -0.0074558407 -0.11715399
000070 00 66 a6 39 2e 9a c1 3d d9 95 19 3e 78 88 d4 3c
       0.00031737983 0.094532356 0.14998569 0.02594398
000080 1d 1d bf bd d0 8b 5b 3d 40 d4 be bd a0 c6 4e 3d
       -0.09331725 0.053600132 -0.09317827 0.050482392
000090 76 45 cb 3d a8 40 a0 bc b4 26 0c bd 44 c0 04 be
       0.09925358 -0.01956208 -0.034216598 -0.12963969
0000a0 40 ee 2e bc 57 77 12 3e a5 fc 07 3e 12 0a 10 be
       -0.01067692 0.14303337 0.1327997 -0.14066342
0000b0 33 4b 01 3e 00 98 2b 3a 39 f7 26 be fb 65 2b 3e
       0.12626342 0.0006545782 -0.16305245 0.16738121
0000c0 ca e7 8b 3d 8e c6 15 be ee 61 9e 3d ca 6b 0f be
       0.0683132 -0.14626524 0.07733522 -0.14005962
0000d0 80 f9 fc bd 9d 21 2e 3e b0 2d 23 3c 9a 5b fc 3d
       -0.12352276 0.1700501 0.009959623 0.12322159
0000e0 c4 b1 79 3d e8 64 f8 3c d8 d9 bd 3c 37 65 1f be
       0.060960546 0.030321553 0.023175165 -0.15565954
0000f0 7d a0 22 3e b2 b4 f4 3d d6 cf 2f be 00 b0 31 be
       0.15881534 0.119485274 -0.17169127 -0.17352295
000100 20 17 48 3d 62 28 0b be 52 95 be 3d 80 a5 da bd
       0.04885018 -0.13589624 0.09305824 -0.10676098
000110 5c 3e a6 bd 64 41 4e bd 60 7f c3 3b c2 92 df 3d
       -0.08117363 -0.05035533 0.005966112 0.10916664
000120 7d 3b 10 3e c4 f3 65 bd ca 5f 31 be 92 22 de 3d
       0.14085193 -0.056140676 -0.17321697 0.108464375
000130 bb 02 15 3e 95 e0 12 3e 80 d1 69 3c f0 34 4c bd
       0.14551823 0.14343484 0.01427114 -0.049855173
000140 31 e2 05 3e 1a 8f 0e be 87 f8 14 3e a6 61 0e be
       0.13074566 -0.13921776 0.1454793 -0.13904437
000150 f0 91 e0 bc e2 d8 93 bd 1a 83 1c be 80 6f d9 3a
       -0.027413338 -0.072191015 -0.15284386 0.0016589016
000160 76 b0 f7 3d 51 09 8a bd c6 6d de bd db ea 0c 3e
       0.12094204 -0.06740058 -0.10860781 0.13761465
000170 84 dd 16 3d 53 61 0a 3e 0e 04 b2 3d d4 c4 1d bd
       0.036832348 0.13513689 0.086921796 -0.038517788
000180 e8 19 5e bd a3 6b 07 3e b6 30 a3 3d 52 9a 00 be
       -0.054223925 0.13224654 0.07968275 -0.12558869
000190 50 4c 65 bc 74 03 2a 3d d2 dc 0b be 05 a9 a0 bd
       -0.013995245 0.0415072 -0.13658455 -0.07844738
0001a0 cc c0 66 3d bb c7 0d 3e a0 de af 3c af 64 30 be
       0.05633621 0.13845722 0.02146846 -0.17225908
0001b0 d9 92 16 be 34 52 16 be 6a 66 9f bd 60 ff c9 3c
       -0.14704455 -0.14679796 -0.07783206 0.024657905
0001c0 6d 2f de bd 48 11 2f 3d 80 47 ce bb 71 81 11 3e
       -0.108488895 0.04274109 -0.0062951446 0.14209534
0001d0 f5 1c 21 3e bf a2 01 be e5 8f c6 bd 7c 67 8f 3d
       0.15733702 -0.12659739 -0.096954145 0.0700216
0001e0 e1 73 07 3e 26 24 fa 3d 70 14 53 3d f8 3f b6 3c
       0.13227798 0.12213926 0.051533163 0.0222473
0001f0 56 6c 09 be a3 5e 00 be a0 57 c7 3c e6 62 dd 3d
       -0.13420233 -0.12536101 0.024333775 0.10809879
000200 15 bf ad bd 9c 42 3c 3d a8 56 9f bc a7 5b 2b 3e
       -0.08483712 0.04596196 -0.0194505 0.16734181
000210 e4 14 34 bd 90 a3 b0 bc 6c 0b 2e be d8 53 e8 bc
       -0.043965235 -0.021562368 -0.16996545 -0.028360292
000220 2f 60 03 3e ae 68 9d bd d8 6c 48 bd c5 e2 1e be
       0.1282966 -0.07685982 -0.048931926 -0.15516193
000230 75 3e 1a 3e 8e 0f 99 3d 80 88 a2 bc 48 96 12 be
       0.15062888 0.0747367 -0.019840479 -0.1431514
000240 12 ea 1a be aa c2 b4 3d d0 9b 74 3c a2 f7 13 be
       -0.15128353 0.08826192 0.014929727 -0.14449933
000250 02 ce f8 3d da 96 34 be cd e0 23 3e a2 e1 ba 3d
       0.12148668 -0.1763567 0.16003723 0.09125067
000260 07 c1 0f 3e 98 e6 f8 3c 00 b8 a8 b9 f4 69 92 3d
       0.14038478 0.030383393 -0.00032180548 0.07149115
000270 e8 c6 81 3d 43 e7 b4 bd ba 79 c3 3d e6 b4 59 bd
       0.063367665 -0.08833172 0.09544702 -0.053151034
000280 e5 a0 9f bd 00 be 3a 3a d8 19 7a bd e1 0d 13 be
       -0.0779436 0.0007123649 -0.061059803 -0.14360763
000290 72 67 7a bd 82 2a b9 3d 8c db 8b 3d 34 02 55 3d
       -0.06113381 0.09041311 0.068289846 0.052004054
0002a0 8e 7a da 3d 31 bd 29 3e 80 1d 14 be 20 cb 63 3c
       0.10667907 0.16576077 -0.14464378 0.013903409
0002b0 00 30 ba 3a a2 de 13 be 3b e6 13 3e 77 df be bd
       0.0014204979 -0.14440396 0.14443295 -0.09319966
0002c0 6c 74 1c be 05 00 34 3e 09 eb 01 3e aa 20 1c be
       -0.15278786 0.17578132 0.12687315 -0.15246835
0002d0 ce 69 08 be 4c 58 53 bd dc bb 6d 3d ef 27 11 3e
       -0.13321611 -0.05159788 0.058040485 0.1417539
0002e0 74 bb 84 bd d7 c4 d9 bd f5 55 15 3e 24 4b 1b bd
       -0.06481066 -0.10633247 0.14583571 -0.037913457
0002f0 ea e9 cd 3d 98 08 01 be a3 7d 8c bd b4 4b 8f bd
       0.10054381 -0.12600935 -0.06859901 -0.06996861
000300 f0 60 eb bc 84 b5 76 3d f0 ae a8 bc 97 9d 31 be
       -0.028732747 0.0602317 -0.02059123 -0.17345272
000310 19 09 20 3e db 1f 2f 3e 87 11 05 be 8c f2 22 bd
       0.1562847 0.17101996 -0.12994967 -0.039782092
000320 18 2f 26 bd 91 d9 25 3e c7 b5 b6 bd 45 b3 33 3e
       -0.040572256 0.16196276 -0.0892139 0.17548855
000330 e5 63 99 bd e5 21 10 3e bf 84 2a be c0 b8 7f bc
       -0.074897565 0.1407543 -0.16652201 -0.015608013
000340 d3 0f 10 3e c8 00 1f 3d 40 c3 f9 bc 80 89 fd bc
       0.14068536 0.038819104 -0.03048861 -0.030949354
000350 ad aa 2d be 52 68 d0 bd 4c 06 67 3d a6 e8 66 bd
       -0.16959639 -0.101761475 0.05640249 -0.056374215
000360 a8 61 df bc 38 24 c6 bc e6 19 b9 3d b8 97 b2 bc
       -0.027268246 -0.024187192 0.09038143 -0.02180086
000370 46 d1 cf 3d 61 3f dc bd 8e 8d b8 3d 80 67 06 3b
       0.101473376 -0.10754276 0.090113744 0.0020508468
000380 0c d6 6a 3d 2e 27 bd bd da 8b b6 3d c2 77 11 be
       0.057333037 -0.092359886 0.08913393 -0.1420584
000390 6a 02 8e bd ff 53 2e 3e b2 64 da 3d c7 5f be bd
       -0.06934054 0.1702423 0.10663737 -0.09295612
0003a0 3a 7c bb 3d c6 e4 d3 3d a9 6b e7 bd 5e b4 be 3d
       0.09154554 0.103463694 -0.112998314 0.09311746
0003b0 c1 bf 2e 3e bf 52 02 3e 2a d9 ce 3d c7 83 1d 3e
       0.17065336 0.12726878 0.101000145 0.153823
0003c0 5e 75 0e be ba ee e4 3d e0 95 1c bc f5 5c 1e be
       -0.1391196 0.11178346 -0.009557217 -0.15465148
0003d0 98 04 3d 3d 00 60 78 3c 03 3d 91 bd 50 6d 4a bd
       0.04614696 0.015159607 -0.07091715 -0.049420655
0003e0 80 67 a6 3a b0 a1 5d 3d 4a 2e 25 be 73 d8 31 3e
       0.001269564 0.054109275 -0.16130939 0.17367725
0003f0 a0 32 36 bd 12 7f f4 bd 10 e7 60 bd 4e 71 d9 3d
       -0.044481874 -0.11938299 -0.05490786 0.10617314

emb_net.v_lins1.4.bias f4 [32]
000000 8e 45 de 3d f8 e6 08 bd e0 6e 90 3d 20 82 0b bd
       0.1085311 -0.033423394 0.07052398 -0.034059644
000010 65 57 16 3e 2e 89 98 3d f8 d5 11 be d4 14 03 bd
       0.14681776 0.0744804 -0.14241779 -0.032002285
000020 c4 e1 0b bd 90 c2 3b bd 00 cc 05 bb 28 26 8a 3d
       -0.034150854 -0.045839846 -0.0020415783 0.06745559
000030 78 07 bd bc 72 f9 9c 3d 70 de 55 3d d6 c1 e0 3d
       -0.02307485 0.076647654 0.052214086 0.10974471
000040 fd 45 f7 bd 6b c6 07 be bc ed d8 bd 7b d1 0b be
       -0.12073896 -0.13259284 -0.10592219 -0.13654129
000050 3f f1 82 bd 28 35 00 be 44 74 46 bd 86 25 de 3d
       -0.0639367 -0.12520278 -0.048450723 0.10847001
000060 b8 07 95 bc fa c2 27 be b3 f3 24 be 10 3d 93 3c
       -0.018192157 -0.16382971 -0.16108589 0.017973453
000070 34 ec f1 bd 64 26 d5 bd e8 3d 8d 3c 95 10 9e bd
       -0.1181263 -0.10407713 0.017241433 -0.077180065

emb_net.v_lins1.5.weight f4 [32, 32]
000000 20 bc 27 3c 08 d7 6f 3d e8 53 c3 bd 30 c8 e8 bc
       0.010237724 0.05855468 -0.09537488 -0.02841577
000010 84 f9 0f bd 60 c0 ad bd 60 ed 88 3b 6a 69 ac 3d
       -0.035150066 -0.08483958 0.004178688 0.08418544
000020 e0 94 6a bd 14 6e f0 bd c3 2a 9d bd 20 e9 96 bb
       -0.057270885 -0.11739746 -0.07674172 -0.0046054274
000030 00 1e b1 ba 46 63 d7 3d 32 3b 85 bd cc fe 7e 3d
       -0.0013512969 0.10516982 -0.06505431 0.062254712
000040 f4 ff 5a 3d ac 01 09 be ad 69 34 3e 2e 82 e4 bd
       0.053466752 -0.13379544 0.17618437 -0.11157642
000050 e4 94 06 bd 52 1c b6 3d 8a e1 ca 3d 92 af b3 3d
       -0.032856837 0.088921204 0.099062994 0.08773722
000060 b2 cc 85 bd fe 62 f1 3d 5d 9a 25 3e 1b 1b 2c be
       -0.06533183 0.117864594 0.16172166 -0.16807215
000070 30 55 d6 3c 70 89 33 bc fe 93 fa 3d af 45 05 3e
       0.026163667 -0.010958061 0.122352585 0.13014863
000080 90 c4 f1 bc 40 4a c1 bb 02 30 ea 3d a6 aa 79 bd
       -0.029512674 -0.005898744 0.11434938 -0.06095376
000090 50 61 2b bc 56 14 c3 3d c2 3f 2b be 3e bd c0 3d
       -0.010460213 0.09525363 -0.1672354 0.09411095
0000a0 40 83 17 be 88 48 9c 3c b3 21 27 be 16 2a 30 be
       -0.14796162 0.019077554 -0.16321449 -0.17203555
0000b0 22 76 fd 3d a0 80 98 bb d2 4d 82 3d 1c b4 41 3d
       0.12376048 -0.004654005 0.06362499 0.047290906
0000c0 61 53 a1 bd 7e 79 8a bd ee 06 80 bd 43 d5 20 3e
       -0.078772314 -0.06761454 -0.06251322 0.15706353
0000d0 3e f7 8b 3d e1 7f 0b 3e e0 14 a7 3b f8 2b 00 bd
       0.06834267 0.13623 0.005098924 -0.031291932
0000e0 00 4c 29 ba ee 06 da 3d 88 b8 b7 bd ac 0f 37 bd
       -0.0006458163 0.10645853 -0.089707434 -0.04469268
0000f0 6f 31 1e 3e 1a a4 b3 3d 16 5f b9 3d b8 9b e6 bc
       0.15448545 0.08771534 0.09051339 -0.028150424
000100 8e 6b fe 3d 49 d3 13 3e 2b 47 21 be 62 d9 bc 3d
       0.12422858 0.14436068 -0.15749805 0.0922115
000110 00 f6 04 3d 16 13 de 3d 75 0b 80 bd aa dc 12 be
       0.032461166 0.10843484 -0.06252185 -0.14341989
000120 71 d0 06 3e 69 57 02 3e f8 91 87 3d 98 a4 87 bc
       0.13165452 0.12728657 0.06619638 -0.016557977
000130 dd 3b 06 3e ed 9a 13 3e b0 bc 16 bc 0c cf 07 be
       0.13108774 0.14414568 -0.00920026 -0.13262576
000140 3f d7 8d bd 04 52 2e bd e0 b0 f4 3c 2c 7a 46 3d
       -0.069258206 -0.042558685 0.029869497 0.048456356
000150 bd da 9e bd 38 8a 06 3d 5d 30 b6 bd 10 fc 8d bd
       -0.07756565 0.03284666 -0.08895943 -0.06932843
000160 95 27 0f 3e c6 bf 1e be ed f9 0d 3e 89 f4 8d bd
       0.13979943 -0.15502843 0.1386487 -0.06931407
000170 6e 07 20 be 77 72 10 3e d2 d4 ee 3d d8 2b 78 3d
       -0.15627834 0.14106165 0.11661686 0.060588688
000180 e0 0c 76 bc 4a bd a5 3d 41 82 9f bd 49 2f dd bd
       -0.015017718 0.08092745 -0.07788516 -0.108000346
000190 69 49 05 3e 4c ef 9a bd c8 fd fa bc 1d 2e 1f 3e
       0.13016285 -0.075651735 -0.03063859 0.15544935
0001a0 47 72 25 3e a8 5b 00 be f4 06 08 bd 5d 94 21 3e
       0.16156875 -0.12534964 -0.033209756 0.15779252
0001b0 40 bb 37 3b 10 53 08 3d ea 8f 20 be a0 91 ab 3c
       0.0028035194 0.03328234 -0.15679899 0.020943463
0001c0 00 b1 13 bc 69 2d 1f be 2d 61 16 3e 6e cc 9c 3d
       -0.009014368 -0.15544666 0.14685507 0.07656179
0001d0 51 73 30 3e 80 39 52 bd b2 5d 91 3d ce 64 dd bd
       0.1723149 -0.051324368 0.07097949 -0.108102426
0001e0 9b ee 28 be 4c 0a 19 bd c8 ac 07 be ec 78 cf bd
       -0.16497271 -0.037363335 -0.13249505 -0.10130486
0001f0 d4 f6 20 bd 30 56 d7 bd 84 bb 91 3d de 3f 84 3d
       -0.039297894 -0.10514486 0.07115844 0.06457494
000200 57 cb 2b be 56 9e f0 3d de 0b f4 bd 86 33 1e be
       -0.16776787 0.1174895 -0.11916326 -0.15449342
000210 e9 8c 0c 3e a8 0c 02 bd e5 af f8 bd 48 80 bf 3c
       0.13725628 -0.03175035 -0.12142924 0.023376599
000220 30 43 ac bd 65 50 11 be 6b 51 1d 3e 50 7e 92 3d
       -0.084112525 -0.14190824 0.1536309 0.071529984
000230 ba 39 d9 3d 11 a3 05 3e 25 16 28 3e 16 99 b9 3d
       0.106067136 0.13050486 0.16414697 0.09062402
000240 ae f0 8d 3d bc 24 21 be c0 d3 9b bc 46 49 9d 3d
       0.06930672 -0.1573667 -0.019021869 0.076799914
000250 68 09 21 bd 5f 0f 0d 3e 38 9f 2b 3d b9 76 07 3e
       -0.03931561 0.13775395 0.04189989 0.13228883
000260 85 d5 02 be bd a7 29 3e a0 39 46 3c ec 44 64 3d
       -0.12776764 0.16567893 0.0120987 0.05572979
000270 90 a8 62 3d 46 d6 db 3d a0 fe 66 3d 4b 20 1f 3e
       0.055336535 0.10734229 0.056395173 0.15539663
000280 da 87 2b be 4b d1 18 3e 98 12 10 bd ce 24 ce 3d
       -0.16751042 0.14923589 -0.035173982 0.10065614
000290 30 ae 03 bd fc a8 2b be 7e 0a 08 be 12 3e a9 3d
       -0.03214854 -0.16763681 -0.13285252 0.08263792
0002a0 f6 fe b4 3d 28 c1 ba bc 86 b7 e1 3d f5 d9 25 3e
       0.088376924 -0.022797182 0.110213324 0.16196425
0002b0 0c 1a e2 bd 36 aa d7 bd 0c cb 30 bd e3 45 1f be
       -0.11040124 -0.10530512 -0.04316239 -0.15554003
0002c0 6e f8 65 bd ee cb e9 3d 5f b2 bf bd 06 1b c4 3d
       -0.056145124 0.114158496 -0.093601935 0.09575467
0002d0 44 f4 da bd 3d 9c 13 3e d9 e4 12 3e 9e 89 b8 3d
       -0.10691121 0.14415069 0.14345111 0.090106234
0002e0 c0 60 80 3b c7 4f a5 bd a4 c2 a4 bd 5e ad 86 3d
       0.0039177835 -0.08071857 -0.08044937 0.06576036
0002f0 28 65 ac 3c 13 25 06 3e 4c f3 2f bd ff 37 bd bd
       0.021044329 0.1310008 -0.042956635 -0.09239196
000300 de 3c ed bd 48 eb 69 3d 87 e3 2e 3e ac 79 50 bd
       -0.11583875 0.057109147 0.17078982 -0.050897285
000310 00 cc de bb 70 de 27 bd 02 5c f4 3d f2 2a da 3d
       -0.006799221 -0.040983617 0.119316116 0.106527224
000320 0a 0e e1 3d 01 23 0d 3e 90 aa 69 bc a2 38 a8 3d
       0.10989006 0.13782884 -0.014261857 0.08213927
000330 27 42 d8 bd 06 5a bb 3d 00 55 94 3a c8 4b e6 bc
       -0.105594926 0.0914803 0.0011316836 -0.028112307
000340 36 e1 e2 3d 9a cd ff 3d e0 46 32 bd a0 b2 7d bc
       0.11078112 0.12490387 -0.043524623 -0.015484482
000350 fe 35 33 be 0a 89 e9 3d c8 b1 c1 bc f0 b0 6d bc
       -0.17501065 0.11403091 -0.023644343 -0.014507517
000360 85 d5 10 3e 14 5e 0f be 20 75 8b 3b 60 2c 18 bd
       0.14143951 -0.14000732 0.0042559057 -0.037151694
000370 c3 e9 10 3e 1d e8 e0 bd 51 0a 34 3e 2e 8a e2 3d
       0.14151673 -0.10981772 0.1758206 0.11061512
000380 c8 47 8b 3c 30 36 3c bd 32 4c b6 bd 7a ca e3 3d
       0.017002001 -0.045950115 -0.08901252 0.11122604
000390 83 c9 31 be 90 7d 13 bc c8 7b 86 3d 02 a8 b3 3d
       -0.17362027 -0.009002104 0.06566578 0.08772279
0003a0 5b 91 0d be 7e 7e d2 3d 78 f3 4e 3d 47 80 03 be
       -0.1382498 0.10278033 0.05052516 -0.12841903
0003b0 46 6c b0 3d 88 a7 6e bd 1e b2 ae bd 0d 53 8d bd
       0.086144015 -0.05826524 -0.08530067 -0.06900606
0003c0 2e 34 d4 3d f2 0c d9 3d b6 71 b8 3d 0b 9f 1e be
       0.10361515 0.10598172 0.09006064 -0.15490358
0003d0 6b 2d 14 be 9d 54 17 be ca 78 92 bd 04 43 14 be
       -0.1447045 -0.14778371 -0.07151945 -0.1447869
0003e0 40 86 cf 3c f7 52 0b 3e f6 96 ae bd a6 dc 62 bd
       0.02533257 0.13605867 -0.08524887 -0.055386208
0003f0 28 9d b2 bc 0a b2 a6 3d da 5e fc 3d 6c 17 d9 bd
       -0.021803454 0.08139427 0.12322779 -0.106001705

emb_net.v_lins1.5.bias f4 [32]
000000 4e d4 bc bd 30 45 c7 3c a3 ea ce bd dc c0 04 be
       -0.092201814 0.024324983 -0.10103347 -0.12964195
000010 00 7f 3c bb 0e 53 04 be d6 12 c6 bd 4d 0d 29 3e
       -0.0028762221 -0.12922308 -0.096715614 0.1650898
000020 37 95 de bd 28 b8 fd bd 38 d5 7d 3d b0 18 28 3c
       -0.10868304 -0.12388641 0.06197092 0.010259792
000030 44 ee 94 3d c0 a8 31 3c 97 e5 2d 3e 4c 15 4e bd
       0.07272008 0.010843456 0.16982113 -0.05031328
000040 a0 67 91 bd 9d 74 28 3e ce 36 f9 3d 9f 71 28 3e
       -0.07099843 0.16450734 0.12168656 0.16449593
000050 06 bd 0b be 5f a8 93 bd 0d 38 06 3e 54 f7 22 3d
       -0.13646325 -0.072098486 0.13107319 0.03978665
000060 06 8f a3 3d 70 52 3a bc 4e 0c d1 3d 34 a9 2a be
       0.07986264 -0.011372194 0.10207425 -0.16666108
000070 b8 56 f0 bc 38 86 a0 3c de 69 b3 3d fe 5c 0a be
       -0.029338226 0.01959525 0.08760427 -0.13512036
