or/GFlowNet and ACO to solve TSP/DeepACO/tsp/pretrained/cvrp/cvrp100.pt (torch, 354748 bytes, 225 tensors)

emb_net.v_lin0.weight f4 [32, 1]
00000000: 0717 323f a384 13bf 0b65 1b3f ded2 64bf
00000010: 9de6 4ebe b4b7 1b3f 6f8c 783f 5102 3dbf
00000020: c39b 45bf 77e4 30bf d40f 72bd 9a5c 83be
00000030: a828 14bf 72b3 443f 8ace cdbe 4434 b5be
00000040: cc80 bebe 9750 00bd eeaf 003e 63d4 cc3e
00000050: 2fbd 313f 6421 f93e b634 cebe 913b 32be
00000060: adcc 4bbf 4406 1b3e df3c 6b3f fc0e 05be
00000070: 7e09 033f 6df3 7cbf 79c4 77be bb86 44bf
0.69566387 -0.5762426 0.60701054 -0.8938426 -0.2020516 0.60827184 0.97089285 -0.7383166
-0.771908 -0.6909861 -0.059097126 -0.25656587 -0.57874537 0.7683631 -0.4019664 -0.35391438
-0.3720764 -0.031326856 0.12567112 0.40005788 0.69429296 0.48658288 -0.4027459 -0.17405535
-0.79609185 0.15139109 0.91889757 -0.12993997 0.5118636 -0.9880894 -0.24196042 -0.7676808

emb_net.v_lin0.bias f4 [32]
00000000: 1ee1 fe3e 6916 dd3e 8232 f83d 1796 3bbf
00000010: 1b43 a1be 712b 4bbe d565 adbe 9e22 12ba
00000020: 9475 4d3f 2555 ef3d fc5f 6bbd 90d2 73bf
00000030: 77ec de3e bf21 71bf 885f 13bf 203e 903e
00000040: b3e3 783f 7bcc 65bf 0183 2e3e 7014 55bf
00000050: ee9a 2c3f 8fc5 ce3d f049 6e3f d511 49ba
00000060: 4e3b 113f 2202 f43e c8b6 01bf 11d6 acbe
00000070: 5357 0a3d cdef bf3e cef8 48be bbb1 bc3d
0.49781126 0.4318116 0.121190086 -0.73275894 -0.3149651 -0.1984079 -0.33866754 -0.00055746164
0.80257535 0.11686162 -0.057464585 -0.9524317 0.43539783 -0.9419212 -0.57567644 0.28172398
0.9722244 -0.8976514 0.17042162 -0.8323431 0.67423904 0.10096275 0.9308157 -0.00076701987
0.56731117 0.47657877 -0.5066953 -0.3375707 0.033774685 0.3748764 -0.19626161 0.09213587

emb_net.v_lins1.0.weight f4 [32, 32]
00000000: 6b43 263e 12d9 00be b6b7 123d 4b2b 81bd
00000010: 2380 d03c 6896 d53d eed6 cbbc a900 1abe
00000020: c68e e43d 4001 01be 4205 c83c 5d10 ea3d
00000030: d228 7b3c a852 3cbd c8b6 343e 85f0 bd3d
00000040: 96c4 a43d 935f 04be 838c 09bd 249d b13d
00000050: 9772 3abe 9e97 953d 1c73 2a3e ac1a 8dbc
00000060: a509 1abe 4e15 3a3d 4ebb e0bd 8e20 26bd
00000070: e2be 84bc bf47 1fbd 2690 7d3b 4495 b6bb
00000080: 6c9b b0b9 1297 e03b 22ba 933d 77da 33be
00000090: e883 183e 1866 243e 52f6 bdbc 345c 3a3d
000000a0: 9dde 15be 94fa 13bd 269c 0d3e 116f de3d
000000b0: c925 4e3c 2221 2c3e d62e bcbb a5ce d73d
000000c0: ab8b 60bd 0f47 313e 2cdc 03bd 20b5 063e
000000d0: 4118 0b3e f1aa 8f3d 6a6c 163e 5ec9 583d
000000e0: 6947 2e3e 683d 29be 5fbf 183e 15c5 863c
000000f0: 0969 cc3d 5c7f 2f3e 92fc 99bc edbe 923d
00000100: 9de0 213e 8fe3 b93d 0961 5a3d adbd b03b
00000110: 5e07 503c d0a8 2fbe 4244 a7bc 242c 463d
00000120: 7670 07be 6798 f9bd e792 d33d 86d7 873d
00000130: 0f62 143e 9704 9bbd a3bf 1bbe d774 283e
00000140: be26 8b3d eb74 b0bd 334c 50bd 7849 e4bc
00000150: 3d25 2cbe a325 92bd 986e 3339 cebb 9cbd
00000160: 3715 0ebe 0e75 f4bd 07b5 9b3d 7983 06be
00000170: 8c76 1a3e 370e c3bd b88f 2bbe bd15 60bd
00000180: 4b42 293d cbea 943d c815 933d 380d b13d
00000190: d2d8 27be eae3 d73d d764 313e 1a4a 9e3d
000001a0: 2d9d b0bd ecaa 09be 8c49 2bbe 37fe 113e
000001b0: b3cf 223e 2f89 f8bd e05b 8a3c f2d0 adbd
000001c0: 7d62 0fbe 20c9 f73d bb97 263e b178 2bbe
000001d0: 7c9e 123d f8a9 b53d 920b 8f3c 7e4b 263e
000001e0: 2fff 103e 653e 1e3e 4956 fdbd ca9f 5ebd
000001f0: 4b6a bfbd 9a4a 513b f65a ddbd c4d7 19be
00000200: eeda b9bc 41d8 f03d 054c 11bb 10ff 0f3e
00000210: 756e db3d c0ae 333e 57a3 a1bd 95af ad3d
00000220: 71ae 0fbe 9bdf 64bd e7da 4c3d f3ac 0c3e
00000230: 819f fd3d 550b bc3c 7963 ecbd 820f a2bd
00000240: d605 2c3d 0611 6d3d fd08 a4bd 3079 0ebe
00000250: 68a6 9ebd 4e5d 113e 3afc 67bd e0fe 093e
00000260: 2355 ba3d f95f 01be 1faa cebd badf 29be
00000270: 555a 26be ca21 c53d d9e5 cf3c 07b4 383e
00000280: 655d 4a3d 7a16 26be eab5 933c 31c2 af3d
00000290: 4665 2dbe 22b0 2fbd e652 883d e6f2 fc3d
000002a0: b794 853c 5886 04be 36f3 18bd 3fe2 a43d
000002b0: 9bfe 513d 3abc 1cbe b104 9cbb 554e 0fbe
000002c0: 8b9e 13be b07b 4f3d 11c5 b5bd 8e3f 9e3d
000002d0: d48b b43b bc97 96bd 197d dd3d 18db 3cbe
000002e0: c43e 373e a5ff 09be 30c6 873c d2e2 e13d
000002f0: ab40 273e 0851 13be 1143 363c f8d0 ec3d
00000300: c552 473d 2d74 9abd c6cc f23d 9cbb f4bc
00000310: e541 f83d 76e3 eb3d 2800 0abe d0e5 e1bd
00000320: c381 433d 1488 98bc cbf8 9dbd aec9 9d3c
00000330: 0bf9 153c 1ff6 b3bd f8f3 823d e938 633d
00000340: 00d1 02bc 6c13 98bd 2767 0cbc c8e5 1c3d
00000350: 242a adbd c849 203d a211 203b 4b53 f4bd
00000360: 3adc 393d 56e7 c1bd ed17 0dbe 6215 d1bd
00000370: 748f 3b3d 92bf 1a3e b5c7 0fbe ab34 cd3d
00000380: 7328 0c3c 21c7 0b3e 29bb e0bb cd3f f0bd
00000390: 9b36 233e a2c1 7abd bb13 063e 5832 f83d
000003a0: 394e 22be f02d 3c3c 2fba 283e 8107 c53d
000003b0: ac23 26be b45f ba3d 82b9 5ebd 0bc1 b0bd
000003c0: 5c43 65bc b28a 2dbd 2437 e93b 026e fdbd
000003d0: c198 25bc fe02 d93c db8c 173e ed4a 163e
000003e0: a79f d1bd 5bc1 e4bd d454 32be 18d1 61bd
000003f0: f023 b8bd 2a82 263e 6f76 2b3e 404c 18be
0.16236655 -0.12582806 0.03581973 -0.063070856 0.025451725 0.10429078 -0.02488276 -0.15039314
0.11160044 -0.12598133 0.02441657 0.11428902 0.015329557 -0.045977265 0.1764785 0.09274391
0.08045308 -0.12927084 -0.033581268 0.0867255 -0.18207775 0.07304309 0.16645473 -0.017224632
-0.15042742 0.045430474 -0.109732255 -0.04055839 -0.016204301 -0.03888678 0.0038690655 -0.005571993
-0.00033685134 0.0068539465 0.072132364 -0.17563806 0.14894068 0.1605457 -0.023188744 0.045498088
-0.14635701 -0.03612764 0.13829097 0.10861028 0.012582251 0.16809514 -0.005742888 0.10537461
-0.054820698 0.17312263 -0.032192394 0.13155031 0.13583471 0.07015026 0.14689794 0.052926414
0.17019428 -0.16527331 0.14916752 0.016451398 0.09980971 0.17138427 -0.018797193 0.071653225
0.1580834 0.090766065 0.053315196 0.005393705 0.012697069 -0.1715424 -0.02041829 0.04838194
-0.13226494 -0.121872716 0.10330754 0.06632905 0.14490531 -0.07569235 -0.15209822 0.16450821
0.06794499 -0.0861605 -0.05085392 -0.027867064 -0.1681108 -0.07136085 0.0001711197 -0.076530084
-0.1387528 -0.11936389 0.076028876 -0.1313609 0.15084285 -0.09524196 -0.16754043 -0.05470823
0.041322988 0.07271346 0.07181889 0.086450994 -0.16391304 0.10541518 0.17323624 0.077289775
-0.08623729 -0.13444108 -0.16727275 0.14257132 0.15899543 -0.12135541 0.016889513 -0.08487119
-0.14002414 0.120989084 0.16268818 -0.16745259 0.035795674 0.088703096 0.017461572 0.16239735
0.14159845 0.15453489 -0.12369973 -0.054351605 -0.09346446 0.0031935335 -0.10808365 -0.15023714
-0.022687402 0.11759997 -0.0022170555 0.14062142 0.107144274 0.1754713 -0.07892483 0.08480755
-0.14031388 -0.05587731 0.05001345 0.1373785 0.123839386 0.022954622 -0.115424104 -0.07913114
0.041997753 0.057877563 -0.08009527 -0.13913417 -0.07746583 0.14195749 -0.056637026 0.13476133
0.0909827 -0.12634267 -0.10091042 -0.16589251 -0.16245396 0.096255854 0.025378155 0.18037425
0.049405474 -0.16219512 0.01803108 0.08581961 -0.16933164 -0.042892583 0.066564366 0.12351017
0.016306264 -0.12941873 -0.03734132 0.080509655 0.0512682 -0.15306178 -0.0047613014 -0.13994725
-0.14415948 0.050655067 -0.08875478 0.07726966 0.005509833 -0.0735316 0.10814876 -0.18442953
0.17895037 -0.13476427 0.016573995 0.11029591 0.16333263 -0.1438638 0.011124388 0.11563295
0.04866292 -0.0754169 0.11855464 -0.029874615 0.121219434 0.11517994 -0.13476622 -0.110301614
0.047731172 -0.018619575 -0.07713469 0.019261207 0.009153615 -0.08787178 0.063941896 0.055474196
-0.0079844 -0.074255794 -0.008569515 0.038305074 -0.08455303 0.039132863 0.0024424572 -0.119299494
0.04537604 -0.09467952 -0.13778658 -0.102091566 0.045791104 0.15112141 -0.14041026 0.10019811
0.008554566 0.1365018 -0.0068582487 -0.11730919 0.15938799 -0.06121982 0.13093464 0.12118977
-0.15850152 0.011485562 0.16477273 0.09620572 -0.16224545 0.09100285 -0.054376133 -0.0863057
-0.0139931105 -0.0423686 0.007117169 -0.12374498 -0.01010722 0.026490685 0.14799826 0.1467702
-0.102355294 -0.11169692 -0.17415172 -0.055131048 -0.089912295 0.16260591 0.16744398 -0.14872837

emb_net.v_lins1.0.bias f4 [32]
00000000: ff72 8a3d 0464 18be ddff 7f3d 0c29 973d
00000010: 314a b9bd 10d3 a33d a5db 94bd 4eee 29bd
00000020: a272 bdbd 0298 ee3d b4e9 26be 3a0a 91bd
00000030: 2372 bc3c 5fc1 0bbe ac71 663d 0dc3 fc3d
00000040: d127 0abe 5292 213e e6e9 e33c 8132 1b3e
00000050: 1f6c 26be aff2 303e edcc b43c 1d09 e8bc
00000060: a56c db3d d6af 9fbd 7b97 2f3e 646c a13c
00000070: 42d9 76bc b149 6abd a28a 093e 1811 a03d
0.06760215 -0.14881903 0.06249987 0.07380876 -0.09047354 0.07999241 -0.07268456 -0.04148703
-0.0925038 0.11650087 -0.16300088 -0.07082029 0.023003643 -0.13647984 0.05626075 0.123418905
-0.13491751 0.15778473 0.027821492 0.15155984 -0.16252182 0.17280076 0.022070372 -0.028324658
0.10714082 -0.0779721 0.17147629 0.019705005 -0.015066447 -0.057199184 0.1343179 0.078157604

emb_net.v_lins1.1.weight f4 [32, 32]
00000000: 32e5 21be b244 90bd 1111 b33d e07d 29bd
00000010: 6f52 b8bc 9aaf 213e bfaa 533d 08a7 52bd
00000020: 7254 133e 7e37 15bc af85 cdbd 29fe 57bd
00000030: 11af 18be bf95 d53c b90e 20be 20aa 09bd
00000040: b841 41be 1e1f c6bd 1f80 243d 3905 0dbe
00000050: ef82 3bbd 1472 223e 2f41 3dbe 1bb5 bf3d
00000060: 36ba a93d 715b 4abd 72bf 13be a2b4 17bb
00000070: 8b93 37be e40b 18be b78d 463d fbb7 94bd
00000080: 88ee fd3d ad7f b23d 8d26 263e 5a25 f93b
00000090: 954d 08be 965f 4fbd 78a4 4dbb a569 993d
000000a0: ce92 f4bd c035 a8bd f143 16be 52ba bd3d
000000b0: ceb9 0a3d ca5e dc3d e3e3 39bd d630 58bd
000000c0: 07f2 1f3e 9300 14be 6f60 8bbc 3b5e 5d3d
000000d0: 97c5 b63d 0b7a 19be 4aa6 c4bd 02cf b5bd
000000e0: fcd1 03be 191d f8bd 43b9 c93d aad7 da39
000000f0: 3c71 81bd 0169 043e 9be5 91bc a3ae 31bd
00000100: a96b 18be aa3c 8f3d f216 9dbd a8be d3bc
00000110: d82d ce3c 7ab8 523d 1d4a f5bc 6597 42bc
00000120: 19a1 a2bd d0a1 2e3e 2beb 01be a629 0abe
00000130: c46e 30be a3d9 a73d 4f69 593d f8d9 ea3d
00000140: 25de aa3d 28d2 c7bc 026c 1b3e 44f0 f6bc
00000150: 6c53 bbbb d0b9 0cbe 10fb a43c 56e1 953c
00000160: 3e4a 4c3d dabf 9a3d 41dc 1ebd 789d 0c3e
00000170: 319f 033e e62f 80bd fce3 58bd 213e 253c
00000180: a83e 09be a078 0e3e 9089 0bbe 1fec 97bd
00000190: acff a83d 8e57 a33d 4107 843d 540f d73d
000001a0: edca e23d 6bca bfbc 5a6b 0fbe 3585 2fbe
000001b0: 19b3 4b3d 20ec 94bd 6aab ccbd 3cf0 a9bd
000001c0: e994 c63d 155a 883c ac14 c2bd 9d27 1abe
000001d0: a636 47bb 18e0 083d 8c8b d2bc 1f00 febd
000001e0: 788d febd 843d e53d b694 18be 9c37 0abe
000001f0: 9b78 1e3e 204c dcbd 5caf 74bc ac4c 5abd
00000200: 96a1 4c3d 95ba 4f3d 1668 f53d f654 0d3a
00000210: 968d 07be 23ec bf3d 31e5 363e 133e fb3c
00000220: dcb7 f4bd fa5a dcbd dbd8 b1bd 7cae 2abe
00000230: edd6 2a3e bbd5 103e 2d08 f9bd 3ea5 1e3e
00000240: ef18 053d 5a41 0ebd 0578 183c 35ef dd3d
00000250: 0a85 d6bc 6180 693c 5830 08be 19c3 10be
00000260: 2895 d23d 72b8 d43d 7095 203d 9d34 5d3d
00000270: bf8e 21be 32f8 edbd bf65 1fbe 29d7 193e
00000280: 08eb 71bd 98a0 353e 701a 2a3e 5ec0 00be
00000290: 5789 0a3e 00ca debc 31e5 8cbc bf01 233d
000002a0: b01b 653d 2232 073e eddb 893d b554 1b3c
000002b0: c99d 26be 56d7 1f3e a0d7 91bd 133f be3d
000002c0: f77b 323c 3754 f7bd 4e5c 4f3c 388b 173e
000002d0: 54b4 b9bd 390f 423e 8d39 dabd 82d0 38bd
000002e0: 1ab7 15bd 48a6 00be d681 033d 2acb 93bc
000002f0: a862 473e 40ef 52bd 2df8 cfbd 43f2 f7bc
00000300: e09b 02be a44d ff3d bfea 50bd 1003 24be
00000310: 8082 413c bbe7 b1bd b513 553d 2243 25be
00000320: f7d8 85bd 95f4 a83d fe49 c33d 412d c13d
00000330: 7e5b 35bb 384b b1bd 9f39 013e 2627 cd3c
00000340: b03d 15be e1c8 b7bd 3e57 9ebd 1de0 3fbe
00000350: 6d72 183e 8273 15be c4f9 04be 1530 e0bd
00000360: 5b17 3b3d 1e66 f7bc 8d05 0f3e 32e5 a9bd
00000370: ce79 57bd 2261 00be 6067 41be b145 d6bd
00000380: 0982 88bc 1f8e 82bd 17dd 36be cc33 cfbd
00000390: c09c 7cbd 4c0b fabd bfa4 dc3d a2a1 3bbd
000003a0: c4d9 e2bc be02 ecbd 1d9b edbd 79e0 0abe
000003b0: 80ba dbbc a7d6 10be c580 753d 3ad3 713d
000003c0: 5999 29be 917c e3bd fd10 843d 13a3 1e3e
000003d0: 5659 ac3c 7cad 283d 9089 0c3e 7132 1a3e
000003e0: fce5 0d3e ad92 3fbe 4cf4 233e 6e05 173e
000003f0: 44f4 00be 717a c3bd e023 08be 64c9 0d3e
-0.15810087 -0.070443526 0.087434895 -0.04137981 -0.022500245 0.15789643 0.051676508 -0.051428825
0.14387682 -0.009107469 -0.10035264 -0.05273262 -0.14910533 0.026072381 -0.15630616 -0.03360951
-0.18872726 -0.09673904 0.04016125 -0.13771524 -0.045779165 0.1586383 -0.18481897 0.09360715
0.0828747 -0.04940361 -0.144285 -0.0023148437 -0.17927377 -0.14848286 0.048474994 -0.07261654
0.12399012 0.087157585 0.16225643 0.0076033296 -0.13310845 -0.050628267 -0.0031378549 0.07490853
-0.11942063 -0.08213377 -0.14674355 0.092640534 0.033868603 0.10760267 -0.045383345 -0.05278095
0.1561967 -0.14453344 -0.017013757 0.054044943 0.08924406 -0.14987962 -0.096020296 -0.08877374
-0.12873071 -0.12114925 0.09849789 0.00041740882 -0.06320426 0.12930681 -0.01780968 -0.043379437
-0.14884819 0.069939926 -0.07670392 -0.025847748 0.025168344 0.05144546 -0.029942567 -0.011876916
-0.07940883 0.17053914 -0.12687366 -0.1349245 -0.17229754 0.08195808 0.053078946 0.114673555
0.08343152 -0.024392202 0.1517792 -0.030143864 -0.005716732 -0.13742757 0.020139247 0.018295925
0.04987549 0.07556124 -0.03878427 0.13731945 0.12853695 -0.06259136 -0.052951798 0.0100856135
-0.13402808 0.13913202 -0.13626695 -0.074180834 0.082518905 0.07975684 0.06446696 0.105009705
0.11073861 -0.02341195 -0.14005795 -0.17140658 0.049731348 -0.072716 -0.09993632 -0.08297774
0.09696371 0.016644517 -0.09476599 -0.15054174 -0.0030397563 0.033416837 -0.025701307 -0.12402367
-0.12429327 0.11193374 -0.14900479 -0.13497776 0.15475695 -0.10756707 -0.014934387 -0.053295776
0.049958788 0.050715048 0.119827434 0.00053913833 -0.13237604 0.093712114 0.17860867 0.030669248
-0.11949131 -0.1075954 -0.0868394 -0.16668123 0.1668355 0.14144032 -0.121597625 0.15492722
0.03249448 -0.034730293 0.009305959 0.10836641 -0.026186485 0.014251799 -0.13299692 -0.14136924
0.102823555 0.10386743 0.039205015 0.054005254 -0.1577711 -0.11619605 -0.15566157 0.15023483
-0.059062034 0.17737043 0.16611648 -0.12573382 0.13528953 -0.02719593 -0.01719913 0.039796587
0.055934608 0.13202718 0.06731401 0.009480645 -0.16271128 0.15609488 -0.07121205 0.09289374
0.010893813 -0.120766096 0.0126562845 0.14799201 -0.09067598 0.1895112 -0.10655508 -0.045120724
-0.036551572 -0.12563431 0.032106243 -0.018041212 0.19471228 -0.051497698 -0.10154758 -0.030266887
-0.12754774 0.12465981 -0.05100512 -0.16016793 0.011810899 -0.08686777 0.052020747 -0.1613889
-0.065355234 0.08249775 0.09535597 0.094324596 -0.0027672942 -0.08656925 0.12619637 0.025043081
-0.14574313 -0.089738615 -0.07731484 -0.18737836 0.148874 -0.14594844 -0.12985903 -0.10946671
0.04567657 -0.03020006 0.13966961 -0.08295669 -0.052606396 -0.12537053 -0.1888709 -0.10462511
-0.016663568 -0.06374764 -0.17857777 -0.10117301 -0.061672926 -0.12209186 0.1077361 -0.045808442
-0.02769173 -0.115239605 -0.11601851 -0.13562192 -0.026822329 -0.14144383 0.059937257 0.059039332
-0.16562404 -0.111077435 0.06448553 0.15491895 0.021038692 0.041181073 0.13724351 0.15058304
0.13857263 -0.18708296 0.1601116 0.14748165 -0.1259318 -0.09544838 -0.13294935 0.13846356

emb_net.v_lins1.1.bias f4 [32]
00000000: 0519 113e 7486 f13d 8296 e53d 97f7 08be
00000010: 70db dbbd 4530 13bd ce6e 063e 1b65 263e
00000020: 8c72 7e3d 5fe0 7a3d a127 edbd 0852 123e
00000030: d129 cc3d 1883 edbd c328 2b3c d185 fbbd
00000040: 44da 103e cfb6 cdbd 54a7 e5bd 945d 033e
00000050: ecec c2bb 2cf5 263e 1f4e 223d 5271 25be
00000060: 14de 7e3d 25d5 ae3d eeeb cc3d 6b30 c1bc
00000070: 7751 343d 9ff7 a6bd 69c9 b3bd 2fd0 833d
0.141697 0.11793223 0.11210348 -0.13375698 -0.10735214 -0.035934705 0.13128206 0.16249506
0.06212096 0.061249133 -0.11579824 0.14289105 0.09968913 -0.1159727 0.01044673 -0.12281383
0.14145762 -0.100446336 -0.11213556 0.12828666 -0.0059486534 0.16304463 0.039625283 -0.1615651
0.06222351 0.08536748 0.100059375 -0.023582658 0.044023003 -0.08152699 -0.0877865 0.06436192

emb_net.v_lins1.2.weight f4 [32, 32]
00000000: 01a9 46bc 4cea 653d 8062 b8bd 0b5d 1e3e
00000010: ccc8 db3d c18c dcbc 0207 0b3e 864f 04be
00000020: 47cb 84bd 304c 2cbe 76d6 02be 9607 2e3e
00000030: a23b 8a3d dda8 673d 7391 06be a54b 483d
00000040: b1ea a13d 4bfe 283d 46be 5fbd 7691 f4bd
00000050: 36de 233e 82d0 0bbe b68d 18be 1a7a 19be
00000060: 0c67 ffbd 0f03 923c 64f3 9f3d f0c8 1a3e
00000070: 66ef 98bd 9c34 143e cd70 853d 9926 1abe
00000080: 5b78 053c a134 4ebd 0c0d c2bd 8929 f63a
00000090: 1113 c93b 3459 2f3e 42dc d6bc 6771 2bbe
000000a0: c48c b33d e27c b9bd 23b3 dd3d ba14 85bd
000000b0: e8f2 b1bc f5f1 03be 4c15 123e 82f8 06bd
000000c0: dc3f eb3d 8e0c 283e d347 3c3d 069f 273e
000000d0: a213 a2bc 94cf 213d 1024 31bc bf53 183d
000000e0: 7249 c23d 5dbc 0abd 7ff9 23be eca2 dfbd
000000f0: 11ea d8bc d07b 5abd 20b8 01be e2bd bd3d
00000100: c567 11be f8d4 debd 6c8c 14be b9ed 30bd
00000110: 5e62 d9bd 9692 653d 4dc7 ce3d ed7c e3bc
00000120: 39ea 6e3d f8b5 623d de13 f5bd e304 b2bd
00000130: 9fcd b4bc 80b2 9fbd 0d64 f6bd 1c02 9a3c
00000140: 4a2e 393e db68 04be cd98 0fbe 26d1 d63d
00000150: bb70 5b3d e546 97bd 8ef1 ed3d 0158 d8bd
00000160: 953f f0bd c2c3 183d e6c0 f7bd 7bf5 46bd
00000170: 17b6 cdbd df97 5fbb fc54 8cbd 8a96 f5bd
00000180: dc27 3e3d 4eed b5bd b67a 15bd 6eba 26bc
00000190: 1e50 13be 64d4 0dbe 9d8a 03be 3ad6 c93d
000001a0: 2276 383e 2e1b e93d 664b c13d 8f2f d03c
000001b0: 6b2c 02be 6cbb c23d eee4 9739 a86d afbd
000001c0: cab2 b2bd 4087 213e b270 0e3e f4ee fdbd
000001d0: 0e5b 303d fa18 013d 08e2 52bd 272b 27be
000001e0: 59fe 2d3e 11fe 4a3d 8a07 323e 5b4a a83d
000001f0: 0116 debd 05ce 063e 6be9 01be 5a26 603c
00000200: 9239 19be d93a 27be 9297 a73c e2ef 0a3e
00000210: 2934 943c 340e 203e 15ef 1c3e 8ad9 8fbd
00000220: 938f 85bd b033 253e d7e8 1fbd d660 04bd
00000230: 76c0 8ebd 183a 893d d94a b9bd 356e 75bc
00000240: ed45 05be 40d8 203e c42b ccbb 6bc2 0a3d
00000250: d869 ef3d 6374 21be a706 98bd 8ead 1cbe
00000260: 4224 d13c dcfa 863c cb49 efbc f539 86bc
00000270: eadc 3cbe 924a 43bd 9a84 023e 34fa 14be
00000280: c5ee c23d bf9f 433d 6082 96bd f21b d03c
00000290: 18a9 16be 42d3 083e 44e9 203e 373d 8abc
000002a0: 697a ab3d 750f bfbd 5b30 ff3d fdb5 5bbd
000002b0: 3073 2fbe c79b 1cbe af2e 343d 98d9 3ebd
000002c0: 8be1 be3d 065f 083e 7352 b83c dbc5 14be
000002d0: 6321 5b3e e547 7c3d f9b3 94bd e7f2 243d
000002e0: 35d8 233d 7b95 193e 25f5 1bbd 6297 9b3d
000002f0: d931 46bc 6778 ed3d 99cf d0bc e1e7 0fbd
00000300: 06c7 33bd 8e41 e73d 1993 16bd a4d3 1fbe
00000310: 3c1e 173e c6a8 1f3c ef26 bc3d 9cfd 80bd
00000320: 3006 86bc 44f2 fa3c f7a8 b03d 8fb9 8dba
00000330: d23b 1ebd 3c67 83bc 062a 2e3d 9921 2b3e
00000340: 492a 8fbc e05e b23c 7251 223e 5b5a 9ebd
00000350: 85a3 0b3e ae3d 153e e2ab b23d 7e09 983d
00000360: 272a 94bd 62de 5d3d 8872 063e e9ee c9bb
00000370: 6b9f e53d bfba e23d 12c7 0dbe 9645 12be
00000380: 16be a7bc bc49 65bd 6e8c ba3d 0356 b93d
00000390: 79c4 0fbe 5a69 2dbe b698 67bc 3ad3 28bd
000003a0: 8c7f 1dbe f3e1 02bc 8c3c 1b3e 8109 2c3e
000003b0: a20f 363d 473b 1a3e cca3 c33d a83c acbd
000003c0: 5931 56bc 51eb 953d f5c1 003d e080 b9bd
000003d0: 27d8 39bd 3280 353e 723e d5bd da0e 433c
000003e0: 91ee e03c 3ce0 1d3c dccc 003e 93a3 84bd
000003f0: a597 07be 7861 b83d 105f 8a3d a22b 3abd
-0.012125255 0.056131646 -0.090031624 0.1546518 0.10731658 -0.026922585 0.13576892 -0.12920961
-0.064840846 -0.16825938 -0.12777123 0.16995081 0.06749655 0.056557525 -0.13141422 0.048900265
0.07906092 0.041258138 -0.05462482 -0.11941807 0.16002735 -0.13653758 -0.14897808 -0.14987984
-0.124708265 0.017823724 0.07810095 0.15115714 -0.07467537 0.14473194 0.06515656 -0.15053786
0.008146371 -0.05034316 -0.09475145 0.0018780689 0.006136306 0.17123872 -0.026228074 -0.16742478
0.08767083 -0.09057023 0.10825183 -0.06498094 -0.021722272 -0.12885268 0.14265937 -0.03295184
0.114867896 0.16411039 0.045966934 0.16369256 -0.019784752 0.039504603 -0.010811821 0.03718924
0.09486665 -0.033871043 -0.16013144 -0.10919747 -0.026478799 -0.053340733 -0.12667894 0.09264733
-0.14199741 -0.10880464 -0.14506692 -0.04319546 -0.10614465 0.056048 0.10096607 -0.02776953
0.05832884 0.05534932 -0.1196668 -0.08692338 -0.022070704 -0.07797718 -0.12030802 0.018799834
0.18084064 -0.12930624 -0.14023133 0.10489111 0.053574305 -0.07386569 0.116183385 -0.105636604
-0.11730877 0.037296064 -0.12097339 -0.048573952 -0.100444965 -0.0034117622 -0.06852147 -0.11991604
0.04642473 -0.08883153 -0.03649398 -0.010176284 -0.14386031 -0.13850552 -0.12845846 0.098553136
0.18013814 0.11382137 0.09438209 0.025413303 -0.12712257 0.09508404 0.0002897153 -0.08565837
-0.087255076 0.1577425 0.13910177 -0.12399092 0.043055587 0.03151796 -0.05148509 -0.16325055
0.16991557 0.049558703 0.17385688 0.08217307 -0.10844041 0.13164528 -0.12686698 0.013681019
-0.14963368 -0.16331042 0.020458017 0.1356807 0.018091278 0.15630418 0.15325578 -0.07023914
-0.06521525 0.16132998 -0.039040413 -0.032318912 -0.06970303 0.06700534 -0.09047479 -0.014979889
-0.13014956 0.15707493 -0.006230803 0.033876818 0.1169011 -0.15767054 -0.07423144 -0.15300581
0.025529984 0.016477041 -0.029209992 -0.016385058 -0.18443647 -0.047678538 0.12745896 -0.1454857
0.09518198 0.047759768 -0.07349086 0.02540395 -0.14712942 0.13361838 0.15713984 -0.016874893
0.08372957 -0.0932912 0.12460395 -0.053640354 -0.17133784 -0.152938 0.043989833 -0.046594232
0.09320363 0.13317499 0.022500252 -0.14528601 0.21399455 0.061592 -0.072608896 0.040270712
0.040001113 0.14998429 -0.038075585 0.07597233 -0.012096846 0.115952305 -0.025489615 -0.035133246
-0.043890975 0.112918004 -0.036761377 -0.15608078 0.14757627 0.009744829 0.091871135 -0.06298372
-0.016360372 0.0306331 0.086259775 -0.0010812747 -0.038631268 -0.016040437 0.042520545 0.16712035
-0.017476218 0.021773756 0.15851381 -0.07732078 0.13636597 0.1457431 0.0872419 0.074236855
-0.072346024 0.05416716 0.13129628 -0.0061625135 0.11212047 0.11070775 -0.1384547 -0.14284357
-0.020476382 -0.05597852 0.09108816 0.090496086 -0.14039792 -0.1693472 -0.01413553 -0.041217066
-0.15380687 -0.007988441 0.15159816 0.168005 0.044448502 0.15061675 0.09552726 -0.08410007
-0.013073289 0.07320274 0.03143497 -0.09057784 -0.045372155 0.17724684 -0.10412301 0.011905396
0.027457507 0.009635981 0.12578148 -0.06476512 -0.13241442 0.09002966 0.06756413 -0.045451768

emb_net.v_lins1.2.bias f4 [32]
00000000: a913 bdbd 5d40 1cbe 8edb 843c 6e2b fc3d
00000010: 14f7 08be ca38 153e d0c9 d2bd 9a03 053e
00000020: 34b6 a3bd 19c2 40bb d88d 093d 7349 d23d
00000030: 45e5 aabd d028 3c3c 2a1e af3d 1086 02be
00000040: d2ca 1e3e 3a95 483d 6ac9 333e 67a1 10be
00000050: 5e09 a0bd 96d2 cabd 9dc6 6ebd c8c5 26bd
00000060: 2256 81bd a959 273e 74d0 cc3d 9f81 fa3d
00000070: 0154 0e3d 062d 8abc 702f 71bd 002a 81bd
-0.092322655 -0.15258928 0.016217973 0.12312971 -0.13375503 0.14572445 -0.10292399 0.12989655
-0.07993737 -0.0029412566 0.03358254 0.102679156 -0.08344511 0.01148434 0.08550675 -0.12746453
0.15507057 0.04897044 0.17557302 -0.1412407 -0.07814287 -0.09903447 -0.05829488 -0.040715963
-0.06315257 0.16342796 0.10000697 0.122317545 0.03474808 -0.016867172 -0.05888313 -0.06306839

emb_net.v_lins1.3.weight f4 [32, 32]
00000000: 0633 d2bd d4e2 223e 63cd 193e 5429 0bbe
00000010: d992 b33d d843 b5bd 1f87 69bd 5bbe 02be
00000020: a0dc 963d 3884 513d 5040 d83d 282d 99bd
00000030: 981c 30bb 569f 673c 641e 8fbd cd7b 3d3d
00000040: d34c a13d da7c efbd 75cd 053d b1a6 04be
00000050: d962 443e d9e4 233e 26dd b8bd d728 1ebe
00000060: c56a 15bc 5b1d 2e3e f337 cfbd 21f7 323d
00000070: 8dae 75bb 2deb 8ebc 72fc 2e3e 0b3f 8dbd
00000080: df82 a0bd 4712 f53d 1a21 bb3d f544 a2bd
00000090: 039c 20bd a622 98bc fd4f 1fbe 234b 1d3e
000000a0: 5c11 623c 4371 0fbc ce22 923d 1f94 44bd
000000b0: b5fb 1cbe 9db6 193e 59ad be3d 97d1 adbd
000000c0: e3c4 ecbd 2d80 38be 8e0c 9fbd 28fd 273d
000000d0: e40d 0e3e 46de ff3c 8549 f63c 635d 023e
000000e0: 4d1f c0bd 3614 1fbc 02a5 af3c 72bd 8fbd
000000f0: c37d 2ebe 4dd3 193b 99b4 af3d 66f4 183e
00000100: 2602 0fba a118 27be 206f d3bc 71e9 b73c
00000110: 8180 f43d fb97 debd 096b 083e 3880 1ebd
00000120: e652 febc d7d2 02bd 8d6c 7d3d d939 223d
00000130: daae 373d 7233 1f3e 0b78 bbbd f75e e13d
00000140: 4aa4 963d 0281 e3bc 1248 23bd 4bf3 a33d
00000150: 53c3 3abe 2c7d 27be 6d30 fa3d a70c 513c
00000160: a116 4bbd 7b08 08be 81ec bd3c c24c b3bd
00000170: 7b66 543d f5eb edbd 2d8b f5bd 9703 b0bd
00000180: 8e36 6e3c 08a9 51bd fa5b 413d b7af d6bd
00000190: a151 463d cb1d 14be b073 f53d 63ff 133e
000001a0: 1fef 14be c382 01be d462 0b3e 7c6e 8abd
000001b0: e711 1e3d 3ce7 14be 5219 0fbd 4b14 24be
000001c0: dd10 63bd ebf6 92bd f349 9cbd 5cbb c3bd
000001d0: ffb3 babd 1c13 0ebc 4225 25be 3960 0e3e
000001e0: db86 53bd 4ead 243e 49b4 cf3d 0ed3 d33d
000001f0: ef8f 123e 9dfe f4bd 878e 133b 3455 0ebe
00000200: eb00 ddbd c8a0 1cbe ed1b 0cbe acb6 a8bd
00000210: 5f0d 0e3e 1c85 00be 72b0 0fbe 99ce e8bd
00000220: b5a3 1fbe 6ebb e03d e19e 343d f110 623b
00000230: 43fd e53d 0507 94bd c6fd 4d3d 098a 1cbe
00000240: 7d01 183e 016e 00bd cb87 043c b866 3dbd
00000250: 97ef e8bd f719 d53c 5b9d 17bc c9db b3bd
00000260: 3563 31bc ecb3 963d c93b acbd e7a6 6cbd
00000270: 21ec 9cbd a379 973d e3bd 373a a2a9 b5bd
00000280: 1e6d d33d 770c 27be 8181 ba3c 8ac1 04be
00000290: 24bf b4bc 2511 65bd 8fed 18bd d7ec 2abd
000002a0: 8c7b 983c 6750 fb3d 441b 1ebe 531d cabd
000002b0: 1d81 1f3b 792d 693d 7fb2 223e 2ab1 143e
000002c0: 2890 dabd c538 52bc 9c11 8d3d 9208 8b3c
000002d0: 04c6 133d 5e85 6b3d ebaa 89bd d873 ac3d
000002e0: 3ff8 8bbd b145 29be b7be 22bd 7415 013d
000002f0: ab6b c83d a8dd b13c 642f 75bc 5efb 78bd
00000300: 6233 a03d e434 103d b60f 3cbc 48d7 5ebd
00000310: 1bd6 e33d 1cb4 a7bc e014 03be 5cf1 733d
00000320: 65b7 92bd a759 31be 109d ffbd 7393 1e3e
00000330: f863 f13c 2f4f 173e dcc2 fb3d af8a 1cbe
00000340: 87df 21be 9f1c 0a3e 6e7c 22be 145d a3bb
00000350: c1c7 ec3d cbcc 49bd 6064 fd3d c55f 30be
00000360: fa2b 18bc 5d44 3d3d 47d4 093e e2b1 19bd
00000370: cdce 95bd a00a 173e edfe 0f3e ad21 83bd
00000380: 67de 673c c96a e0bc c259 593c 7762 1fbd
00000390: 3d20 62bd 8076 f83d 5471 ae3b 8e7d 0dbe
000003a0: d79b b43c d75e b93a f744 e73d 2d6d 05be
000003b0: 86c1 e6bd d5ff 00be 0bc6 34bd 4808 d7bd
000003c0: 5a78 8cbc ac64 053e 2ace 0d3d 4329 ffbd
000003d0: 1015 9dbd d865 2e3d 5668 3b3d d943 b2bd
000003e0: 4633 6d3d 7112 9fbc d782 0a3e b9a2 8c3d
000003f0: dce0 3e3e 053c e33c 4427 893d 458c 103e
-0.10263638 0.1590684 0.15019755 -0.13589984 0.08768243 -0.08850831 -0.057013627 -0.12767927
0.073663 0.051151484 0.10559142 -0.07479316 -0.0026872512 0.01413711 -0.069882184 0.046260644
0.07875981 -0.116937354 0.032666642 -0.12954213 0.19178332 0.16005267 -0.09026556 -0.15445267
-0.009119694 0.17003386 -0.10118093 0.04369271 -0.0037488074 -0.017446125 0.17088488 -0.0689679
-0.07837462 0.11966377 0.09137173 -0.07923309 -0.039211284 -0.01857121 -0.15557857 0.15360694
0.013798084 -0.008755031 0.07135545 -0.04799282 -0.15330394 0.15011068 0.09310407 -0.08487242
-0.11560991 -0.18017645 -0.077660665 0.041012913 0.13872486 0.031233918 0.030064354 0.12730937
-0.0938097 -0.0097094085 0.021440987 -0.07018556 -0.17040162 0.0023471892 0.08579368 0.1493698
-0.0005455337 -0.16317989 -0.025809824 0.02245018 0.11938573 -0.10868832 0.1332208 -0.038696498
-0.031045388 -0.031939354 0.0618711 0.03960595 0.044844486 0.15546969 -0.09153756 0.11004441
0.073555544 -0.027771477 -0.039863653 0.08005389 -0.18238573 -0.16356343 0.12216268 0.012759364
-0.049582127 -0.13284485 0.023184063 -0.08754875 0.051855545 -0.11617271 -0.11989436 -0.08594435
0.014539374 -0.05118659 0.047206856 -0.10482734 0.04841769 -0.1446449 0.11984956 0.14452891
-0.14544342 -0.12647538 0.13611919 -0.067593545 0.03859129 -0.14541334 -0.034936257 -0.16023366
-0.055436004 -0.07176002 -0.07631292 -0.0955722 -0.09116363 -0.008671548 -0.16127494 0.13903894
-0.05164228 0.16081735 0.101418085 0.1034299 0.14312719 -0.11962626 0.0022515373 -0.1389969
-0.10791191 -0.15295708 -0.13682528 -0.08237967 0.13872288 -0.12550777 -0.14032152 -0.113675304
-0.15589793 0.109732494 0.04409683 0.003449496 0.112299465 -0.07227901 0.050290845 -0.15287031
0.14844318 -0.031354908 0.008089016 -0.04624054 -0.11373823 0.026013358 -0.009253825 -0.08782155
-0.010826875 0.07358536 -0.084098406 -0.057776358 -0.076622255 0.07396247 0.00070091913 -0.088702455
0.10323547 -0.16313349 0.02276683 -0.12964454 -0.0220638 -0.055924553 -0.03733593 -0.041729774
0.0186136 0.12271195 -0.15440089 -0.098688744 0.0024338432 0.05692813 0.15888403 0.14520708
-0.10672027 -0.012830918 0.06888124 0.01697186 0.036077514 0.057500236 -0.06722053 0.08420533
-0.068344586 -0.16530491 -0.03973266 0.0315146 0.09786161 0.02171214 -0.014964912 -0.060786597
0.078223005 0.03520669 -0.011478355 -0.054404527 0.11124822 -0.020471625 -0.12800932 0.05955635
-0.07163886 -0.17319356 -0.12481129 0.15485935 0.029466614 0.147763 0.12293026 -0.15287279
-0.15807925 0.1348748 -0.15867779 -0.004985461 0.115615375 -0.04926757 0.12372661 -0.17224033
-0.009287829 0.046207774 0.13459884 -0.037523158 -0.07314835 0.14750147 0.1406209 -0.064029075
0.014152146 -0.02739467 0.013266029 -0.038912263 -0.055206526 0.12131977 0.0053235684 -0.13817427
0.022046966 0.0014142644 0.11292451 -0.13029929 -0.112673804 -0.12597592 -0.04413418 -0.104996264
-0.017147232 0.13026685 0.03462044 -0.12459042 -0.07670033 0.042577595 0.0457538 -0.08704347
0.057910226 -0.019417973 0.13526474 0.068669744 0.18640465 0.02773858 0.066969424 0.14116009

emb_net.v_lins1.3.bias f4 [32]
00000000: 8e29 2ebe 8f93 1d3e dc58 efbd aca7 27be
00000010: da53 06bd 5aba 053e da7f 7e3c 7fa5 2dbe
00000020: 3c48 d4bd 913f 893d e5da e03d b700 17be
00000030: 1fff 243e b4bb a33d c9e0 ca3b 2bc7 e0bd
00000040: d5d2 583c 15f0 afbd 8761 68bd 7b4d 0b3e
00000050: 0ae8 5bbd 1833 a43d 7c8c 70bd 4e8e 523d
00000060: 65bb 88bd 2642 6bbd ce2b ddbd 4c5d 28be
00000070: edb9 c6bd 0a70 743c b2e5 193e 144b 1fbe
-0.1700804 0.1538832 -0.116868705 -0.16372555 -0.03279481 0.13059369 0.015533412 -0.16957663
-0.1036534 0.067015775 0.10979251 -0.14746366 0.16112946 0.07994786 0.0061913473 -0.10975488
0.01323386 -0.08590714 -0.056733634 0.13603775 -0.053688087 0.08017558 -0.058727726 0.051405244
-0.06676368 -0.05743613 -0.10799371 -0.1644184 -0.09703431 0.01491929 0.15029028 -0.15555984

emb_net.v_lins1.4.weight f4 [32, 32]
00000000: d375 a43d 2308 19be 4746 133d 3265 d2bc
00000010: 7404 11bd 0252 1abe 01fc 6abd b2e2 e0bd
00000020: f7bd 21be 7a6f 06be 737d 72bd 23f4 0ebe
00000030: a81e babd 1b5b 80bd 0bba 87bd 82ab fdbd
00000040: b272 c03c c59e e13d c585 ba3c 823f a0bd
00000050: 5ae6 29be a8f3 123e d70c 42bc e3e8 1e3e
00000060: dd9d a53c 7df0 df3d 767b dc3c 18df 303e
00000070: cddf b5bd 15a2 af3d eea1 f2bd 2ea8 b0bd
00000080: b888 343d 17da fb3d 4bad 483d d7bd 32be
00000090: ee52 163e 6dd4 c8bd 137e dd3d 2e97 903d
000000a0: a48f 2b3e 650a 1dbc b237 b3bd f3bb 503d
000000b0: c4ff e13d 4e30 233b e828 9a3d b67d a9bc
000000c0: 072d 0d3e 8164 1d3d 3a00 ea3d a9c4 10bd
000000d0: 9050 a03d 3665 2ebe 1c6f e9bd 8cbf af3d
000000e0: f60c 923d 7191 6f39 2500 723c 4fc7 3d3d
000000f0: cea3 053e e033 343e f87d 69ba 1cbe d2bd
00000100: 1806 62bc db38 abbd aa95 afbd f6b6 3abe
00000110: b90b 09bd 4dfa 62bd 146e 943b 143c bebd
00000120: a618 cebd c659 6ebd 1818 e93b 23d7 c4bd
00000130: 6648 f3bd 0645 1abe 4fe0 0c3e 6de9 14be
00000140: 364f 2c3e 3c56 2fbd 1abe 36bc 61d7 34be
00000150: edda 6b3c 212f c23d 6c67 da3d 4b65 06bd
00000160: ac7e 19be efbe a1bd fd78 34bd cb5f 753d
00000170: 0d83 8bbd 3fda 29be dcfc 4f3d 8987 aebc
00000180: ca82 f7bc ca08 1abe 970d 33bd 1ee0 2e3e
00000190: 6a10 233d 5591 2ebe 9ef7 c33d a4c4 0dbd
000001a0: 9ae4 0abe ac68 8b3d 2b15 d03d 3165 c53d
000001b0: 3a1d 203e d3d2 b7bb 6db5 b83d ab3a 0c3e
000001c0: fbd6 05bd 1f51 953d 4209 04be b851 9a3d
000001d0: 026a 693b 6bc5 fc3d 695b a0bd b74d 45bd
000001e0: 25fd 113e 689e 2cbe 3371 2d3e 2866 f53d
000001f0: 122f 31bd b0f8 23be 3fa1 163e c823 1bbe
00000200: 6701 ccbb 0ea8 0e3e d7cc babc 1f0f 23be
00000210: 455c 063e 646a 18bd 592b f43c d827 80bb
00000220: 466a 86bc c4a2 013e a0f9 203e e6d5 22be
00000230: 02bf d63d 6d67 273e 41c3 133e 3882 9d3d
00000240: 004a edbc bf63 2cbe 7458 34be 0667 1cbb
00000250: ad05 403b 292a 03be fa32 d63d c174 3ebe
00000260: e051 9fbd acfc 8a3d 4e2a 223e 1a35 d0bd
00000270: 9439 973d cf0e 363d 4b77 943d aa29 4b3c
00000280: c55c 323e 90a7 1b3e ce1a 5c3d f6f6 ffbd
00000290: b786 05bd 39a1 20be cf95 c73d 494d 223e
000002a0: 4d80 debd 2107 d1bd 0783 403e 2f24 d9bd
000002b0: f304 c3bd bf02 9d3d d297 033e a8f6 b13d
000002c0: 32d0 2b3e 030f ae3b fb36 04be 5366 dabd
000002d0: e105 18bd 4f8c 9cbd 1776 cebb 5495 f5bd
000002e0: c197 143e 0aca f23d 073f 063d b7cb 013e
000002f0: ec7d bfba ab02 a73c bcfc 25be 9867 0f3e
00000300: ac13 f7bc 441b 963d 96ac a0bd 46c8 63bd
00000310: 7127 82bd a395 e8bd 670c d33d 43b7 ddbd
00000320: 5189 71bc 2589 453c 9c57 3f3e 2a91 3e3d
00000330: 685e 54bd 70a1 bfbd a8ee 42bc bdbc 663d
00000340: 5f94 1dbc 05d8 1bbe a522 3ebe 17d3 febd
00000350: 52bc 303e d4da 0bbd aae0 81bd 154d f2bd
00000360: 2660 a8bc 705a 483d 88bb 11be d74e 663d
00000370: f45c fdbd 400e b5bc 22ac 4f3d 951c 27be
00000380: 3a42 81bd c91f da3d 0775 aa3d 3908 c5bd
00000390: 5b06 c6bd 1bcd 523c 824d 8c3d 9c1b d33d
000003a0: 4490 ffbc 57a3 2c3e 6b53 9dbd e65f 973d
000003b0: e58a 1a3d 4982 9539 1209 083e e3cb 35be
000003c0: c170 0f3e 8659 153e 7d3f 2fbd ace7 0ebe
000003d0: e9d7 c5bd 8e17 a2bd b0ab a6bc 9c69 9e3b
000003e0: 8a93 003e 5cf3 153e 80bb 03be ee06 c93d
000003f0: ef14 c73d a2d1 d93d 4357 95bb b264 0d3e
0.08030286 -0.1494451 0.035955694 -0.02568302 -0.035404637 -0.15070346 -0.057369236 -0.10980739
-0.15795122 -0.13128462 -0.05920167 -0.13960318 -0.090878785 -0.06267377 -0.06627282 -0.12386228
0.023492191 0.11016611 0.022768864 -0.07824613 -0.16591778 0.1435076 -0.011843882 0.15518527
0.020216877 0.109345414 0.02691434 0.17272604 -0.08880577 0.085758366 -0.11847292 -0.08625828
0.044075698 0.12297457 0.04899339 -0.1745523 0.14680073 -0.09806142 0.108150624 0.07060085
0.16754013 -0.009584998 -0.087508574 0.050960492 0.110351115 0.0024900618 0.075273335 -0.020689826
0.13786708 0.038425926 0.114258245 -0.0353438 0.07827866 -0.17030796 -0.113981456 0.085814565
0.07131378 0.00022846997 0.014770542 0.046332654 0.13050768 0.17597914 -0.00089070154 -0.10290167
-0.013795398 -0.08360454 -0.08573468 -0.18233857 -0.033458445 -0.055414487 0.004529724 -0.09288803
-0.10063295 -0.058191083 0.007113468 -0.096113466 -0.11879043 -0.15065393 0.13757442 -0.1454217
0.16827092 -0.04280685 -0.011153722 -0.17660286 0.014395458 0.094816454 0.106642574 -0.032811444
-0.14989728 -0.07897746 -0.044060696 0.05990581 -0.06812105 -0.1658716 0.050778255 -0.021304863
-0.030213732 -0.15042415 -0.043714132 0.17077681 0.039810576 -0.17047627 0.095687136 -0.03461136
-0.13563767 0.06807074 0.101602875 0.09638441 0.15636149 -0.005609849 0.09018979 0.13694255
-0.032675724 0.07290863 -0.12894157 0.07535118 0.0035616164 0.12342342 -0.07829935 -0.048169818
0.14256723 -0.16857302 0.16937713 0.119823754 -0.04325778 -0.16012836 0.14709948 -0.15150368
-0.006225753 0.13931295 -0.022802753 -0.15923737 0.13121136 -0.037210837 0.029805826 -0.0039109997
-0.016408097 0.12659746 0.15720224 -0.15901908 0.104856506 0.16348048 0.14429952 0.07690853
-0.02896595 -0.16834925 -0.17611867 -0.0023865118 0.0029300258 -0.12809052 0.10458942 -0.18599226
-0.07779288 0.067864746 0.1583645 -0.10166378 0.07384029 0.044447716 0.07249316 0.01240007
0.17418201 0.15200639 0.0537365 -0.12498276 -0.032599177 -0.15686502 0.097453706 0.15849794
-0.10864315 -0.10206438 0.18799983 -0.106026046 -0.09522428 0.076665394 0.12850884 0.08689624
0.16778639 0.005311848 -0.12911598 -0.10664048 -0.03711498 -0.07643949 -0.0063006985 -0.11991373
0.14511015 0.11854942 0.03277495 0.12675367 -0.0014609671 0.020387014 -0.16209692 0.14004362
-0.030160747 0.07329419 -0.07845418 -0.055610918 -0.06355179 -0.11356666 0.103051 -0.1082597
-0.014742211 0.012056624 0.18685764 0.046525158 -0.051847845 -0.09356964 -0.01189772 0.05633234
-0.009617894 -0.15219124 -0.18567903 -0.12442606 0.17259338 -0.034144238 -0.063416794 -0.118311085
-0.02055366 0.048914373 -0.14231694 0.05622753 -0.12371245 -0.022101521 0.050701268 -0.16319497
-0.0631146 0.10650594 0.083231024 -0.09620709 -0.09669181 0.012866284 0.06850721 0.103080004
-0.03119672 0.16859184 -0.07681926 0.07391338 0.037730116 0.00028516565 0.1328471 -0.17753558
0.14007856 0.14584932 -0.042785157 -0.13955563 -0.09660322 -0.07914649 -0.020345539 0.004834367
0.12556282 0.14643615 -0.12864494 0.09815775 0.0972079 0.106356874 -0.0045575215 0.13807943

emb_net.v_lins1.4.bias f4 [32]
00000000: a54e 213c 344c aabb 0574 c53d 2dee 1dbe
00000010: 6d95 fcbc 0678 f8bc 341a 1abe fe48 2d3e
00000020: 5095 fb3c 1925 923d d9ff f2bc bb38 1abd
00000030: e4ff ebbd d13b dabd bddc 8abc c499 a0bd
00000040: 2a7d b3bc 5ee7 c5bc e47a be3b dfcc 08be
00000050: c218 09bd ec2e 293d 8c77 e33d cc88 20be
00000060: 51b4 22be ffe1 513d acaf 07be 9b78 0f3e
00000070: e4e8 13be 3223 853d 5af0 5fbd 4bd0 2bbe
0.0098454105 -0.0051970724 0.096412696 -0.15422888 -0.03083297 -0.03033067 -0.15049058 0.16922376
0.030710846 0.07135982 -0.029663013 -0.03765176 -0.11523417 -0.1065594 -0.01695096 -0.078418285
-0.021910269 -0.024158176 0.0058129895 -0.13359402 -0.033470877 0.041304514 0.11106786 -0.15677184
-0.15889098 0.051240917 -0.13250607 0.14010851 -0.1444431 0.065008536 -0.054672576 -0.16778676

emb_net.v_lins1.5.weight f4 [32, 32]
00000000: dc4e 9e3c 81c8 ebbd abc5 39be 3203 a93d
00000010: 4152 303d a5bf 48bd 96af a43c 4d6a 093d
00000020: 350a bb3d ada8 053e 7c79 233e 3b1a 4a3d
00000030: e62d 11bd 6f6c fc3c 4aed 1f3e bea9 ec3c
00000040: 836a 983d 594b a7bc e135 f5bd 1411 8fbd
00000050: 323e 0fbe 61b2 8bbd 7c04 033d 1093 f0bd
00000060: ff75 8c3d f0c0 a83d b6d4 f03d 1565 b9bd
00000070: 7248 3a3e 1500 063d 8868 f53d 497a c4bd
00000080: e5fb 843d 4e16 15bc c3c8 59bd 2b9e 2fbe
00000090: b91b b53d 2e17 4cbd c23f 5c3d da2b 37be
000000a0: b93e 5a3d a77a 1fbd 5974 193e 5fa7 843d
000000b0: 0084 9ebd c83b 27be 16c3 e23b 4dfe 053e
000000c0: 9312 84bc 5197 bebc f096 4bbc aa01 8fbc
000000d0: b109 e03d b9dc 1dbd eeb9 38be 2e9b 3f3d
000000e0: 94c4 1bbe 9dc4 9ebb d7db b6bd 3165 dd3d
000000f0: 962b b5bd b188 34be 7c54 4fbd 366c e43d
00000100: 14eb eabd dc08 1dbe c1d0 2dbe b891 33be
00000110: d929 a5bd 8c0f ca3d 0d9a 1ebe a036 003e
00000120: cf60 333e 2a9f 743d af2c 17be 6406 223e
00000130: 18d9 06bd aa81 acbd 3fb1 01bd 0239 1dbe
00000140: 2590 adbd 859a d03d 36ff c83d 9225 23be
00000150: 80fe 20be 1732 30be bd4d a93c 38f4 103d
00000160: e401 de3d c7cf 593c 7c8b 943d f837 673d
00000170: 91e2 d1bd bdb1 e6bd 9d42 2f3d b2af 16be
00000180: 72a4 bf3d e934 a13d 9e23 fbbd a187 75bd
00000190: 6357 083e 01d4 35bc cb5b acbc ffe3 05be
000001a0: 1752 a93c 3a77 ddbd 681d 12be 7d23 9cbd
000001b0: bcbc 263d 40f1 7c3b d978 2fbe 7b5a 333c
000001c0: 801b bc3c 134d a03d fa52 203d 01b5 993d
000001d0: f999 c5bd ed69 22be df5a 6ebd f5d0 9fbd
000001e0: a160 bf3d d547 83bc f287 d73d 4da3 363e
000001f0: 3c60 913b 8d4b 82bd c4ba f2bd eb8d 2cbe
00000200: e0d3 20be c8b0 b63d 8acd d4bc 75e9 433e
00000210: 6a18 e13d 78e4 e4bd bf66 74bd 6f51 843d
00000220: 6771 493d 7533 293e 96f3 1e3e 67a6 00be
00000230: 93cf f7bd c379 173e 3206 1fbe b65b 143e
00000240: d984 c93d 1b9e 063e b9e7 e93d 652d d1bc
00000250: 8306 febd 2502 963b d85f 65bd f421 8ebd
00000260: 38ba a2bd 814f d6bc 6014 913d eabc a3bc
00000270: c35a bebd 78e4 31be 92b5 e43d e020 82bd
00000280: ca60 8e3d c07b 083e 61ce 67bd cab3 ccbd
00000290: 3747 533d b019 eb3d 9dfe c63c 47ed 88bc
000002a0: 1a43 b1bc 1373 993d 150a 243e cd52 5b3d
000002b0: f897 1dbe c161 273e 5140 e73c 4571 213e
000002c0: eba8 333c 10cd 19bd 12fc 3abd 3d1b f3bd
000002d0: b15d 143d 29f1 2c3e 3892 ccbd 7664 153c
000002e0: 555c 16be d07d ca3c 4ee1 1fbe 3ce5 1ebe
000002f0: f83a 2a3d e68c d23d 1565 623d 238d 213e
00000300: b48d d73d 60a4 acbd 4dbf 483b 2366 833c
00000310: 45ad c03d d0da c1bd 09ba 2c3e b940 0fbe
00000320: 606a 93bb ea8b 28be fe11 903d 83dc 26be
00000330: 0842 303e 2a4b 163e cc4a e63d 6526 1fbe
00000340: d2ee d8bd c2af 9dbd 1995 c83a b932 3a3d
00000350: 598f e53d 483b 1cbe 9214 cdbd 5574 fdbd
00000360: b527 42bd 627c 65bd 177e 19be 36c5 0dbe
00000370: 79ae babd 52fa 21bd a46a 4bbd 3bbd 2dbe
00000380: 5136 93bd 05ff 1abe 3890 bdbd 01db 11be
00000390: 28bb 22be be56 483d bdf0 9cbd 3d70 34be
000003a0: 09b9 ca3d 7561 5cbb d558 33bd 3a0d 82bc
000003b0: 763c 813d db73 29be 9c82 e7bd ab2d 583d
000003c0: dd00 b53d ea95 0e3d f8c2 dabd 63f8 ebbc
000003d0: bcc7 bd3d 880e 2fbd d670 103e 23bc b3bd
000003e0: 4568 ea3d d40d 333e 8a2e e5bd 202d 50bd
000003f0: 115c 1b3e a859 b43d 8158 29be bdf6 c2bb
0.019324712 -0.115128525 -0.1814181 0.082525626 0.043047193 -0.04901089 0.020103257 0.033548642
0.09132806 0.13052626 0.15964311 0.04934142 -0.035444163 0.030813424 0.15617862 0.028889533
0.074421905 -0.02042167 -0.11973167 -0.06985679 -0.1398857 -0.068211325 0.0319867 -0.117468
0.068584435 0.08239925 0.117593214 -0.09052483 0.18191698 0.032714922 0.119828284 -0.095936365
0.064933576 -0.009099556 -0.053169977 -0.1715018 0.08843178 -0.049826793 0.05377174 -0.17887822
0.053282473 -0.03893533 0.1498579 0.06477236 -0.07740021 -0.16331398 0.0069202287 0.1308529
-0.016122138 -0.023265513 -0.012426123 -0.017456848 0.109393485 -0.038540576 -0.18039677 0.04677885
-0.15211707 -0.0048452155 -0.0892865 0.10810316 -0.08846204 -0.17630269 -0.05061768 0.11153452
-0.11470619 -0.15335411 -0.16974165 -0.17536056 -0.080646224 0.098662466 -0.15488453 0.12520838
0.17517398 0.059722103 -0.14763139 0.1582275 -0.03292188 -0.08423169 -0.031663176 -0.15353778
-0.08474759 0.10185722 0.098143026 -0.159323 -0.15722084 -0.17206608 0.020666951 0.035389155
0.10840204 0.013294167 0.07253167 0.05644986 -0.10248292 -0.1126437 0.042788137 -0.1471546
0.09357537 0.0787142 -0.12262653 -0.0599438 0.13314585 -0.011097909 -0.021039864 -0.13075255
0.020669026 -0.10813756 -0.1426903 -0.07623956 0.040707335 0.0038595945 -0.17135943 0.010946865
0.022962332 0.07827201 0.039141633 0.07505227 -0.096485086 -0.1586072 -0.05819213 -0.07803527
0.093446024 -0.016025463 0.105239764 0.17835732 0.004436521 -0.063620664 -0.11852029 -0.16851012
-0.15705824 0.08920437 -0.025976915 0.19132026 0.10990985 -0.111763895 -0.0596683 0.06460845
0.049180415 0.16523536 0.15522608 -0.12563477 -0.121001385 0.14792542 -0.15529707 0.1448811
0.09839792 0.1314625 0.11421151 -0.025534341 -0.12403586 0.0045778924 -0.055999607 -0.0694007
-0.07945675 -0.026160957 0.07083964 -0.019987542 -0.09294655 -0.1737231 0.11167444 -0.06353927
0.06952055 0.13328457 -0.056593303 -0.099952295 0.051581588 0.11479509 0.024291331 -0.016714705
-0.021638442 0.07492652 0.16019471 0.05354576 -0.15390003 0.16345884 0.02822891 0.15765865
0.010965566 -0.03754908 -0.04565055 -0.1187043 0.036222164 0.1688887 -0.099888265 0.00911819
-0.1468366 0.024718195 -0.1561329 -0.15517133 0.041560143 0.102807805 0.05527218 0.15776496
0.105250746 -0.084297895 0.0030631602 0.016039914 0.094080485 -0.09465563 0.16867842 -0.13989533
-0.004498765 -0.16459623 0.07034682 -0.16295056 0.17212689 0.1467711 0.11244735 -0.1554199
-0.10592426 -0.07699539 0.0015303224 0.04545853 0.11208982 -0.15256989 -0.10013689 -0.12375704
-0.04740115 -0.056026824 -0.14989506 -0.13844761 -0.09115309 -0.039545365 -0.049662247 -0.16966717
-0.071880944 -0.15136345 -0.09256023 -0.142437 -0.15891707 0.04891085 -0.07663105 -0.1762094
0.09898574 -0.0033627425 -0.04378589 -0.015875448 0.0631036 -0.16548102 -0.11304209 0.052777927
0.08838055 0.034810938 -0.106817186 -0.028804963 0.09266612 -0.042738467 0.14105543 -0.087761186
0.11445669 0.17485744 -0.11190517 -0.050824285 0.1517184 0.08806163 -0.16537668 -0.0059498237

emb_net.v_lins1.5.bias f4 [32]
00000000: f276 abbd 9341 f03c 9f60 d33c d2c0 533c
00000010: f8f5 24bd 9950 c13c 9d81 043e bd5f 2abd
00000020: d6e5 d63d 654b 1b3c 7148 babd 52b9 07be
00000030: adb5 c1bb 5a71 d23d 0733 c33d 4767 09be
00000040: a128 1d3e 5a9a a4bd f018 403c 6454 23be
00000050: 3bd8 0e3e f59f 9ebd 1417 193e d652 12be
00000060: a801 18bd 51e3 b73d 8efb ecbd b43d a4bc
00000070: 8495 083e 5358 96bd c2a6 0b3e 249a 813d
-0.083722964 0.029328143 0.025802908 0.01292439 -0.040273637 0.023598002 0.12940069 -0.04159521
0.104930565 0.009478425 -0.09095848 -0.13254288 -0.00591155 0.10275526 0.09531217 -0.13418303
0.1534753 -0.08037253 0.011724696 -0.15950161 0.13949673 -0.07745353 0.1495021 -0.14289412
-0.037110955 0.08978904 -0.11571418 -0.020048954 0.13338286 -0.07341065 0.13637832 0.06328228

emb_net.v_lins1.6.weight f4 [32, 32]
00000000: 47b8 c9bb a53e f63d a1c2 023e a2d8 8b3d
00000010: 3336 0e3e 4cce b03d 8195 fcbd a5bc 34be
00000020: 63f5 2dbe 3af9 d93d 6fb9 babd 5d20 2cbd
00000030: baa9 d93d cbee a1bd 7cd6 d1bd 9855 b63d
00000040: a48f ea3d cad5 adbc 6f3a 26be b95d 07be
00000050: 7e63 023e 4bdf e6bc 1d70 adbd e217 0dbe
00000060: b63d 253d d71d 95bd a5b1 403c 1bb1 1fbd
00000070: 68cd 2fbd f12b ba3c 0df8 34be ead4 213e
00000080: 7025 c33d c557 23be dbbb 423d 08e6 be3d
00000090: 8a4a f93d b636 c8bd 34c2 9a3d 0e23 233e
000000a0: 3cf3 cc3d 1c5e e03c 3b74 d83d ef51 7d3d
000000b0: 38f7 923c 2184 1fbe 2d05 b0bc 9441 f83a
000000c0: 21c2 fd3d dcf2 66bb 4178 b6bd 6ca1 10be
000000d0: 587a b93d 53c5 1c3d 96bf 723d fee1 9c3d
000000e0: df6c ad3d 538c 943d 4c5c 8dbc 9643 d13d
000000f0: 352b ccbd d96a b4bc 5b79 2cbe 4ee8 f13d
00000100: 7260 d63d 11b7 02be ec81 10be e5df afbb
00000110: d07c 1b3e 40e0 063e fca1 11be 0844 833d
00000120: bd40 df3c c909 d63c c524 4ebc bff7 8b3c
00000130: 54d7 30be 08ea 2f3c cf42 d73d c16c 213e
00000140: 69f0 b2bd d5a6 1abd abd6 3a3e 9231 d13d
00000150: 6850 2ebe 5ec8 46bd 7d0e 2cbe 25a6 243e
00000160: 6a3b 0a3d 8b29 4dbb a359 e1bd 5083 3f3c
00000170: 4c11 093e 9c73 053e 241d fc3d 7216 943d
00000180: 5904 dd3d c64c 11be 9caf 863d 5ec2 bdba
00000190: b8a8 9d3d 86b8 233e be82 4bbd 30f9 773d
000001a0: 2570 1b3e 96ee 0d3e 1721 fbbd 7562 ef3d
000001b0: 0d4c babd 5a7f 1abe b34d 39be 95da 0fbe
000001c0: 4b19 453d f80e c8bd a8f9 c2bc c2cf 9abc
000001d0: 6b89 31be 3c61 87bd 6e73 2fbd b29e 48bd
000001e0: 43df a8bd b69d 023e 8597 ce3d 0f68 f33d
000001f0: 4a8d 3bbe 4ee4 4ebd c7c3 90bc 945e 8f3d
00000200: 0e0a f03d 81ac 0c3e ad67 1cbe bd4a d7bb
00000210: d527 d13d 98d1 183e ebe3 02be e768 08be
00000220: 564a a3bb 73e5 09be f10d eabc 85a4 333e
00000230: 3b6f 293e 5851 27be 4d75 093d 3a77 86bc
00000240: 0277 c9bd 553a 963d 5876 e7ba ea20 c23b
00000250: 191c 1bbe 2ae7 d63d 467f a2bb 9437 4cbc
00000260: b224 06be 0d03 3abd 2e7a 1dbd ed44 e63c
00000270: 8469 26bd 2d28 843d 5faf 31be 4604 9ebd
00000280: e86a cebd 0888 38be a4b8 303e 446b f53d
00000290: 3f02 da3d 8691 1d3e deb6 023e a351 bdbd
000002a0: 3195 933d 7290 e23d ca54 103d 91a4 f53a
000002b0: 1e10 7cbd e363 81bb 67e4 f63d ab4d 14be
000002c0: 60bb 51bd e198 7b3d c92d 133e dc40 13be
000002d0: 5670 72bd 200f 003e ac54 f63d 301a 8c3d
000002e0: b9f4 1dbe 1c15 5dbd f667 ebbd ae32 23bd
000002f0: c098 df3c 6f66 1fbd 8a4b 183e 6959 f53d
00000300: ef46 5abd 284b 2d3e 2dfd 04bd 8700 4a3d
00000310: 473c 003e 1928 fdbc 8916 3a3d bc00 863d
00000320: 477a d0bd be80 1cbe d9fc c5bd 0510 1abe
00000330: dc82 903c 46db 07be 648e 0f3e ea38 49bd
00000340: dc7a 103e 4692 873c 17b2 2dbe 56ca 04bd
00000350: 20ac f33d 186d 1bbe a6d4 903d 43a1 093e
00000360: a1f4 823d b389 b13b de9b 043e 2d63 ae3d
00000370: b14e d63c b506 9dbd 5b71 d0bd d4ac 29be
00000380: d32b 2bbe 72cf 8ebd 35c4 223e cc80 d93d
00000390: 93c5 0d3e 423b 133d 6067 1c3d a12b dd3d
000003a0: f4cf ec3d dff3 b9bd dedc 88bd 5db2 b83d
000003b0: 3d47 3cbd 3479 0a3e 49da 13be fd87 25be
000003c0: bd7f cabc 960c febd e013 003e fd2b 003e
000003d0: d083 f33d e325 ea3b d454 003e a04c 45bd
000003e0: 46e4 b6bd a4ee cd3d 6af5 23bd e78c cbbd
000003f0: e959 0d3e f5fa f0bd 532b fc3d 15e6 c23d
-0.006156001 0.12023667 0.12769558 0.06828429 0.13887863 0.08633098 -0.12333203 -0.17650087
-0.16988139 0.10643239 -0.091174 -0.04202305 0.10628076 -0.07906874 -0.10245988 0.089030445
0.114531785 -0.021220107 -0.16233228 -0.13219346 0.12733266 -0.028182646 -0.084686495 -0.13778642
0.040342055 -0.07281082 0.011761104 -0.03898726 -0.0429205 0.022726031 -0.17672749 0.15803877
0.09528625 -0.1595145 0.047542434 0.09321219 0.1217242 -0.0977606 0.075565726 0.15931341
0.10007331 0.027388625 0.10569044 0.061845716 0.017940149 -0.15577747 -0.021486843 0.0018940442
0.12390543 -0.003523997 -0.08909655 -0.14124078 0.09056538 0.03827412 0.05926474 0.07660292
0.08468031 0.07253327 -0.017255925 0.10217969 -0.099691786 -0.022023605 -0.16843168 0.11811887
0.10467614 -0.12765147 -0.14112061 -0.0053672665 0.15184331 0.13171482 -0.14221948 0.0640946
0.02725255 0.026127713 -0.012582009 0.017085908 -0.17269641 0.01073695 0.105107896 0.15764143
-0.08737261 -0.03775676 0.18245952 0.10214533 -0.1702286 -0.04853093 -0.16802402 0.16079004
0.033748068 -0.003130528 -0.11003425 0.011689022 0.13385504 0.13032383 0.12310246 0.072308436
0.10791845 -0.14189443 0.065764636 -0.0014477482 0.07698196 0.15988359 -0.049685232 0.060540378
0.15179498 0.13860545 -0.12262171 0.11688701 -0.09096537 -0.15087643 -0.18096046 -0.14048226
0.048119824 -0.0976848 -0.023800686 -0.018897895 -0.17337577 -0.06610343 -0.04283469 -0.04897947
-0.08245709 0.12755474 0.10087494 0.11885082 -0.18315616 -0.050510697 -0.017671479 0.07000461
0.11720668 0.1373768 -0.15273924 -0.006570189 0.102126755 0.14923704 -0.12782256 -0.13321267
-0.004983227 -0.13466434 -0.0285711 0.17543228 0.16546337 -0.16339624 0.033559132 -0.016414274
-0.09837152 0.07335345 -0.001765917 0.005924334 -0.15147437 0.1049331 -0.00495902 -0.012464423
-0.13099936 -0.045413066 -0.038446598 0.028109038 -0.04062797 0.064529754 -0.17352055 -0.07715659
-0.100789845 -0.18020642 0.17257935 0.1198335 0.1064496 0.15387544 0.12765071 -0.092440866
0.072061904 0.11062707 0.03523711 0.0018741061 -0.061538808 -0.003948675 0.12055283 -0.14482753
-0.051204085 0.061425094 0.14372934 -0.1438021 -0.059189163 0.1250577 0.12027869 0.06840932
-0.15425386 -0.05397521 -0.11494438 -0.039843254 0.027294517 -0.038916048 0.14872566 0.11979944
-0.053290304 0.16923201 -0.03246801 0.04931691 0.12522994 -0.03090291 0.045431647 0.06543109
-0.101795726 -0.15283486 -0.096673675 -0.15045173 0.017640524 -0.1326724 0.14019161 -0.049126543
0.14109367 0.01654924 -0.16962467 -0.032419525 0.118980646 -0.15178335 0.070718095 0.13440423
0.063943155 0.0054180264 0.12950084 0.0851501 0.02616057 -0.07667295 -0.10177871 -0.16569835
-0.16715936 -0.06973161 0.1589516 0.10620269 0.138449 0.035945185 0.038184524 0.10799337
0.115631014 -0.09079718 -0.06682752 0.09018395 -0.045966376 0.13522798 -0.14438738 -0.16165157
-0.024719113 -0.12404744 0.12507582 0.1251678 0.118903756 0.0071456297 0.1253236 -0.04816878
-0.089302585 0.10055283 -0.040028967 -0.09938984 0.13803829 -0.11766616 0.12312951 0.09516541
