or/GFlowNet and ACO to solve TSP/DeepACO/tsp/pretrained/cvrp/cvrp500.pt (torch, 354748 bytes, 225 tensors)

emb_net.v_lin0.weight f4 [32, 1]
0	0xbf733a47	-0.950108
1	0x3f702b58	0.9381614
2	0xbf3e71e5	-0.7439254
3	0xbe164a87	-0.14676867
4	0xbe1010b0	-0.14068866
5	0x3f2c23f4	0.6724236
6	0xbf03703d	-0.5134314
7	0xbe3b2aee	-0.18278095
8	0x3f293855	0.6610158
9	0x3ed82ec0	0.42223167
10	0xbf3a9b35	-0.7289308
11	0xbf079810	-0.52966404
12	0xbd0b1420	-0.03395474
13	0xbf5c1f5a	-0.8598534
14	0x3f6e628a	0.9311911
15	0xbea7a557	-0.32743332
16	0xbf4de797	-0.80431503
17	0x3ee83454	0.45352423
18	0xbf40256a	-0.7505709
19	0xbdbd7ad9	-0.09251947
20	0xbf0dbbee	-0.5536488
21	0x3f3703f0	0.71490383
22	0xbf458a78	-0.7716441
23	0xbf03ea82	-0.51529706
24	0x3f200a04	0.6251528
25	0xbf2064f7	-0.6265406
26	0x3f3ad26b	0.7297732
27	0x3f6fc546	0.9366039
28	0xbeb2e492	-0.3494001
29	0x3f1ea17e	0.6196517
30	0xbe6febbb	-0.23429768
31	0xbee028e0	-0.43781185

emb_net.v_lin0.bias f4 [32]
0	0x3f0c10af	0.5471296
1	0xbf750db2	-0.9572402
2	0xbf260f6c	-0.6486728
3	0xbf6d2048	-0.9262738
4	0x3eb577f1	0.3544307
5	0x3f251a73	0.64493483
6	0x3f1a8e53	0.6037342
7	0xbde52fc1	-0.11190749
8	0x3f19944e	0.5999192
9	0xbf4d7d4e	-0.80269325
10	0x3f75ffd1	0.9609347
11	0xbd8e271a	-0.06941052
12	0xbe9a7639	-0.30168322
13	0xbe6ba832	-0.2301338
14	0x3e2de6ea	0.16982618
15	0xbedab5fe	-0.42716974
16	0xbedefe11	-0.43553212
17	0xbee28c6a	-0.44247752
18	0x3da6b024	0.08139065
19	0x3e336567	0.1751915
20	0x3f6c5896	0.9232267
21	0xbe829844	-0.25506794
22	0xbe576e4b	-0.21038167
23	0x3f789cc1	0.9711419
24	0x3f6ec7ea	0.93273795
25	0xbf1c1695	-0.6097196
26	0x3f57e62a	0.8433558
27	0x3edfe55c	0.43729675
28	0x3eabc6bc	0.3355006
29	0xbf1cfb3d	-0.6132086
30	0x3f4a4921	0.79017836
31	0xbd4d16c2	-0.05007053

emb_net.v_lins1.0.weight f4 [32, 32]
0	0xbd885d76	-0.06658451
1	0x3e131530	0.14363551
2	0x3c86525c	0.016396694
3	0xbd6e9242	-0.05824495
4	0x3de0f30c	0.109838575
5	0xbd03cd91	-0.032178465
6	0x3de4dc09	0.11174781
7	0xbe029387	-0.1275159
8	0x3d4645ea	0.04840652
9	0xbda77f25	-0.08178548
10	0x3dc9bcb7	0.098504476
11	0xbe265df4	-0.16246778
12	0x3e25287d	0.16128726
13	0x3d3263e3	0.04355229
14	0xbe1b1b60	-0.15147161
15	0x3e112dfd	0.141777
16	0xbe03f3e3	-0.12886004
17	0x3e2acbcd	0.16679306
18	0x3cbe5126	0.023232054
19	0xbd1f26ab	-0.038855236
20	0x3a657105	0.0008752498
21	0xbd6cb152	-0.057786293
22	0xbe2dc660	-0.16970205
23	0x3cea71ab	0.028618654
24	0xbdc00570	-0.09376037
25	0xbdd0f1c3	-0.102023624
26	0xbdeb69b5	-0.114947714
27	0xbdc64a45	-0.096821345
28	0x3da3b4cd	0.079934694
29	0xbd70630e	-0.058688216
30	0x3dbfd627	0.09367018
31	0xbe10a9dd	-0.14127298
32	0x3e21d027	0.1580206
33	0xbd7c3b99	-0.061580274
34	0xbc7462d0	-0.014916137
35	0xbe1a0650	-0.1504147
36	0xbde87cc1	-0.1135192
37	0x3ca9ea05	0.020741472
38	0x3d21346c	0.039356634
39	0x3bbcdcee	0.0057636416
40	0xbdde4d25	-0.10854558
41	0xbe00ce0b	-0.12578599
42	0x3ddf1c92	0.10894121
43	0xbdcd9234	-0.10037652
44	0xbe0e2565	-0.13881452
45	0xbd8729df	-0.06599783
46	0xbdeda2a3	-0.11603286
47	0xbc2dae11	-0.010600583
48	0xbe091750	-0.133878
49	0xbe05a660	-0.13051748
50	0xbe1d1a3c	-0.15342039
51	0x3db2a5ea	0.08723052
52	0x3d6bcabe	0.057566397
53	0xbe21af2a	-0.15789476
54	0xbbacb04a	-0.0052700387
55	0xbd99e5fb	-0.075145684
56	0x3da57b46	0.08080153
57	0x3e004a2f	0.12528299
58	0xbceb0798	-0.028690144
59	0x3d54b0ac	0.0519263
60	0x3d3b0d13	0.045666765
61	0xbe02c8b2	-0.12771872
62	0x3d81ece1	0.06344009
63	0xbdbac6e2	-0.09119965
64	0x3d901a36	0.07036249
65	0x3dc9d297	0.0985462
66	0xbd508e88	-0.05091718
67	0xbdf42edb	-0.119229995
68	0xbd766552	-0.06015522
69	0xbdff97e0	-0.1248014
70	0xbe026869	-0.12735142
71	0xbe23a4b7	-0.15980802
72	0xbe355f5e	-0.17712161
73	0x3db747bb	0.089492284
74	0xbdb16795	-0.08662335
75	0xbde0f636	-0.10984461
76	0xbda5c294	-0.080937535
77	0xbe2e8d9c	-0.17046207
78	0xbd067096	-0.032822214
79	0xbdfd1e47	-0.123592906
80	0x3e26a3a0	0.16273355
81	0x3e1dccc1	0.15410139
82	0x3dab75d2	0.08372082
83	0xbd9eed99	-0.07760162
84	0xbe3337b3	-0.17501716
85	0x3d8a986f	0.06767356
86	0x3e1ec937	0.15506445
87	0x3d9edb3d	0.0775666
88	0xbdab5603	-0.08366015
89	0xbe07d11f	-0.13263367
90	0xbe233437	-0.15937887
91	0xbe23ae6c	-0.15984505
92	0x3e1d5f1c	0.15368313
93	0x3c295936	0.010336211
94	0x3dd62009	0.10455329
95	0xbcf0009f	-0.029297171
96	0x3da9109f	0.08255123
97	0x3d6b3e84	0.057432666
98	0x3d2def2a	0.042464413
99	0xbe393673	-0.18087177
100	0x3d6da4c0	0.058018446
101	0xbd9e8d11	-0.0774175
102	0x3e209332	0.1568115
103	0xbc3fe29d	-0.011711744
104	0xbe06f982	-0.13181117
105	0x3d2c2b47	0.04203346
106	0x3da6f8e2	0.081529394
107	0x3e079933	0.13242035
108	0xbe325632	-0.17415693
109	0xbd2f4398	-0.04278907
110	0xbde2866a	-0.11060794
111	0xbcee41f5	-0.029084185
112	0xbe0e8a6e	-0.13919994
113	0x3dd09216	0.10184114
114	0xbd934215	-0.071903385
115	0xbc1794a3	-0.009251746
116	0x3de9e5ec	0.11420807
117	0xbc834523	-0.016024178
118	0x3d3f143a	0.04665015
119	0xbc70bfe9	-0.014694192
120	0xbe038581	-0.12843896
121	0xbda23b4e	-0.07921468
122	0x3e30e04d	0.17273064
123	0x3dd73e96	0.10509984
124	0xbd00c85d	-0.03144108
125	0x3e193414	0.14961272
126	0xbddf6c8c	-0.109093755
127	0xbdc079f8	-0.09398264
128	0xbd88045f	-0.06641459
129	0x3dfa9edb	0.122373305
130	0x3d6e3951	0.05816013
131	0xbda31893	-0.079636715
132	0x3c43fe4b	0.011962484
133	0xbd88740c	-0.06662759
134	0x3e0d4742	0.13796714
135	0x3e011543	0.12605767
136	0x3d8c8de6	0.068630025
137	0x3dc77a39	0.09740109
138	0xbcf4dda2	-0.029890839
139	0xbe23d7ef	-0.16000341
140	0x3de71160	0.11282611
141	0xbba5fe6c	-0.00506573
142	0x3d977e52	0.073971406
143	0xbe12f902	-0.14352801
144	0x3d6e96c5	0.058249254
145	0x3d15918f	0.03651577
146	0x3d4c9b57	0.04995283
147	0xbe33f55e	-0.17574069
148	0x3e0cc57b	0.13747208
149	0xbbc8a43b	-0.0061230934
150	0xbd3d0a6c	-0.046152517
151	0xbd024390	-0.031802714
152	0x3e41e46b	0.18934791
153	0x3d043726	0.032279156
154	0xbd9a0b19	-0.07521648
155	0x3e0c8dce	0.13725969
156	0xbcdbf143	-0.026848441
157	0x3e3e73a7	0.18598805
158	0x3e1380b0	0.14404559
159	0x3d8aded6	0.06780784
160	0x3dcd9b65	0.10039405
161	0x3e28ffa5	0.1650377
162	0x3dfc3fb3	0.12316837
163	0x3ba5bcfc	0.005057929
164	0xbda77646	-0.08176856
165	0xbdddec85	-0.10836128
166	0xbdb39a54	-0.0876967
167	0x3e311666	0.172937
168	0x3e0d3932	0.1379135
169	0xbc8a5efc	-0.016890995
170	0xbe1b3801	-0.15158083
171	0xbd29f41b	-0.041492563
172	0x3e2258f6	0.15854248
173	0xbd0de815	-0.03464516
174	0xbd9a4b2b	-0.075338684
175	0x3e1a3bf1	0.15061928
176	0xbe095787	-0.13412295
177	0x3da02bab	0.07820829
178	0xbd15e12a	-0.036591686
179	0xbcba6d8d	-0.022757316
180	0xbe139eb1	-0.14416005
181	0x3b05436b	0.0020334374
182	0xbe1ae5de	-0.1512675
183	0x3dcc19e5	0.099658765
184	0x3e0aeeb6	0.13567623
185	0x3c948f75	0.018134812
186	0xbe2f5031	-0.17120434
187	0xbe269f64	-0.1627174
188	0x3dcb8679	0.09937758
189	0xbe2f4010	-0.17114282
190	0x3dbfbbdf	0.093620054
191	0x3ddc8685	0.10767845
192	0x3ca311bb	0.019905915
193	0xbd4d6970	-0.05014938
194	0x3d0ea587	0.034825828
195	0xbe24e270	-0.16102004
196	0xbe07521b	-0.13214915
197	0xbdb69132	-0.089144126
198	0x3e1cfa2c	0.15329808
199	0xbc0f132e	-0.0087326
200	0x3e1bd68d	0.15218563
201	0x3d96db34	0.073660284
202	0x3d05cb2d	0.032664467
203	0x3e23847a	0.15968505
204	0xbdab0df8	-0.08352274
205	0xb9db7166	-0.00041855423
206	0xbda8ba7e	-0.082386956
207	0xbe1d17eb	-0.15341155
208	0x3c4970b9	0.012294942
209	0x3df284b7	0.118417196
210	0x3d590ff5	0.052993733
211	0x3e048337	0.1294068
212	0xbd7894e7	-0.06068888
213	0xbe295be6	-0.16538963
214	0xbe22986a	-0.15878454
215	0x3e28418a	0.16431251
216	0x3d0ebf7f	0.034850594
217	0x3c9de22f	0.019272892
218	0xbdc58d5e	-0.09646104
219	0x3d3fe457	0.04684862
220	0xbdf6fb66	-0.12059669
221	0xbdad9fac	-0.084777206
222	0x3e2e543e	0.17024323
223	0x3de61981	0.11235333
224	0xbcb3eb67	-0.021962835
225	0x3d7c95d5	0.06166633
226	0x3d2e4cf9	0.042553876
227	0x3d49263f	0.04910874
228	0xbd0dd18b	-0.034623664
229	0x3de3f29f	0.11130261
230	0x3dcce6f2	0.10004987
231	0x3e0df821	0.13864185
232	0x3dcada79	0.099049516
233	0xbc0ae3fd	-0.008477208
234	0xbe1650df	-0.14679287
235	0x3b0fa93d	0.0021920942
236	0x3e1ea010	0.15490746
237	0x3d079885	0.03310444
238	0x3d94bf3f	0.0726304
239	0x3e062d8d	0.13103314
240	0x3da1fab2	0.079091445
241	0x3c0dffc9	0.008666941
242	0xbc8f0a86	-0.017461073
243	0xbd612933	-0.05497093
244	0xbdcafa00	-0.09910965
245	0xbc73b215	-0.014874001
246	0xbcb18b04	-0.021672733
247	0x3d9a31c1	0.07529021
248	0xbcb0c634	-0.021578886
249	0x3e043568	0.12910998
250	0x3d7f8a47	0.06238773
251	0xbc825573	-0.015909886
252	0x3e3ad173	0.18243961
253	0x3b089cef	0.0020845493
254	0xbe1ab4be	-0.1510801
255	0xbdd5f736	-0.10447542

emb_net.v_lins1.0.bias f4 [32]
0	0x3dce57cf	0.10075342
1	0x3e0a59b7	0.13510786
2	0x3c9553f2	0.018228505
3	0x3c7e17c6	0.015508598
4	0xbdac827b	-0.08423325
5	0x3d10a319	0.035311792
6	0xbda239fb	-0.07921215
7	0x3ddc95f5	0.107707895
8	0xbd6036f8	-0.054739922
9	0xbdd3b83c	-0.10337874
10	0xbb9f05bb	-0.004852978
11	0x3c8f92d0	0.01752606
12	0xbdd844bb	-0.10559984
13	0x3e000187	0.12500583
14	0x3dce07b6	0.100600645
15	0x3da2454b	0.07923373
16	0xbd475f6c	-0.048674986
17	0xbd877509	-0.066141196
18	0xbc15419e	-0.009109883
19	0xbd1b1c19	-0.037868593
20	0xbe205b07	-0.15659724
21	0xbb314ee2	-0.0027055074
22	0xbce5b67d	-0.028041119
23	0xbe125297	-0.14289318
24	0x3e07ece1	0.13273956
25	0xbd80c4cc	-0.06287536
26	0xbdeb36b5	-0.11485044
27	0xbe285061	-0.16436912
28	0x3e1870ea	0.14886823
29	0xbdf4757d	-0.119364716
30	0xbdd32630	-0.10310018
31	0x3dd01509	0.10160262

emb_net.v_lins1.1.weight f4 [32, 32]
0	0xbdab4344	-0.08362439
1	0x3dbac17f	0.09118938
2	0xbdd36d40	-0.10323572
3	0x3dd763d1	0.10517085
4	0x3dd9ffec	0.10644516
5	0xbe424fa1	-0.18975689
6	0xbd83c435	-0.06433908
7	0xbd6addae	-0.057340316
8	0xbdfb469f	-0.12269329
9	0xbe31f1e1	-0.17377426
10	0x3e075b37	0.1321839
11	0x3da740e4	0.08166674
12	0xbe1c574e	-0.15267679
13	0xbc4beb4e	-0.012446238
14	0xbe0071ea	-0.12543455
15	0xbc0872b1	-0.008328126
16	0xbcbffbde	-0.02343553
17	0xbb3fc451	-0.00292613
18	0xbe032478	-0.1280688
19	0x3d9011f8	0.07034677
20	0xbe0c137f	-0.13679312
21	0x3ddf8f37	0.10915988
22	0x3e1d69e2	0.15372422
23	0xbcb8f584	-0.022578008
24	0xbd1a8d11	-0.037732188
25	0x3ca1b9d9	0.01974194
26	0xbd0c80af	-0.03430241
27	0xbd8fd47d	-0.07022951
28	0xbba4494a	-0.0050136195
29	0x3d0d4580	0.03449011
30	0x3e29b3a5	0.16572435
31	0x3d46f5d3	0.04857428
32	0xbcbf5a4f	-0.023358492
33	0xbceaa661	-0.028643789
34	0x3d927548	0.07151276
35	0xbdaaf5b1	-0.08347643
36	0xbe059de6	-0.13048515
37	0x3da65d8e	0.08123313
38	0x3e153511	0.14571024
39	0xbcfe1fa8	-0.031020954
40	0xbd8e012f	-0.069338195
41	0x3d7b95a0	0.06142199
42	0x3dd400a0	0.10351682
43	0xbc918501	-0.017763617
44	0xbd8945b1	-0.06702746
45	0x3e271fae	0.16320679
46	0x3cceec1c	0.02525907
47	0x3d9fbf66	0.07800178
48	0xbd55f596	-0.052236162
49	0x3dbdb749	0.092634745
50	0xbe294d36	-0.1653336
51	0xbd2171d2	-0.039415188
52	0xbcb1648c	-0.02165439
53	0x3dc2904e	0.0950018
54	0x3db5bc16	0.08873765
55	0x3d6b1e9d	0.057402242
56	0xbcab9546	-0.020945203
57	0x3e3324e0	0.17494535
58	0x3e061350	0.13093305
59	0xbd50b228	-0.050951153
60	0xbe206c2b	-0.15666263
61	0x3d405f0a	0.046965636
62	0x3dba891c	0.09108183
63	0xbd67c613	-0.056585383
64	0x3db825c6	0.0899158
65	0x3e2deadf	0.16984127
66	0x3dc7ac29	0.09749634
67	0xbd339051	-0.043838803
68	0x3e042e61	0.12908317
69	0xbd9907c8	-0.07472187
70	0xbd868960	-0.06569171
71	0xbdd4a5b1	-0.10383166
72	0x3d9828b3	0.07429638
73	0x3d680d7a	0.056653477
74	0x3b4beb29	0.0031115508
75	0xbda95a9d	-0.08269236
76	0xbe1ee055	-0.15515263
77	0x3de6fa19	0.11278171
78	0x3d8bccdc	0.06826183
79	0xbe288e75	-0.16460593
80	0xbce74a6d	-0.028233731
81	0x3b6180f2	0.0034409133
82	0xbe2d565b	-0.16927473
83	0xbd3dbac7	-0.046320703
84	0x3e0cb084	0.1373921
85	0xbcea7528	-0.028620318
86	0xbcf2adec	-0.029623948
87	0xbbef094b	-0.007294809
88	0xbe315dd3	-0.17320947
89	0xbd3a0326	-0.04541316
90	0xbe2bd447	-0.16780196
91	0x3bba8100	0.0056916475
92	0x3d838c8b	0.06423291
93	0xbc4962d9	-0.0122916335
94	0xbda80a08	-0.08205038
95	0x3e02f1d6	0.12787566
96	0x3d2569cd	0.040384103
97	0xbd30702c	-0.043075725
98	0xbc0bc6ba	-0.008531267
99	0x3da307e8	0.07960492
100	0x3c79b35b	0.015240516
101	0xbdd1061c	-0.102062434
102	0x3e1e6841	0.15469457
103	0x3e137806	0.14401254
104	0xbe0480c6	-0.12939748
105	0xbdfc841d	-0.12329886
106	0xbdb05c51	-0.08611358
107	0xbc901ae7	-0.017590953
108	0xbde394c1	-0.11112357
109	0xbe1fe2cd	-0.15613861
110	0x3db887f8	0.09010309
111	0xbe2d7658	-0.16939676
112	0xbe06faf6	-0.13181672
113	0x3e21ff21	0.1581998
114	0x3caa2c52	0.020773087
115	0xbc24aaa0	-0.010050446
116	0xbc4a72b3	-0.012356448
117	0xbd8e2624	-0.069408685
118	0xbdd49b88	-0.10381228
119	0x3c5944e2	0.013261052
120	0x3e2716df	0.16317318
121	0xbdf8d791	-0.12150491
122	0x3d9c96d7	0.07645958
123	0xbe0573ad	-0.13032408
124	0x3d0e6083	0.03476001
125	0x3d82d554	0.06388345
126	0xbdd62628	-0.104564965
127	0x3d7896a4	0.060690537
128	0x3d6fbb3c	0.05852817
129	0xbdeb6689	-0.114941664
130	0x3d228d6d	0.039685655
131	0x3e150019	0.14550819
132	0xbe22dc14	-0.15904266
133	0x3db5c624	0.08875683
134	0xbe2d135a	-0.16901913
135	0xbe2238f6	-0.15842041
136	0x3e32f087	0.17474566
137	0xbdee43cb	-0.11634024
138	0xbc996563	-0.018725103
139	0x3c4ced0d	0.012507689
140	0x3da76c1f	0.08174919
141	0x3dc463d2	0.09589352
142	0x3c14ce19	0.009082341
143	0xbe3b1f95	-0.18273766
144	0xbda39194	-0.07986751
145	0x3de13e31	0.1099819
146	0xbcd34db3	-0.025793886
147	0x3e1f8eed	0.15581866
148	0xbd0f0a3e	-0.034921877
149	0x3dd400ea	0.10351737
150	0x3d183c13	0.037166666
151	0x3b1d4ee2	0.0024003317
152	0x3dc6d3da	0.09708376
153	0x3da52534	0.080637366
154	0x3e1bb726	0.15206584
155	0xbcff54d5	-0.03116838
156	0x3e1d56f2	0.15365198
157	0x3e1626d4	0.14663249
158	0x3d082957	0.03324255
159	0x3e017048	0.12640488
160	0xbe1e2cb1	-0.15446736
161	0x3e3a51f5	0.18195327
162	0xbd8a119c	-0.0674164
163	0x3df5802c	0.119873375
164	0x3e0c62aa	0.13709512
165	0x3d9c0d6b	0.07619747
166	0x3d4831dc	0.048875675
167	0x3e0903ae	0.1338031
168	0x3e2443cd	0.16041489
169	0x3d8388d7	0.064225845
170	0xbdede9b4	-0.11616841
171	0xbe2061c5	-0.15662296
172	0xbbd1a477	-0.0063977796
173	0x3ce25837	0.027629955
174	0x3dd6ffeb	0.10498031
175	0x3e0a7ad1	0.13523413
176	0xbc9fc127	-0.019501282
177	0xbcf2a64a	-0.029620308
178	0x3d96addc	0.0735738
179	0xbdde78b1	-0.10862864
180	0x3de5a496	0.11213033
181	0x3a627e94	0.00086400774
182	0x3c7aa5e6	0.015298342
183	0x3b8d1465	0.0043054097
184	0xbbd29522	-0.0064264694
185	0x3e0d5814	0.1380313
186	0x3e1dc8c6	0.1540862
187	0xbd33ddc8	-0.04391268
188	0xbe46f9ff	-0.19431303
189	0x3e1acab2	0.15116385
190	0x3d6eada4	0.058271065
191	0xbdf4cc9c	-0.11953089
192	0x3e25292e	0.1612899
193	0xbe08ec35	-0.13371356
194	0x3e17099b	0.14749758
195	0x3d1e71e6	0.03868284
196	0x3d927406	0.07151036
197	0xbdf68fb1	-0.12039126
198	0xbd3a70a6	-0.045517586
199	0xbd89e190	-0.06732476
200	0xbdabef06	-0.083951995
201	0x3dbf5594	0.093424946
202	0xbd71fa99	-0.05907688
203	0x3da3b8c9	0.07994229
204	0x3e214465	0.15748747
205	0x3d880240	0.06641054
206	0xbe249985	-0.16074188
207	0x3ca1eaea	0.019765336
208	0x3dd82ba5	0.105551995
209	0x3d609194	0.054826334
210	0x3baa2508	0.0051924028
211	0x3dab98a7	0.083787255
212	0x3e03cacb	0.12870328
213	0xbc8e7001	-0.017387392
214	0xbe07e907	-0.13272487
215	0x3d25370a	0.040335692
216	0x3dd76cca	0.10518797
217	0xbe15775e	-0.14596316
218	0x3da060c5	0.07830957
219	0x3dd9b8ea	0.10630973
220	0x3e392088	0.18078816
221	0x3da42663	0.08015134
222	0xbd1a371a	-0.037650205
223	0x3df5bf8b	0.119994245
224	0x3d510b35	0.05103608
225	0xbd89dcb7	-0.06731551
226	0xbdea5cef	-0.11443507
227	0xbe16a6db	-0.14712088
228	0xbe129073	-0.14312916
229	0x3ddcac0a	0.10775001
230	0xbdc730ce	-0.09726106
231	0x3c84f931	0.016232105
232	0x3dea78f8	0.11448854
233	0xbe10bfe7	-0.14135705
234	0xbe312eab	-0.17302959
235	0xbdf0d47b	-0.117592774
236	0xbd7147e1	-0.05890644
237	0x3e27ea39	0.16397943
238	0x3e1b1063	0.1514297
239	0xbe2817bc	-0.16415304
240	0xbdd086f4	-0.1018199
241	0x3d3d7550	0.046254456
242	0x3c83eabe	0.016103145
243	0xbd45dc07	-0.048305538
244	0x3e2748c1	0.16336347
245	0xbde585ba	-0.11207147
246	0xbc568486	-0.0130931195
247	0xbdf52d29	-0.11971504
248	0x3e07721d	0.13227125
249	0x3e077762	0.13229135
250	0xbcb868a9	-0.022510843
251	0xbdbfde7c	-0.093686074
252	0xbe2725ee	-0.16323063
253	0x3d2e399e	0.042535417
254	0x3da2b182	0.07944013
255	0xbdbdcaa0	-0.09267163

emb_net.v_lins1.1.bias f4 [32]
0	0xbdf0b98b	-0.117541395
1	0x3e1e9bbe	0.15489098
2	0x3d579d0d	0.05264001
3	0xbe2c1c09	-0.1680757
4	0x3d900959	0.07033033
5	0xbe33c614	-0.1755603
6	0x3de3da84	0.11125663
7	0x3da7acd9	0.08187265
8	0xbd0b3bf8	-0.033992738
9	0xbe2c7a82	-0.16843608
10	0x3e3c8f5f	0.18414067
11	0xbe06436d	-0.13111658
12	0x3cd50fc9	0.026008504
13	0xbcdef147	-0.02721466
14	0xbcdb05b7	-0.026736123
15	0x3d2547c4	0.040351644
16	0x3daf9bb2	0.085746184
17	0x3e0eadbf	0.13933466
18	0xbc3a581a	-0.011373544
19	0xbdcc84e9	-0.09986288
20	0xbe1a680f	-0.15078758
21	0x3dfc8231	0.123295195
22	0xbd897041	-0.06710864
23	0xbd7f4372	-0.06232018
24	0x3e0e1b68	0.13877642
25	0xbc8cbd2e	-0.017180052
26	0xbdbf6992	-0.09346308
27	0x3e071b3c	0.13193983
28	0xbc802b0f	-0.015645532
29	0xbe117fb9	-0.14208879
30	0xbd172370	-0.03689903
31	0xbc585f1e	-0.013206271

emb_net.v_lins1.2.weight f4 [32, 32]
0	0x3d9f1806	0.07768254
1	0xbe1133c5	-0.14179905
2	0x3c7e555c	0.015523281
3	0x3cbe4f66	0.02323122
4	0x3e25ed0f	0.16203712
5	0xbdc6b2c2	-0.09702064
6	0xbde43f78	-0.11144918
7	0xbe0394b0	-0.12849689
8	0xbb986d1c	-0.0046516787
9	0xbe35fadd	-0.17771478
10	0xbd3ecedb	-0.04658399
11	0xbd5b83f5	-0.05359264
12	0xbdb62214	-0.08893219
13	0x3d8dab1d	0.06917403
14	0xbda76339	-0.08173222
15	0x3dca3493	0.09873309
16	0x3e22581f	0.15853928
17	0x3e06084e	0.13089105
18	0x3e05c374	0.1306284
19	0xbdc13295	-0.09433476
20	0x3dd48e6b	0.103787266
21	0x3c2e4717	0.010637066
22	0x3db282fb	0.08716389
23	0x3dee9bd6	0.11650817
24	0x3dfa8792	0.12232889
25	0x3d85d9dd	0.06535695
26	0x3e1de53b	0.15419476
27	0xbd058401	-0.03259659
28	0xbe0d5ed5	-0.13805707
29	0xbd01def6	-0.031706773
30	0xbd01e280	-0.031710148
31	0x3e0f9078	0.14019954
32	0xbe28c7da	-0.16482487
33	0xbd9fff1a	-0.07812329
34	0xbcec7da8	-0.028868511
35	0x3dc05179	0.0939054
36	0x3de70c48	0.11281639
37	0x3db34d53	0.08754983
38	0xbd809416	-0.06278245
39	0xbda7b259	-0.08188314
40	0xbdd55008	-0.104156554
41	0x3c1f71fe	0.009731768
42	0x3dd8d6dc	0.10587856
43	0x3e311635	0.17293628
44	0x3dd5ab30	0.10433042
45	0x3e2ba3f7	0.16761766
46	0xbbbff7f4	-0.0058584157
47	0xbe3ed68f	-0.18636535
48	0xbddeac96	-0.10872762
49	0x3e303230	0.17206645
50	0x3cb08fab	0.021552881
51	0x3e2b950f	0.1675608
52	0x3df96914	0.12178245
53	0x3e002257	0.125131
54	0xbdbc9684	-0.09208396
55	0xbdead939	-0.11467213
56	0xbe1c9f99	-0.15295257
57	0xbe237d2b	-0.15965717
58	0x3daa6eb6	0.08321898
59	0xbe1a9c11	-0.15098597
60	0x3d72cf35	0.05927964
61	0xbd2ac1da	-0.041688778
62	0x3dee71f2	0.11642827
63	0xbe293bf9	-0.16526784
64	0xbe0da6d4	-0.13833171
65	0x3cbd8058	0.023132488
66	0xbe34b71b	-0.17647974
67	0xbbc10b99	-0.005891275
68	0xbca0453e	-0.019564267
69	0x3de15509	0.11002547
70	0xbdad7aea	-0.084707096
71	0xbce619e8	-0.028088525
72	0xbe128a7f	-0.14310645
73	0xbe239552	-0.1597493
74	0xbddfb139	-0.109224744
75	0x3da1eb41	0.07906199
76	0x3c955d60	0.018233001
77	0x3e25de30	0.16198039
78	0xbdf3f946	-0.119127795
79	0x3e16de23	0.14733176
80	0xbe385888	-0.18002522
81	0xbe1a5491	-0.15071322
82	0x3cd26db5	0.025687078
83	0xbe1d1722	-0.15340856
84	0x3db6008d	0.08886824
85	0xbe2e5ea1	-0.17028286
86	0x3e286928	0.16446364
87	0x3d54431d	0.051821817
88	0x3e197727	0.1498686
89	0x3c38bac1	0.011274994
90	0xbdfb0678	-0.12257093
91	0xbde4fd40	-0.11181116
92	0xbe05f3eb	-0.13081329
93	0x3e05e75e	0.13076541
94	0xbcc579f0	-0.024105996
95	0x3c0dd3a4	0.008656416
96	0x3e27385c	0.16330093
97	0x3a9054fc	0.0011011655
98	0xbdfb3599	-0.12266082
99	0xbdda7b89	-0.10668094
100	0xbba88dce	-0.0051438576
101	0xbe274abb	-0.16337101
102	0xbd768966	-0.060189627
103	0xbdd15f09	-0.10223205
104	0xbcfdb993	-0.030972278
105	0xbe19115c	-0.14948028
106	0x3d8f288a	0.06990154
107	0xbde2e1f1	-0.11078251
108	0x3ded355c	0.11582443
109	0x3e23b9b4	0.15988809
110	0x3ccdd12a	0.025124151
111	0xbd443da4	-0.047910348
112	0x3dbb5440	0.09146929
113	0xbd3a9443	-0.04555155
114	0xbce8bee0	-0.028411329
115	0x3dd7405d	0.10510323
116	0xbe064a93	-0.13114385
117	0xbc258e50	-0.010104731
118	0x3e2d2a1d	0.16910596
119	0x3e055015	0.1301883
120	0xbca7d0fe	-0.020485397
121	0xbdf21c39	-0.11821789
122	0x3e16bedc	0.14721245
123	0x3daa392d	0.08311687
124	0xbdc89340	-0.09793711
125	0x3e14050d	0.14455052
126	0x3cae2ec0	0.021262527
127	0x3e4252de	0.18976924
128	0xbdfa208c	-0.12213239
129	0xbd51891d	-0.051156152
130	0x3ca61406	0.02027322
131	0x3d98f8f8	0.07469362
132	0x3dce258d	0.10065756
133	0xbd9a28b6	-0.07527296
134	0x3d5666c3	0.052344095
135	0xbdd53639	-0.10410733
136	0x3e2dc5b5	0.1696995
137	0xbd2c6283	-0.042086136
138	0x3e0deaa9	0.13859047
139	0x3cd973af	0.02654442
140	0x3db68435	0.08911935
141	0xbe123646	-0.14278516
142	0x3d575bed	0.0525779
143	0x3d879ea2	0.06622054
144	0x3e0280af	0.12744401
145	0xbe162bdf	-0.14665173
146	0x3d695ee9	0.05697528
147	0x3e3b2964	0.18277508
148	0x3e15a54c	0.14613837
149	0x3d20832e	0.039187603
150	0x3dba77f6	0.09104912
151	0x3e2bc1ce	0.1677315
152	0x3caf99e4	0.021435685
153	0x3d50bdc5	0.05096223
154	0xbdc1641b	-0.09442922
155	0xbdcb5bbb	-0.099296056
156	0x3d9660bf	0.073426716
157	0x3d502a50	0.050821602
158	0xbd7c6c36	-0.061626635
159	0xbd4c2e3b	-0.049848776
160	0xbe329c3d	-0.17442413
161	0x3e2133cb	0.15742414
162	0x3e011d2e	0.12608787
163	0xbde3da52	-0.11125626
164	0xbe17e54c	-0.14833564
165	0x3e2d0f31	0.16900326
166	0x3dd10b00	0.10207176
167	0x3dc4e76d	0.096144535
168	0x3d26e7ea	0.040748514
169	0x3d85818e	0.06518851
170	0x3d99a5de	0.0750234
171	0xbd6fc3bc	-0.058536276
172	0xbbac4351	-0.005257048
173	0x3de92f9f	0.11386036
174	0x3d43cde0	0.04780376
175	0x3d212300	0.03934002
176	0x3d4f8678	0.05066535
177	0xbd5c263f	-0.05374741
178	0x3d915d9d	0.070979334
179	0x3de9415a	0.11389418
180	0x3e0df30e	0.1386225
181	0x3c690490	0.014222279
182	0x3def0581	0.11670972
183	0x3d2973a4	0.04137005
184	0xbdf539ad	-0.119738914
185	0xbd0418d9	-0.03225026
186	0x3a92f9dd	0.0011213381
187	0x3d8bf805	0.06834415
188	0xbd91f63a	-0.07127042
189	0x3d845d58	0.064631164
190	0x3e118dff	0.14214323
191	0xbda1ee75	-0.0790681
192	0x3e051ca3	0.12999205
193	0xbdaae2d7	-0.083440475
194	0xbdbb799c	-0.091540545
195	0xbe1f0f4e	-0.15533182
196	0xbb8ada50	-0.0042374507
197	0xbe113cd2	-0.14183357
198	0xbe137f2f	-0.14403985
199	0x3db33c38	0.0875172
200	0x3d1abe7b	0.037779313
201	0xbd15d863	-0.036583316
202	0xbe16928d	-0.14704342
203	0xbd289ba0	-0.04116404
204	0xbcbeb764	-0.023280807
205	0xbd421a1e	-0.04738819
206	0xbe04379e	-0.12911841
207	0xbd6f2efa	-0.05839441
208	0xbddfdc6d	-0.10930715
209	0xbdee0936	-0.116228506
210	0x3e240bd0	0.16020131
211	0xbdec329c	-0.115330905
212	0x3ca3c3b2	0.019990776
213	0x3ce98fc9	0.028510945
214	0x3d960b42	0.07326366
215	0xbde3dad3	-0.11125722
216	0x3bdba227	0.0067026797
217	0xbe15975b	-0.14608519
218	0xbdea68ba	-0.11445756
219	0xbe0b32af	-0.13593553
220	0xbdf879e5	-0.121326245
221	0x3e132c55	0.1437238
222	0xbe1c898b	-0.15286843
223	0x3db23f50	0.08703482
224	0x3df78a2d	0.12086902
225	0xbd62bb0b	-0.05535416
226	0xbc01bde5	-0.00791881
227	0x3d988463	0.07447126
228	0xbcb56496	-0.02214269
229	0xbd51ffdb	-0.051269393
230	0x3e264e71	0.1624086
231	0xbd05e3ca	-0.03268794
232	0xbda150e4	-0.07876757
233	0x3d7ccb71	0.061717454
234	0x3e027d29	0.12743057
235	0xbdab47d7	-0.08363312
236	0x3d36f71a	0.04466925
237	0xbddd47fd	-0.10804746
238	0x3df2cec5	0.118558444
239	0x3b633e85	0.0034674716
240	0x3d84e78b	0.06489476
241	0x3d92d930	0.071703315
242	0x3e0bd425	0.13655145
243	0x3e32dc64	0.17466885
244	0x3e0c884a	0.13723865
245	0x3de693c7	0.11258655
246	0xbe4170e5	-0.18890722
247	0xbdf42858	-0.119217575
248	0xbcb1f3c3	-0.02172268
249	0xbd2f8e10	-0.04286009
250	0x3e0749fc	0.13211817
251	0x3d155b79	0.03646419
252	0xbdb89cfb	-0.09014317
253	0x3dd588ab	0.10426458
254	0xbc8fb54d	-0.017542506
255	0xbb385f33	-0.0028132915

emb_net.v_lins1.2.bias f4 [32]
0	0x3d04d8f5	0.03243347
1	0xbc578c92	-0.013156073
2	0xbe1032a7	-0.14081822
3	0x3e07052f	0.13185571
4	0x3da5053e	0.080576405
5	0xbe048fc7	-0.12945472
6	0xbd50d94f	-0.05098849
7	0x3d02ff8c	0.03198199
8	0x3e17fc37	0.14842306
9	0x3ccfeb10	0.025380641
10	0x3e1cf40d	0.15327473
11	0x3d9d3d82	0.07677747
12	0xbdb76a76	-0.08955853
13	0x3e259737	0.16170965
14	0x3ca777bf	0.020442842
15	0xbca7ad2e	-0.02046832
16	0x3ded8c3d	0.11599014
17	0xbd21a540	-0.039464235
18	0xbd256916	-0.04038342
19	0x3de195b5	0.110148825
20	0xbe2761f8	-0.16345966
21	0x3e2f00c3	0.17090134
22	0xbd16473e	-0.036689036
23	0xbd3724ff	-0.044713017
24	0x3d82eaf5	0.06392471
25	0xbd50147f	-0.050800797
26	0x39166160	0.0001434139
27	0x3d654f34	0.055983737
28	0xbc729544	-0.0148060955
29	0x3b3c97d1	0.0028777013
30	0xbd3f6d63	-0.04673518
31	0x3d95de18	0.07317752

emb_net.v_lins1.3.weight f4 [32, 32]
0	0x3d7c1b60	0.061549544
1	0x3e087d6d	0.13329096
2	0xbdae4de0	-0.08510947
3	0x3d019855	0.031639416
4	0xbd63e156	-0.05563482
5	0xbe21da4e	-0.15805933
6	0xbd0ac0d8	-0.033875316
7	0xbc562042	-0.013069214
8	0xbdeb3f00	-0.11486626
9	0xbd9a3601	-0.07529832
10	0xbe02d808	-0.12777722
11	0x3cb64c89	0.022253292
12	0x3e274ad3	0.16337137
13	0x3d35d4ea	0.044392504
14	0x3d2ce659	0.042211864
15	0xbdd24167	-0.10266381
16	0xbcebcb58	-0.028783485
17	0xbe0f0f47	-0.13970672
18	0xbe0f6fa4	-0.14007431
19	0xbdd7864b	-0.10523661
20	0x3d25b7ac	0.040458366
21	0x3e3ea398	0.18617094
22	0xbdc24493	-0.09485736
23	0x3e028a79	0.12748136
24	0xbde3d4f1	-0.111246
25	0xbd70af20	-0.058760762
26	0xbd9e83ed	-0.077400066
27	0x3ca42463	0.020036882
28	0xbddc32c5	-0.10751871
29	0xbded2ae2	-0.11580445
30	0x3cb9c4a4	0.022676773
31	0x3c61640f	0.013756766
32	0xbc8e709a	-0.017387677
33	0xbc465b17	-0.012106678
34	0x3cfc373e	0.03078806
35	0xbd34fb03	-0.044184696
36	0x3e09ad58	0.13445032
37	0x3e18fea2	0.14940885
38	0xbdf92a0e	-0.121662244
39	0xbe3a731f	-0.18207978
40	0xbd6ae73d	-0.057349432
41	0xbd90b630	-0.070659995
42	0xbda83c35	-0.082146086
43	0xbe3f2080	-0.18664742
44	0xbe00e2f6	-0.12586579
45	0xbdfa10f7	-0.12210267
46	0x39001bb6	0.00012217354
47	0x3c11ec57	0.0089064455
48	0xbe29a00e	-0.16564962
49	0x3c2f5656	0.010701736
50	0x3ca8dfae	0.020614471
51	0x3e237a67	0.15964662
52	0x3d1a072d	0.0376045
53	0x3dfcc51a	0.12342282
54	0xbe3a6d4c	-0.18205756
55	0xbd1336c5	-0.035940904
56	0xbe0d4b4e	-0.13798258
57	0xbd40a8d7	-0.04703602
58	0xbe43a660	-0.19106436
59	0x3dc9f535	0.09861223
60	0x3e034f6b	0.12823264
61	0x3d63d0f9	0.055619214
62	0xbe34c4cb	-0.17653196
63	0xbe0a58a9	-0.13510384
64	0xbdb9b838	-0.0906834
65	0xbdf5d908	-0.12004286
66	0x3cbec990	0.023289472
67	0xbe0374a3	-0.12837462
68	0x3dd966c1	0.10615302
69	0xbca47454	-0.020075
70	0x3e0077dd	0.12545724
71	0x3ccf9434	0.025339223
72	0xbca7f05a	-0.02050035
73	0x3d42728d	0.047472525
74	0xbda99e30	-0.08282125
75	0xbd6b195a	-0.057397224
76	0x3da27c7c	0.079339
77	0xbcfc1e39	-0.03077613
78	0x3d0e1a42	0.03469301
79	0xbe1a33b5	-0.15058787
80	0x3dbb3856	0.091416046
81	0xbe3afab5	-0.182597
82	0x3c4f8dae	0.012668056
83	0x3e226a34	0.15860826
84	0x3db3d343	0.08780529
85	0x3d593daa	0.053037323
86	0xbd9ea417	-0.077461414
87	0x3cf5452d	0.029940212
88	0xbde0c22e	-0.10974537
89	0xbe1a69e9	-0.15079464
90	0x3cfdf6ab	0.03100141
91	0xbd6f600c	-0.058441207
92	0x3e0b0b2d	0.13578482
93	0xbc55b1e3	-0.0130429
94	0xbd54f454	-0.051990822
95	0xbd31a1f4	-0.04336734
96	0xbd84d225	-0.064853944
97	0x3b4dedf9	0.003142236
98	0xbdf03202	-0.11728288
99	0xbe230b51	-0.15922286
100	0x3d525c0a	0.051357307
101	0xbd1bb4f1	-0.038014356
102	0x3cece6d7	0.028918667
103	0x3e1f9954	0.15585834
104	0x3e044b12	0.12919262
105	0x3e07260e	0.1319811
106	0xbe269620	-0.16268206
107	0x3d157c7f	0.03649568
108	0xbbda0d30	-0.006654404
109	0x3cbe54d0	0.023233801
110	0xbde3c14a	-0.11120851
111	0x3e291c11	0.16514613
112	0x3e201378	0.15632427
113	0x3e023ff9	0.12719716
114	0x3dee1c4a	0.116264895
115	0x3ceb991d	0.028759534
116	0xbd88faf7	-0.06688493
117	0x3d411b33	0.04714508
118	0x3de6d2da	0.112706855
119	0xbddf3938	-0.108995855
120	0x3c1d855e	0.009614317
121	0x3d4629c6	0.048379682
122	0xbc47b909	-0.012190112
123	0xbdb92d8d	-0.09041891
124	0xbde70352	-0.1127993
125	0x3c7e7946	0.0155318435
126	0x3cf2a59f	0.02961999
127	0xbe2a6983	-0.16641812
128	0xbdc080a1	-0.09399534
129	0x3e30f3a3	0.1728044
130	0xbd9f0e53	-0.07766404
131	0xbdebb83b	-0.115097485
132	0xbdc39e55	-0.09551684
133	0x3e2fab1c	0.17155117
134	0xbd8e6278	-0.06952375
135	0x3e1e1fc0	0.15441799
136	0xbd048871	-0.032356683
137	0xbcea174a	-0.028575558
138	0x3d1f352a	0.03886906
139	0xbd48288a	-0.048866786
140	0xbdd21949	-0.10258729
141	0xbd8177b2	-0.06321658
142	0x3df7416d	0.12073026
143	0x3dd8cc2c	0.10585818
144	0xbda991e2	-0.08279778
145	0xbc4910d2	-0.012272077
146	0xbdf5ff8e	-0.12011634
147	0xbe04ad63	-0.12956767
148	0xbc316306	-0.010826832
149	0xbe1e4184	-0.1545468
150	0xbdb3b683	-0.08775046
151	0xbda24455	-0.079231896
152	0x3d47e802	0.048805244
153	0x3cfaf1b1	0.030632826
154	0xbdfa3a2f	-0.12218129
155	0xbe0edb95	-0.13950951
156	0xbd2cf433	-0.042225074
157	0xbe066b4d	-0.1312687
158	0xbdf7c803	-0.12098696
159	0x3d7b6dbd	0.06138395
160	0x3e04b73a	0.1296052
161	0x3e238dfd	0.15972133
162	0xbcafc135	-0.021454433
163	0xbdba25df	-0.090892546
164	0xbdb027bd	-0.086013295
165	0x3de528d1	0.11189426
166	0x3e1cf894	0.153292
167	0xbdcaa4d6	-0.09894721
168	0xbe027d09	-0.1274301
169	0xbd6399d6	-0.05556663
170	0x3dc492e1	0.095983274
171	0xbe0aa6f0	-0.13540244
172	0x3e384aec	0.1799733
173	0x3d648bda	0.055797435
174	0xbe0bdfc5	-0.1365958
175	0x3b430512	0.002975766
176	0xbe14214a	-0.14465824
177	0x3d32b3dc	0.04362856
178	0xbd53ad63	-0.051679026
179	0x3e0352c3	0.1282454
180	0x3dbb434c	0.09143695
181	0xbcf570e0	-0.02996105
182	0xbdbe1f64	-0.09283331
183	0xbd9c3922	-0.07628085
184	0xbd46c01e	-0.04852306
185	0x3e3548b2	0.17703512
186	0xbe282077	-0.16418634
187	0x3d163f3d	0.036681402
188	0x3de8e70e	0.11372195
189	0x3e367a2a	0.1782004
190	0xbd66a55d	-0.056310046
191	0x3e1d1dc5	0.15343387
192	0x3d6caea8	0.057783753
193	0x3dbba47c	0.09162232
194	0x3dcd43a9	0.10022671
195	0xbd47b998	-0.04876098
196	0xbe0b2685	-0.13588913
197	0x3e12f6b8	0.14351928
198	0xbe2addf9	-0.16686238
199	0x3dfc20d8	0.12310952
200	0x3e119a42	0.14219001
201	0xbe00da03	-0.12583165
202	0x3d310fd5	0.04322799
203	0x3d0c9148	0.03431824
204	0xbdb2d31a	-0.08731671
205	0xbcb488f5	-0.022037962
206	0x3d1886bc	0.037237868
207	0xbcf6f790	-0.030147344
208	0xbe087119	-0.13324393
209	0xbddcefd0	-0.10787928
210	0xbdd99862	-0.10624768
211	0x3d89cfeb	0.0672911
212	0xbd5edc95	-0.054409582
213	0xbdfc2c7f	-0.123131745
214	0x3d9d1893	0.07670703
215	0x3e246773	0.16055088
216	0xbd93e188	-0.07220751
217	0x3e2f0802	0.17092898
218	0x3a8ba2f2	0.001065342
219	0x3d56b98b	0.05242304
220	0xbd9c4991	-0.07631219
221	0xbe1f51ea	-0.15558591
222	0xbe2ecfba	-0.17071429
223	0xbe05702e	-0.13031074
224	0xbe18f1a8	-0.14935935
225	0xbd4dbaf3	-0.050227117
226	0x3df62806	0.120193526
227	0xbde08dad	-0.109645225
228	0x3dee5707	0.11637693
229	0xbd483224	-0.048875943
230	0x3d1fe954	0.03904088
231	0xbdf75dc2	-0.1207843
232	0x3c802a59	0.015645193
233	0xbe2f59e2	-0.17124131
234	0xbda955b6	-0.08268301
235	0xbe23cbe5	-0.15995748
236	0x3e068e55	0.13140233
237	0x3d1027f2	0.035194345
238	0xbe303791	-0.17208697
239	0x3dd6d005	0.10488895
240	0x3cfa91a0	0.030587018
241	0xbd63bc0c	-0.055599257
242	0x3e1e386f	0.15451215
243	0xbe01dd7b	-0.12682144
244	0x3bdd2beb	0.00674962
245	0xbd5d990a	-0.054101028
246	0xbde15561	-0.11002613
247	0x3df46332	0.119329825
248	0x3d0471b5	0.032335002
249	0xbe39e4f2	-0.18153742
250	0xbd816460	-0.06317973
251	0x3e142df8	0.1447066
252	0x3e0f6243	0.14002328
253	0x3d184c46	0.037182115
254	0x3d93b90f	0.072130315
255	0xbe3a7f55	-0.18212636

emb_net.v_lins1.3.bias f4 [32]
0	0x3db04724	0.08607319
1	0xbe0084a8	-0.12550604
2	0x3d95448f	0.07288467
3	0x3d5ca971	0.05387253
4	0xbe103c25	-0.14085443
5	0x3dc1e2f2	0.094671145
6	0x3ddba915	0.10725609
7	0x3df49307	0.11942106
8	0xbe20989c	-0.15683216
9	0xbd186c2b	-0.037212532
10	0xbde0bf08	-0.10973936
11	0x3cb6d6e8	0.022319272
12	0x3d1191b7	0.035539355
13	0xbd9ea900	-0.07747078
14	0xbe03e6e6	-0.1288105
15	0x3d29f106	0.041489623
16	0x3c9253d2	0.017862234
17	0xbc9b12e4	-0.018929906
18	0xbd8c7e1c	-0.06859991
19	0xbb37d930	-0.0028053038
20	0xbe0d26d5	-0.13784344
21	0x3dd75555	0.10514323
22	0xbcd49e4a	-0.025954384
23	0xbe358232	-0.17725447
24	0xbc5bc506	-0.013413673
25	0xbd72eabf	-0.059305903
26	0xbe012f1e	-0.1261563
27	0x3d83e082	0.06439306
28	0xbdc40ff6	-0.09573357
29	0xbdd8411d	-0.105592944
30	0xbddb1137	-0.10696643
31	0x3e1e3493	0.15449743

emb_net.v_lins1.4.weight f4 [32, 32]
0	0xbe2f20a6	-0.17102298
1	0xbe150b1e	-0.14555022
2	0xbe3f2c9f	-0.18669365
3	0xbe0e0d35	-0.13872226
4	0x3dba0f1b	0.090849124
5	0x3da059e9	0.07829649
6	0x3dddbbe9	0.10826857
7	0xbe2028ec	-0.1564061
8	0x3db33bf8	0.087516725
9	0x3c9a2fdc	0.01882165
10	0x3d89b365	0.0672367
11	0xbde6b4bf	-0.11264943
12	0xbdace5b5	-0.08442251
13	0x3da1f2f0	0.07907665
14	0x3e32c2d4	0.17457134
15	0x3d38be93	0.04510362
16	0xbe179b63	-0.14805369
17	0xbde70cdf	-0.11281752
18	0x3d8b2e29	0.06795914
19	0xbe01c6ab	-0.12673442
20	0xbccd5c2b	-0.025068363
21	0x3dfa3018	0.122162044
22	0xbe10d965	-0.1414543
23	0xbdc2c028	-0.09509307
24	0x3d11baa6	0.035578392
25	0xbe1dc53a	-0.15407267
26	0xbd27ea69	-0.040995035
27	0xbb3a5cee	-0.0028436738
28	0xbdefd6f8	-0.11710924
29	0x3e35c0f3	0.17749386
30	0xbe2973ae	-0.16548035
31	0xbd928a02	-0.07155229
32	0xbd1a607a	-0.037689663
33	0x3e1c4d76	0.15263924
34	0xbe2eace1	-0.17058136
35	0x3da3f5b0	0.080058455
36	0xbe11d556	-0.14241537
37	0xbe231b95	-0.1592849
38	0xbc2d5343	-0.010578933
39	0xbc60cff9	-0.01372146
40	0xbd246666	-0.040136717
41	0xbcafe411	-0.021471055
42	0x3d048f46	0.0323632
43	0x3c84a1ab	0.01619037
44	0x3d31022a	0.043214954
45	0x3d71dee8	0.05905047
46	0x3d65f056	0.056137405
47	0x3d410c86	0.047131084
48	0xbd9e5a38	-0.077320516
49	0xbd034aee	-0.03205388
50	0xbd240328	-0.040042073
51	0xbddc4b08	-0.107564986
52	0x3dda09be	0.106463894
53	0xbe0db177	-0.13837229
54	0xbd0a42c0	-0.033755064
55	0x3e1f4a52	0.15555695
56	0x3e0ce3de	0.137588
57	0xbd67421d	-0.056459535
58	0x3dbe62fc	0.092962235
59	0xbe03830d	-0.1284296
60	0xbe096a61	-0.13419487
61	0x3e32f2bf	0.17475413
62	0xbd2bfa5c	-0.04198681
63	0x3d2a65eb	0.041601103
64	0xbe0aba61	-0.1354766
65	0x3e2a4231	0.16626813
66	0x3de6bf13	0.11266913
67	0xbda5df39	-0.08099217
68	0x3dd170e7	0.102266125
69	0x3d53b817	0.051689234
70	0xbe3c519d	-0.18390508
71	0xbe3c3b9b	-0.18382113
72	0x3e0e4a24	0.1389547
73	0xbe232039	-0.1593026
74	0xbd876ded	-0.066127636
75	0x3cdd7c06	0.027036678
76	0xbc998e13	-0.018744504
77	0x3d680dfa	0.056653954
78	0x3e26b166	0.1627861
79	0xbda8c444	-0.0824056
80	0xbd76e0ae	-0.060272865
81	0xbd9167ce	-0.07099877
82	0xbc3e8404	-0.011628155
83	0xbd918a29	-0.0710643
84	0x3d1b8796	0.0379711
85	0xbde9bf14	-0.114133984
86	0x3d3e3f43	0.04644705
87	0x3e185181	0.14874841
88	0x3d22a20e	0.03970533
89	0x3d5f0c94	0.054455355
90	0x3e2a180b	0.16610734
91	0xbdc6fe29	-0.09716446
92	0xbd9267ca	-0.071487024
93	0xbdb310bf	-0.087434284
94	0x3d775447	0.060383108
95	0xbde7e52b	-0.11323007
96	0xbd21b46e	-0.03947871
97	0x3d703b1b	0.058650117
98	0xbdd80800	-0.10548401
99	0x3e28fc48	0.16502488
100	0xbd6fc379	-0.058536027
101	0xbd4c74fa	-0.049916245
102	0x3e2dca95	0.1697181
103	0x3de9181b	0.11381551
104	0xbd62db1c	-0.05538474
105	0xbe32ee78	-0.17473781
106	0x3e10eba4	0.1415239
107	0xbba77155	-0.005109946
108	0xbca421b0	-0.020035595
109	0x3e1a4ca8	0.15068305
110	0x3e058a04	0.1304093
111	0xbd7594ad	-0.05995624
112	0xbde9ddfb	-0.114192925
113	0x3d82d899	0.06388969
114	0xbbfe1cbc	-0.0077548902
115	0xbe0a0fa3	-0.13482527
116	0xbe0bf41d	-0.1366734
117	0xbd9fa9b9	-0.07796044
118	0x3e10a7ac	0.14126462
119	0xbe10eacd	-0.1415207
120	0x3dfef0e2	0.124482885
121	0x3e0c7e40	0.13720036
122	0xbe295acd	-0.16538544
123	0xbdd5f3b0	-0.1044687
124	0x3e140cbc	0.14457983
125	0xbc85bbb1	-0.01632485
126	0x3c88d817	0.016704602
127	0xbdfa4ad8	-0.122213066
128	0xbe2102c6	-0.15723714
129	0x3d385171	0.044999544
130	0xbe0fc808	-0.1404115
131	0x3d9176d2	0.07102741
132	0xbe033e9b	-0.12816851
133	0x3e06ddba	0.1317052
134	0x3dea7453	0.11447968
135	0x3d365b6b	0.044520777
136	0x3d81dcc6	0.06340937
137	0x3d25254c	0.040318772
138	0x3d11d679	0.035604928
139	0x3d5fcbd5	0.05463775
140	0x3e135201	0.14386751
141	0x3dd393b2	0.10330905
142	0xbcf3ec00	-0.02977562
143	0x3e333c28	0.17503417
144	0x3de278ca	0.11058195
145	0xbd462b82	-0.048381336
146	0xbe229d69	-0.1588036
147	0xbd38f15c	-0.045152053
148	0x3d5a8feb	0.053359907
149	0xbe0a7fb9	-0.13525285
150	0x3db389b8	0.08766502
151	0x3e0161ec	0.1263501
152	0x3d172a07	0.036905315
153	0xbbcb325e	-0.0062010726
154	0x3e281592	0.16414478
155	0xbd0e05c9	-0.034673486
156	0x3e3db333	0.1852539
157	0xbdd48cd9	-0.10378427
158	0xbccf2067	-0.025284005
159	0xbe1844bd	-0.14869972
160	0x3db607ac	0.08888182
161	0xbe119fc9	-0.1422111
162	0xbe1c9767	-0.1529213
163	0x3de7b0b5	0.11313001
164	0xbd6f3afe	-0.05840587
165	0x3cce35ea	0.025172193
166	0xbe0cff85	-0.13769348
167	0x3dd09134	0.10183945
168	0xbdc6e773	-0.09712114
169	0x3e32aec6	0.17449483
170	0xbdb0720e	-0.08615504
171	0xbdbccd88	-0.092188895
172	0xbdf0e42b	-0.117622696
173	0x3db4befd	0.088254906
174	0xbe3525e2	-0.17690232
175	0xbdcb9ff0	-0.09942615
176	0x3e22cde2	0.1589885
177	0x3e092448	0.13392746
178	0x3dfc47a6	0.12318353
179	0x3a6aaeaf	0.00089524215
180	0x3d432fe3	0.04765309
181	0xbd023043	-0.031784307
182	0xbe009b78	-0.12559307
183	0x3e2a2f83	0.16619687
184	0xbe234e01	-0.15947725
185	0x3de7d4f6	0.11319916
186	0x3939ca0a	0.0001771824
187	0x3e214877	0.157503
188	0x3d9bfd55	0.076166786
189	0xbd9c983e	-0.076462254
190	0xbe16d7a5	-0.147307
191	0xbe0abbed	-0.1354825
192	0x3e0b498f	0.13602279
193	0x3d86794f	0.065661065
194	0xbd01c0b8	-0.03167793
195	0x3e2a3f9c	0.16625828
196	0x3da25f6e	0.07928358
197	0x3e1a17fb	0.1504821
198	0x3d30198c	0.042993113
199	0xbda5c153	-0.08093514
200	0x3e22fe8b	0.15917413
201	0xbdbc94d4	-0.09208074
202	0x3d14cfa0	0.03633082
203	0x3e191a48	0.14951432
204	0xbdb66c9d	-0.08907435
205	0xbe22c6a8	-0.15896094
206	0x3ddde535	0.108347334
207	0xbc05b431	-0.008160637
208	0x3db01147	0.085970454
209	0xbdc640be	-0.09680317
210	0x3e1f308a	0.1554586
211	0xbe200a2b	-0.15628879
212	0xbb881792	-0.0041532004
213	0x3b9123f5	0.0044293352
214	0xbd851ad5	-0.064992584
215	0x3d3af541	0.04564405
216	0xbe003271	-0.12519242
217	0xbdf44f97	-0.11929243
218	0xbd22fa43	-0.03978945
219	0x3dcee021	0.10101343
220	0xbd2e6f85	-0.042586822
221	0x3d1cf26f	0.03831714
222	0xbdf2a000	-0.11846924
223	0xbdb07854	-0.08616701
224	0x3b78e235	0.0037976627
225	0xbced2840	-0.028949857
226	0xbe26f306	-0.16303644
227	0xbca8f91e	-0.0206266
228	0xbe0389fe	-0.12845609
229	0xbe0abc9b	-0.1354851
230	0x3dbd0649	0.092297144
231	0x3e1d3b16	0.15354571
232	0xbdd9b768	-0.10630685
233	0x3e2034ab	0.15645091
234	0x3e32c804	0.17459112
235	0x3b0aeb0a	0.0021197223
236	0x3cb8ea95	0.022572795
237	0xbdf3e73a	-0.11909337
238	0xbd4033e0	-0.04692447
239	0x3e1c9fb3	0.15295295
240	0xbca6e2b3	-0.02037177
241	0xbc5ca89c	-0.013467934
242	0xbe27db47	-0.16392241
243	0xbd18f643	-0.03734423
244	0x3de178be	0.11009358
245	0xbded54c2	-0.11588432
246	0xbe24b928	-0.16086257
247	0x3c7ee1f5	0.015556802
248	0xbda5eec7	-0.08102184
249	0x3d87da2a	0.06633408
250	0x3d0f25e2	0.034948237
251	0x3cdcd2f7	0.026956065
252	0x3baf31b3	0.005346501
253	0x3cfc3506	0.030787002
254	0x3e2925f8	0.1651839
255	0xbe0d74e8	-0.13814127

emb_net.v_lins1.4.bias f4 [32]
0	0x3dc699e8	0.09697324
1	0xbdc59203	-0.0964699
2	0xbbd2cc9b	-0.0064330823
3	0x3e2f4849	0.17117418
4	0x3e10fbb6	0.1415852
5	0x3ac6b753	0.0015160836
6	0xbc29f607	-0.010373599
7	0x3d5b6d62	0.053571112
8	0xbd993368	-0.07480508
9	0xbe0f2e77	-0.13982569
10	0xbe2b2fd0	-0.16717458
11	0xbe23f6b6	-0.16012082
12	0x3e14329a	0.14472428
13	0x3dc3b095	0.09555165
14	0x3e005ddf	0.12535809
15	0xbe24aaa5	-0.1608072
16	0xbd57d541	-0.05269361
17	0xbe05141d	-0.12995954
18	0x3e2e2f9b	0.17010348
19	0xbcd8b0a3	-0.026451414
20	0x3ded9121	0.11599947
21	0x3d868e82	0.0657015
22	0xbe11fba5	-0.14256151
23	0xbdb5e84e	-0.08882199
24	0xbd9edf3f	-0.077574246
25	0xbe20821a	-0.1567463
26	0xbe17598e	-0.14780256
27	0x3d0ebb6d	0.034846712
28	0xbd6be8b2	-0.057594962
29	0xbdc61911	-0.0967275
30	0x3d8e2f46	0.069426104
31	0xbd9e9480	-0.07743168

emb_net.v_lins1.5.weight f4 [32, 32]
0	0x3e28e803	0.16494755
1	0xbdf8a2a9	-0.121404
2	0x3d2c282a	0.04203049
3	0xbda4ca14	-0.08046356
4	0x3d4dcc86	0.050243877
5	0x3df917cc	0.12162742
6	0xbe167e38	-0.14696586
7	0xbd8a3610	-0.06748593
8	0xbde7f46c	-0.11325917
9	0x3cb63cc3	0.02224577
10	0x3e041a2f	0.12900613
11	0x3e276501	0.16347124
12	0xbe03f513	-0.12886457
13	0x3d26573d	0.04061054
14	0xbe1a912e	-0.15094444
15	0x3c404045	0.011734073
16	0xbd8d4fdb	-0.06899997
17	0xbdbd9059	-0.09256048
18	0xbd76956b	-0.06020109
19	0xbe1ab9d6	-0.15109953
20	0xbe02c8fa	-0.12771979
21	0x3e18351d	0.14864011
22	0xbe1e2788	-0.15444767
23	0xbd5a79ba	-0.053338744
24	0x3c42927d	0.011875746
25	0xbd43356b	-0.047658365
26	0xbe22477f	-0.15847586
27	0xbd9751f7	-0.073886804
28	0xbe00b7ec	-0.1257016
29	0xbddced30	-0.107874274
30	0x3d86fd6d	0.06591306
31	0xbc0b1e57	-0.00849112
32	0xbd0e0c8c	-0.034679934
33	0x3e0e49f2	0.13895395
34	0x3e19e992	0.15030506
35	0xbe0f9ea2	-0.14025357
36	0xbdc08074	-0.093995005
37	0x3e0ebb86	0.13938722
38	0xbd437eb1	-0.047728244
39	0x3c84b2b2	0.01619849
40	0xbe3b2cf3	-0.18278866
41	0x3e2a501c	0.16632122
42	0xbdcd816a	-0.100344494
43	0x3b23b035	0.0024976854
44	0x3cb2b03b	0.021812549
45	0x3d4bb0a1	0.049728993
46	0x3d76ede9	0.060285483
47	0x3b25f0d2	0.0025320542
48	0x3d76bb69	0.060237322
49	0x3c2f964a	0.010716984
50	0x3de951fd	0.11392591
51	0x3e191e86	0.1495305
52	0x3c8b7089	0.017021434
53	0x3dc524ae	0.09626137
54	0x3db52ef1	0.08846844
55	0x3bb421df	0.005497202
56	0xbe17376e	-0.14767238
57	0x3d1788a2	0.036995538
58	0x3deab950	0.11461127
59	0x3e1fd305	0.15607841
60	0xbddbfbfd	-0.10741422
61	0x3df5fd0d	0.12011156
62	0xbe0e2aef	-0.13883565
63	0x3ddc47f2	0.1075591
64	0xbe0c146b	-0.13679664
65	0xbd629e2b	-0.055326622
66	0xbe06b672	-0.13155535
67	0x3d375631	0.044759933
68	0xbe3cef0b	-0.18450563
69	0x3d239402	0.039936073
70	0x3c45bfbf	0.012069642
71	0xbdfa3e71	-0.12218941
72	0x3c080e5c	0.008304205
73	0x3cae0303	0.02124167
74	0x3dff7bb1	0.12474764
75	0xbc777491	-0.015103475
76	0xbd9f8c03	-0.07790377
77	0xbb38c685	-0.0028194499
78	0xbe1b34ac	-0.15156811
79	0x3d8eb903	0.06968882
80	0x3e0c54fa	0.13704291
81	0xbe0ba138	-0.13635719
82	0x3d929cc0	0.07158804
83	0x3dac0b3a	0.08400579
84	0xbe1eef20	-0.15520906
85	0xbd40b86b	-0.047050875
86	0xbb70322e	-0.0036651003
87	0xbd9206ec	-0.071302265
88	0xbe1e1715	-0.15438493
89	0x3d704201	0.058656696
90	0xbcb4e0da	-0.022079874
91	0xbdf69b96	-0.120413944
92	0x3cef8708	0.029239193
93	0xbdcef3cf	-0.101050965
94	0x3bd3e7fc	0.0064668637
95	0xbb81fd96	-0.0039669974
96	0xbe052464	-0.13002163
97	0x3c07c34d	0.008286309
98	0x3ce89d55	0.028395334
99	0xbc58c51b	-0.013230587
100	0x3c353e82	0.011062266
101	0x3df26865	0.11836318
102	0xbdb27cf4	-0.08715239
103	0x3dcadf6f	0.09905898
104	0x3df13b8f	0.11778938
105	0x3dbe250e	0.09284411
106	0xbe100d8f	-0.14067672
107	0x3e2941cd	0.16529007
108	0xbc7bd2d0	-0.015370086
109	0x3c559074	0.013034929
110	0x3dbe124a	0.09280832
111	0xbe1cea4b	-0.1532375
112	0x3df322ee	0.11871897
113	0xbde48920	-0.11158967
114	0xbdf72904	-0.1206837
115	0x3e1afbae	0.1513507
116	0x3e109f38	0.14123237
117	0xbd840f89	-0.064482756
118	0x3db4f00f	0.0883485
119	0x3e183318	0.1486324
120	0x3e10611e	0.14099547
121	0xbbec0601	-0.007202864
122	0xbdca27b4	-0.09870854
123	0xbe01bae7	-0.12668954
124	0x3dd9dbfc	0.10637662
125	0xbe1b8b35	-0.15189822
126	0xbd0f3204	-0.034959808
127	0xbcddd06c	-0.027076922
128	0xbd969aec	-0.07353768
129	0x3da7b480	0.081887245
130	0xbd7c41ac	-0.061586067
131	0x3db0b708	0.086286604
132	0xbdfd20d2	-0.123597756
133	0xbbfa31bf	-0.0076353247
134	0xbe0c1003	-0.13677983
135	0x3e29001a	0.16503945
136	0x3dabb701	0.083845146
137	0x3d80f287	0.062962584
138	0xbd11602d	-0.03549211
139	0xbd291dc0	-0.041288137
140	0xbd462101	-0.04837132
141	0x3dfaf2b9	0.12253327
142	0xbd044d64	-0.032300368
143	0xbe36d0fb	-0.17853157
144	0x3ca6b408	0.020349517
145	0xbc0f085a	-0.0087300185
146	0x3e002fdd	0.12518258
147	0xbddf28f1	-0.10896481
148	0xbd68d450	-0.056843102
149	0xbd431d95	-0.047635633
150	0xbcb4fab1	-0.022092195
151	0x3dec8b4b	0.115500055
152	0xbdbfcd2a	-0.09365304
153	0x3c7bd099	0.015369558
154	0xbd15c0c8	-0.036560804
155	0xba720ba3	-0.00092333014
156	0xbd7b822f	-0.06140345
157	0x3d4464f4	0.04794784
158	0x3d386977	0.045022454
159	0xbde3e092	-0.11126818
160	0xbe3c4c4f	-0.18388484
161	0x3e0c50f4	0.13702756
162	0x3e257eca	0.16161647
163	0x3c3d98f4	0.011572111
164	0x3dfac583	0.122447036
165	0xbb443f50	-0.0029944964
166	0xbc40aaf5	-0.011759509
167	0x3dfd0bc6	0.12355761
168	0xbcb4ad2d	-0.022055233
169	0x3dcda709	0.10041625
170	0xbdb44d50	-0.08803809
171	0xbe1ff27b	-0.15619843
172	0x3dd72ebe	0.10506962
173	0xbd539aea	-0.05166141
174	0xbe02bcfe	-0.12767407
175	0xbcaf59b6	-0.021405082
176	0x3d8cee7d	0.068814255
177	0x3e2cf368	0.16889727
178	0xbc9da539	-0.019243823
179	0xbdfc91ec	-0.1233252
180	0xbdafb23f	-0.085789196
181	0xbd86986b	-0.0657204
182	0xbd4457d3	-0.04793532
183	0xbd6ade85	-0.057341117
184	0x3b6f18ca	0.0036483281
185	0xbd74b40a	-0.05974201
186	0xbe23f256	-0.16010413
187	0xbdd3c3ea	-0.10340102
188	0x3be3bb73	0.006949836
189	0x3e35e88e	0.17764494
190	0xbdb3bedb	-0.08776637
191	0x3c2708cc	0.010194968
192	0x3b2e5158	0.0026598778
193	0xbd932fbe	-0.071868405
194	0x3c40d0ed	0.011768562
195	0xbe02b51f	-0.12764405
196	0x3e25407c	0.1613788
197	0xbd85ad61	-0.0652721
198	0x3db9b040	0.0906682
199	0xbc04af0d	-0.008098376
200	0x3e096f90	0.13421464
201	0x3d6f9177	0.058488335
202	0xbe2605a2	-0.16213086
203	0x3e132531	0.14369656
204	0x3d447820	0.047966123
205	0x3da703de	0.081550345
206	0xbe33d342	-0.17561057
207	0x3dc543af	0.0963205
208	0xbe151f14	-0.14562637
209	0x3d8272c9	0.0636955
210	0xbd58823b	-0.052858572
211	0xbc852c2c	-0.016256414
212	0xbd8970fe	-0.06711005
213	0xbcdeb001	-0.027183535
214	0xbe060f95	-0.13091882
215	0x3deac9c5	0.11464266
216	0xbe23a971	-0.15982606
217	0x3e2c8aa0	0.16849756
218	0xbe1a1349	-0.15046419
219	0xbe15bb4d	-0.14622231
220	0xbcec0bb5	-0.028814176
221	0x3e24777f	0.16061209
222	0x3df92800	0.121658325
223	0xbd87d457	-0.066322975
224	0x3d00c00f	0.03143316
225	0xbdb3e1b1	-0.087832816
226	0xbb92e6d1	-0.004483082
227	0x3d08dd83	0.033414375
228	0xbd8eb418	-0.06967944
229	0x3e03cd3d	0.12871261
230	0xbe0a5024	-0.13507134
231	0xbe302ae9	-0.17203869
232	0xbcaa9f6f	-0.020827977
233	0x3d7ce3a0	0.061740518
234	0x3c12367a	0.008924121
235	0xbd8184fc	-0.06324193
236	0xbe1994b3	-0.1499813
237	0xbc906136	-0.017624479
238	0x3dd4f41e	0.10398124
239	0xbdaca7b0	-0.08430421
240	0xbd918c22	-0.07106806
241	0xbdae4c04	-0.085105926
242	0xbc4c1a75	-0.01245748
243	0xbd408dee	-0.047010355
244	0x3e0e8276	0.13916954
245	0x3e23946a	0.15974584
246	0x3ced5b19	0.028974103
247	0x3d23f5a2	0.040029176
248	0x3d52f243	0.05150057
249	0x3d54a4a3	0.051914822
250	0xbcff0941	-0.031132342
251	0xbd0e8dbe	-0.034803145
252	0x3e27acb8	0.1637448
253	0xbe38ea5b	-0.1805815
254	0xbc827cae	-0.015928593
255	0x3d92ec0f	0.07173931

emb_net.v_lins1.5.bias f4 [32]
0	0xbcdef597	-0.027216716
1	0x3ddc6fef	0.10763537
2	0xbd0f9ca2	-0.035061486
3	0xbdbbfb24	-0.09178761
4	0xbd60d43e	-0.05488991
5	0xbd60dac7	-0.054896142
6	0x3d9943fb	0.07483669
7	0x39140b6b	0.00014118633
8	0xbce2b08c	-0.027672075
9	0xbe395cec	-0.18101853
10	0xbe08ae67	-0.13347779
11	0xbe02bcc7	-0.12767325
12	0x3e04dfb1	0.12975956
13	0xbe3754a0	-0.17903376
14	0xbe281eb6	-0.16417965
15	0xbd3ac3c4	-0.045596853
16	0xbde18255	-0.11011187
17	0x3e15ecc2	0.14641097
18	0xbdab6839	-0.08369488
19	0xbddfd423	-0.10929134
20	0x3ce14331	0.02749786
21	0xbe25edef	-0.16204046
22	0xbd4ef55f	-0.050526973
23	0x3e1340f6	0.1438025
24	0x3caf219f	0.021378336
25	0x3d9b675c	0.075880736
26	0xbd20aab3	-0.03922529
27	0xbd70f420	-0.058826566
28	0x3da96f90	0.08273232
29	0x3d9fbbaf	0.0779947
30	0x3ce3129b	0.027718833
31	0xbe158bc4	-0.14604098
