or/GFlowNet and ACO to solve TSP/DeepACO/tsp/pretrained/cvrp/cvrp20.pt (torch, 348733 bytes, 225 tensors)

emb_net.v_lin0.weight f4 [32, 1]
000000 86 db 70 bf 1c 7e 4c be da c3 f1 be 33 9d 7a be
       -0.94084966 -0.19969982 -0.47219735 -0.24474029
000010 56 34 60 bf 8d 4b cb 3e b2 a0 64 bf 69 66 92 bd
       -0.8757986 0.39706078 -0.893077 -0.071484394
000020 cf da b6 3e 8d 28 aa be 5a d0 10 3f 53 b9 02 3e
       0.35713813 -0.33234063 0.5656792 0.12766008
000030 35 3c 0c 3f 30 df 22 3f f9 0a e7 be 4b 2f b9 3e
       0.5477937 0.6362181 -0.4512556 0.36168894
000040 3a 73 d6 be 7f 68 a1 3e 6b 2e 07 bf 66 31 e3 3e
       -0.41884786 0.31525037 -0.52805203 0.44373626
000050 54 ae 56 3e a1 c6 c1 be cf 87 f4 be 9b 7a 82 3e
       0.20964938 -0.37846854 -0.47759864 0.25484166
000060 28 4b 6d 3f 24 e6 f6 3e ec 4c c5 bd c3 74 4c bd
       0.92692804 0.48222458 -0.09633812 -0.04991604
000070 ad ed 0c 3f 4c 55 2f bf 87 03 ac 3e 44 a6 a7 be
       0.55050164 -0.6848953 0.3359644 -0.32744038

emb_net.v_lin0.bias f4 [32]
000000 b4 fd 0d 3f 35 e6 b4 be ea fb 54 3d 7c ef af 3e
       0.55465245 -0.35331884 0.051998056 0.343624
000010 b4 59 32 3f b9 38 21 be 88 17 68 3f b0 34 5c bf
       0.69668126 -0.15744294 0.90660906 -0.86017895
000020 69 17 36 be b8 f0 7e bf f9 22 b0 3d 5e 10 93 3e
       -0.17782368 -0.9958606 0.086004205 0.28723425
000030 8f 5a cb be f8 6c d3 3e cb 6d 34 be b5 b5 5d bf
       -0.39717528 0.41294074 -0.17620008 -0.8660539
000040 65 cf 46 3f 7d f1 1d 3f 75 e5 f9 3e d6 47 4b 3f
       0.7766021 0.61696607 0.48807874 0.7940649
000050 4f 2d c0 3e 64 ae 09 3f 84 87 54 3f 9b 24 4d be
       0.37534568 0.53781724 0.8301928 -0.20033495
000060 bd 50 45 bf 4c 01 fa be cd ce 0f be 63 ff cd bd
       -0.7707632 -0.48829114 -0.14043732 -0.10058477
000070 74 23 a6 bb da 7e 0f 3f 08 94 a9 3e ec 79 3c bf
       -0.0050701443 0.56052935 0.3312075 -0.7362354

emb_net.v_lins1.0.weight f4 [32, 32]
000000 a7 c4 88 bd cf 1f 7a bd b9 a7 b6 3d 0d 89 aa bd
       -0.066781335 -0.06106549 0.08918709 -0.083269216
000010 b7 57 b7 bd 10 85 60 bc 20 5b 7c bd 52 49 81 bd
       -0.08952277 -0.0137036 -0.06161034 -0.06312813
000020 a7 27 24 be 68 71 23 3e 7e 42 e5 3d 81 a6 8b bd
       -0.16030751 0.1596123 0.11194323 -0.068188675
000030 19 d9 bf bd 80 6f c7 3c bb f6 a8 3d b7 73 06 be
       -0.0936758 0.02434516 0.08250185 -0.13130079
000040 1b f5 af bd a7 70 bb 3d 3f d6 07 be 94 b6 f4 ba
       -0.08591672 0.09152346 -0.13265322 -0.0018670135
000050 10 21 f0 bd 69 07 14 3e 0f a9 9b 3d f3 2d 1d be
       -0.11725056 0.14455952 0.07600605 -0.1534956
000060 44 3c a0 bd df ff 97 3d 0b 36 19 bc 70 51 e4 3c
       -0.07823995 0.074218504 -0.009351264 0.027870864
000070 04 af 01 be da 4d e6 bd b5 1b c7 3d f9 aa 1c be
       -0.1266442 -0.11245318 0.097220816 -0.15299596
000080 c4 99 5f bd ee 7f 6f 3d 1d f7 94 3d c3 b7 09 bc
       -0.05459 0.058471613 0.072736956 -0.008405629
000090 77 30 07 3d c1 65 8b 3d 78 15 20 bd 1b 06 8a bd
       0.033005204 0.068065174 -0.039082974 -0.06739446
0000a0 78 dd fb 3d df ba 20 3e 8b 7c b1 3d 1f ce a2 bd
       0.12298101 0.15696286 0.08666333 -0.07949471
0000b0 d8 70 28 be 9f 39 19 be a3 b4 8e bc e7 ac ab bd
       -0.16449296 -0.14963387 -0.017420119 -0.08382588
0000c0 58 76 82 bd 9a 04 62 bc 54 7b 17 3e 02 76 45 3e
       -0.063702285 -0.013795042 0.1479314 0.19283298
0000d0 7f 36 9a bc a8 08 94 bd db 2e 88 3d 7d 57 dd bc
       -0.018824814 -0.072282135 0.06649562 -0.027019257
0000e0 ec bf 31 be 70 4a 34 3d 1f 4e 18 3e fa c3 25 be
       -0.17358369 0.0440163 0.14873551 -0.1618804
0000f0 37 52 11 bd 18 f9 9f 3c fa 03 13 be ee 14 2d be
       -0.035478797 0.019527957 -0.14356986 -0.16902515
000100 ad a3 0e 3e 2a 7e 8e bd 6c 9b dc 3d 5f 8a 08 3c
       0.13929625 -0.06957658 0.10771832 0.0083337715
000110 4d 59 53 3d f1 69 f9 bd a9 49 00 bd c0 db d9 3d
       0.051598836 -0.1217841 -0.031320248 0.10637617
000120 fd 92 99 3d fe 55 f8 bc 6d ce 06 3d 03 b6 fb 3d
       0.07498739 -0.030314442 0.032911707 0.12290575
000130 bf 80 1d be 7c 02 ed 3d bd 74 3b bd f5 13 31 bd
       -0.15381144 0.115727395 -0.045765627 -0.043231923
000140 c3 b1 a4 3d a3 10 1a be 62 f1 cb bc d3 e7 2f 3e
       0.08041718 -0.15045409 -0.024895374 0.17178278
000150 6e 33 5a 3d a4 4a 8d bd c7 18 25 bd 33 51 05 3e
       0.053271703 -0.06899002 -0.040306833 0.13019256
000160 31 fe 8c 3d cb 6e f0 3d fa 11 fd bd c1 74 29 3d
       0.06884421 0.11739882 -0.123569444 0.04137111
000170 2d f2 2d 3d 68 bc 1a 3d 86 5e 22 3e fe 4f e1 3d
       0.042467285 0.037777334 0.1585637 0.110015854
000180 c3 a6 e5 3d b8 5c 93 3d 0b fc 85 3d d6 e8 10 bd
       0.11213448 0.07195419 0.06542214 -0.0353783
000190 4d cd 29 be e7 5b 1b be cd 25 f6 bd 68 27 f3 bd
       -0.16582222 -0.15171777 -0.12018929 -0.118727505
0001a0 c1 a8 a2 3d 73 2e 54 3d 89 f3 47 bd 48 2f 0b be
       0.079423435 0.05180211 -0.048816238 -0.13592255
0001b0 49 6c 2f 3e 21 ac 0b 3e 3f e1 99 3d 79 fc 2d 3e
       0.17131151 0.1363988 0.075136654 0.16990842
0001c0 19 8f cd bd 08 d6 c8 bd dc 72 e4 bd 51 1b 92 bb
       -0.10037059 -0.09806448 -0.1115472 -0.004458823
0001d0 42 7b 20 be 6d ac 08 3e 47 57 1b bb 89 fa ab 3d
       -0.15672019 0.13347025 -0.0023703144 0.08397395
0001e0 f7 23 c7 bd 16 45 b5 bc 97 11 a0 3c 3a 2e 56 bd
       -0.097236566 -0.02212767 0.019539637 -0.05229018
0001f0 69 59 2b 3e ec 4d b9 bd 97 b5 61 3d db 00 02 be
       0.16733326 -0.090480655 0.05510482 -0.12695639
000200 ce d7 cf bc 65 a3 6c bd a2 f5 8f 3d b1 42 df 3d
       -0.025371458 -0.057773013 0.070292726 0.10901392
000210 f6 dd 11 3d f8 0d dc bb 17 23 63 bd 37 1b 01 3e
       0.03561207 -0.0067155324 -0.055453386 0.12608038
000220 ed 68 05 bd 7a 41 0b 3e 35 81 8b bd 56 09 1f 3e
       -0.03257077 0.13599196 -0.06811754 0.15530905
000230 8b b8 3d 3e 69 36 07 3e c6 85 ca 3d 8b 00 95 3d
       0.18527429 0.1320435 0.098887965 0.07275494
000240 41 92 ce bd 09 c1 4f 3c 63 5c 46 3d 09 12 10 bd
       -0.100864895 0.0126803005 0.04842795 -0.03517345
000250 a6 b0 2a 3d d9 1e b8 3d 6d cb 35 be 92 aa 1b be
       0.04167237 0.08990259 -0.17753382 -0.15201786
000260 e8 cb c3 bd fa 34 f9 3c 82 53 3f bd 0f c5 cd 3c
       -0.095603764 0.030420769 -0.0467105 0.025118379
000270 62 27 02 bd 3c a1 ff bd 1d 93 09 3d f7 0e ff 3d
       -0.03177584 -0.12481925 0.033587564 0.12454026
000280 e6 6a ea bd 63 52 19 3e cf be 18 3d 0c 6c 2d 3e
       -0.114461705 0.14972834 0.037291344 0.16935748
000290 e1 51 2d be ad db 30 be cc 9f 59 3d 40 64 2d be
       -0.16925766 -0.172713 0.05313091 -0.16932774
0002a0 a7 29 1b be b0 b7 9d 3d d7 fc b0 3d 6b 98 23 be
       -0.15152608 0.07701051 0.086419754 -0.15976112
0002b0 dc 59 f8 3d c6 25 05 bd 14 16 ff 3d e6 ba e5 bd
       0.12126514 -0.032506727 0.12455383 -0.11217289
0002c0 34 f0 30 be da 1d ec bd c4 da 06 bd 52 3b 32 be
       -0.1727913 -0.11529131 -0.032923475 -0.17405441
0002d0 13 23 38 bc 37 b7 be bd 32 ae 3c bd ef 1a 0d bc
       -0.011238831 -0.09312289 -0.046064563 -0.0086123785
0002e0 8b ae b7 3b 17 4a 44 be c6 20 b1 3d f7 1f e5 bd
       0.005605524 -0.19168888 0.08648829 -0.111877374
0002f0 02 ec dc 3d 5c 25 1f 3e 8b 0c 6e bd cd cb 43 3c
       0.107872024 0.15541595 -0.05811743 0.011950445
000300 40 a9 b8 3d 61 d2 a0 bc 41 d7 21 be 39 6a af 3d
       0.09016657 -0.019631566 -0.15804769 0.08565182
000310 d4 13 9c 3d af 84 db bd 0f c7 01 be ba 5f e4 bc
       0.076209694 -0.10718667 -0.12673591 -0.027877677
000320 b3 f3 c4 3c 7a 08 cc bd 85 7c 6f bc 06 aa b1 bd
       0.024041986 -0.09962554 -0.01461709 -0.086750075
000330 1f 55 a2 bd 6c 05 0d bd 72 22 9f bd 2f e6 ff 3d
       -0.07926392 -0.034429 -0.07770242 0.12495076
000340 27 f4 38 3d 6a 21 17 3e e5 eb 19 3e 40 28 98 3c
       0.045154717 0.1475884 0.15031393 0.01857388
000350 e0 f2 ab bd 39 5d d6 3d 35 cc 25 bc 79 19 f6 3d
       -0.08395934 0.104669996 -0.0101194875 0.12016577
000360 ac 88 44 bd 5e 1e 15 3e 74 92 07 3d 65 8e eb bc
       -0.047981903 0.14562365 0.033098653 -0.028754422
000370 3b 8d 00 be f8 6f f9 3d 3f 95 4c 3c 70 26 4f 3d
       -0.12553875 0.121795595 0.012486755 0.050573766
000380 df 14 9a 3d cf 57 79 bc 30 7c c5 bd f0 84 6f bd
       0.07523512 -0.015218689 -0.096428275 -0.05847639
000390 81 bb 33 bc 24 38 cb 3d 02 8d 94 bc d2 de 4d bd
       -0.010969997 0.09922817 -0.018133644 -0.050261326
0003a0 16 0e 07 bd 56 5c f7 3c 5e 57 0f 3e f4 ac 00 3e
       -0.032972418 0.030195396 0.13998172 0.12565976
0003b0 10 1e ca bc e0 03 dc 3c 02 b8 1b 3e 39 9b 90 3d
       -0.024672538 0.026857316 0.15206912 0.07060856
0003c0 01 36 cf bc 70 08 c6 3d 30 9b 94 3d 7a 2c 37 bd
       -0.025294306 0.09669578 0.07256162 -0.04472015
0003d0 03 4d 7f 3d 8d 8a f0 3b 31 9f 94 bd 9a 15 ac bc
       0.062329303 0.0073407353 -0.07256926 -0.021006394
0003e0 eb 88 29 3e 40 87 30 3d 6c 5b 1a be 61 da dd 3d
       0.16556136 0.043097734 -0.15073937 0.10832668
0003f0 e7 66 04 3d b2 2c a4 3d b1 c6 78 bc 32 d3 7e 3d
       0.032324698 0.080163375 -0.0151840905 0.06221313

emb_net.v_lins1.0.bias f4 [32]
000000 73 85 90 bc f9 ce 12 be 75 28 06 3e 3c 06 19 3e
       -0.017641759 -0.14336766 0.1310137 0.14943784
000010 97 90 f7 bd c0 96 4d bd 5f 8b e8 bd 4e 8a bc bd
       -0.12088125 -0.050192595 -0.11354708 -0.09206067
000020 77 e0 22 3e 24 98 aa bd c8 4d ac 3d 60 25 b9 3d
       0.15905939 -0.083298 0.08413273 0.09040332
000030 d4 6e 9d 3c bd e9 e0 bd ac 0b 2d bc 74 08 2a bd
       0.019217886 -0.10982082 -0.010561865 -0.041511968
000040 0f 82 3d 3e f4 5b 09 3e ef 07 36 3c 61 a0 b9 3d
       0.18506645 0.13413984 0.01111029 0.09063793
000050 64 df 10 be 05 48 cb 3d c9 7f a6 3d eb 07 2a 3e
       -0.14147717 0.09925846 0.08129842 0.16604583
000060 ae 20 69 bd 4d 26 ec bd 52 5e 14 3e ee 77 2d 3e
       -0.05691593 -0.11530743 0.14489105 0.16940281
000070 71 1c cd 3c ef 82 23 3d 94 a7 38 3e 52 4a 18 be
       0.025037976 0.03991979 0.18032676 -0.14872101

emb_net.v_lins1.1.weight f4 [32, 32]
000000 87 67 71 bd e0 b7 09 be 19 0c b4 3d 61 9a ee 3d
       -0.058936622 -0.13449049 0.0879137 0.11650539
000010 5a ed 06 be ac 17 e5 bc 51 b3 1d be e2 98 06 3e
       -0.1317648 -0.02796539 -0.15400435 0.13144258
000020 90 94 1b 3e 4a 37 79 3d 65 09 c6 3b 4f da c3 bb
       0.15193391 0.060843743 0.0060436004 -0.005976952
000030 ae a0 e9 3d 72 4e 86 3d 34 30 0c be d0 5b 13 3d
       0.114076 0.06557931 -0.13690263 0.03597623
000040 71 52 12 3e 4b 01 02 3e c6 6a fc bd 2f ac 15 be
       0.14289261 0.12695806 -0.12325053 -0.14616464
000050 76 2f d6 3d 7d 90 1a 3e 06 6b c0 bd 2f 75 d5 bd
       0.10458271 0.1509418 -0.09395413 -0.104227416
000060 75 18 84 3d b3 ab a6 bd ed 96 86 3d 77 5b 8d 3d
       0.06449977 -0.08138218 0.065717556 0.06902211
000070 28 82 1b 3e e0 67 13 bd 77 52 61 bd f7 32 0b be
       0.1518637 -0.035987735 -0.055010285 -0.1359366
000080 f5 af 1e 3e 5d 42 b1 3d 6e ec 90 3b d8 67 f3 bd
       0.1549681 0.08655236 0.004422716 -0.11885041
000090 96 7e 13 3e ed 3f 24 3e d2 0d 42 bd 4e d7 db bd
       0.14403757 0.16040011 -0.04737646 -0.107344255
0000a0 46 5e 95 bd 9b d8 f3 3d 2f db 1e be 42 14 ac bd
       -0.07293372 0.119065486 -0.155133 -0.08402301
0000b0 7f dd 63 bb 20 fb dd 3d 7a 73 dc bc ca da 0d be
       -0.0034769473 0.10838914 -0.026910532 -0.13852993
0000c0 95 ee f6 bd d6 2e 6b 3d 98 67 4f bc 29 4f 1f bd
       -0.12057225 0.057417713 -0.012658976 -0.038893852
0000d0 77 c9 e5 3d 7c 80 66 3d d6 b0 0f 3c fe e2 43 bd
       0.11220067 0.056274876 0.008770188 -0.0478239
0000e0 38 59 eb bd 70 86 32 be 44 9a 9c 3d 3d 82 6d 39
       -0.114916265 -0.17434096 0.07646611 0.00022650599
0000f0 9d 17 16 3e 87 df 89 bd c6 d0 2d be 6f 23 d0 bd
       0.14657445 -0.067320876 -0.16974172 -0.101630084
000100 e5 ae 02 be b8 da 2b bd 14 f1 20 be 8d 55 8d 3d
       -0.1276203 -0.041956633 -0.15716964 0.06901083
000110 3c 10 03 3e c8 79 90 3b 9d 5e 3b be 3f cd 76 3d
       0.12799162 0.0044090487 -0.18297811 0.06025433
000120 16 c9 0c bd 60 57 59 3d 3b 23 56 bd ea 72 13 be
       -0.034371458 0.053061843 -0.052279692 -0.14399305
000130 d1 1a 0f be fb a7 55 3d 6b 6f 82 bd 49 28 1b 3e
       -0.13975073 0.05216215 -0.063689075 0.15152086
000140 87 5b a2 bc 35 0c c9 3c 11 30 06 3e 9d de 2c 3e
       -0.019819034 0.024541954 0.13104273 0.16881795
000150 57 44 5b 3d 9c f0 18 3e 87 1c 0a 3e 6d 02 3c 3e
       0.05353197 0.14935535 0.13487445 0.183603
000160 fd dd 16 be fd b6 93 3d e3 2f 85 bd 1e 8b fa bd
       -0.1473312 0.072126366 -0.06503274 -0.12233566
000170 35 d6 ae 3c bd 1e f8 3d 1e 57 1a 3e ea 1e 83 bb
       0.021342376 0.12115238 0.15072295 -0.004001488
000180 01 2d 90 3d 44 82 68 bc 42 73 fc 3c ea 1b 15 bd
       0.07039834 -0.014191214 0.030816678 -0.036403574
000190 66 e2 99 bd 17 7a d1 bd 27 68 3a be cf 23 68 bc
       -0.07513885 -0.10228365 -0.18203793 -0.014168694
0001a0 30 e2 2c 3e 96 38 7d 3d 81 ff 7f 3c f2 c1 0a be
       0.16883159 0.061821543 0.015624882 -0.13550547
0001b0 41 e0 50 bc ad 47 22 be f1 64 9f 3c a0 b1 67 bd
       -0.012748779 -0.15847655 0.019457312 -0.05656588
0001c0 e5 c4 18 3e 44 0c f0 3d 30 90 19 be 92 e6 e8 3d
       0.1491886 0.117210895 -0.1499641 0.11372103
0001d0 38 80 ea bc 79 8d 2f be 25 01 68 bd 5d a9 ec 3c
       -0.028625593 -0.17143811 -0.056641717 0.028889352
0001e0 ad 3d d2 3d 8a 5b 85 3c af c3 11 3e ec 1b 16 be
       0.1026567 0.016279 0.14234804 -0.14659089
0001f0 4b 8b 90 bd 8d 0a 43 be 8e 5b 01 bc 22 83 f5 bd
       -0.07057818 -0.19046994 -0.0078953635 -0.11987902
000200 23 e2 c9 3d 35 16 d2 3d f5 62 b3 bd e7 58 18 3e
       0.09857585 0.10258142 -0.08759109 0.14877664
000210 be 2d 09 be 01 9f 17 be ad 55 36 bd b1 16 c1 3c
       -0.13396356 -0.14806749 -0.0445153 0.02357039
000220 1b 6e 15 3e 76 f5 e1 bd 2f e4 ff 3d 3b ae 7f 3d
       0.14592783 -0.11033146 0.124946944 0.06242202
000230 d6 e1 c9 bd 7f 88 06 be 6d c5 50 3d 22 c6 ed bc
       -0.09857528 -0.13138007 0.05096953 -0.029025141
000240 07 2b 0a 3e 98 64 da 3b b9 cd 30 be af ad 46 bd
       0.13492976 0.0066648237 -0.17265977 -0.04850548
000250 21 20 6c bd 4a 84 eb bd b9 49 8a bc 87 95 97 3d
       -0.057647828 -0.114998415 -0.016880857 0.07401567
000260 fc c0 fe bd f2 04 42 bd 11 18 a4 bd 86 d3 cc 3d
       -0.124391526 -0.047367997 -0.08012403 0.100012824
000270 9b 7f f7 3d 39 e7 0b 3e 36 6d 25 3e 4f c6 ca bd
       0.12084886 0.13662423 0.16154942 -0.099011056
000280 58 4c 00 be 7c be 00 3e fc f5 9c 3d 94 61 d8 3c
       -0.12529123 0.12572664 0.07664105 0.026413716
000290 ef 30 b0 bd 7d 32 13 be e3 03 6f bd d3 be 14 3e
       -0.08603083 -0.14374729 -0.058353316 0.14525919
0002a0 25 e4 c6 bd e5 57 dd bd b3 eb 88 3d 24 50 16 3e
       -0.09711484 -0.1080778 0.06685581 0.14679009
0002b0 6a 60 0c 3c ae 48 36 3d ff f3 e7 3d e3 a0 5a bd
       0.008567909 0.044502907 0.113258354 -0.05337609
0002c0 89 2f 1f be 23 68 76 3c 2c 50 e2 bd 62 8c 8f 3d
       -0.15545477 0.015039477 -0.11050448 0.07009198
0002d0 78 4a d2 bd 93 5a 28 3e 05 b1 9e bc 5f 62 10 3e
       -0.1026811 0.16440801 -0.019371519 0.14100026
0002e0 b8 f7 f8 bd 72 d2 18 be f4 23 c7 bd dd 90 2c bd
       -0.121566236 -0.14924029 -0.097236544 -0.04213034
0002f0 cb 6d 0b 3e 24 53 0d be 08 0b 93 bd 3d 20 58 3d
       0.13616101 -0.13801247 -0.071798384 0.05276512
000300 cb 1d 26 3c 3a 96 a5 bd 1d 2d d1 3d ae 0d e0 bd
       0.010138939 -0.08085294 0.10213683 -0.10940109
000310 7d 34 93 3d 80 9e 22 3d ae 0f da bd 2c 1f 64 3c
       0.07187746 0.03970194 -0.10647522 0.013923448
000320 a7 aa 24 3d 2d c4 a4 bc 74 09 7d bd cb c7 a8 3d
       0.04020181 -0.020113075 -0.061776593 0.082412325
000330 f7 ff 94 bd d5 f6 27 bd 9f 48 e7 bc 98 dd d2 3b
       -0.07275384 -0.04100688 -0.02823287 0.0064351074
000340 7a 9c 8b 3c c3 5d 0d 3d 01 90 21 be 44 2d d5 bd
       0.017042387 0.034513246 -0.1577759 -0.10409024
000350 14 38 4f 3d dd ee 08 3e 12 3c ef bd 76 76 32 bd
       0.05059059 0.13372369 -0.116813794 -0.043570004
000360 14 c0 e8 bd e8 9d 10 be c2 9c 21 be 68 4c 1b 3d
       -0.11364761 -0.14122736 -0.15782455 0.037914664
000370 26 33 5e bc 38 08 c4 bd 3c c6 33 3e 37 26 0e bd
       -0.013561999 -0.0957188 0.17556089 -0.034704413
000380 c7 08 b7 3c df 92 33 3e e2 60 0b be c2 71 8d bd
       0.022343053 0.17536496 -0.13611177 -0.06906463
000390 ba 8b 16 be b8 63 39 3d 28 4d 3c bd 75 47 3c be
       -0.14701739 0.045261115 -0.04597202 -0.18386634
0003a0 78 4f b3 3a 52 76 2d bb 0b e1 17 3e 47 77 f3 3c
       0.00136803 -0.002646823 0.14831941 0.029719962
0003b0 d3 23 0d be 0a 77 c0 3d 72 eb c3 3d 71 28 76 3d
       -0.13783197 0.09397705 0.09566392 0.06009716
0003c0 8c 7a 96 bd d9 1f bf 3d fa 93 8d bd 3a 18 2c 3c
       -0.07347593 0.09332246 -0.0691299 0.010503823
0003d0 1f cc 6c 3d 30 85 a9 bd 6e 44 21 3e 44 6a 1d 3e
       0.057811853 -0.082773566 0.1574876 0.15372568
0003e0 97 ac 0d 3b 45 b2 1b bd a7 5d d5 bd 30 02 dd 3d
       0.0021617764 -0.038011808 -0.104182534 0.10791433
0003f0 c7 da a1 bd bf 13 17 3e 77 e6 d1 3c 5e 62 03 3e
       -0.079030566 0.14753626 0.02562259 0.12830493

emb_net.v_lins1.1.bias f4 [32]
000000 0c 42 83 bd 2e 14 ae 3d 9a 21 8e bc 69 1a 28 bc
       -0.06409082 0.08499943 -0.017350007 -0.010260203
000010 aa 2f ce 3d 51 5e eb 3d fd 45 8a bd 16 2a c3 3d
       0.10067685 0.11492599 -0.067516305 0.09529512
000020 59 a1 7d 3c d9 6c ed bd f6 4c ca ba 01 60 24 3e
       0.015480363 -0.11593027 -0.0015434313 0.16052248
000030 07 97 f0 3d d5 df 13 3e da e7 e3 bc ee 52 12 3e
       0.11747556 0.14440854 -0.027820516 0.14289448
000040 4e eb 05 3e 63 4d d0 3d 09 8e b1 bc ed 87 f2 bd
       0.13078043 0.1017101 -0.021674173 -0.11842332
000050 f5 80 0c bd ed 22 da 3c 12 55 b7 bd b2 c8 e7 3d
       -0.03430267 0.026627982 -0.08951773 0.113175765
000060 3c 7e 2f be 31 64 a7 bd 93 39 d1 bd 23 84 8f bd
       -0.17137998 -0.08173407 -0.102160595 -0.07007625
000070 d4 ec c2 3c 27 b0 d1 bc 8b cc 5c 3d 78 25 8e 3d
       0.02379457 -0.025596691 0.053906005 0.0694074

emb_net.v_lins1.2.weight f4 [32, 32]
000000 af 1b e3 3d 57 98 27 be c2 11 c2 bd 41 05 00 3e
       0.110892646 -0.16366707 -0.09476043 0.12502004
000010 6e 67 3a 3e fa f3 c0 3d af 45 31 be 48 8f 87 bc
       0.18203518 0.09421535 -0.17311738 -0.016547814
000020 34 4c 99 3d 33 7a 2e bd 2b b1 e5 3d ce 24 15 3e
       0.07485238 -0.042597007 0.11215433 0.14564821
000030 c7 56 7d bd 8c 59 50 3d 17 56 ae bc 6e a1 dd 3b
       -0.061850335 0.05086665 -0.021281285 0.0067636287
000040 78 b7 1d 3e f8 50 d8 3c 0e d3 03 3e 1b f3 65 3d
       0.15402019 0.026405796 0.1287348 0.056140047
000050 93 a5 24 bd eb 1c 12 3e 92 7a f7 bd 25 af 17 be
       -0.040196966 0.14268844 -0.12083925 -0.14812906
000060 41 de 56 3d fa 6d ce 3d 41 ac 11 be 6b fc 42 3c
       0.05245805 0.1007957 -0.14225866 0.011901001
000070 c9 29 07 be 7a c5 b0 3d a6 0c 04 be ca 25 24 be
       -0.13199534 0.08631416 -0.1289545 -0.1603004
000080 19 21 98 bc 51 72 24 3e 83 31 73 bd c7 02 17 be
       -0.01857047 0.16059233 -0.05937339 -0.14747153
000090 e5 ab 4a bd c7 8e 8c 3d c2 6c a1 3d 6a f5 1b 3e
       -0.049480338 0.0686317 0.07882072 0.15230337
0000a0 dc 2a 3d 3d 9d 8a d1 3d 05 a0 2c bb f4 5c 5c bd
       0.046183452 0.102315165 -0.0026340496 -0.053799585
0000b0 5f 14 87 bb 2c a6 25 3e 53 21 03 3d 84 9f 73 3d
       -0.0041223015 0.16176671 0.032014202 0.059478298
0000c0 e0 64 91 3c aa d7 c0 bd 6d f8 83 bc 70 e6 63 bd
       0.017748296 -0.09416135 -0.01610967 -0.055639684
0000d0 a8 42 30 3e b4 26 3e bc 57 33 0c 3d 62 1d 21 3e
       0.17212927 -0.011605907 0.03422865 0.15733865
0000e0 3a 15 5e bd 68 f5 c1 3d e4 c0 bd bd 5a 91 ad bd
       -0.054219462 0.09470636 -0.092653066 -0.08474989
0000f0 05 bf b6 3d d6 b5 b9 3c 1b d5 e8 3d b8 b0 e0 3c
       0.08923153 0.022669714 0.11368772 0.027428016
000100 08 30 3c 3c be 2d 07 3e c8 e5 91 bc 4a a5 b7 bd
       0.011486061 0.13201043 -0.017809764 -0.08967073
000110 88 46 14 3e 84 cb 6c bd ef 08 18 be 23 39 28 3e
       0.1448003 -0.057811275 -0.14847158 0.16428046
000120 04 fa 14 be 56 d1 30 bd c8 ca 1c 3e d8 4d eb bd
       -0.14548498 -0.04316839 0.1531173 -0.11489457
000130 f6 19 0e 3e 74 f9 26 3e 9d 6b cd 3d b8 14 15 bc
       0.13877091 0.16306096 0.10030291 -0.009099178
000140 e1 42 2b bd db b9 f6 3d 4b 49 fb bd d1 f4 7b bc
       -0.041811828 0.12047168 -0.12269839 -0.015378193
000150 90 13 1a be 02 e2 85 bd 6a 24 75 3c ec 2c 47 bd
       -0.15046525 -0.06537248 0.014962295 -0.048626825
000160 41 51 97 3d 63 d9 81 bd 59 0e fe bd 88 2f 10 3e
       0.07388545 -0.06340291 -0.1240508 0.14080632
000170 ce 73 78 3d 20 23 1a bd d5 a3 07 3c 8c 1b f8 bd
       0.060657315 -0.037631154 0.008278807 -0.12114629
000180 d5 ae d8 bc 33 fe 0e 3e 46 0b c3 bd 17 21 1c be
       -0.026450554 0.13964157 -0.095236346 -0.15246998
000190 95 36 8a 3d 17 cd d1 bd b4 b5 b4 bd 6c 7c 2b 3e
       0.06748692 -0.10244196 -0.088237196 0.16746682
0001a0 78 ce 21 be 35 2e dd bd ae 19 be 3d 6b 89 2c 3c
       -0.15801418 -0.10799829 0.09282242 0.01053081
0001b0 e3 56 59 3d 33 b9 23 3e 83 0a df 3b f6 1f 03 be
       0.053061377 0.15988617 0.006806673 -0.12805161
0001c0 a5 13 2c 3c 61 75 2f be 7d a9 a2 3c bc c5 07 bb
       0.0105027305 -0.1713462 0.019856209 -0.0020717224
0001d0 6e 00 d9 bd bb cb ca 3d 7b a1 4c 3d 77 37 42 3c
       -0.10595785 0.0990214 0.049958687 0.011854044
0001e0 fb 68 d2 3d 95 51 d2 3d 53 c8 4a 3d a0 85 22 3d
       0.1027393 0.10269467 0.04950745 0.039678216
0001f0 99 9f bd 3c e7 27 05 3d 3c 26 b8 3d f8 db e5 bd
       0.023147391 0.032508757 0.08991668 -0.11223596
000200 20 4f 35 3d dc a1 15 3e 1a 3d 37 3d 99 cc 86 bd
       0.044264913 0.14612526 0.044736005 -0.06581993
000210 85 a0 c2 3d 72 37 e2 bc e8 4d ae bd 48 3a 08 be
       0.09503273 -0.027614329 -0.08510953 -0.13303483
000220 62 d3 5a 3d b5 b5 c0 3b 15 28 2f be aa 0b cf 3d
       0.053424247 0.005881036 -0.17105134 0.101096466
000230 e7 72 17 3e 13 1e 98 bd 9d a9 08 be 96 51 91 bc
       0.14789926 -0.07427611 -0.13345952 -0.017739099
000240 aa 6b 7a bd 30 8a 1d 3d fd 75 1b be d4 75 10 be
       -0.061137833 0.038461864 -0.15181728 -0.14107448
000250 d0 d1 a0 bd 77 0d 10 be 3c 36 33 3d 06 4c 1c 3e
       -0.078525186 -0.14067636 0.043752894 0.15263376
000260 5c 08 ca 3c 44 51 be 3d bd 72 22 3d 1e eb 7d bd
       0.02466219 0.09292844 0.039660204 -0.061991803
000270 2f 3b d5 bd db 56 54 3d dd 23 dd bc 20 1b 18 be
       -0.10411679 0.051840644 -0.02699464 -0.14854097
000280 49 73 24 3e 55 d6 f7 bd cc 13 ad 3d 88 2a dc 3c
       0.16059603 -0.121014275 0.084510416 0.02687575
000290 0a 9e 1a 3e 87 38 95 bd 8d e1 33 3d 20 bf 0d be
       0.1509935 -0.07286172 0.043916274 -0.1384244
0002a0 9a 25 12 be ce 8c 37 bc 9b e5 1e 3e 17 67 2a bb
       -0.14272156 -0.011203004 0.15517275 -0.0026001388
0002b0 2e 6c a3 bc 08 25 b4 3d 9a e7 cb bc 0d b3 c3 ba
       -0.019949045 0.08796126 -0.02489071 -0.0014930681
0002c0 49 21 c3 bd cb d0 df bd a5 55 34 3e 13 42 e8 bd
       -0.09527833 -0.10928496 0.17610796 -0.11340728
0002d0 fa 5b 15 be 7e 24 4d 3d 80 fa 9f 3b f2 9f 31 3d
       -0.14585868 0.05008363 0.004882157 0.043365426
0002e0 92 0c 0a be 75 a2 b8 3d 68 0d a1 3d 99 b9 80 bd
       -0.13481358 0.09015361 0.07863885 -0.062854
0002f0 84 e6 c7 bd ee f1 ad 3d 2f 8f 40 3d 92 06 b4 bd
       -0.09760764 0.0849341 0.04701155 -0.08790316
000300 4b 40 b9 bc e2 79 dc 3c fb c8 93 bd 6b 03 f9 ba
       -0.022613665 0.026913587 -0.07216068 -0.0018998211
000310 4b ca fb 3c bf cc cd 3d ab 0e 18 be 38 13 fe 3d
       0.03073611 0.10048818 -0.14849345 0.124060094
000320 d6 7b 89 3a df 8d 0e bc 41 61 95 3d 30 90 88 3b
       0.0010489176 -0.008700817 0.0729394 0.004167579
000330 cd e0 19 be 24 9d 1d be f1 ad fb bc a9 68 2f 3e
       -0.15027161 -0.15391976 -0.03072259 0.17129768
000340 9c 29 22 be cd 19 33 3e 06 7d b3 bd ff fa e0 3d
       -0.15836185 0.17490311 -0.08764081 0.10985374
000350 16 84 cd 3c fe e9 21 be 27 4c f6 3d 05 e4 e2 bd
       0.025087398 -0.15811917 0.12026244 -0.110786475
000360 79 af ea bc f8 ce 06 bd 67 8c 09 3e a8 e8 12 be
       -0.028648125 -0.032912225 0.13432465 -0.14346564
000370 e7 8a 1e be c9 64 31 3c de 3c 69 bd 22 7b d0 bd
       -0.15482675 0.010827252 -0.056942813 -0.10179736
000380 eb 49 06 be 29 56 30 be 12 fc 06 3e 05 46 0c be
       -0.13114135 -0.17220367 0.13182095 -0.13698585
000390 3e cb 25 3d 65 8a 9b 3d 53 ab 7f 3b 09 95 06 3d
       0.04047703 0.07594756 0.003901203 0.032856975
0003a0 55 cd aa 3d 86 70 29 be 77 94 01 3e 65 a3 f5 3c
       0.08339945 -0.1654683 0.12654291 0.02998514
0003b0 5b 55 29 3e dc 53 c6 bd 19 43 bf bd e9 62 0f 3e
       0.16536467 -0.09683964 -0.0933897 0.14002575
0003c0 6f ac 42 be f5 9f d1 bd 51 d0 01 3e 8f f3 a4 3d
       -0.1901109 -0.102355875 0.12677123 0.080542676
0003d0 38 b3 10 be e2 9c ea bd 39 3b ee 3d 8c 16 9c 3d
       -0.14130867 -0.11455704 0.116323896 0.07621488
0003e0 fd 33 f5 bc 97 18 14 be 3f cd 2a be c9 87 f8 3d
       -0.029932017 -0.14462505 -0.16679858 0.12135274
0003f0 03 25 ef 3c 33 08 9e 3d fa a1 43 ba 2e d9 25 3e
       0.029192453 0.077164076 -0.0007462796 0.16196129

emb_net.v_lins1.2.bias f4 [32]
000000 80 20 01 be cf 1f 3f 3d 36 b0 c2 3d 25 27 06 be
       -0.12610054 0.046661194 0.09506266 -0.1310087
000010 23 24 2c be 2b a3 06 3d fe 00 c6 3d 12 ad aa bd
       -0.1681066 0.032870453 0.09668158 -0.08333792
000020 65 70 15 bd a2 99 87 bd 1f a9 f8 3d d3 e0 3f 3d
       -0.03648414 -0.066211 0.12141632 0.04684527
000030 e8 5f 01 be a0 f8 1a 3e c5 80 30 3d 3e 88 1e be
       -0.12634242 0.15133905 0.043091554 -0.1548166
000040 cc 5c 56 3d b7 6b b7 bd f9 ee ab bd a0 53 07 be
       0.05233459 -0.08956092 -0.0839519 -0.13215494
000050 a4 f2 21 be 05 aa ee 3d b7 7f 6e 3d 5e bb dc 3d
       -0.15815216 0.116535224 0.058227267 0.10777925
000060 93 31 e9 bb 32 5e 9a bd 97 02 fc bd ea ee 23 bd
       -0.0071165054 -0.075374976 -0.123051815 -0.040022768
000070 35 c5 ae 3c 25 b7 08 be 8d 28 ef 3d 29 5c 2f bb
       0.02133427 -0.13351114 0.11677656 -0.0026757813

emb_net.v_lins1.3.weight f4 [32, 32]
000000 73 17 e7 3d 26 c8 59 3d ae 50 62 3d e3 13 e0 3d
       0.112837695 0.053169392 0.055252723 0.10941293
000010 a2 98 f7 bd 62 aa bb 3c 5c 6f b4 bd fc f2 f1 bd
       -0.12089659 0.022908393 -0.088103026 -0.11813924
000020 26 37 95 bd 38 52 47 3c 4c ab a1 bd 8e b5 87 bd
       -0.07285909 0.012165599 -0.078940004 -0.06626426
000030 97 99 cd 3d 8d 7c df 3d 87 6d bc 3c 73 c7 8b bd
       0.100390606 0.10912428 0.023001445 -0.06825151
000040 1c 94 1d be 31 77 d3 bc 40 39 12 3e f4 2d 90 bc
       -0.1538853 -0.02581367 0.14279652 -0.017600037
000050 15 f8 ce bd 98 47 16 3e 18 b3 ee 3c 31 6d 54 bd
       -0.10105912 0.14675748 0.029138133 -0.051861946
000060 f1 dc 2f bc c3 26 f9 3d de fb e9 bd b1 84 aa 3d
       -0.010733829 0.12165596 -0.11424993 0.0832609
000070 07 8c a9 3c 07 49 f0 bd ae b2 07 be a4 0a 11 be
       0.020696653 -0.11732679 -0.13251755 -0.14164215
000080 7f 7b 1e bd e8 77 eb bd 32 53 c5 bd 0c 38 24 be
       -0.038691994 -0.1149748 -0.09635009 -0.16037005
000090 d3 04 cc 3d 03 39 28 be 27 a4 2b 3d 41 4e 53 bd
       0.09961858 -0.16427998 0.041904595 -0.0515883
0000a0 f2 72 67 bb f4 b8 c9 3d c5 f9 c0 bd 34 4c 2c 3d
       -0.0035316315 0.0984973 -0.0942264 0.04206486
0000b0 18 53 2c be 6f 5a 9d 3c 7f 74 1a be 65 22 48 3d
       -0.16828573 0.019208161 -0.15083502 0.048860926
0000c0 5c 80 a5 bd fa 86 0c 3e ac b9 aa 3d a5 44 47 3d
       -0.08081123 0.13723364 0.08336195 0.04864945
0000d0 3e 43 28 be 7f 3f 2b 3e a7 44 24 3e 73 c8 d1 bd
       -0.16431901 0.1672344 0.16041814 -0.10243311
0000e0 20 02 81 3b be 51 31 3e 51 df 08 3a 66 d1 5a 3d
       0.003937021 0.17316338 0.0005221265 0.053422354
0000f0 c9 f2 fc bc 44 73 05 3e c3 b2 ea bc c9 12 b2 bd
       -0.030877488 0.13032252 -0.028649693 -0.08694989
000100 06 c1 3b 3d 2b b7 d1 3c 83 16 4e bd 15 9c ae bd
       0.04583838 0.025600037 -0.050314438 -0.08525864
000110 31 79 0f be 64 26 0f be 46 3c 0a be 7f c1 e0 bc
       -0.14011075 -0.13979489 -0.13499555 -0.027436016
000120 f5 40 3b bd ec fb f3 bb 31 d1 92 3d 37 d0 0d bd
       -0.045716245 -0.007445803 0.07168806 -0.034622397
000130 ae 7d f3 3d 4c ea ce 3c 2f eb dc 3d 87 df d1 bd
       0.11889206 0.025258206 0.10787045 -0.102477126
000140 19 4c 4e 3d c7 f2 18 bb 00 80 35 be cb d8 f2 bd
       0.05036554 -0.0023338066 -0.1772461 -0.11857756
000150 3a eb 40 be bb ef be 3d bd ec b3 bc ea 24 fb bd
       -0.18839732 0.09323069 -0.021963472 -0.122629
000160 bc 9c 37 3c 7d f2 95 3d df f4 1c 3d 61 4f 32 be
       0.011206802 0.073216416 0.038319465 -0.17413093
000170 95 1c bc bc c3 d2 19 bd 1b fe 04 be fa 10 e4 3d
       -0.022962848 -0.037554514 -0.12987559 0.111360505
000180 7c 06 bf bd 34 09 c3 bc 2a 5a 1e 3e 01 06 a7 3d
       -0.09327409 -0.0238081 0.15464082 0.08155442
000190 a3 eb 42 bc c1 61 ea bd 1e d5 2d bd 54 c0 28 be
       -0.0118970005 -0.11444426 -0.042439573 -0.16479617
0001a0 bc eb 57 bd e4 eb bd 3c a8 64 9d 3d 09 98 2d be
       -0.05271505 0.02318377 0.07685214 -0.16952528
0001b0 70 c3 2a be d2 f0 1d 3e 84 2a 02 be 0b 01 16 be
       -0.16676116 0.15423897 -0.12711531 -0.14648835
0001c0 83 ec 29 3e ca d1 b2 3d 3a b9 19 3e 2d b2 cd bc
       0.16594128 0.0873142 0.15012065 -0.025109375
0001d0 ba 87 17 3e c8 c9 2f 3e 36 c6 c5 bd 52 4c 16 3d
       0.1479787 0.17166817 -0.09656946 0.03669388
0001e0 75 80 fc 3a 2a 55 9a bd 86 28 e8 3b 65 8d e4 bd
       0.0019264357 -0.07535775 0.007084909 -0.11159781
0001f0 8a 70 26 3d 63 f9 d6 bd cf 07 87 bc ab 22 48 3d
       0.04063467 -0.104967855 -0.016483216 0.048861187
000200 aa 5e 0f ba 0a 96 d6 3d ea c6 8e 3c 0a 84 83 3d
       -0.0005469123 0.104778364 0.017428834 0.06421669
000210 2b ed 30 be 66 ca 3b bc e3 6d 8f bd a8 27 12 be
       -0.17277972 -0.01146183 -0.07003381 -0.1427294
000220 dd 6e 29 be ff 03 0b 3e c4 a1 21 be 6e 98 c7 3d
       -0.16546197 0.13575743 -0.15784365 0.097458705
000230 b1 57 a1 3c b6 9b 65 bb 9c ce ae 3d c1 68 1e be
       0.019695135 -0.0035035438 0.08535501 -0.15469648
000240 a1 14 02 bd 26 4d 26 3e ad 48 1c be 75 dd 13 bb
       -0.031757955 0.16240367 -0.15262099 -0.0022562419
000250 6c 3d 16 3e 6e 7e 74 3d 07 36 1a 3e b6 87 31 3e
       0.14671868 0.059690885 0.15059672 0.17336926
000260 2d 66 5e 3d 2c 50 6d 3d 47 19 b0 bc 72 78 2d 3e
       0.05429666 0.057937786 -0.021496428 0.16940477
000270 40 4c d3 b9 93 a1 aa bd 5e 0e b7 3d 1d ee d6 bd
       -0.00040301867 -0.08331599 0.08938287 -0.10494635
000280 f1 ae 72 bc 9c c2 16 be d8 5c 4f bd 57 27 8b bd
       -0.014812217 -0.14722675 -0.050625652 -0.06794613
000290 6e 9a 23 3e 2e 24 8c 3d eb 33 8b 3d a1 0f 98 3d
       0.15976879 0.06842838 0.06797012 0.07424856
0002a0 59 f1 e6 bd 24 70 40 be 56 01 92 3d 3a d5 b6 3d
       -0.11276502 -0.18792778 0.07129161 0.089273885
0002b0 fa 8d d5 3d 22 83 82 3d bb 00 8e bd 54 69 0e be
       0.104274705 0.06372668 -0.06933733 -0.13907367
0002c0 86 86 9d 3c 84 2b a7 3d c2 df 25 3e 1a 01 08 bd
       0.019229185 0.08162597 0.16198638 -0.033204176
0002d0 99 4d 0a be a8 a3 c3 3d fe 45 1c be 80 2c 0a be
       -0.13506164 0.09552699 -0.15261075 -0.13493538
0002e0 67 36 ab bd 7f d7 ae bc f8 e1 f0 bd 8b 5e ae 3c
       -0.08359986 -0.02134299 -0.1176185 0.021285316
0002f0 41 21 d4 bc 73 7a b7 bd 1a b1 87 bd 7b eb 2b 3d
       -0.025894763 -0.08958902 -0.06625576 0.04197262
000300 0d 02 09 be 50 39 57 bd 37 4c d6 bd f7 20 34 be
       -0.13379689 -0.05254489 -0.104637556 -0.175907
000310 9f 76 a0 bd bc 9a ba 3d 91 75 df 3d c6 44 38 bd
       -0.07835125 0.091115445 0.10911096 -0.044987462
000320 8e f5 e7 bd 30 8a a0 bd 92 db 6f bc fa eb 10 3e
       -0.11326133 -0.07838857 -0.014639752 0.14152518
000330 f6 b2 e5 3d b9 2c 10 be 8a 37 7d bd 41 5b cd 3d
       0.11215775 -0.1407956 -0.061820544 0.10027171
000340 b6 ce 17 3e 81 31 07 be f3 47 7c 3d 31 69 8f 3d
       0.14824948 -0.13202478 0.061592054 0.070024855
000350 0a 50 ff bd 8d e0 09 3d 95 c0 fa 3d 3a d7 19 3a
       -0.12466438 0.033661414 0.12243763 0.0005868558
000360 69 34 ed bd 93 a1 87 3d be ce f6 bc a4 01 29 be
       -0.11582262 0.06622615 -0.03012788 -0.16504532
000370 a0 33 06 3e e6 f0 fb bd 0d f0 e5 bc c1 6e 1f be
       0.13105631 -0.12301807 -0.028068567 -0.15569593
000380 5a 5b 2e bd d5 33 85 3d 61 00 b3 bd 72 da ab 3d
       -0.04256759 0.06504027 -0.08740307 0.083912745
000390 d9 2b d7 3c 86 bf be bd c1 f5 07 3e 96 6d 1e 3d
       0.026266025 -0.09313874 0.13277341 0.038678728
0003a0 4d 60 9b 3d cb 67 13 be af 32 85 3c ae 4e 24 be
       0.07586727 -0.14395063 0.01625952 -0.16045639
0003b0 c6 08 b6 bb 7b e4 7f 3c f9 e3 2d be b2 dd 90 bd
       -0.005555245 0.015618439 -0.16981496 -0.07073535
0003c0 82 fd f7 3d fe 80 58 bd fb dd c0 3a 21 70 21 3e
       0.121089 -0.05285739 0.0014714593 0.1576543
0003d0 59 9f 17 be 0b 39 38 3e 52 42 94 3c 76 61 86 bd
       -0.1480688 0.1799051 0.01809803 -0.06561558
0003e0 4c 61 b2 3d 7a f6 59 bc 1f b7 ca bc b6 9a 90 3d
       0.08709964 -0.0133033935 -0.024745522 0.07060759
0003f0 28 a6 e4 3d 60 cc ca 3d b4 93 1a bd fb c1 eb bd
       0.11164504 0.09902263 -0.037738517 -0.11511608

emb_net.v_lins1.3.bias f4 [32]
000000 f0 a0 63 bd 79 db 8e 3b 7b 37 2c 3e e1 26 7a bd
       -0.055573404 0.0043596593 0.16818039 -0.061072234
000010 eb 72 be 3d 28 ed 24 be a2 8f 18 3e a4 81 28 3d
       0.092992626 -0.16106093 0.14898542 0.04113926
000020 4b 83 fe bd 4b b6 23 3c 6d 07 ed 3c b9 ae 0e be
       -0.12427386 0.0099921925 0.028934205 -0.13933839
000030 1e c1 a1 bd 35 cf 07 3e ed 51 b7 bc aa 0b 4e bd
       -0.07898162 0.13262637 -0.022377932 -0.050304092
000040 67 ea 83 3c 81 19 1f 3e 35 29 92 bd d7 1c 2b 3e
       0.016102983 0.15537073 -0.07136766 0.1671022
000050 0c 37 f9 bc 86 8a 07 3e ec 81 09 be ea cc 17 be
       -0.030421756 0.13236436 -0.13428468 -0.14824262
000060 6e 31 96 bd 7d ca 90 3c 3d 9c 56 bc 72 a9 9b bd
       -0.07333647 0.017674679 -0.013098774 -0.076006785
000070 f2 bf 48 bd de e2 f5 bd 49 8c 15 be 87 96 cc 3d
       -0.04901118 -0.12006162 -0.14604296 0.09989648

emb_net.v_lins1.4.weight f4 [32, 32]
000000 f2 45 82 bd 45 b3 16 be e2 f1 c2 3d e2 9a 93 bd
       -0.06360997 -0.14716823 0.09518792 -0.07207276
000010 6f bb 36 3d dd b9 a3 3d 85 7f c4 bd e4 d1 b8 bd
       0.044612344 0.07994435 -0.09594635 -0.090244085
000020 9e fb 78 3b 1e 9b 87 3d e2 33 e6 3b 4d 31 a1 bd
       0.0037991772 0.06621383 0.007025228 -0.078707315
000030 1b 0f 3e bd 60 76 1f 3e e4 e6 9b 3c fa 60 0d 3b
       -0.046401124 0.155725 0.019030996 0.0021572695
000040 f0 55 5f 3d 33 b5 bb bd 9e bf b5 3c c2 ee 3c be
       0.054525316 -0.091654204 0.022186097 -0.18450454
000050 a6 45 2e 3d 34 a9 88 3d d6 b4 c5 bd ec 11 d8 3d
       0.04254689 0.06672898 -0.09653632 0.10550293
000060 6d de bd 3d 24 fc f7 3d c6 6e e3 3d 4d dc 07 be
       0.0927094 0.12108639 0.11105113 -0.13267632
000070 09 e0 26 be 1e 71 82 bd 66 f7 b5 bd ad a5 e1 3c
       -0.162964 -0.06369232 -0.08885078 0.02754482
000080 a9 ac 0e 3c 2f fc 88 3d 27 cd 2a 3e da 65 3b 3e
       0.008708158 0.06688725 0.16679822 0.18300572
000090 6e 6f 9c bd 54 64 0e be f8 b6 a1 3c 89 af 19 3d
       -0.07638441 -0.1390546 0.019740567 0.03752092
0000a0 f3 24 0e be b5 b5 0e be cc 4b 2c 3e 09 90 f3 bd
       -0.13881283 -0.13936503 0.16825789 -0.11892707
0000b0 a3 58 1e be 41 cd 9e bc 2f a2 a9 3d 74 63 c7 3d
       -0.154635 -0.019384982 0.08282887 0.09735766
0000c0 5f d7 77 3c ac a7 18 3e 62 3c 11 be 1f a6 87 bd
       0.015127032 0.14907712 -0.1418319 -0.06623482
0000d0 0c bd f2 bd 2c 89 ed 3d 44 56 0f 3d 20 43 cc bd
       -0.11852464 0.11598429 0.03499438 -0.099737406
0000e0 34 16 d4 3c 2e 38 da bd 78 d7 3e 3d 12 26 87 bd
       0.025889494 -0.10655247 0.046592206 -0.06599058
0000f0 b8 2e 53 3c ae 77 d9 bd 3b 21 20 bd d0 32 9b bd
       0.012889557 -0.1061853 -0.03909419 -0.07578051
000100 46 ae ed bd 05 9a 0b 3d 70 8a 87 bd 44 a4 83 bc
       -0.11605506 0.03408243 -0.06618202 -0.016069539
000110 3c 23 a5 bd df 09 d9 3c f3 d9 dc bd 4d 32 e5 3d
       -0.08063361 0.026493965 -0.10783758 0.11191235
000120 82 6c 00 be 3a 4c d2 bc cb 6e d3 bd 36 5e 86 3d
       -0.12541392 -0.025671113 -0.103238665 0.06560938
000130 35 1f 74 3c 94 fe 10 bd bf 8b 9e 3d 32 94 0a 3e
       0.014900018 -0.035399035 0.07741498 0.13533095
000140 b4 66 3d be 1e c3 ad 3d 37 76 7a 3d 35 d5 b4 3d
       -0.1849621 0.08484481 0.061147895 0.088297285
000150 eb 77 38 bd 11 b9 d1 3c 8d 1b 08 be 60 8d b3 3d
       -0.045036238 0.025600942 -0.1329176 0.087671995
000160 60 c1 ef bd ab fc d1 3d fa 0e 37 be 74 cb 3c bd
       -0.11706805 0.10253271 -0.17876807 -0.046092466
000170 41 da e3 3d 5e bf 89 bd 7f 78 0d be d7 fd 8f 3d
       0.11125613 -0.067259535 -0.13815497 0.07030838
000180 89 78 5e 3c 39 d9 af bb d9 6f 32 bd 1a dc 01 3e
       0.0135785425 -0.005366471 -0.043563697 0.12681618
000190 8a 80 9e 3d 89 fd 48 3d dc 26 fa bc 3c dc 1d be
       0.07739361 0.049069915 -0.030536108 -0.15416044
0001a0 8e 82 32 3e da c1 c1 3d e0 70 e5 bd c0 89 c7 bb
       0.17432615 0.094608024 -0.1120317 -0.006089419
0001b0 57 89 b1 3d f4 6f 56 bd 04 d1 32 3e fc d4 28 bd
       0.086687736 -0.05235286 0.17462546 -0.041218743
0001c0 12 96 43 3e 2a c0 84 3d 93 80 b9 bd 43 8e 88 3c
       0.19100216 0.06481965 -0.09057727 0.016669398
0001d0 b7 fd e5 bc 8a af df bd d2 85 f7 bb ef 56 3d 3c
       -0.028075082 -0.10922153 -0.0075537944 0.011556371
0001e0 0a 05 db bd 75 4b 74 bd 13 30 02 be ef 2b ca bc
       -0.106943205 -0.059642274 -0.12713651 -0.024679152
0001f0 8e 58 35 be 15 c3 d9 bd 10 bd f8 bd 5a 76 c1 3c
       -0.17709562 -0.10632912 -0.12145436 0.023616005
000200 5b f3 c1 bd 58 2a a2 3d 2d 5e 2d be 6c 3f 02 be
       -0.094702445 0.07918233 -0.16930456 -0.12719506
000210 20 90 b5 bc c9 b7 52 bb 57 94 8f bd 94 63 db bd
       -0.02216345 -0.0032153002 -0.070107155 -0.107123524
000220 40 01 15 be 02 25 0f 3c ce 34 ee bd 9c db 22 be
       -0.14551258 0.008736851 -0.116311654 -0.15904087
000230 6b cd ab bd 7d a8 e9 bd a0 95 e3 3c be b4 e4 3d
       -0.0838879 -0.1140909 0.027781308 0.11167286
000240 d5 61 67 3d a1 36 c2 3d bb 38 2f 3e 42 f6 99 bc
       0.056489784 0.09483076 0.17111485 -0.018794183
000250 da 0b 66 bd 2b e1 3c 3c e8 c5 0a 3d 92 3e cd bd
       -0.056163646 0.011528294 0.033880144 -0.100217
000260 37 8f c3 3c 77 d2 d7 bd c9 53 ce 3d 7f 73 33 be
       0.023872001 -0.1053819 0.100745745 -0.17524527
000270 cd 88 c0 3d d9 90 88 3c 91 7c 65 bd 66 98 b4 bd
       0.09401093 0.016670631 -0.056027 -0.0881813
000280 62 61 f8 3d 18 4c 4c 3d cd 47 43 bd 52 e8 57 bd
       0.12127949 0.049877256 -0.047675896 -0.052711792
000290 03 f5 33 3b dc 0e 8f bd 6c 3f ef bc 7a fe cf bd
       0.002745927 -0.06985256 -0.029205047 -0.101559594
0002a0 05 6d b3 3b a8 ab 21 be 97 47 75 bd 68 7f 62 bc
       0.0054756426 -0.15788138 -0.059882727 -0.013824321
0002b0 39 b0 ee bd 8c 2c 0a 3d 96 52 07 3d 2c f8 ae 3d
       -0.116547056 0.03373389 0.033037744 0.08543429
0002c0 3d 5c dc bd c2 ad 61 3d 8f cf 0b 3e 26 83 31 be
       -0.107597806 0.05509735 0.13653396 -0.17335185
0002d0 6b 22 c7 3c 7f 9a bc 3d 7d 11 ee 3d 1c f9 bf 3d
       0.024308404 0.09209155 0.116244294 0.09373686
0002e0 08 42 0e 3d 77 74 f0 bd f2 be c7 3d 3e 3b 1b be
       0.03473094 -0.11740964 0.09753217 -0.15159318
0002f0 b9 93 95 bc 5d d5 66 3c 0f d0 08 3e 48 fd 84 bd
       -0.018258916 0.014088956 0.13360618 -0.06493622
000300 e9 8f ac bd d7 6b 93 3d 5a b0 09 be 25 7e a7 3d
       -0.08425886 0.07198303 -0.13446179 0.08178357
000310 c5 fc f1 3d e5 cd 69 bc 8d 46 ae 3d 2e 51 cc 3d
       0.1181579 -0.0142702805 0.0850955 0.09976421
000320 40 69 99 3b 2e 4f 13 3e 6e ba 18 be 93 dd cd 3d
       0.004681736 0.14385673 -0.14914867 0.100520276
000330 4f eb 97 bd ea 6f 0a be 91 0f 99 3b 59 95 0a be
       -0.074179284 -0.13519254 0.004671045 -0.13533534
000340 4a 30 b5 3d 40 f6 1b 3d 32 f0 a6 3c 46 71 dc 38
       0.08847101 0.03807664 0.020378206 0.00010511516
000350 98 17 d0 bd a0 28 f9 3d 28 be f7 bd a3 6e c4 bd
       -0.1016075 0.12165952 -0.12096816 -0.09591415
000360 33 16 07 3e ff 4c 77 bd e8 eb 1a bd 15 c3 2d be
       0.13192062 -0.060376164 -0.037822634 -0.16968949
000370 62 65 0b be 88 0c 17 bd 2c a5 e5 bd 30 10 c9 bc
       -0.13612893 -0.036877185 -0.11213145 -0.024543852
000380 f7 3c 31 3e c7 b2 13 bd dc c5 1b 3d 53 95 9b 3d
       0.17308412 -0.036059167 0.03803049 0.07596841
000390 46 04 12 3e 23 21 75 bc da 71 24 be 9d 97 1a be
       0.14259443 -0.014961514 -0.16059056 -0.15096898
0003a0 2c da 0f be da 37 7b 3d 86 5c e7 3d 38 46 bc 3d
       -0.1404807 0.06133256 0.11296944 0.09193081
0003b0 e3 90 7d bd fa 4b 9e bb 30 4d d3 3c f1 e8 6c bd
       -0.061905753 -0.0048308345 0.025793642 -0.057839338
0003c0 19 f1 6b 3c 2d a2 47 3d c3 ab 0d be f8 74 88 3d
       0.014400744 0.048738647 -0.13835053 0.06662935
0003d0 0a e7 1c bd a0 11 66 bd f4 73 d2 bd 43 0a d7 bd
       -0.038306274 -0.056169152 -0.102760226 -0.10500004
0003e0 7e 9d 0d be 7c 95 ba 3d 7b 8d 8e bc 18 3c 08 3e
       -0.1382961 0.09110543 -0.017401448 0.13304174
0003f0 c9 67 12 be b3 ad f6 bd 40 44 43 3d e6 e3 e3 bd
       -0.14297403 -0.12044849 0.04767251 -0.111274526

emb_net.v_lins1.4.bias f4 [32]
000000 3a dc 9b 3d 80 c1 0d 3e 64 2d 27 3e f5 ec 0b be
       0.07610364 0.13843346 0.16325909 -0.1366461
000010 20 fb c6 bd 06 74 16 3e 2d aa 0b 3e 40 21 09 bd
       -0.09715867 0.14692697 0.13639136 -0.033478975
000020 e0 dc f0 bd 2b f9 bf 3b 39 1d e4 3c 1a 25 cd bd
       -0.117608786 0.0058585606 0.027845966 -0.10016842
000030 83 23 31 be 64 bc 89 3d 29 12 c0 3d ee 7d 37 be
       -0.17298703 0.06725386 0.09378464 -0.17919132
000040 1e 52 01 3e 41 e7 f7 bd 0b c2 0f 3e 9c 00 31 3e
       0.12628981 -0.12104655 0.14038865 0.17285389
000050 ec b8 d5 bd c4 84 48 3d d2 67 df 3d 17 e2 fe 3c
       -0.10435662 0.04895474 0.10908474 0.031113667
000060 5c fa a4 3d 22 eb 34 3e 28 bd f8 3c 17 4e 65 3d
       0.08055565 0.17667821 0.030363634 0.055982675
000070 ae 24 f6 3d d8 b1 35 3e 69 cd 91 3d 45 21 00 3d
       0.12018715 0.17743623 0.07119257 0.03128173

emb_net.v_lins1.5.weight f4 [32, 32]
000000 c9 e2 29 3e 88 31 c3 bc d5 da 09 3e f8 51 49 3d
       0.16590418 -0.02382733 0.13462384 0.049150437
000010 05 2f 3a 3d 2c c4 e5 3d 1a 31 c5 3d eb 88 d3 3d
       0.045454998 0.112190574 0.09628506 0.103288494
000020 19 e4 a6 3c 0d 5f 25 3e bb 7c 0f 3e 12 33 0a be
       0.020372437 0.1614954 0.14012425 -0.13496044
000030 dd 05 13 3d bc d3 5c 3d 80 52 85 3d 97 96 3e bc
       0.035894264 0.053912863 0.06509876 -0.011632583
000040 07 88 30 be c4 33 25 be ad f2 b8 3d dc 0f 2b be
       -0.1723939 -0.16133028 0.09030662 -0.16705269
000050 86 a5 9e bc d5 c8 2f be 77 70 87 bd a7 9f dd bb
       -0.019366037 -0.17166455 -0.06613248 -0.006763417
000060 db 28 48 bd de 3f 02 3e d6 ca 2c 3e 57 0e f0 3d
       -0.048867088 0.12719676 0.16874251 0.11721485
000070 2b 26 19 be 98 57 8c 3d ce cf 1c be 71 b1 0b be
       -0.14955966 0.06852645 -0.15313646 -0.13641907
000080 11 d9 05 3e 16 d6 0f be 12 a1 40 bd e5 68 1b be
       0.13071086 -0.14046511 -0.04702861 -0.15176733
000090 e1 1e f1 bd 98 ca 0b bd 53 35 e8 bd 63 6d 16 be
       -0.11773468 -0.034128755 -0.11338296 -0.14690165
0000a0 0a c5 eb bc ff fd f2 ba ea e7 81 3d 6e db a1 3d
       -0.028780479 -0.0018538832 0.06343062 0.07903181
0000b0 7e 39 6d bc af 97 36 3d 23 05 8e 3d c8 31 25 bd
       -0.014479039 0.04457825 0.069345735 -0.04033068
0000c0 85 aa 18 3e c0 1e 44 bd e1 3d 2c be fe 55 ed 3a
       0.14908798 -0.047880888 -0.1682048 0.0018107293
0000d0 35 ef a0 bc b3 10 8e 3d 75 c4 0c bd da cc 23 bd
       -0.019645313 0.06936779 -0.034367044 -0.039990284
0000e0 48 02 4d bd d0 34 20 3e 49 1c af bd 61 a5 ad 3d
       -0.050051004 0.15645146 -0.08550317 0.08478809
0000f0 3b 5a 17 3d 2a de 22 3e 3c 93 d5 3d 93 ed e0 bc
       0.036951285 0.15905061 0.10428473 -0.027457034
000100 7c 18 a2 3d 4f 13 83 bd 3a a7 76 3d ef 18 48 3d
       0.07914826 -0.06400167 0.060218073 0.048851904
000110 31 ed 03 be f8 d3 b8 bd 78 58 09 3e c9 62 df bd
       -0.1288345 -0.09024805 0.13412654 -0.10907514
000120 96 cc e6 3c 12 c3 19 3d 38 da 29 be 0e aa 2a bd
       0.028173726 0.03753955 -0.1658715 -0.041666083
000130 1d c4 19 3c 88 2d 70 bd 35 9e a9 3b 3a 30 1f 3d
       0.009385136 -0.058637172 0.0051763305 0.03886435
000140 4c 35 0c 3e 1d 06 60 3d 56 8e ee 3d e5 3a 76 bd
       0.13692206 0.05469333 0.11648242 -0.06011476
000150 9c d8 23 be 6e 37 08 3e c4 3b 9c 3d 4d 1c 35 be
       -0.16000599 0.13302395 0.07628587 -0.17686577
000160 d8 fb 1d 3d 83 08 2b 3e 57 b5 64 3d 5c e2 2a 3e
       0.038570255 0.16702466 0.055837 0.16687912
000170 36 a9 32 3d 3a 23 fe bd da 79 01 3e 5f 33 c8 3d
       0.043618403 -0.12409063 0.12644139 0.09775423
000180 d3 f6 7e bd 5d c0 7b 3c d1 96 05 be 11 f5 21 bd
       -0.06224711 0.015365687 -0.13045813 -0.039540354
000190 eb a8 d0 bd 66 8b 2f bc be 7f 86 3d fc f7 db bd
       -0.101884685 -0.0107143875 0.06567334 -0.10740659
0001a0 10 d0 76 bd 6e 27 ff 3d 8d e6 3d 3d 62 39 b7 bd
       -0.060257018 0.124586925 0.04636245 -0.08946492
0001b0 0f c6 b1 bd 1e 7b 27 be 12 ee d2 3c 21 a6 88 bd
       -0.08680355 -0.16355559 0.025748286 -0.066723116
0001c0 d9 7d 94 bd 40 00 89 bd ed 43 2d be 35 17 85 3d
       -0.07250566 -0.06689501 -0.16920443 0.06498567
0001d0 96 ec 0c 3e 86 c1 cb 3d 17 d2 e2 bd c4 28 a2 3d
       0.13762125 0.09949021 -0.11075228 0.07917932
0001e0 73 98 9d 3d 2a 4b 8d bd d5 29 a1 3d c4 f3 6f 3d
       0.07695093 -0.06899102 0.07869307 0.058582082
0001f0 7a 28 92 bd 91 03 1a 3e fe 67 34 be 0c 53 d9 3d
       -0.071366265 0.15040423 -0.17617795 0.10611543
000200 dd 39 8e 3c f0 02 dc bd 97 5e 88 bc b9 ce 22 be
       0.017361576 -0.10742748 -0.016646666 -0.15899171
000210 e0 b4 b0 bd f6 b8 38 3d af 89 b4 3c 66 4c 16 be
       -0.08628249 0.045098267 0.022038309 -0.14677581
000220 4c 34 7c 3c ef 29 fd bd 8e d5 f8 3c f6 1c b2 bd
       0.015393328 -0.12361514 0.030375268 -0.0869693
000230 64 44 e9 3d 49 53 e8 3d 12 e8 95 bd d4 f0 09 3d
       0.113899976 0.113440104 -0.073196545 0.033676937
000240 97 ef 7d 3d 7b 99 b0 bd ac 6e 69 bc 28 69 35 bd
       0.06199607 -0.08623024 -0.014247578 -0.044289738
000250 8e 37 25 be 97 5d ed 3c 68 34 c7 bd c4 65 12 be
       -0.16134474 0.028975291 -0.097267926 -0.14296633
000260 9d 4a 23 be a2 f6 de bc 84 dd c3 39 ee 2b 8a 3d
       -0.15946431 -0.027217213 0.0003735834 0.0674666
000270 ad f0 03 be bf 02 8c bc 6c 4e 24 3e b6 0f 0b be
       -0.1288478 -0.017091153 0.1604554 -0.13580212
000280 2a 09 fd bd a0 20 0d be 14 38 1c be e4 c3 ee 3d
       -0.123552635 -0.13781977 -0.15255767 0.11658457
000290 f6 c1 f7 bd 35 9d f4 3d d5 41 eb bd 52 1e ff 3d
       -0.12097542 0.11944047 -0.11487166 0.12456955
0002a0 b9 f0 14 3e c9 5a 31 be f4 2c 23 3e 4d 99 17 3d
       0.14544953 -0.17319788 0.15935117 0.037011433
0002b0 41 bf 0b bd 3c cd 3e be b3 6e 76 bd 47 f3 86 bd
       -0.03411794 -0.18632978 -0.060164165 -0.0658937
0002c0 1f 17 45 bc 08 05 cd bd e1 b3 0f be fa c9 40 3d
       -0.012029438 -0.10010725 -0.14033462 0.04706762
0002d0 9d 01 f3 3d 5b 9e 8c bd 6b 57 d6 3d 2c 19 4c bc
       0.11865542 -0.068661414 0.104658924 -0.012457173
0002e0 07 81 f8 bd be 43 12 be aa 78 e6 bd ec f1 33 be
       -0.12133985 -0.14283654 -0.112534836 -0.17572755
0002f0 e3 b3 51 3d f2 51 da 3d 57 48 9a 3b ea 3a be 3d
       0.051196944 0.10660161 0.0047083306 0.09288581
000300 85 31 fa 3d 74 ca f5 bd 72 14 14 3d de c4 de bd
       0.12216476 -0.120015055 0.03615231 -0.10877393
000310 e3 8a 21 3d 89 86 2d bc ad 4f de bd 7f e4 c4 3b
       0.039439093 -0.010591158 -0.10855041 0.006008684
000320 b4 b5 5a 3d b8 42 1e 3d cc e1 7c 3d 49 ff f6 bd
       0.05339594 0.038637847 0.061738774 -0.120604105
000330 1b 72 4f 3c d3 1e 4f 3d 0c 93 9e bd 25 d0 ec 3d
       0.012661482 0.050566506 -0.07742891 0.11563138
000340 54 01 bc 3d 63 cf 09 3e ce 7e 0f bd 81 96 36 be
       0.09179941 0.13458018 -0.03503304 -0.1783085
000350 34 f2 2c 3e 23 27 8c bd 86 6f 0e 3e d0 80 09 be
       0.16889268 -0.06843402 0.1390973 -0.13428044
000360 c8 95 45 be ff 99 a2 3d f5 ff 47 bc b5 97 29 3e
       -0.19295418 0.07939529 -0.012207021 0.16561778
000370 7c a1 c2 3d 77 92 39 3e 29 45 9c 3d 7f 8b fa 3d
       0.09503457 0.18122278 0.07630379 0.12233638
000380 6c 56 b6 bd fc c7 e2 bd 50 5f 29 be c0 40 06 3e
       -0.089032024 -0.110733 -0.16540265 0.13110638
000390 42 22 31 be ba 2c 06 3d f3 09 c6 bd 1f 8a 0a 3e
       -0.17298225 0.0327575 -0.096698664 0.13529252
0003a0 85 8c 75 3d 3d 2c 40 3c 81 4c 16 bb 16 cd 20 be
       0.059948463 0.011729297 -0.0022933783 -0.15703234
0003b0 1d aa 16 be ea 6e d3 3c e8 a2 68 3d e1 c6 23 3e
       -0.1471333 0.025809724 0.056795985 0.15993835
0003c0 77 6f 19 be 5f 84 67 3d 4e ce 06 3e ac c2 18 be
       -0.14983927 0.056522723 0.13164636 -0.14918011
0003d0 27 51 ef bd 4a ae 19 3e b2 a0 61 3d c3 14 5a bd
       -0.116854005 0.15007892 0.05508489 -0.053242456
0003e0 2f 52 44 bc 9e 5a a0 bc 60 b4 21 3e 3e e2 60 bd
       -0.011982485 -0.01957446 0.15791464 -0.05490326
0003f0 5c 88 fc bd 67 82 f5 bd 70 4c 01 39 c0 be e8 3d
       -0.12330696 -0.11987763 0.00012330874 0.11364508

emb_net.v_lins1.5.bias f4 [32]
000000 0f 47 03 bd 12 9a 13 3e 49 63 0f bd d4 df 24 be
       -0.03205019 0.14414242 -0.035006795 -0.16101009
000010 9c 79 fa 3d 37 32 eb 3d 3d b2 f3 bd b9 e0 cd 3d
       0.122302264 0.11484187 -0.11899231 0.10052628
000020 db 9d 17 be a6 ae 14 be b4 64 31 bd 4d 9e c4 bd
       -0.14806311 -0.14519748 -0.04330893 -0.09600506
000030 90 17 e2 3d 25 20 12 be 6d b7 1a be f5 dd 10 3d
       0.110396504 -0.14270075 -0.15109034 0.035367925
000040 5b 8b 98 bb bb 05 2d 3e a7 73 ab 3d 6a ce 94 bd
       -0.0046552843 0.16896717 0.08371668 -0.07265933
000050 be 9e 20 3e d6 7c ce 3c 66 4d 2c be 6e 10 6c 3d
       0.15685555 0.02520601 -0.168264 0.057632856
000060 03 22 e8 3d af ff 5e bd 74 d4 2e 3e a9 fe ad 3d
       0.11334612 -0.054443058 0.17073232 0.08495838
000070 bf b6 09 3e 3b e1 0b 3d 1b b7 09 be 37 5b 0f 3d
       0.13448618 0.034150343 -0.13448755 0.0349991
