or/GFlowNet and ACO to solve TSP/DeepACO/pretrained/tsp/tsp100.pt (torch, 359592 bytes, 230 tensors)

emb_net.v_lin0.weight f4 [32, 2]
-0.4564166 0.15955237 -0.21104214 0.40600482 -0.07160312 0.11702057 0.6756615 0.35381782
-0.51064676 -0.6105845 -0.16159849 -0.66160995 -0.5419515 0.58384496 -0.31039312 0.562109
-0.38135177 0.19398564 -0.003145107 -0.2490165 -0.12129802 -0.40906388 0.30777088 0.4865289
-0.032307573 0.26870808 -0.046907384 -0.37534514 0.07750553 -0.05260113 -0.43716893 0.27619472
-0.43872607 -0.683602 -0.25952655 0.35172138 -0.2609269 -0.10128273 -0.1807007 -0.15310504
-0.07935796 0.31819597 -0.1246005 -0.13729267 0.56367093 0.17323186 -0.5703782 -0.31894025
0.24444501 0.5578198 -0.60353076 0.5406887 0.29985327 0.45914382 -0.18009213 0.65076494
0.6810241 -0.10177135 0.45157707 0.41965598 -0.34265894 -0.22391355 -0.30519846 -0.21415657
00000000: 70af e9be b261 233e 6e1b 58be dddf cf3e
00000010: a8a4 92bd 7ba8 ef3d 27f8 2c3f 9c27 b53e
00000020: bfb9 02bf 444f 1cbf 137a 25be 455f 29bf
00000030: 55bd 0abf dd76 153f d9eb 9ebe 60e6 0f3f
00000040: 8a40 c3be 2ca4 463e 241e 4ebb 2efe 7ebe
00000050: 196b f8bd d270 d1be 2594 9d3e 511a f93e
00000060: f254 04bd 1b94 893e f521 40bd 3d2d c0be
00000070: 38bb 9e3d 4874 57bd 9bd4 dfbe 6569 8d3e
00000080: b4a0 e0be 8a00 2fbf aae0 84be d314 b43e
00000090: 3698 85be 526d cfbd 9b09 39be 91c7 1cbe
000000a0: 6d86 a2bd 95ea a23e 8c2e ffbd 7396 0cbe
000000b0: bd4c 103f b163 313e 4e04 12bf 234c a3be
000000c0: cb4f 7a3e 47cd 0e3f fe80 1abf 936a 0a3f
000000d0: 5e86 993e e614 eb3e 126a 38be 8898 263f
000000e0: 9857 2e3f 7f6d d0bd 1c35 e73e 26dd d63e
000000f0: fe70 afbe 9849 65be f942 9cbe dc4b 5bbe

emb_net.v_lin0.bias f4 [32]
0.14920594 -0.15700375 0.13650393 -0.52010614 0.23418249 -0.6842262 -0.64169115 0.33418354
-0.41005975 0.6148589 0.4993957 0.49597833 -0.5177233 -0.6828443 0.4955167 0.36815527
-0.02898804 0.15987748 -0.67454267 -0.03247356 0.27850014 0.37992638 -0.5430293 -0.024959477
0.04457823 -0.2640933 -0.528965 -0.15814953 0.190348 0.16899556 -0.4963737 0.257407
00000000: 71c9 183e 97c5 20be b0c7 0b3e ad25 05bf
00000010: 89cd 6f3e 7329 2fbf df45 24bf 1b1a ab3e
00000020: 5af3 d1be 6567 1d3f cbb0 ff3e dff0 fd3e
00000030: 8489 04bf e2ce 2ebf 5db4 fd3e d97e bc3e
00000040: 5378 edbc ecb6 233e d4ae 2cbf ff02 05bd
00000050: 9297 8e3e b685 c23e f803 0bbf d177 ccbc
00000060: a997 363d 3d37 87be 406a 07bf f3f1 21be
00000070: 96ea 423e 2c0d 2d3e b224 febe daca 833e

emb_net.v_lins1.0.weight f4 [32, 32]
0.09835787 0.03619578 0.10914769 -0.06585468 0.12505181 -0.029461605 -0.12659374 0.14981353
-0.012885543 -0.1324204 0.03402471 -0.13035525 0.12710467 0.10142075 -0.15056026 0.044479482
-0.007759855 -0.08981013 0.0502302 0.10335274 -0.16456191 0.024966171 0.005580271 0.16607657
0.16695148 -0.13526978 -0.014717107 0.01894862 0.07526349 -0.09550608 0.09498253 0.010995099
-0.046962183 0.16189228 -0.17701241 -0.010971817 -0.14653915 0.08631945 -0.17676295 -0.0770726
-0.15308312 -0.049024824 -0.015271439 -0.05195621 0.03330323 0.0495676 -0.088515125 -0.06505116
0.03663243 -0.1742787 -0.025776567 -0.15548998 -0.13971798 -0.08158734 0.11529695 0.1441592
-0.07219459 0.045557506 0.064124264 0.08089173 -0.17145811 0.009922337 0.05973576 0.04020397
-0.038829334 0.17132339 0.1416828 0.15729122 -0.023897953 -0.14008458 0.028730983 0.05389392
-0.1364743 -0.19197199 -0.10933413 0.13534835 -0.05677989 -0.0026070662 -0.13110745 -0.15517765
0.16179205 0.16815624 0.024052601 0.14063461 0.032090966 -0.023317229 -0.064452544 -0.03839651
0.024188783 0.06738312 -0.037267704 -0.15350524 0.021061478 -0.057519704 -0.002470536 -0.009298656
0.0106643075 -0.15078521 -0.036637895 0.17235292 0.07181381 -0.07904867 0.09309293 0.057591967
0.07333868 -0.0043627108 -0.13546802 -0.031149436 -0.11358776 0.14320059 -0.031685513 -0.096499905
-0.0069060284 0.09624985 -0.08831818 0.08659157 0.098879695 0.023031292 -0.021372132 -0.12330713
-0.10771501 0.12715146 -0.15792625 -0.11090472 -0.14750825 0.110262424 0.18059435 0.099038385
-0.070109345 0.12297188 0.10506546 -0.095727585 -0.042338353 0.13187225 0.16157155 0.018699229
0.050036687 -0.09070757 -0.06350856 -0.15321161 -0.07988085 0.13870703 0.12338805 -0.045948856
-0.15380444 -0.012835499 0.03188961 0.04794052 -0.1024485 0.031666078 -0.15581158 -0.11759566
0.0037764418 -0.13497244 0.04809167 0.062116005 -0.010042722 0.112518325 -0.060601793 0.15252365
-0.13918191 0.06516415 0.14888063 -0.13887988 0.17325275 -0.14927925 -0.08391706 0.11336403
-0.16723968 0.111905895 0.0338478 -0.13151403 0.066568725 -0.118410565 0.073930115 -0.06622381
-0.06957006 0.13201787 0.12582754 -0.05206679 -0.060292393 -0.15226904 0.16755378 -0.05714043
-0.12604898 -0.15862611 -0.039665267 0.020043548 0.064578965 0.12705612 0.09034117 0.041996498
0.06591869 -0.16812389 -0.059760448 -0.026771208 0.13585433 0.0075927377 -0.12350154 -0.08296272
0.0477677 -0.1373729 -0.071521565 0.036378663 0.02259838 0.11313268 0.016350722 -0.14876004
-0.11009039 -0.041424245 -0.13514741 0.049583815 0.05517498 0.01807718 -0.030794704 0.14838055
-0.07969619 -0.038470175 0.0095978035 -0.099041216 0.11995464 0.104295336 0.13407262 -0.09626523
0.057059992 0.08392217 0.16288568 0.01347599 0.13692512 -0.06648575 -0.08170414 -0.04083447
-0.15742114 -0.15152153 0.031661008 -0.089030065 -0.00042441033 0.13622728 -0.11192691 0.119251154
0.15751836 -0.034756597 0.15195917 0.14186943 0.096423574 -0.014850701 0.13785526 -0.13137542
-0.116878375 -0.04279497 -0.18173619 -0.03166008 0.1110341 -0.1478901 0.031720273 -0.10337938
00000000: da6f c93d 0742 143d d388 df3d d2de 86bd
00000010: 950d 003e 7759 f1bc caa1 01be b868 193e
00000020: e21d 53bc 3799 07be 7f5d 0b3d d97b 05be
00000030: ba27 023e afb5 cf3d 782c 1abe 1e30 363d
00000040: 6246 febb 60ee b7bd 2fbe 4d3d 9aaa d33d
00000050: eb82 28be db85 cc3c b5da b63b fa0f 2a3e
00000060: 54f5 2a3e 2984 0abe 0520 71bc 233a 9b3c
00000070: bf23 9a3d b198 c3bd 3386 c23d ca24 343c
00000080: 6b5b 40bd 17c7 253e be42 35be 23c3 33bc
00000090: 5c0e 16be 40c8 b03d 5901 35be 3dd8 9dbd
000000a0: d2c1 1cbe 41ce 48bd 0f35 7abc 09d0 54bd
000000b0: f868 083d 6507 4b3d 6b47 b5bd 8b39 85bd
000000c0: e30b 163d 1e76 32be 6129 d3bc c438 1fbe
000000d0: 3b12 0fbe 4317 a7bd cf20 ec3d 789e 133e
000000e0: c2da 93bd 829a 3a3d 9553 833d 90aa a53d
000000f0: b792 2fbe 4c91 223c 7cad 743d ebac 243d
00000100: 820b 1fbd 666f 2f3e 4c15 113e f310 213e
00000110: a4c5 c3bc 5572 0fbe 3d5d eb3c dfbf 5c3d
00000120: ebbf 0bbe 4e94 44be 93ea dfbd c298 0a3e
00000130: 0892 68bd 50db 2abb 0841 06be e4e6 1ebe
00000140: d1ac 253e 2631 2c3e f609 c53c 8502 103e
00000150: d171 033d c603 bfbc b2ff 83bd a945 1dbd
00000160: 8e27 c63c 2900 8a3d 05a6 18bd 7a30 1dbe
00000170: 1f89 ac3c c899 6bbd b7e8 21bb 6459 18bc
00000180: 59b9 2e3c 7067 1abe 9e11 16bd 497d 303e
00000190: 1e13 933d 45e4 a1bd 82a7 be3d 8ee5 6b3d
000001a0: 9732 963d 12f5 8ebb 21b8 0abe 1a2d ffbc
000001b0: b3a0 e8bd 2da3 123e abc8 01bd bea1 c5bd
000001c0: f74b e2bb a41e c53d 29e0 b4bd ec56 b13d
000001d0: 7081 ca3d 1fac bc3c 9c14 afbc 7388 fcbd
000001e0: b099 dcbd fe33 023e 6bb7 21be 0422 e3bd
000001f0: 670c 17be 44d1 e13d baed 383e a3d4 ca3d
00000200: 7d95 8fbd aed8 fb3d 8f2c d73d d30c c4bd
00000210: fb6a 2dbd 8509 073e 0373 253e 202f 993c
00000220: 45f3 4c3d e4c4 b9bd c710 82bd 81e3 1cbe
00000230: 9298 a3bd 3709 0e3e e0b2 fc3d de34 3cbd
00000240: e97e 1dbe fc4b 52bc ae9e 023d 475d 443d
00000250: 85d0 d1bd 4ab4 013d 128d 1fbe fed5 f0bd
00000260: 2e7e 773b 3736 0abe c5fb 443d 5a6d 7e3d
00000270: 3b8a 24bc 0270 e63d 9639 78bd 292f 1c3e
00000280: b485 0ebe c874 853d 2a74 183e 8736 0ebe
00000290: 2b69 313e a9dc 18be b5dc abbd 672b e83d
000002a0: e140 2bbe eb2e e53d fea3 0a3d 9dab 06be
000002b0: 2f55 883d 3d81 f2bd ac68 973d 59a0 87bd
000002c0: bf7a 8ebd b12f 073e efd8 003e fd43 55bd
000002d0: 28f5 76bd 6aec 1bbe 3893 2b3e 150c 6abd
000002e0: fc12 01be e26e 22be 0c78 22bd 5e32 a43c
000002f0: fa41 843d 001b 023e cb04 b93d 8504 2c3d
00000300: 6100 873d ab28 2cbe 5fc7 74bd 4b4f dbbc
00000310: 661d 0b3e 80cc f83b 60ee fcbd 5ce8 a9bd
00000320: 10a8 433d 7bab 0cbe e679 92bd cb01 153d
00000330: 3d20 b93c 1bb2 e73d f3f1 853c 8d54 18be
00000340: 1277 e1bd 78ac 29bd 1564 0abe 6618 4b3d
00000350: 29ff 613d 9816 943c 2d45 fcbc 12f1 173e
00000360: c237 a3bd e792 1dbd 1b40 1d3c 1fd6 cabd
00000370: c7aa f53d cb98 d53d 554a 093e b426 c5bd
00000380: bdb7 693d 63df ab3d 81cb 263e 66ca 5c3c
00000390: 1936 0c3e ae29 88bd 8054 a7bd 0c42 27bd
000003a0: 0233 21be 7628 1bbe f9ae 013d 6555 b6bd
000003b0: 6483 deb9 2a7f 0b3e f039 e5bd f339 f43d
000003c0: 7e4c 213e ef5c 0ebd 2f9b 1b3e 3846 113e
000003d0: b979 c53d 5b50 73bc ee29 0d3e 4787 06be
000003e0: ee5d efbd c749 2fbd 0d19 3abe 00ae 01bd
000003f0: d965 e33d 8170 17be 1eed 013d 92b8 d3bd

emb_net.v_lins1.0.bias f4 [32]
0.17612429 0.16697617 0.14711113 0.14154841 -0.07942335 0.13798408 0.09735482 -0.08496103
-0.09684527 0.1256401 0.13161752 0.14739199 -0.109621696 0.05950084 -0.110738255 -0.15087724
0.09821639 0.10601356 -0.15928888 -0.11063584 -0.042403392 -0.1471392 -0.16338812 0.047186986
-0.031366818 -0.05153733 0.06258468 0.061000954 -0.01730379 0.0059155934 0.11799493 0.06282041
00000000: ed59 343e cdfb 2a3e 4da4 163e 11f2 103e
00000010: b6a8 a2bd b34b 0d3e f761 c73d 0c00 aebd
00000020: d056 c6bd cca7 003e bec6 063e eded 163e
00000030: 5781 e0bd 27b7 733d bdca e2bd 907f 1abe
00000040: ad25 c93d a31d d93d a01c 23be 0b95 e2bd
00000050: 2eaf 2dbd a9ab 16be 374f 27be 2447 413d
00000060: 7e7a 00bd cf18 53bd 662c 803d 23dc 793d
00000070: aec0 8dbc 98d7 c13b 53a7 f13d fda7 803d

emb_net.v_lins1.1.weight f4 [32, 32]
-0.14067051 -0.07090353 0.07482618 -0.04740291 0.04853588 -0.060291827 -0.001132044 0.034114722
-0.0733362 0.052606683 0.12505534 -0.008228502 0.0948808 0.15669979 -0.121739544 -0.030157767
0.0660373 -0.13949572 -0.082504906 -0.05824472 -0.12676813 -0.058200102 0.13038574 0.1394644
0.042799678 0.0048028724 -0.1029228 0.08069579 -0.110012464 -0.12781733 -0.12729473 -0.005697949
-0.027994767 -0.09317495 0.14294136 -0.1563386 0.09762079 -0.15336852 0.06661232 -0.08398424
0.005705085 0.0053170915 0.07652794 0.18523201 -0.025942784 0.09635112 0.099712275 -0.0982667
-0.07984249 -0.045226272 0.04814814 0.17009476 -0.004777744 -0.0924394 -0.110542424 0.07678145
0.102051996 -0.049200583 0.083832175 0.116356805 -0.030661222 0.17566642 0.015822759 0.09935242
-0.124819115 0.09975668 -0.09708672 -0.02074569 -0.12383937 0.031118916 -0.14600389 -0.09670487
-0.10075394 -0.03804804 0.16886897 0.12705645 -0.04715685 -0.08233277 -0.0013955741 -0.056796845
-0.0132481605 0.034850407 -0.021449553 -0.14310682 0.1291317 0.019227367 -0.15852602 0.122804865
-0.17384303 0.15283442 0.15498157 0.009215051 0.035324052 -0.08656069 -0.11643899 0.1301305
-0.12030602 0.08421149 0.046314586 0.08329932 0.02522659 -0.008173723 -0.008273418 -0.10136752
0.16024283 0.12694159 0.021391733 0.003403436 -0.12929463 -0.13900097 0.094029844 -0.0938916
0.011229986 -0.039432727 0.1025048 0.15830882 0.15218136 -0.04418071 0.042726867 0.021006139
0.10365242 0.029067593 -0.122549385 -0.12785235 0.12723768 -0.042913746 0.07583223 0.029673878
-0.100340955 0.03626199 0.048256617 -0.004413695 -0.16486786 -0.1620583 -0.014761047 -0.11573347
0.08825822 0.035100922 -0.0017266053 -0.15495826 0.027473615 0.10827532 0.07970863 0.07897885
0.09480554 -0.019849533 -0.1225517 0.018098172 -0.1235639 0.16063991 0.06048139 -0.059299245
-0.005624609 0.116711386 -0.03452079 -0.019951442 0.011091656 0.0060976497 0.11651902 0.059207488
-0.1584312 0.14168908 -0.14210181 -0.103076644 -0.025721692 0.037668448 -0.061541896 -0.09389339
0.0831441 -0.15848957 -0.07143944 -0.083205536 -0.038141537 0.07971268 0.05114213 -0.14035162
0.037604682 -0.17972149 0.11199823 0.08217896 0.13771446 -0.009684035 -0.07747426 -0.16108222
-0.015597673 -0.10280402 -0.15675515 0.11050522 -0.13036774 -0.074572966 0.023423195 0.09220566
-0.08948465 0.12056816 -0.052821204 0.066365525 0.0006797131 0.15270452 0.13961549 -0.11403095
-0.12348604 0.153979 -0.12268616 -0.1523073 0.14503434 -0.0925324 0.16180862 0.026540197
-0.079189666 0.01703853 0.0260485 -0.03504745 -0.14881848 0.16920495 0.0011237148 -0.18686567
0.129928 -0.06681393 0.034291565 0.07685887 -0.056903638 -0.12514415 -0.14717674 -0.059676576
0.06734847 0.023429565 -0.09382168 0.10073919 0.0005879754 -0.13227686 -0.10402381 -0.095127754
-0.14153115 -0.09389574 -0.12319534 0.047817703 0.005684079 -0.08745657 -0.19141288 0.0737975
-0.016921386 -0.0776669 0.049576662 -0.10238181 -0.13863108 -0.11161867 -0.11860977 0.011616252
0.13218048 -0.0104790265 0.14586616 -0.02525871 -0.16273695 0.11997708 0.1604635 -0.0691441
00000000: ee0b 10be df35 91bd 783e 993d 8e29 42bd
00000010: 8fcd 463d 90f4 76bd 1861 94ba e1bb 0b3d
00000020: 4a31 96bd 1b7a 573d 820e 003e d7d0 06bc
00000030: dd50 c23d e975 203e 9552 f9bd 6c0d f7bc
00000040: 903e 873d f7d7 0ebe 55f8 a8bd 0492 6ebd
00000050: 81cf 01be 3b63 6ebd d783 053e c1cf 0e3e
00000060: b74e 2f3d 6a61 9d3b 30c9 d2bd d643 a53d
00000070: 374e e1bd 8ce2 02be 8d59 02be dcb5 babb
00000080: 4855 e5bc 82d2 bebd 385f 123e 3a17 20be
00000090: 69ed c73d a30c 1dbe 0a6c 883d eeff abbd
000000a0: b9f1 ba3b ff3a ae3b aeba 9c3d 76ad 3d3e
000000b0: f685 d4bc bc53 c53d f335 cc3d 0d40 c9bd
000000c0: 7684 a3bd 2f3f 39bd fc36 453d 522d 2e3e
000000d0: 9f8e 9cbb de50 bdbd 1164 e2bd 983f 9d3d
000000e0: a300 d13d 8d86 49bd 34b0 ab3d 7a4c ee3d
000000f0: 3e2d fbbc e6e1 333e bb9e 813c 4879 cb3d
00000100: 2aa1 ffbd 3b4d cc3d 67d5 c6bd def2 a9bc
00000110: 7f9f fdbd 19ed fe3c 0b82 15be 340d c6bd
00000120: 1558 cebd 43d8 1bbd fdeb 2c3e 161b 023e
00000130: 8b27 41bd 159e a8bd b2eb b6ba cfa3 68bd
00000140: d00e 59bc 4dbf 0e3d f9b6 afbc 988a 12be
00000150: 1a3b 043e b682 9d3c a554 22be 1e81 fb3d
00000160: e803 32be a080 1c3e 7db3 1e3e bafa 163c
00000170: f4af 103d bb46 b1bd 9177 eebd ee40 053e
00000180: 0163 f6bd 1377 ac3d 5db4 3d3d d598 aa3d
00000190: fea7 ce3c 14eb 05bc 3b8d 07bc c699 cfbd
000001a0: b216 243e fafc 013e b73d af3c 2e0c 5f3b
000001b0: d065 04be 4556 0ebe b892 c03d 3d4a c0bd
000001c0: fafd 373c 3684 21bd 09ee d13d b51b 223e
000001d0: 6ed5 1b3e d5f6 34bd 5e02 2f3d 1115 ac3c
000001e0: b847 d43d 291f ee3c 2cfb fabd baeb 02be
000001f0: 984a 023e 53c6 2fbd ee4d 9b3d a216 f33c
00000200: 8f7f cdbd 7487 143d bba8 453d c2a0 90bb
00000210: 1fd3 28be 9cf2 25be 52d8 71bc ab05 edbd
00000220: bac0 b43d fcc5 0f3d 434f e2ba 61ad 1ebe
00000230: 5910 e13c 73bf dd3d 473e a33d aabf a13d
00000240: 6829 c23d 7d9b a2bc 63fc fabd 9e42 943c
00000250: 120f fdbd ca7e 243e 56bb 773d c4e3 72bd
00000260: a44e b8bb 6106 ef3d ac65 0dbd 3571 a3bc
00000270: c7b9 353c cbce c73b 86a1 ee3d 8d83 723d
00000280: ca3b 22be f116 113e 2383 11be d919 d3bd
00000290: 4cb6 d2bc 3b4a 1a3d 5b13 7cbd 2d4b c0bd
000002a0: 7447 aa3d 174b 22be d74e 92bd aa67 aabd
000002b0: 4d3a 1cbd 6740 a33d 697a 513d 56b8 0fbe
000002c0: 5e07 1a3d e908 38be 545f e53d 714d a83d
000002d0: 0505 0d3e c9a9 1ebc d3aa 9ebd bdf2 24be
000002e0: 628d 7fbc ea8a d2bd 6c84 20be 9050 e23d
000002f0: 1f7f 05be b6b9 98bd 00e2 bf3c 52d6 bc3d
00000300: ba43 b7bd 71ec f63d 0c5b 58bd a6ea 873d
00000310: c62e 323a 935e 1c3e 5df7 0e3e 0f89 e9bd
00000320: 40e6 fcbd acac 1d3e e242 fbbd 72f6 1bbe
00000330: e283 143e a081 bdbd 29b1 253e d46a d93c
00000340: 312e a2bd 6394 8b3c aa63 d53c ea8d 0fbd
00000350: df63 18be 1044 2d3e 9d49 933a b759 3fbe
00000360: d80b 053e bed5 88bd 5075 0c3d 2f68 9d3d
00000370: ca13 69bd ca25 00be 80b5 16be 6d6f 74bd
00000380: ffed 893d 5cef bf3c 9525 c0bd 5950 ce3d
00000390: 5c22 1a3a 9673 07be 6f0a d5bd 57d2 c2bd
000003a0: 8bed 10be 694c c0bd d74d fcbd 7fdc 433d
000003b0: 8341 ba3b 6e1c b3bd bd01 44be 2523 973d
000003c0: b89e 8abc d30f 9fbd e610 4b3d 8ead d1bd
000003d0: 4ef5 0dbe 5498 e4bd aee9 f2bd 1852 3e3c
000003e0: 525a 073e 39b0 2bbc f05d 153e 5beb cebc
000003f0: 84a4 26be 8bb6 f53d 8b50 243e 6c9b 8dbd

emb_net.v_lins1.1.bias f4 [32]
0.12767623 -0.14843974 -0.06616131 -0.083155915 -0.18227683 -0.15295048 0.10924242 0.121768445
-0.16448395 0.01224325 -0.14855805 -0.11474201 0.10721709 0.08370662 0.0961478 -0.05904038
0.028384896 0.03646529 -0.17648093 0.068236895 -0.08720847 0.045616448 -0.07933495 0.15218513
0.041837394 -0.11603519 0.10932398 -0.14972323 0.0005431343 -0.07988075 -0.016820416 0.07458113
00000000: 8fbd 023e 9600 18be 957f 87bd a64d aabd
00000010: c7a6 3abe 0d9f 1cbe 7dba df3d bc61 f93d
00000020: 7b6e 28be ea97 483c 9a1f 18be dcfd eabd
00000030: a294 db3d 606e ab3d 23e9 c43d 53d4 71bd
00000040: 7187 e83c a15c 153d 6bb7 34be c9bf 8b3d
00000050: 5b9a b2bd 50d8 3a3d 5d7a a2bd 6bd6 1b3e
00000060: b05d 2b3d dca3 edbd 40e5 df3d 0c51 19be
00000070: 2061 0e3a 8598 a3bd f8ca 89bc febd 983d

emb_net.v_lins1.2.weight f4 [32, 32]
-0.05717883 0.06689475 0.006635019 -0.060254566 -0.008905742 0.15607046 -0.044246778 -0.15813367
0.0013913624 -0.0032305017 0.089621 0.07518446 0.17733786 -0.10889856 -0.08104852 0.16575235
0.020818368 -0.13586116 0.07955018 0.09441071 0.07905241 0.124733835 0.03346767 -0.060401086
-0.1314216 -0.0713671 0.05992734 -0.1464913 -0.0984232 0.12642337 0.16032375 0.12970597
-0.030056493 -0.14215225 -0.015660763 0.15986311 -0.17341807 0.078939125 0.17647384 0.043212984
0.13555506 0.11686813 -0.14118434 0.007429732 0.16318649 -0.15371054 -0.086418204 -0.04764769
-0.13272735 0.12290716 0.043767687 0.086953685 0.05295439 0.17273223 0.0034401012 -0.12469472
0.098906234 0.060334396 0.10750905 -0.035794128 -0.13511248 -0.012099506 -0.086134695 -0.04347562
0.14916071 -0.16118483 -0.06823874 0.06706422 0.066708386 -0.080759704 0.06418232 -0.14534232
0.09386333 0.08285318 0.13009548 -0.033358954 -0.18329638 -0.13132004 -0.11639713 -0.070698835
0.048094556 0.06924188 0.046588548 0.042616945 -0.099045545 -0.06316774 -0.13864757 -0.041341085
-0.06949718 -0.08502861 -0.16006798 -0.14468975 0.04869446 -0.04185874 -0.06983921 0.13194075
-0.093180366 0.1106185 0.07951371 -0.1561003 -0.10520096 -0.05418769 0.13936867 -0.081917
0.1525291 -0.021734167 -0.07222972 0.012999322 -0.068702854 -0.034379084 0.064427786 -0.082279876
0.036682855 -0.17573132 -0.14671074 -0.13384414 -0.097992636 0.044064283 -0.105070315 -0.089412354
-0.1085022 0.07485482 -0.022555709 -0.077572405 -0.08505886 0.06408776 -0.071023844 -0.05534783
-0.0030973337 -0.13910298 0.03776258 0.14267783 0.13194993 -0.13334076 0.03123472 0.03831561
0.0052387137 0.074161276 0.16295096 -0.05897219 0.011913018 -0.17167296 -0.034630373 -0.107601225
-0.09060434 -0.011438626 0.06929473 -0.088407904 -0.07448096 -0.060901433 0.024967892 -0.024231404
-0.0060626753 0.13653937 -0.10238242 0.053626835 0.14846948 -0.11929542 0.06793983 -0.10507641
0.03451511 0.0011260709 -0.10484415 -0.10711877 -0.11472265 -0.078058206 0.09575101 -0.046018835
0.061067104 -0.1382327 -0.06232055 0.045120187 -0.1371668 0.10102035 0.04222907 -0.010013651
0.07971441 0.01813928 -0.13542177 0.068024665 0.123841524 0.09440151 -0.1373356 -0.15422681
0.07784874 0.06479349 0.07775643 0.054549042 -0.14082937 -0.11497395 -0.0049943198 -0.02516945
0.014850316 0.1441438 -0.022653047 -0.04289872 0.098300636 -0.15556791 -0.13537313 -0.09007858
0.11156691 0.029861536 0.010773129 -0.114211954 -0.03476535 0.07146654 -0.17252369 -0.13695885
0.07401601 -0.014079174 -0.09722778 0.07188755 -0.062435128 0.15380445 -0.051103637 -0.1374897
-0.031139856 -0.09883957 -0.016706398 0.03119165 -0.041298218 -0.06573963 0.019894624 -0.14053084
-0.17004882 -0.16088378 0.17887115 0.15430994 0.039025746 0.08085176 0.15346353 0.1562467
0.014728727 -0.14618628 -0.10676469 0.14632456 -0.13437746 0.18149173 0.13838255 0.14802817
-0.13798763 -0.040360563 0.0010940074 -0.14678979 -0.11898732 0.13176501 0.103933044 0.11411695
0.1368748 0.09139425 0.1486175 0.017149448 0.09957562 -0.029608088 0.15661098 -0.0038868422
00000000: 5934 6abd 1d00 893d 936a d93b 7ecd 76bd
00000010: 64e9 11bc efd0 1f3e 1c3c 35bd cbed 21be
00000020: 605e b63a d3b6 53bb 378b b73d 4ffa 993d
00000030: 0e98 353e 3506 dfbd c4fc a5bd fcba 293e
00000040: 488b aa3c 301f 0bbe 34eb a23d 675a c13d
00000050: 3be6 a13d 7474 ff3d 6515 093d 2167 77bd
00000060: 6293 06be ea28 92bd 5f76 753d d101 16be
00000070: 1a92 c9bd 2175 013e e92b 243e a4d1 043e
00000080: 0939 f6bc 5c90 11be 004b 80bc 28b3 233e
00000090: 8294 31be d6aa a13d 8fb5 343e 1900 313d
000000a0: f2ce 0a3e 8f58 ef3d a192 10be 1c75 f33b
000000b0: 5c1a 273e 4c66 1dbe 07fc b0bd 392a 43bd
000000c0: aee9 07be c0b6 fb3d bf45 333d c614 b23d
000000d0: b4e6 583d b8e0 303e 5273 613b f25f ffbd
000000e0: 5a8f ca3d 3321 773d b42d dc3d dd9c 12bd
000000f0: ed5a 0abe 023d 46bc 6367 b0bd 7e13 32bd
00000100: 96bd 183e a30d 25be c1c0 8bbd f758 893d
00000110: 689e 883d 5865 a5bd 0572 833d 9ed4 14be
00000120: 6b3b c03d eeae a93d c037 053e 66a3 08bd
00000130: 0cb2 3bbe c378 06be 9e61 eebd 8dca 90bd
00000140: ccfe 443d b0ce 8d3d a2d3 3e3d 1b8f 2e3d
00000150: 64d8 cabd 175e 81bd a1f9 0dbe 4555 29bd
00000160: 8a54 8ebd 7b23 aebd dce8 23be 8d29 14be
00000170: d873 473d 1274 2bbd dc07 8fbd 7a1b 073e
00000180: 59d5 bebd f48b e23d 16d8 a23d c2d8 1fbe
00000190: 9a73 d7bd e9f3 5dbd a9b6 0e3e 1ac4 a7bd
000001a0: 9730 1c3e da0b b2bc 2ded 93bd 1cfb 543c
000001b0: 15b4 8cbd 15d1 0cbd b7f2 833d 5a82 a8bd
000001c0: c340 163d e9f2 33be 573b 16be 700e 09be
000001d0: 5db0 c8bd c07c 343d 1b2f d7bd d31d b7bd
000001e0: 6736 debd 7c4d 993d c0c6 b8bc 48de 9ebd
000001f0: 5733 aebd 7240 833d f374 91bd 68b4 62bd
00000200: a3fc 4abb 0371 0ebe efac 1a3d 231a 123e
00000210: e21d 073e 7b8a 08be f5df ff3c d4f0 1c3d
00000220: 84a9 ab3b dee1 973d 9edc 263e d38c 71bd
00000230: d22e 433c 09cb 2fbe 94d8 0dbd 085e dcbd
00000240: c58e b9bd 1369 3bbc 65ea 8d3d 340f b5bd
00000250: 7989 98bd c873 79bd 7789 cc3c f080 c6bc
00000260: 68a9 c6bb fad0 0b3e e0ad d1bd d0a7 5b3d
00000270: 6208 183e 2851 f4bd 0a24 8b3d 4d32 d7bd
00000280: b75f 0d3d ab98 933a 88b8 d6bd 1661 dbbd
00000290: b5f3 eabd fbdc 9fbd 1b19 c43d 3f7e 3cbd
000002a0: 8021 7a3d df8c 0dbe d543 7fbd f2cf 383d
000002b0: 7475 0cbe c2e3 ce3d 64f8 2c3d 4c10 24bc
000002c0: 4f41 a33d d498 943c 01ac 0abe 8450 8b3d
000002d0: a0a0 fd3d 9455 c13d b4a1 0cbe a2ed 1dbe
000002e0: 296f 9f3d 73b2 843d c33e 9f3d d16e 5f3d
000002f0: 9335 10be 7677 ebbd 64a7 a3bb 2a30 cebc
00000300: bd4e 733c 6f9a 133e e292 b9bc 91b6 2fbd
00000310: d851 c93d 324d 1fbe 419f 0abe 1e7b b8bd
00000320: 317d e43d 2ea0 f43c c781 303c f5e7 e9bd
00000330: 1d66 0ebd 0d5d 923d 0daa 30be f13e 0cbe
00000340: b595 973d 56ac 66bc 5c1f c7bd c839 933d
00000350: fabb 7fbd ea7e 1d3e 0c52 51bd 1aca 0cbe
00000360: 0319 ffbc 676c cabd dbdb 88bc a285 ff3c
00000370: 5228 29bd 80a2 86bd 0dfa a23c 51e7 0fbe
00000380: 4721 2ebe b8be 24be 002a 373e 6d03 1e3e
00000390: 76d9 1f3d 9c95 a53d 8b25 1d3e 23ff 1f3e
000003a0: c250 713c dbb1 15be 72a7 dabd 1bd6 153e
000003b0: 3f9a 09be f8d8 393e 28b4 0d3e b294 173e
000003c0: a14c 0dbe 1e51 25bd cc64 8f3a 1050 16be
000003d0: a0af f3bd 68ed 063e d9da d43d 26b6 e93d
000003e0: e828 0c3e e92c bb3d 302f 183e 007d 8c3c
000003f0: 4dee cb3d a98c f2bc a15e 203e 64ba 7ebb

emb_net.v_lins1.2.bias f4 [32]
0.042189617 0.1110266 -0.061537065 0.10632627 0.10427126 -0.035098437 0.15451956 -0.13767217
-0.01245225 -0.021115422 0.16646682 -0.017946916 -0.02875838 0.07607237 -0.11686012 -0.1518561
-0.14299525 -0.0947081 -0.14202793 0.1311169 -0.14081988 0.10019451 0.17554976 -0.13376853
-0.1656818 0.09606768 -0.08550678 0.011697307 -0.042735368 0.07537071 -0.007952771 0.01676199
00000000: 05cf 2c3d ea61 e33d 4a0e 7cbd 96c1 d93d
00000010: 2c8c d53d 61c3 0fbd 603a 1e3e eff9 0cbe
00000020: 8604 4cbc 40fa acbc 4776 2a3e 6905 93bc
00000030: b296 ebbc d5cb 9b3d 5c54 efbd 2a80 1bbe
00000040: 596d 12be 52f6 c1bd c56f 11be 8243 063e
00000050: 1633 10be c732 cd3d 51c3 333e 9efa 08be
00000060: 7da8 29be 22bf c43d 2e1e afbd 10a6 3f3c
00000070: 480b 2fbd f55b 9a3d 574c 02bc 7150 893c

emb_net.v_lins1.3.weight f4 [32, 32]
-0.07313119 0.12769444 0.10588703 -0.17722051 0.031589717 0.1270687 -0.07719553 0.045191877
-0.11194516 0.022885986 0.0048586195 0.13916895 -0.1516442 -0.16613464 -0.018313436 -0.065836675
-0.029884597 0.030084757 -0.06772829 0.03629769 -0.12420897 -0.1535246 0.15620165 0.13164677
0.025723258 -0.11805859 0.17489882 -0.010865504 -0.004184338 0.16363901 0.12651497 -0.14337038
0.17971727 0.11103156 -0.15719217 -0.16996413 -0.0946509 -0.04927479 -0.13040435 0.0036298938
-0.06002482 0.03368047 0.0021164753 0.083308294 -0.13503872 -0.111203864 -0.057044383 0.08745834
-0.16081098 -0.05714627 0.08262241 0.16822644 0.1297199 0.1649892 -0.07034373 0.14670007
0.00924186 -0.15584937 0.18166555 -0.026697889 0.05174511 0.15447229 -0.111677915 -0.14491358
-0.09636004 0.100309394 0.11357737 0.15222897 0.0068931365 0.03850899 -0.11508328 -0.009937597
0.008709535 -0.13966669 -0.055402517 0.14803874 -0.07252374 -0.16145718 0.054259323 -0.15334696
-0.16910797 0.12156107 -0.035860516 0.09229797 -0.16082026 0.1577524 -0.12241412 -0.16322766
-0.09760592 0.1622509 0.13502787 -0.1629906 0.014355592 -0.027650205 -0.08444052 0.17170711
0.038605448 0.07017479 0.1601628 0.03344297 0.12783031 -0.026938215 0.042816382 -0.054134354
-0.11050473 0.064512 -0.15818478 -0.07480803 -0.00885946 -0.040039636 -0.02415789 -0.011745629
-0.037517764 -0.15608653 -0.17360713 0.16877282 -0.045452803 0.07289418 -0.15896702 -0.080194
-0.07958659 0.1456675 0.09009535 0.1638825 0.1521142 0.07161084 0.10757626 0.15721743
0.14827503 -0.002370505 -0.06533206 0.020656243 -0.076285705 0.10156463 0.05155281 0.05247785
0.033297136 0.10879059 0.03465115 0.13219552 0.09114994 0.15169531 0.053987645 0.02553655
-0.13385028 -0.047939558 0.12808987 0.0055295094 0.0944322 0.14355022 0.090367906 -0.004221375
0.0035430046 0.13119343 0.03065827 0.00024340031 -0.10047835 0.10276298 -0.17572784 -0.069878474
0.052669533 -0.104383536 -0.067306146 -0.02473332 -0.03498785 -0.17545614 -0.007711073 0.021366185
-0.06576412 0.05088791 -0.12484648 -0.11074953 -0.06599878 0.04346993 -0.15591256 -0.08513643
-0.010255024 -0.17308547 -0.0103113325 0.09352032 -0.039500214 0.06684268 0.017685553 0.09695052
0.08815313 0.08503769 -0.05157667 0.14836517 -0.072367854 0.06510582 -0.15098034 -0.020937439
0.15235409 0.13389419 -0.12705049 -0.082884215 0.16040073 -0.1499516 -0.030880738 -0.07467059
-0.16906485 0.046903513 0.012227203 -0.07210768 -0.1078463 0.1904778 -0.13215473 0.14445147
0.03868401 -0.109221876 -0.16303577 -0.13464156 -0.10061748 -0.115916565 -0.15492009 -0.02924882
0.07199608 -0.11959862 0.065898456 -0.07013458 0.10394614 0.035025917 -0.034121435 -0.13558769
0.097156525 0.12540294 0.08626286 -0.18891451 -0.07684951 -0.09144979 -0.0182428 -0.003682389
-0.010997513 -0.103233166 0.108862065 0.09993777 0.09115525 -0.14632215 -0.016252965 0.11586828
0.05023934 -0.12705417 0.12996712 -0.17163683 -0.094027504 0.047981143 0.10070496 -0.09629447
0.02154008 0.11969593 -0.123959176 0.14184074 0.15476134 -0.06975407 0.009905812 -0.05536074
00000000: cec5 95bd 55c2 023e 4ddb d83d 4b79 35be
00000010: 3864 013d 4c1e 023e b118 9ebd 1e1b 393d
00000020: 8143 e5bd 647b bb3c 0e35 9f3b 4e82 0e3e
00000030: 9e48 1bbe 331f 2abe 0f06 96bc 61d5 86bd
00000040: 8bd0 f4bc 4f74 f63c 21b5 8abd e3ac 143d
00000050: 4661 febd 8e35 1dbe 53f3 1f3e 69ce 063e
00000060: 95b9 d23c b4c8 f1bd ad18 333e 3a05 32bc
00000070: c51c 89bb fc90 273e 248d 013e afcf 12be
00000080: ce07 383e 8464 e33d fcf6 20be 140b 2ebe
00000090: 55d8 c1bd 5dd4 49bd b888 05be 83e3 6d3b
000000a0: 96dc 75bd 88f4 093d 90b4 0a3b 8a9d aa3d
000000b0: 9747 0abe dabe e3bd 5fa7 69bd 5c1d b33d
000000c0: a2ab 24be 3512 6abd f035 a93d 8d43 2c3e
000000d0: 4bd5 043e eef2 283e 6010 90bd 8b38 163e
000000e0: 2c6b 173c fa96 1fbe 8906 3a3e 88b5 dabc
000000f0: aef2 533d fc2d 1e3e 64b7 e4bd 3a64 14be
00000100: 6a58 c5bd 036f cd3d 419b e83d e9e1 1b3e
00000110: d2df e13b 9abb 1d3d c8b0 ebbd 4ed1 22bc
00000120: 70b2 0e3c c904 0fbe c0ed 62bd 7897 173e
00000130: 5487 94bd 0855 25be 063f 5e3d fc06 1dbe
00000140: a42a 2dbe 03f5 f83d 7ae2 12bd b806 bd3d
00000150: 11ae 24be d889 213e 41b4 fabd 2725 27be
00000160: 9de5 c7bd 1a25 263e bf44 0a3e 02e7 26be
00000170: b833 6b3c af82 e2bc 27ef acbd fdd3 2f3e
00000180: bf20 1e3d cdb7 8f3d b801 243e 7ffb 083d
00000190: f3e5 023e 88ad dcbc 3b60 2f3d fcbb 5dbd
000001a0: 4e50 e2bd de1e 843d 31fb 21be f434 99bd
000001b0: 4527 11bc 9a00 24bd c4e6 c5bc bd70 40bc
000001c0: 3aac 19bd 26d5 1fbe 11c6 31be c8d2 2c3e
000001d0: b82c 3abd 8b49 953d 40c8 22be c03c a4bd
000001e0: 4bfe a2bd dc29 153e e983 b83d d0d0 273e
000001f0: d3c3 1b3e b4a8 923d f150 dc3d 9bfd 203e
00000200: 69d5 173e 795a 1bbb d1cc 85bd 4837 a93c
00000210: ae3b 9cbd 1e01 d03d 0a29 533d 04f3 563d
00000220: 9462 083d 9acd de3d 5dee 0d3d 435e 073e
00000230: d2ac ba3d 0456 1b3e 2622 5d3d 0732 d13c
00000240: 0c10 09be 455c 44bd fe29 033e e330 b53b
00000250: ab65 c13d d4fe 123e cf12 b93d 7653 8abb
00000260: c131 683b 9257 063e 0d27 fb3c 4639 7f39
00000270: 98c7 cdbd 6675 d23d 00f2 33be 721c 8fbd
00000280: 02bc 573d 09c7 d5bd ced7 89bd 889d cabc
00000290: 6b4f 0fbd c6aa 33be 2bad fcbb 2308 af3c
000002a0: 57af 86bd d76f 503d 83af ffbd a6d0 e2bd
000002b0: 5e2a 87bd 860d 323d 8ba7 1fbe 025c aebd
000002c0: b004 28bc 513d 31be ddf0 28bc 9587 bf3d
000002d0: faca 21bd d1e4 883d 4be1 903c ff8d c63d
000002e0: a189 b43d 3e28 ae3d 0f42 53bd 0aed 173e
000002f0: 9935 94bd 3356 853d 979a 1abe fe84 abbc
00000300: b602 1c3e 8f1b 093e 8619 02be 33bf a9bd
00000310: 1740 243e ea8c 19be 9af9 fcbc e5ec 98bd
00000320: 561f 2dbe e61d 403d 9b54 483c 31ad 93bd
00000330: 85de dcbd 9d0c 433e 9253 07be 16eb 133e
00000340: 2073 1e3d b8af dfbd d9f2 26be 7adf 09be
00000350: 8a10 cebd aa65 edbd 5fa3 1ebe 399b efbc
00000360: ae72 933d 1ff0 f4bd c5f5 863d b8a2 8fbd
00000370: b7e1 d43d 5677 0f3d ebc2 0bbd 80d7 0abe
00000380: 00fa c63d a169 003e 95aa b03d ce72 41be
00000390: 4763 9dbd 074a bbbd ed71 95bc 3c54 71bb
000003a0: ea2e 34bc e96b d3bd 13f3 de3d 2cac cc3d
000003b0: 9baf ba3d 79d5 15be f024 85bc 594c ed3d
000003c0: c4c7 4d3d 7d1a 02be 1a16 053e 91c1 2fbe
000003d0: 7e91 c0bd e087 443d 673e ce3d 0936 c5bd
000003e0: d274 b03c 2423 f53d 4fde fdbd b33e 113e
000003f0: c279 1e3e 39db 8ebd fd4b 223c f1c1 62bd

emb_net.v_lins1.3.bias f4 [32]
-0.044548023 -0.10997097 -0.08547465 -0.16080748 -0.026678005 -0.069486454 0.12630066 0.09788359
-0.124806054 0.12716492 -0.056871444 -0.04697328 -0.080085136 -0.16807543 -0.054882966 -0.016511304
0.009100893 -0.15693364 0.039152734 -0.004118307 -0.08477116 0.03484286 0.09053714 -0.02301473
0.08325322 0.122375414 0.12390569 -0.015090746 0.12431835 0.14269383 0.107887976 -0.08453002
00000000: fd77 36bd 7638 e1bd 550d afbd b7aa 24be
00000010: d58b dabc ea4e 8ebd f654 013e 3177 c83d
00000020: 519a ffbd 8537 023e 08f2 68bd 0e67 40bd
00000030: ad03 a4bd f71b 2cbe f6cc 60bd b742 87bc
00000040: e91b 153c 36b3 20be 9e5e 203d ddf2 86bb
00000050: 809c adbd 63b7 0e3d 896b b93d 6389 bcbc
00000060: aa80 aa3d f69f fa3d 44c2 fd3d 2d3f 77bc
00000070: 9e9a fe3d 551e 123e 5ff4 dc3d 131e adbd

emb_net.v_lins1.4.weight f4 [32, 32]
-0.018247196 0.13323909 -0.10824885 0.11636214 -0.041114777 0.16649951 0.09376264 0.07416024
-0.060783118 -0.14842975 -0.108269624 0.08281353 -0.013723291 -0.057429403 -0.15532815 -0.059181906
-0.051312394 -0.14682633 -0.043902513 0.11255688 0.010632268 0.08912873 0.097884946 0.04447613
-0.103017405 -0.13681488 0.13451701 -0.10198535 -0.07574059 0.10180823 0.0008744845 0.12977943
0.030431136 0.0123908445 0.06128124 0.13443623 -0.03652788 0.085508466 -0.021757865 -0.12663083
-0.16458604 -0.027579017 0.14518552 -0.15704995 -0.10009032 -0.012534054 0.040447567 -0.05072944
0.019088838 0.10571347 0.0873803 -0.03780387 -0.12685208 -0.014172582 0.0097907055 -0.08452282
-0.013765382 -0.09865525 0.040341996 0.009729972 -0.010585958 0.057507228 -0.0860261 -0.13174887
-0.11095758 -0.08995181 0.10460861 0.13677531 -0.1761866 0.02125696 -0.023340588 -0.0997449
-0.0756265 0.1188471 -0.0669275 0.028160293 -0.07250274 0.1275218 0.08305641 0.0017772628
-0.12753467 -0.12969753 -0.086632244 0.15565379 0.11440508 -0.015015593 -0.007899529 -0.038862865
-0.010996564 0.13718812 0.087899424 -0.1834978 0.017959338 0.018626163 0.067331694 0.117875665
0.13864473 0.07715446 -0.13830964 -0.14668448 0.08458968 -0.15598969 -0.17264523 -0.15899149
0.067789905 0.12023494 -0.04873499 0.06555424 -0.016909704 -0.18032795 0.18014412 -0.05826741
0.06859374 0.044948746 -0.038956482 0.03453212 -0.13614823 -0.16587737 0.16564086 -0.12211109
-0.031122142 0.1307329 -0.08636665 0.11352923 -0.14184073 -0.121342525 0.03738504 -0.17014872
0.008529524 -0.18418054 -0.01891426 -0.09816907 -0.14922032 0.021167533 -0.11934064 0.0069129867
0.06645772 -0.02748343 -0.11333818 -0.106851436 -0.018561698 0.05633529 -0.13646908 0.008656513
-0.08154519 0.013377873 0.07487898 0.043259196 -0.13343367 -0.10773818 -0.16101573 0.15619744
-0.041834623 -0.038500056 -0.054528967 -0.011120399 -0.112177536 0.06789182 0.12684289 0.04753419
-0.08258204 -0.12104272 0.113014236 0.10399533 0.06063162 -0.13257846 0.10093668 -0.11753478
0.09819408 0.09013286 -0.019591259 0.17075093 0.10876682 -0.17226869 -0.03985193 -0.08002073
-0.07070214 0.11344136 0.026695378 -0.11197509 -0.073328696 0.0026187194 -0.0919515 0.1403206
-0.17111968 -0.15822117 -0.16557865 0.11173751 -0.07300067 -0.060715664 -0.05864469 -0.0026155377
-0.13488959 -0.06912555 0.019575208 -0.018277965 0.046427853 -0.14006212 -0.12873152 -0.18970187
0.08705928 0.037784964 0.04460794 -0.03719978 0.14564872 -0.074342944 0.0049197813 -0.14412995
0.07566597 -0.093751624 -0.018591547 0.10597558 0.113976054 0.10452135 0.057753216 0.16368803
-0.06233071 -0.1688226 0.145378 0.060608163 -0.1374625 -0.04745944 -0.103254616 -0.03253043
0.19508609 -0.112012915 0.12095976 0.09102578 0.13069725 -0.14918807 -0.06858419 -0.030745598
-0.095079914 0.04815069 0.09327975 4.6780628e-05 0.056327347 0.07866644 -0.14721484 -0.11551762
-0.09483263 -0.15258071 -0.121261895 0.06949851 0.00045445908 0.09839109 0.092887886 -0.12808461
-0.09693888 -0.017746555 0.0738382 0.17294966 -0.05572889 0.025916176 0.118175514 -0.07131099
00000000: 257b 95bc d46f 083e 93b1 ddbd 464f ee3d
00000010: f867 28bd d97e 2a3e a106 c03d 53e1 973d
00000020: b8f7 78bd f8fd 17be 77bc ddbd 249a a93d
00000030: a8d7 60bc 183b 6bbd 580e 1fbe ba68 72bd
00000040: f22c 52bd a459 16be 1fd3 33bd 3984 e63d
00000050: f732 2e3c 2089 b63d e777 c83d 9a2c 363d
00000060: cafa d2bd 3319 0cbe d4be 093e b2dd d0bd
00000070: e21d 9bbd d580 d03d a93d 653a e6e4 043e
00000080: b84a f93c f802 4b3c 0a02 7b3d a7a9 093e
00000090: 429e 15bd 101f af3d 8d3d b2bc 83ab 01be
000000a0: 3e89 28be 64ed e1bc 83ab 143e b4d1 20be
000000b0: 27fc ccbd a25b 4dbc 59ac 253d acc9 4fbd
000000c0: 3260 9c3c 4e80 d83d 71f4 b23d 3bd8 1abd
000000d0: 83e5 01be 1e34 68bc 3269 203c 4d1a adbd
000000e0: 3288 61bc c40b cabd a63d 253d 766a 1f3c
000000f0: ba70 2dbc b38c 6b3d 742e b0bd 2de9 06be
00000100: ba3d e3bd a838 b8bd 0a3d d63d d40e 0c3e
00000110: 436a 34be 1423 ae3c c334 bfbc 0e47 ccbd
00000120: 11e2 9abd 1c66 f33d 4911 89bd 6ab0 e63c
00000130: 517c 94bd 1395 023e 7b19 aa3d 0bf3 e83a
00000140: 7398 02be 6ecf 04be 3f6c b1bd b563 1f3e
00000150: 364d ea3d f603 76bc 076d 01bc ab2e 1fbd
00000160: ef2a 34bc 0b7b 0c3e 9d04 b43d d9e6 3bbe
00000170: 761f 933c e595 983c 33e5 893d cc68 f13d
00000180: e2f8 0d3e 2803 9e3d 0ba1 0dbe 7534 16be
00000190: 5b3d ad3d c3bb 1fbe e9c9 30be aace 22be
000001a0: 6fd5 8a3d bc3d f63d 579e 47bd 4d41 863d
000001b0: 3886 8abc e4a7 38be b377 383e cfa9 6ebd
000001c0: e07a 8c3d 2d1c 383d d590 1fbd 8d71 0d3d
000001d0: 716a 0bbe c2db 29be c29d 293e 6115 fabd
000001e0: ddf3 febc d8de 053e 00e1 b0bd 0382 e83d
000001f0: b23e 11be 6e82 f8bd 0e21 193d 773b 2ebe
00000200: 6bbf 0b3c d399 3cbe 14f2 9abc de0c c9bd
00000210: 36cd 18be 8967 ad3c de68 f4bd 5686 e23b
00000220: fc1a 883d ee24 e1bc d91d e8bd edd4 dabd
00000230: b40e 98bc d5bf 663d 8dbe 0bbe 0cd4 0d3c
00000240: 2a01 a7bd de2e 5b3c 275a 993d 8e30 313d
00000250: d6a2 08be d6a5 dcbd 4fe1 24be 39f2 1f3e
00000260: c85a 2bbd 3cb2 1dbd c459 5fbd 5632 36bc
00000270: 56bd e5bd de0a 8b3d 1ae3 013e 36b3 423d
00000280: c620 a9bd 3fe5 f7bd 0274 e73d 81fb d43d
00000290: dd58 783d a6c2 07be e4b7 ce3d 13b6 f0bd
000002a0: fa19 c93d 9497 b83d d97d a0bc 55d9 2e3e
000002b0: 23c1 de3d 3467 30be c73b 23bd e9e1 a3bd
000002c0: 49cc 90bd f253 e83d 44b0 da3c 3253 e5bd
000002d0: 5b2d 96bd d29e 2b3b 1151 bcbd 34b0 0f3e
000002e0: ff39 2fbe bb04 22be 738d 29be a3d6 e43d
000002f0: 6081 95bd fdb0 78bd 6a35 70bd 7169 2bbb
00000300: 7f20 0abe b291 8dbd 305c a03c acbb 95bc
00000310: 222b 3e3d 726c 0fbe 32d2 03be 3541 42be
00000320: 234c b23d 68c4 1a3d d1b6 363d cc5e 18bd
00000330: f024 153e 1d41 98bd 1e36 a13b cd96 13be
00000340: c3f6 9a3d da00 c0bd 4d4d 98bc ba09 d93d
00000350: 476c e93d 4a0f d63d a38e 6c3d d69d 273e
00000360: 7d4e 7fbd d5df 2cbe f8dd 143e 4440 783d
00000370: f8c2 0cbe d464 42bd 2877 d3bd a13e 05bd
00000380: a6c4 473e 0767 e5bd c0b9 f73d b96b ba3d
00000390: 80d5 053e c2c4 18be de75 8cbd 31de fbbc
000003a0: 42b9 c2bd a839 453d 7409 bf3d 5136 4438
000003b0: 81b7 663d df1b a13d 7dbf 16be 8194 ecbd
000003c0: 9c37 c2bd 1e3e 1cbe 2858 f8bd 3c55 8e3d
000003d0: 7744 ee39 4581 c93d 013c be3d 9d28 03be
000003e0: e487 c6bd 3961 91bc 7b38 973d b719 313e
000003f0: fa43 64bd 294e d43c 0106 f23d 7f0b 92bd

emb_net.v_lins1.4.bias f4 [32]
-0.16687378 0.06634109 -0.17077307 -0.16177167 -0.1257585 0.00059179263 -0.05097249 0.035082173
-0.1646854 -0.15120311 -0.17733721 -0.14877805 -0.12857862 0.012150758 0.086798765 -0.091013044
-0.11113322 0.010329022 0.14033544 0.061791185 0.13496773 0.17345254 0.16458519 -0.15283404
-0.15339172 0.16570559 0.15820083 0.018781098 0.139799 0.112016305 0.11629371 0.15510112
00000000: f6e0 2abe d6dd 873d 23df 2ebe 79a7 25be
00000010: d6c6 00be 8822 1b3a 88c8 50bd 53b2 0f3d
00000020: 4aa3 28be fdd4 1abe e397 35be 4659 18be
00000030: 1daa 03be f913 473c 8dc3 b13d 0c65 babd
00000040: d099 e3bd 0f3b 293c 18b4 0f3e c118 7d3d
00000050: fb34 0a3e 8b9d 313e 0589 283e 8780 1cbe
00000060: b812 1dbe baae 293e 66ff 213e d1da 993c
00000070: 7827 0f3e ce68 e53d 662b ee3d d4d2 1e3e

emb_net.v_lins1.5.weight f4 [32, 32]
-0.14098792 -0.114485286 -0.06294412 0.12779303 0.02647249 -0.02811444 -0.04610818 -0.032457698
0.018205177 -0.039256647 -0.06435945 0.08370533 -0.039668195 0.1441659 0.17749128 -0.15265405
0.16104928 -0.021975644 0.10656815 0.035995226 -0.060542524 0.16169162 0.14707989 0.12546177
0.16200888 0.028871894 -0.044956487 -0.023379408 0.07003788 0.17469183 0.042538766 0.11119319
-0.05014789 0.036889095 -0.049538117 0.1334937 -0.09179719 -0.14777048 -0.10324591 0.14371215
-0.15755759 -0.04603246 -0.112902895 0.15276858 0.06279321 -0.15177986 -0.13187024 -0.116700605
-0.116870254 0.05606944 -0.016740354 0.13585989 -0.12615925 0.08506236 -0.01090557 -0.15943316
-0.18196182 0.05236102 0.13100065 0.03148897 0.07636905 -0.1287981 -0.108953565 -0.13488285
0.010389743 0.07711153 0.068241306 0.15633902 -0.010518237 0.036122877 -0.05156352 0.09717114
0.096321255 -0.06793471 -0.02261494 0.051173728 0.07285922 -0.00028548358 0.14082046 -0.13056052
-0.060579415 -0.12602423 0.041752227 -0.14659387 0.051377036 0.04195853 -0.17203835 -0.13916753
-0.045121167 -0.02151891 -0.17637633 0.041705444 -0.09234032 -0.12566105 0.047528487 -0.025916712
0.07009896 0.119205095 -0.13404408 0.018324994 0.14343818 0.016450789 0.053952478 0.0888543
0.0032519687 0.0641543 -0.15025471 -0.17666107 -0.109021835 0.15104833 0.044519823 0.009572589
-0.15260208 0.16447067 -0.15368827 -0.12048294 -0.05800787 0.09778557 0.029849088 -0.044982273
0.099867016 0.00567296 -0.11641629 -0.011597566 0.096378155 0.13276245 0.16326427 -0.017263768
-0.085288085 0.03840335 -0.07155696 0.09466231 0.027526997 0.10910846 -0.1538224 0.05095671
0.17590395 0.06640104 0.024671964 0.08374756 0.14069045 -0.10995208 0.0047488306 -0.15364026
0.08599218 -0.1500493 -0.05095138 -0.058200616 -0.0042314515 0.103240944 -0.07713477 0.1430348
0.053207554 0.018331748 0.109866135 -0.16114205 0.1045665 -0.13036445 0.16034086 0.10839158
0.09333392 0.020063747 0.14480324 -0.119804315 -0.023335375 0.023552328 0.061963417 0.08841671
0.054172356 0.148373 0.104407005 -0.044826724 -0.021287512 0.09267245 -0.12883565 -0.10037848
0.08351952 -0.11336382 0.029792884 -0.017525945 -0.05548306 -0.11034029 -0.0869876 -0.051908158
-0.18496163 -0.18321699 0.1626416 0.108115904 -0.13094863 0.10465963 -0.07383839 -0.021739798
0.10920275 0.026017638 0.11920305 -0.12234757 0.08048083 -0.06843655 0.034401234 0.00697665
-0.12597962 0.002883688 0.059777092 0.107968986 -0.07092496 -0.17834888 -0.14379206 -0.07428408
-0.11386679 0.04822528 -0.018550545 -0.00428459 0.010236518 -0.119463585 -0.076029345 0.10924547
-0.06283189 0.12442067 -0.07094723 -0.13599998 0.12437423 -0.005814126 0.11295238 -0.091897435
-0.12159238 0.101986185 -0.052570317 0.14591004 0.15174836 -0.16378269 0.1289525 0.025881527
0.11077419 0.09198611 0.13620579 0.021163957 -0.13623072 0.09405391 0.030738434 0.08994512
-0.13541266 -0.10354153 0.071949355 -0.07531174 -0.029928392 0.0010125708 -0.021103552 0.15668193
0.01903863 0.103659645 -0.0036026966 0.11051969 -0.12418552 -0.019096486 0.066819936 -0.06613274
00000000: 235f 10be 4377 eabd d9e8 80bd 2ddc 023e
00000010: d6dc d83c 4150 e6bc eedb 3cbd 5df2 04bd
00000020: 0623 953c 94cb 20bd e3ce 83bd b36d ab3d
00000030: 1e7b 22bd 3aa0 133e 46c0 353e 5851 1cbe
00000040: 1aea 243e 4406 b4bc 6740 da3d bb6f 133d
00000050: 70fb 77bd 7d92 253e 1c9c 163e 0d79 003e
00000060: a8e5 253e c084 ec3c 4b24 38bd 2c86 bfbc
00000070: 0570 8f3d 6ae2 323e 213d 2e3d 41b9 e33d
00000080: e067 4dbd 0519 173d 7be8 4abd 93b2 083e
00000090: 2a00 bcbd 2551 17be 9772 d3bd 4729 133e
000000a0: c756 21be 888c 3cbd a239 e7bd 5e6f 1c3e
000000b0: ba99 803d 2e6c 1bbe fe08 07be ba00 efbd
000000c0: ac59 efbd 12a9 653d 1123 89bc db1e 0b3e
000000d0: e42f 01be 2d35 ae3d 47ad 32bc 7242 23be
000000e0: 3354 3abe 8278 563d 0925 063e 94fa 003d
000000f0: 6067 9c3d a6e3 03be 0c23 dfbd bb1e 0abe
00000100: be39 2a3c a6ec 9d3d 19c2 8b3d 5617 203e
00000110: af54 2cbc 95f5 133d 4534 53bd aa01 c73d
00000120: 1444 c53d 5a21 8bbd f742 b9bc 8b9b 513d
00000130: 3737 953d f5ac 95b9 3d33 103e a8b1 05be
00000140: 1f22 78bd 7f0c 01be 6204 2b3d b41c 16be
00000150: ba70 523d b5dc 2b3d d22a 30be ef81 0ebe
00000160: f9d0 38bd 6d48 b0bc ff9b 34be 54d3 2a3d
00000170: ec1c bdbd 4aad 00be 3bad 423d 494f d4bc
00000180: 0b90 8f3d cd21 f43d da42 09be 4c1e 963c
00000190: 75e1 123e cec3 863c 46fd 5c3d 3ef9 b53d
000001a0: fb1e 553b 5463 833d 5fdc 19be a4e6 34be
000001b0: d746 dfbd 6aac 1a3e 6b5a 363d 59d6 1c3c
000001c0: b843 1cbe 006b 283e 7560 1dbe c2bf f6bd
000001d0: a999 6dbd cd43 c83d 1386 f43c 553f 38bd
000001e0: 1487 cc3d 3de4 b93b aa6b eebd b803 3ebc
000001f0: e961 c53d e1f2 073e c02e 273e bf6c 8dbc
00000200: 85ab aebd d54c 1d3d 758c 92bd 50de c13d
00000210: 4c80 e13c 4274 df3d 9f83 1dbe fcb7 503d
00000220: 2a20 343e 45fd 873d dc1c ca3c d783 ab3d
00000230: 2811 103e 8e2e e1bd 149c 9b3b df53 1dbe
00000240: ab1c b03d 86a6 19be 65b2 50bd c563 6ebd
00000250: fda7 8abb fd6f d33d d6f8 9dbd b777 123e
00000260: 2af0 593d 762c 963c 7f01 e13d 6c02 25be
00000270: f626 d63d 427e 05be 6530 243e 68fc dd3d
00000280: db25 bf3d ba5c a43c 4d47 143e f75b f5bd
00000290: d429 bfbc d0f0 c03c 5acd 7d3d d213 b53d
000002a0: d5e3 5d3d 17ef 173e 57d3 d53d 3a9c 37bd
000002b0: 2663 aebc 0ecb bd3d 7eed 03be 3c93 cdbd
000002c0: 480c ab3d 4a2b e8bd 3510 f43c 9292 8fbc
000002d0: 3542 63bd 17fa e1bd 8e26 b2bd a69d 54bd
000002e0: 9566 3dbe 3c9d 3bbe 858b 263e df6b dd3d
000002f0: 6617 06be ca57 d63d 9538 97bd a917 b2bc
00000300: b1a5 df3d f122 d53c bb20 f43d 5d91 fabd
00000310: 22d3 a43d 7628 8cbd 4fe8 0c3d 629c e43b
00000320: cd00 01be 42fc 3c3b d3d8 743d d81e dd3d
00000330: 1b41 91bd 17a1 36be 3a3e 13be 4022 98bd
00000340: fe32 e9bd df87 453d 50f7 97bc bf65 8cbb
00000350: 12b7 273c 53a9 f4bd 46b5 9bbd 17bc df3d
00000360: 02ae 80bd 44d0 fe3d c84c 91bd 9443 0bbe
00000370: ebb7 fe3d 6d84 bebb 9453 e73d b934 bcbd
00000380: 6d05 f9bd 22de d03d f953 57bd 7169 153e
00000390: ec63 1b3e a6b6 27be 200c 043e 7f05 d43c
000003a0: 94dd e23d 3763 bc3d 8879 0b3e 0960 ad3c
000003b0: 1180 0bbe 569f c03d 2bcf fb3c 2635 b83d
000003c0: 9ea9 0abe 950d d4bd 2f5a 933d 0b3d 9abd
000003d0: 632c f5bc 3db8 843a 5be1 acbc 3a71 203e
000003e0: e7f6 9b3c 824b d43d 381b 6cbb 2658 e23d
000003f0: fa54 febd 3c70 9cbc e4d8 883d 9a70 87bd

emb_net.v_lins1.5.bias f4 [32]
-0.056052275 0.17114791 -0.08336431 0.05852157 -0.08415375 0.16164759 0.041620262 0.020864217
-0.055492073 -0.10322584 -0.16720009 -0.08449416 -0.076118074 -0.11679911 0.14942217 -0.14451271
0.024232123 0.086384155 0.020234456 -0.09380193 -0.05539718 0.10545923 -0.1591019 0.0715431
-0.094343975 0.16938555 0.122154854 0.14327314 -0.12542656 -0.12012785 -0.16339137 0.12657742
00000000: 1297 65bd 6641 2f3e e8ba aabd 50b4 6f3d
00000010: cd58 acbd f286 253e 027a 2a3d 6feb aa3c
00000020: a84b 63bd 1268 d3bd 8036 2bbe 460b adbd
00000030: cbe3 9bbd 5f34 efbd 2002 193e 24fb 13be
00000040: 7282 c63c 2dea b03d bbc2 a53c 3a1b c0bd
00000050: 27e8 62bd 02fb d73d 9ceb 22be 3085 923d
00000060: 6a37 c1bd 6873 2d3e 532c fa3d 32b6 123e
00000070: d26f 00be 9705 f6bd 1150 27be 839d 013e
