or/GFlowNet and ACO to solve TSP/DeepACO/tsp/pretrained/sop/sop100.pt (torch, 359464 bytes, 230 tensors)

emb_net.v_lin0.weight f4 [32, 1]
000000 93 42 21 bf 63 c7 fb bd 67 54 44 bf 53 ce 0d bf
       -0.6299221 -0.122938894 -0.7669129 -0.5539295
000010 d9 fc 96 be 4c 41 18 3e 8a 06 6b bf b1 7b d4 be
       -0.29489782 0.14868659 -0.9180685 -0.4150062
000020 1f 87 26 3f 6c c0 07 3f f2 28 15 bf b9 a1 c7 3d
       0.6504993 0.5302799 -0.582656 0.09747643
000030 81 05 9d bd da 63 ec 3e f5 e0 14 be de ef 0c be
       -0.076670654 0.4616993 -0.1453894 -0.13763377
000040 1d 66 1d bf 6d 4a 9d 3e 0a 76 48 bf 91 72 fc be
       -0.6148394 0.30720845 -0.78305113 -0.49306157
000050 3f 3e 6c bf db 2d 4f 3f 7d eb e4 3e 81 e0 49 bf
       -0.9228248 0.80929345 0.44710913 -0.7885819
000060 c7 1e 5e 3f 19 12 f2 bd 62 75 87 3e f6 43 4c 3c
       0.8676571 -0.11819858 0.26456743 0.012467375
000070 86 c2 e0 3e 86 c4 2e bf e1 f7 8c be ab 3d ef 3e
       0.4389841 -0.6826862 -0.27532867 0.46726736

emb_net.v_lin0.bias f4 [32]
000000 b4 87 1a bf bf 40 96 be ba ce f1 3e 95 7a 20 3f
       -0.60363317 -0.29346272 0.47228032 0.62687045
000010 c3 19 02 bf bf 92 4f be 5b 09 fe 3e ee 37 b1 3e
       -0.5082056 -0.20270823 0.49616513 0.34612983
000020 19 9d 08 bf ac fc 29 3f 73 d4 36 bf 72 a1 7d 3e
       -0.5336471 0.6640117 -0.7141792 0.24768618
000030 77 19 4a bf 68 7e d5 3e aa 74 a8 3e e7 12 1e 3f
       -0.78945106 0.41698003 0.32901508 0.6174759
000040 e9 4b 50 3f df 1d 4f bf 94 83 26 3f f0 e2 e5 be
       0.8136583 -0.80904955 0.6504452 -0.44899702
000050 5c 14 4a 3f ec 94 40 bf 54 1d 14 3f 08 ee 0a bf
       0.78937316 -0.75227237 0.5785725 -0.54269457
000060 10 34 56 3e af d2 36 3e ff 47 55 3f 93 a1 60 bf
       0.20918298 0.17853807 0.8331298 -0.8774654
000070 88 d8 7d 3f d1 e0 10 be 0c 3a 6c bf 33 30 42 bf
       0.99158525 -0.1414826 -0.9227607 -0.75854796

emb_net.v_lins1.0.weight f4 [32, 32]
000000 db 67 e1 bd 42 40 b5 bd 98 62 75 bd a4 bb 02 be
       -0.11006137 -0.08850147 -0.05990848 -0.12766892
000010 08 f7 ce bc b8 3e be bc 80 a5 47 bd 5a f4 be 3d
       -0.025264278 -0.023223266 -0.048741817 0.0932395
000020 42 c7 f9 3d c8 ee 8d 3c 40 28 c2 bb b2 ad c5 3d
       0.121962085 0.017325774 -0.0059252083 0.096522704
000030 6a e6 ae 3d e8 bf b9 bc 1f f1 2c be 44 07 b6 bd
       0.08540042 -0.022674516 -0.16888855 -0.088881046
000040 e3 bc d4 bd 79 cc 0c 3e aa 48 07 be 7f a0 0e be
       -0.1038759 0.13749875 -0.13211313 -0.13928412
000050 46 44 fe 3d b4 88 26 3d 6a 1a 2c be 5f 56 de bd
       0.12415366 0.040657714 -0.16806951 -0.10856318
000060 05 c6 25 3e 19 1d a3 bd c0 4e ff bd 9a e3 8a 3d
       0.1618882 -0.07964534 -0.12466192 0.06781693
000070 12 ff b5 3d d6 c9 ea 3d ad 31 1d 3e 8f 70 0a 3e
       0.088865414 0.114642784 0.15350981 0.135195
000080 10 28 d1 3c 64 82 05 be d5 a4 25 3e ed 95 2d be
       0.025531799 -0.13038021 0.1617616 -0.16951723
000090 23 70 21 3e 26 3d 84 3d 87 01 26 be 70 e6 4f 3c
       0.15765433 0.06456976 -0.1621152 0.012689218
0000a0 f6 2c 0a be 80 9f 3d bb 88 10 80 bc e8 40 d5 bd
       -0.13493714 -0.002893418 -0.015632883 -0.104127705
0000b0 57 d1 07 3e cd fa 21 be 1d e5 03 3e 73 cc 28 3e
       0.1326345 -0.15818329 0.12880369 0.16484241
0000c0 cf c6 0e 3e 20 89 65 bd a2 ff 9a 3d 09 c2 1d 3e
       0.13943027 -0.056038976 0.07568289 0.1540605
0000d0 50 a7 1f 3c ed 48 25 3e 32 4c 13 be d1 89 ea bd
       0.00974448 0.161411 -0.14384535 -0.11452068
0000e0 78 c5 8f 3d 60 34 20 be f5 f1 d8 bd d8 5e 95 bd
       0.07020086 -0.1564498 -0.10593025 -0.07293481
0000f0 20 a5 6e bc ba 7a dc 3d 12 1c 9b 3d 3d e3 ac bd
       -0.014565736 0.10765596 0.07573713 -0.0844178
000100 8d b5 e5 bd 55 db e0 bd 45 eb 33 3e 2c 9f 48 bd
       -0.11216269 -0.10979334 0.17570217 -0.048979923
000110 39 26 2f 3e a7 8d 07 be f2 f9 dc 3d 32 e3 e0 bd
       0.17104425 -0.1323763 0.10789861 -0.10980834
000120 54 4e 20 be 85 55 b6 bd fe ab f9 3d e6 3b ea 3d
       -0.1565488 -0.0890303 0.12191008 0.11437206
000130 2e c9 a3 3d e0 59 f4 bb 1a 74 73 bd 3e c5 a8 3d
       0.07997356 -0.007457003 -0.059436895 0.08240746
000140 00 25 08 3d 57 58 2e 3e b5 5d 08 be b0 a3 f8 bd
       0.03323841 0.17025886 -0.13316996 -0.12140596
000150 21 06 0b 3e 64 21 1a be f8 a8 60 3d 69 30 23 be
       0.13576557 -0.150518 0.05484864 -0.15936436
000160 72 08 a5 3d 0d 19 1d be ca 2d f8 3d 99 60 25 3e
       0.080582514 -0.15341587 0.121181086 0.1615013
000170 f9 a5 09 3e 45 95 2b 3e 29 02 a9 bd 0f a2 03 3e
       0.1344222 0.1675616 -0.08252365 0.12854789
000180 6a 8a a9 bd 3a 13 eb 3d 06 1b 12 be 9c 8e 92 3d
       -0.082783535 0.114782766 -0.14268121 0.07156107
000190 10 b6 94 bc 3d ab a7 bd 24 da 58 3d e0 12 8e bb
       -0.01815322 -0.08186958 0.05294241 -0.004335746
0001a0 58 b9 fa bd 94 56 51 3d c7 03 2a 3e 4b ae 21 3e
       -0.12242383 0.051107958 0.16603003 0.15789144
0001b0 bf 37 dc bd 9c bb 00 bd 00 e7 89 ba 51 a5 ad bd
       -0.1075282 -0.03142892 -0.0010521114 -0.08478797
0001c0 9a 61 b4 3d 0d 6d 1f 3e ae e3 1b be 5e 20 99 3d
       0.088076785 0.15568943 -0.15223572 0.07476877
0001d0 0f 59 1a be b3 1e 92 bd 96 f3 bb 3d 15 8a 27 3e
       -0.15073036 -0.07134762 0.0917732 0.16361268
0001e0 7e f1 86 bd 46 d7 16 be f0 35 6d 3d 00 b3 0d 3b
       -0.0658903 -0.14730558 0.057912767 0.0021621585
0001f0 45 65 28 3e 2b 38 1d be 1c 50 87 3d 26 3d a1 bd
       0.16444881 -0.15353458 0.066070765 -0.07872991
000200 a7 08 32 3e 58 93 38 bd 08 88 8e bc 74 1a 02 3d
       0.17386113 -0.045062393 -0.01739885 0.03176351
000210 aa 2b 6b bd fe c6 31 be 9e 04 a3 3d 75 70 da bd
       -0.05741469 -0.17361066 0.07959865 -0.10665981
000220 28 39 22 3d a2 7d a8 3d 63 54 15 3e d5 a2 09 3e
       0.03960529 0.082270876 0.14582972 0.13441022
000230 18 b1 7f bd 6e 3c 83 3d 99 90 b8 bd 00 2c d9 3c
       -0.06242475 0.064080104 -0.09011955 0.026510239
000240 e8 f3 df bc 17 3d 25 be 68 f4 32 3d ad c1 0c 3e
       -0.027337983 -0.16136585 0.043690115 0.13745756
000250 0e 33 e9 3d 62 29 9b 3d e0 4c 87 3d 48 ee a9 bc
       0.11386691 0.075762525 0.066064596 -0.020743504
000260 38 0e 37 bd 4b 73 27 3e b5 a5 e3 bd c6 30 fd 3d
       -0.044691294 0.16352575 -0.111155905 0.123628184
000270 94 21 44 3d 00 5e 45 3a 92 ba 77 bd 70 13 1c 3c
       0.047883585 0.00075289607 -0.06048066 0.009526119
000280 18 d7 0a 3d 19 98 0d 3e 33 e8 ed bd 98 2f 98 bc
       0.033896536 0.13827552 -0.11616554 -0.018577382
000290 68 d4 5c 3d 58 9b f2 3c fc 74 55 3d 70 ad 74 3c
       0.053913504 0.02961509 0.052113518 0.014933929
0002a0 e9 c0 c5 bd 76 d8 a3 3d 05 21 a7 bd 98 08 03 be
       -0.09655935 0.08000271 -0.08160595 -0.12796247
0002b0 2c 92 5f bd b0 da 5c 3d 5d 98 25 3e b2 73 e7 3d
       -0.05458276 0.053919494 0.16171403 0.11301364
0002c0 8e 9a 97 3d 2f c7 c6 bd bf b0 33 3e 49 f1 1e 3e
       0.07402526 -0.0970596 0.17547892 0.1552173
0002d0 e0 9d 00 be 90 63 1a be fc 41 48 3d 2a d0 e0 3d
       -0.12560225 -0.15077043 0.048891053 0.10977204
0002e0 20 db 90 3c 74 66 37 3d 97 f7 32 be 00 6d 8f bc
       0.017682612 0.04477544 -0.1747726 -0.01750803
0002f0 45 a5 f1 bd 36 b5 9a 3d 95 c6 05 3e 48 48 35 bd
       -0.11799101 0.075540945 0.13064034 -0.044258386
000300 2a fd 7d bd c0 1e b0 bb 13 03 e5 bd 1a f0 e6 3d
       -0.062009014 -0.0053747594 -0.11182227 0.112762645
000310 f6 de ea 3d a2 55 d2 3d 8c 85 48 bd 4b 6f 1e 3e
       0.11468308 0.102702394 -0.048955485 0.15472142
000320 31 8e 05 be 12 58 25 be 73 9b 19 be 6c 1b 56 bd
       -0.13042523 -0.16146877 -0.15000705 -0.052272245
000330 a9 06 ff bd a0 d6 a9 3b 28 07 05 be 82 e0 bf 3d
       -0.12452442 0.005183056 -0.12991011 0.09368993
000340 0a 18 68 bd 80 e6 3e bb 2c 03 11 3d 7c ff 7a 3d
       -0.05666355 -0.0029129088 0.035403416 0.061278805
000350 6a 09 ea 3d 4c bc be bd 20 98 41 bc 14 cf 01 3d
       0.11427577 -0.093132585 -0.011816055 0.031691626
000360 4e 48 99 3d 1c 46 f3 bd 76 b8 e7 3d 13 dd 26 3e
       0.07484494 -0.11878607 0.1131448 0.1629527
000370 60 73 6a 3c 09 43 03 3e 41 ba 23 3e 5b 7e 31 be
       0.014309734 0.1281854 0.15989019 -0.17333357
000380 b4 80 f8 bd 2e 81 1b be 40 51 2e 3b 28 a1 b6 3c
       -0.12133923 -0.15185997 0.0026598722 0.022293642
000390 40 f5 5a bc 9d ba ef bd d4 1c 32 3d 8e 12 02 be
       -0.013364136 -0.117055155 0.043484524 -0.1270239
0003a0 56 51 f6 3d af 18 09 3e 4e 5b db bd 7e 29 8c 3d
       0.12027232 0.13388322 -0.10710774 0.068438515
0003b0 c1 c3 12 be 94 00 bf bd 99 8d 08 be 10 ec 5c 3c
       -0.14332487 -0.09326282 -0.13335265 0.013484016
0003c0 a8 ec 9d bc 9d 4c 17 be 1c 09 2f bd d8 e1 09 3d
       -0.019277886 -0.1477532 -0.042733297 0.033662647
0003d0 e3 fb 09 3e 20 f2 04 3c 2c 84 b3 bd 01 69 0e be
       0.13474993 0.008114368 -0.08765444 -0.13907243
0003e0 e3 ef 03 3e 42 0c 1c be 85 30 28 3e 3c aa c8 bd
       0.12884478 -0.15239051 0.16424759 -0.09798095
0003f0 a8 26 4c bd d5 26 c4 bd 60 a3 95 3c a3 7f 2a 3e
       -0.049841553 -0.09577719 0.01826638 0.16650252

emb_net.v_lins1.0.bias f4 [32]
000000 39 d7 31 3e 0f b7 26 be 58 33 ee 3c 80 c7 78 3c
       0.17367257 -0.16280769 0.029077217 0.015184283
000010 85 19 2b 3e f2 e7 5c bd 8f c0 cb bd 66 5b 20 be
       0.16708954 -0.053932138 -0.09948837 -0.15659866
000020 74 df c4 bd 98 e1 34 be 06 33 9b 3d de 28 a5 3d
       -0.09612933 -0.17664182 0.07578091 0.080644354
000030 79 a9 2a 3e 1f fd 06 be c6 e2 9c 3d 05 1e 14 3e
       0.16666211 -0.13182496 0.07660441 0.14464577
000040 c5 ee 07 be 36 56 fc 3d 04 06 0a 3d 87 06 0e 3e
       -0.13274677 0.12321131 0.033697143 0.13869677
000050 10 bf 95 bd 9b 6e 34 3e a0 e6 ab bb dd 42 ea bd
       -0.07311833 0.17620318 -0.0052459985 -0.114385344
000060 b4 6d 62 3d f8 ab 2e bd 56 75 23 be 00 15 e8 3c
       0.055280402 -0.04264447 -0.15962729 0.028330326
000070 00 92 9e 39 9c 61 1f be 34 88 35 3d e0 65 0a 3c
       0.00030244887 -0.15564579 0.044319347 0.00844714

emb_net.v_lins1.1.weight f4 [32, 32]
000000 fc ec 68 bd 6f 66 d2 bd a4 8d af bd c8 7a 34 3d
       -0.05686663 -0.10273444 -0.08571938 0.044062406
000010 bc d6 2d 3d 72 88 9f 3d 50 93 60 bd 3e 8f 8d bd
       0.042441115 0.07789697 -0.05482799 -0.06912087
000020 d5 ab 0b be c8 72 f7 bc 80 dd 11 3b 54 16 17 3d
       -0.13639767 -0.0302061 0.0022257268 0.036886528
000030 c7 a1 0d 3e cc 55 0c be 34 32 9e bd 73 c9 1f 3e
       0.13831244 -0.13704604 -0.07724419 0.1560419
000040 01 07 11 3e b0 bc 3c bc c0 a5 06 bd f3 34 22 3e
       0.14162828 -0.011519596 -0.032872915 0.15840511
000050 7f a5 1f be 80 31 8d 3d 0e 98 b4 bd b0 4b 11 be
       -0.15590475 0.06894207 -0.08818065 -0.14189029
000060 0c 4f 6a bd 4e fa a4 3d 5d 6d 08 be c8 43 b9 3c
       -0.05720429 0.08055554 -0.13322969 0.022615328
000070 34 1d 10 bd 50 c0 2a be 9a c1 ef 3d 92 6d 2e be
       -0.0351841 -0.16674924 0.117068484 -0.17033985
000080 e8 7a 18 3d 00 f2 88 bd e0 93 46 bd b9 e1 12 be
       0.037226588 -0.06686783 -0.04848087 -0.14343919
000090 c4 89 29 3d aa ee aa 3d e0 41 fe bc 38 4f ea 3c
       0.04139115 0.08346303 -0.031037271 0.028602228
0000a0 f8 de 60 3d 6c fa 00 bd 16 4e b8 bd 28 98 24 bd
       0.05490014 -0.03148882 -0.08999269 -0.04018417
0000b0 0d a2 bf bd 3a e6 b0 3d f1 28 f5 bd 00 5c 7a b9
       -0.093570806 0.08637662 -0.119706996 -0.0002387613
0000c0 2a db 62 bd 21 ed 2c 3e e0 91 79 3d 18 86 7e 3d
       -0.055384792 0.16887332 0.060930133 0.0621396
0000d0 00 51 75 ba 1c d8 31 bd 48 31 1e bd 8d 77 2f 3e
       -0.0009358078 -0.04341899 -0.038621217 0.17135449
0000e0 4d 5a 00 3e 59 11 d6 bd 00 3d 23 3d fd 6b 02 3e
       0.12534447 -0.104525276 0.039853096 0.12736507
0000f0 95 c1 e5 bd 70 2d 27 bd b8 9e 25 3d 82 1c 96 3d
       -0.112185635 -0.040814817 0.04043457 0.07329656
000100 25 c6 c8 bd e0 05 13 3c ce 50 5b bd c6 3b ab 3d
       -0.09803418 0.008973569 -0.05354386 0.0836101
000110 8c c1 19 3d 35 50 8e bd 42 b6 a1 3d 30 51 25 3d
       0.037538096 -0.06948892 0.07896091 0.04036063
000120 17 e8 8a bd fa b8 8f bd 8d 75 de bd d0 ec 79 bc
       -0.06782549 -0.07017703 -0.10862265 -0.015254214
000130 18 07 b3 bd df d3 25 3e a0 c5 2f bc 14 30 7a 3d
       -0.087415874 0.16194104 -0.01072827 0.061081007
000140 2d 49 0d 3e 20 15 7d bc 08 21 83 3d 52 ad f2 3d
       0.13797446 -0.015446931 0.064027846 0.118494645
000150 0a f6 e4 3d 98 d2 41 bd 09 2b 33 3e d0 b5 0e bc
       0.11179741 -0.04731998 0.17496885 -0.00871034
000160 c8 a8 f6 3c c4 20 39 bd c6 74 af 3d 03 d0 c1 bd
       0.030109778 -0.045197263 0.08567195 -0.09463503
000170 10 bb 21 3d 36 43 12 be 5b 48 2b 3e ae 7d de 3d
       0.039485037 -0.14283451 0.1672682 0.10863815
000180 d0 5e ac 3c 00 b0 14 b9 54 b4 85 3d d2 62 fe 3d
       0.021041304 -0.00014179945 0.065285355 0.12421192
000190 c0 80 8c bc 80 ea 33 be 4b 92 12 3e ee f5 f7 3d
       -0.017151237 -0.17569923 0.14313619 0.12107454
0001a0 ab 84 34 3e 00 19 79 3c 70 e5 dc 3c b1 84 1c be
       0.17628734 0.015203714 0.026964873 -0.15284993
0001b0 92 f0 87 3d 32 c4 a9 bd f4 29 93 3d 30 e4 4f 3d
       0.06637682 -0.082893744 0.07185736 0.050754726
0001c0 f1 fc 07 3e 00 aa dd b9 8a 75 fa 3d d2 76 b5 3d
       0.13280083 -0.00042279065 0.1222945 0.08860554
0001d0 e4 0a 2c bd 96 40 b1 3d 48 3c c7 3c b6 5d 2f be
       -0.042002574 0.08654897 0.024320737 -0.17125592
0001e0 c0 d2 86 3b 4d 69 28 be c4 e4 02 be df 05 c9 bd
       0.004114479 -0.16446419 -0.1278258 -0.09815573
0001f0 1c cc 38 bd 8b a1 1b be ae 2a ec 3d f9 9f 29 3e
       -0.04511653 -0.15198343 0.11531578 0.16564931
000200 00 1e e4 ba 31 06 32 be e0 aa de 3c 69 f1 c8 bd
       -0.001740396 -0.17385174 0.027181089 -0.0981167
000210 81 2e db bd ce 10 ec bd e5 59 d2 bd bb 7f 33 be
       -0.10702229 -0.11526643 -0.10271052 -0.17529194
000220 44 68 0a bd f6 d8 25 be 52 1e a8 3d 70 da 56 3d
       -0.03379084 -0.16196045 0.08208908 0.052454412
000230 15 6f f6 bd fb c6 11 3e 9a 0a 8a 3d 80 6f d9 bb
       -0.12032906 0.14236061 0.06740303 -0.0066356063
000240 3e 27 06 be c8 64 35 3d f4 1b 4b 3d f2 22 bb 3d
       -0.13100907 0.044285566 0.049587205 0.09137525
000250 68 bc ad bd 34 b1 2c be 0c 7a 01 3d aa 3d e3 3d
       -0.08483201 -0.16864473 0.031610534 0.11095746
000260 30 28 47 3d 14 e2 24 bd ce ac 7c bd 58 8d a6 3c
       0.04862231 -0.040254667 -0.061688237 0.02033107
000270 12 a4 df bd c3 e0 b9 bd a0 36 24 3c 45 83 0e 3e
       -0.10919966 -0.09076073 0.010022789 0.13917263
000280 9e 2f ee 3d c3 e3 90 bd ad 34 0b 3e c0 49 97 3c
       0.11630176 -0.07074692 0.13594313 0.018467784
000290 48 6a a2 bc 53 a6 29 3e 16 45 0f be 90 8f 99 bc
       -0.01982607 0.16567354 -0.13991198 -0.018745214
0002a0 d0 ce 88 3d 85 10 26 3e cb 9c 9f bd e2 94 95 3d
       0.06680071 0.16217239 -0.07793578 0.07303788
0002b0 74 2a f1 bd e6 84 92 bd fe 98 ca 3d 00 d1 d4 3c
       -0.117756754 -0.071542546 0.09892462 0.025978565
0002c0 6a e6 ba bd f3 4b 00 3e 8b b7 31 3e 1c ad 0a 3d
       -0.09125979 0.12528972 0.17355172 0.033856496
0002d0 b9 5c 28 be d8 72 d6 3c 3c 87 07 be c8 7c 21 3d
       -0.16441621 0.026177809 -0.13235182 0.03942564
0002e0 c0 96 c5 bb 90 6a 61 3d fc 05 42 3d 80 e2 c6 bb
       -0.0060299337 0.055033267 0.04736899 -0.0060694814
0002f0 82 cb 54 bd a0 89 0e bd da 3b f8 3d 00 2e 0e ba
       -0.051951893 -0.03479922 0.12120791 -0.00054237247
000300 bd c0 06 3e e8 4c 05 be 60 5b 1c be e7 a8 2a 3e
       0.13159461 -0.13017619 -0.15269232 0.16665994
000310 a8 8c b1 bd 88 10 8c 3c 28 77 77 bd 10 d9 38 bc
       -0.08669406 0.017097726 -0.06041637 -0.0112822205
000320 29 9a 27 be a6 c2 d4 3d e4 25 00 be 2a 1a 27 be
       -0.16367401 0.10388689 -0.12514454 -0.16318575
000330 68 cf 18 3d 9c 97 31 3d 15 4b 17 be 00 7a 0d be
       0.037307173 0.043357477 -0.14774735 -0.1381607
000340 69 fd e7 bd 9d 5a 25 3e 49 fd 2c be 51 54 21 be
       -0.11327631 0.16147847 -0.16893496 -0.1575482
000350 d4 3c 63 3d e8 fe 26 bd 14 80 52 3d ca 74 02 be
       0.055477932 -0.04077044 0.051391676 -0.12739864
000360 0d 40 15 be 24 7b 6a 3d d2 56 33 be cb 8f 0d 3e
       -0.14575215 0.057246342 -0.17513588 0.13824384
000370 05 97 00 3e 90 64 26 3c c0 aa 31 be 67 dc 18 3e
       0.1255761 0.010155812 -0.17350292 0.14927827
000380 b0 2b 97 bd 1e e0 c2 3d e9 61 0b be d1 0e d2 bd
       -0.073813796 0.09515403 -0.13611569 -0.10256732
000390 78 a9 c3 bc 76 35 dc 3d bd 67 8c bd 9e c8 d8 3d
       -0.02388452 0.10752384 -0.06855724 0.1058514
0003a0 26 d5 bd bd 90 05 d6 bc 14 db 04 3d dd a1 99 bd
       -0.092691705 -0.0261257 0.03243549 -0.07501576
0003b0 64 d7 82 3d c0 84 35 3c ae bc 99 bd 18 ad af 3c
       0.06388739 0.011079013 -0.07506691 0.021444842
0003c0 68 ec 11 be a4 d5 15 bd d0 08 2d 3c 45 72 1d 3e
       -0.14250338 -0.036580697 0.010561183 0.15375622
0003d0 9a f4 89 bd 65 44 31 3e 3d b2 13 3e 48 02 c4 3c
       -0.06736107 0.17311247 0.14423461 0.023926869
0003e0 0b e6 06 3e e0 c5 4a 3d fe 1e d8 3d 80 3e 94 3c
       0.13173692 0.049505115 0.10552786 0.018096209
0003f0 14 3d 1b be 71 a8 08 3e 4c 1a 2c 3d a4 cd 66 bd
       -0.15160018 0.13345505 0.042017266 -0.056348458

emb_net.v_lins1.1.bias f4 [32]
000000 80 85 3d 3c 3d 9f 33 3e 3b f3 c2 bd f4 7d 00 be
       0.011567473 0.17541213 -0.09519049 -0.12548047
000010 80 21 88 3c 20 b9 bb bb 30 bf 1d be c7 73 26 be
       0.016617537 -0.0057288557 -0.15404963 -0.16255103
000020 00 7c 86 b9 5a 91 b7 3d 1b d0 b6 bd 60 31 0b be
       -0.0002565086 0.089632705 -0.08926412 -0.13593054
000030 28 0a 2b bd e2 a2 7b bd e0 d1 d7 bc 3e 14 b1 3d
       -0.041757733 -0.061434634 -0.026345193 0.08646439
000040 04 8f 1f bd 67 78 06 3e 94 24 81 bd c4 1e 30 bd
       -0.03895475 0.13131867 -0.06305805 -0.04299809
000050 00 30 89 38 8d d7 99 bd 53 84 e4 bd b0 d4 7b bc
       6.54161e-05 -0.07511816 -0.11158051 -0.015370533
000060 fd f7 11 3e a4 47 80 bd 00 f2 10 3a 3c 41 30 bd
       0.14254756 -0.06263664 0.0005529225 -0.043030962
000070 30 c1 6e 3d c9 86 86 bd d5 c9 17 be e1 82 dd bd
       0.058289707 -0.06568677 -0.14823087 -0.10815979

emb_net.v_lins1.2.weight f4 [32, 32]
000000 23 d2 13 3e 74 4f 25 bd 39 ff e7 bd b4 8c 44 bd
       0.1443563 -0.040358976 -0.11327977 -0.047985747
000010 b0 3f fd bc b4 0d 0a 3d 04 d1 0c bd f6 56 dd 3d
       -0.030914158 0.033704475 -0.03437902 0.10807602
000020 f8 52 12 be 88 06 e6 bc 0d 69 08 3e 75 cc 1a be
       -0.14289463 -0.028079286 0.13321324 -0.15117057
000030 1c 4f 39 bd 68 66 61 bd fe fa 5c bd cb 47 87 bd
       -0.04524146 -0.055029303 -0.053950302 -0.0660549
000040 c3 38 cd bd 11 4d 18 be 07 c7 1a be a1 83 96 bd
       -0.10020592 -0.14873149 -0.15114985 -0.07349325
000050 50 c3 ef bc c8 7a 89 3c 20 dc cd bd 62 97 fd bd
       -0.029267937 0.01678218 -0.10051751 -0.123823896
000060 1e 55 c9 3d 67 26 c4 bd c6 67 20 be 69 8d 01 3e
       0.09830688 -0.09577637 -0.15664586 0.126516
000070 ad 9c 03 be 1e 2f eb 3d f7 83 82 bd a5 6e 0d 3e
       -0.12852736 0.11483596 -0.063728265 0.13811739
000080 b1 9b 9f bd 2e bc dc 3d 51 08 d5 bd b7 08 a9 bd
       -0.07793368 0.1077808 -0.10401977 -0.08253615
000090 a0 ff 56 3d a6 57 ed 3d b8 d9 0e be e8 78 a8 bd
       0.052489877 0.11588983 -0.1395024 -0.08226186
0000a0 b9 73 8d bd 40 39 76 3d e3 82 1a 3e 48 cd fa bc
       -0.06906838 0.06011319 0.15088992 -0.030615464
0000b0 8a 5f bc 3d ba b4 a4 3d 74 44 98 bd 33 e2 2b be
       0.0919791 0.08042283 -0.074349314 -0.16785507
0000c0 01 50 d6 bd bc 67 2f 3d 33 dd 0d 3e 75 8b 25 3e
       -0.10464478 0.04282354 0.13853912 0.1616648
0000d0 7d d5 a9 bd 26 cd eb 3d fe 76 1b be 6f 9e 28 be
       -0.08292673 0.11513738 -0.1518211 -0.16466688
0000e0 e6 e4 a3 bd 15 43 96 bd 8a f9 9c bd 05 8c 95 bd
       -0.08002643 -0.07337014 -0.07664783 -0.07302097
0000f0 b4 b2 53 3d e6 01 e2 3d c1 6f 8d bd c0 1f 68 bb
       0.051684096 0.11035518 -0.06906081 -0.0035419315
000100 d0 56 9b bd ea 84 23 be 19 da f0 bd 04 e4 ec bd
       -0.075849175 -0.15968671 -0.11760349 -0.11566928
000110 b9 7a 0e be 9e e1 f5 3d a1 1a a4 bd 00 d2 25 3a
       -0.13914002 0.12005924 -0.080128916 0.0006325543
000120 80 bb 9a ba 5e da d7 3d 0f fc 1c be 12 2e fc 3d
       -0.0011805147 0.10539697 -0.15330528 0.12313475
000130 7f fa ef bd 0f d6 0d be b8 58 07 bd ea 38 d8 3d
       -0.117177 -0.13851188 -0.033043593 0.105577305
000140 61 3c e1 bd 22 92 34 be eb 6e 32 3e 53 76 0b 3e
       -0.109978445 -0.1763387 0.17425124 0.13619356
000150 e5 f0 03 3e 05 27 fb bd 80 a5 de bd ea 48 d0 3d
       0.12884863 -0.12263302 -0.1087141 0.10170157
000160 0a c8 75 bd a0 16 ee 3b b3 1e 20 3e 81 f2 89 bd
       -0.060005225 0.0072658807 0.15636711 -0.06735707
000170 ad 6d 31 3e cc fc 34 3d 88 24 bf bc 41 8a 2a 3e
       0.17326994 0.0441864 -0.02333285 0.16654302
000180 75 69 cc bd c5 2a 33 be ba 2d 03 be 64 ae 74 bd
       -0.09981052 -0.17496784 -0.12810412 -0.059736624
000190 30 4d 24 3c 5f de 0e 3e 5c 9f 43 3d 02 f8 d2 3d
       0.010028169 0.13952015 0.0477594 0.1030121
0001a0 28 2e 03 bd d0 98 2a 3d c8 20 19 bd 4a b7 a7 3d
       -0.03202644 0.04164964 -0.03738478 0.081892565
0001b0 32 49 be 3d 7f ef 2b 3e 00 78 99 bd 03 a7 0e 3e
       0.09291305 0.1679058 -0.07493591 0.13930897
0001c0 cc 4c 16 bd 70 17 35 3c 30 a0 aa 3c 14 ba fb bd
       -0.036694333 0.011052951 0.020828336 -0.12291351
0001d0 ff a3 86 bd 5e ba 82 3d 18 7e 77 3d 6e 17 e7 3d
       -0.065742485 0.06383203 0.060422987 0.11283766
0001e0 9e 1d 26 be d1 28 18 be 5e 51 cf 3d 5e 90 c8 3d
       -0.16222236 -0.1485932 0.101229414 0.09793161
0001f0 7e 2c c8 bd 2b 6e c7 bd bd be 15 be 96 01 9a 3d
       -0.09774111 -0.0973781 -0.14623542 0.07519834
000200 dc 7a 06 bd 44 fe 23 be 10 d6 06 3c 1a 58 97 bd
       -0.03283201 -0.16014963 0.008229747 -0.07389851
000210 84 9f 29 3d e0 8a 7d 3d aa c0 82 3d d0 70 5e bd
       0.04141189 0.06190002 0.06384404 -0.054306805
000220 f2 bc 98 3d 94 d4 0b bd 94 2b 2d bd 35 26 00 be
       0.074579135 -0.034138277 -0.042277887 -0.12514575
000230 ff ad 9f bd 5a 70 69 bd 4a 15 a6 3d fa 72 e4 3d
       -0.07796859 -0.056991912 0.08109529 0.111547425
000240 e4 63 10 bd 98 85 ee bc 48 ea c3 3c c6 b2 e3 3d
       -0.035251513 -0.029116437 0.023915425 0.11118083
000250 20 31 d6 3b 14 28 35 3d b0 fd 09 be a2 40 fb bd
       0.006536618 0.044227675 -0.1347568 -0.12268187
000260 c5 14 04 3e 9a 5f cd 3d e4 cf 07 be 3d 10 15 3e
       0.12898548 0.10028 -0.13262898 0.14556976
000270 88 be 93 bc 09 69 1f 3e b6 1b de 3d 8f 6f 26 be
       -0.018035188 0.15567411 0.10845129 -0.16253494
000280 b5 71 8c bd 86 f9 a6 3d 16 40 66 bd 40 75 c5 bb
       -0.068576254 0.081530616 -0.05621346 -0.00602594
000290 04 bc 8c 3d f2 91 1d be b1 15 09 3e 00 ff ea 3a
       0.06871799 -0.15387705 0.13387181 0.0017928779
0002a0 d6 97 5d bd 0f 1c 2e 3e c0 92 ba 3c d0 69 c3 3c
       -0.05409988 0.17002891 0.022775054 0.023854166
0002b0 5c 31 6d bd 34 90 24 bd 54 f7 f5 bd 4e 1b c2 3d
       -0.0579084 -0.040176585 -0.12010065 0.09477864
0002c0 00 7d 1b be f0 06 20 3c c4 88 1b 3d 64 fc af bd
       -0.15184402 0.009767279 0.037972227 -0.085930616
0002d0 00 80 08 3c 8c 31 82 3d 0e 42 d4 3d 82 00 a4 bd
       0.008331299 0.063571066 0.103641614 -0.08007909
0002e0 04 14 28 bd 20 dd cb bc a8 9f 1c bd 78 50 71 bd
       -0.041034713 -0.024885714 -0.038238198 -0.05891463
0002f0 90 f0 c5 bc 58 1a e2 3c 12 4d d5 bd 20 0f ac bb
       -0.02416256 0.027600452 -0.104150906 -0.0052508265
000300 13 39 06 3e 12 c9 8b 3d 94 76 1e be 55 6b e2 bd
       0.1310771 0.068254605 -0.15474921 -0.11055628
000310 08 ac e6 3c 60 36 c9 bd 84 68 4a bd 1c 26 25 3d
       0.028158203 -0.09824824 -0.04941608 0.040319547
000320 d7 01 ba bd 2a 68 89 bd f6 bf 15 be c2 2f d9 3d
       -0.09082382 -0.06709321 -0.14624009 0.10604812
000330 b0 37 1d be 66 8e 67 bd 0c 01 c0 bd 0b 72 ce bd
       -0.15353274 -0.056532286 -0.093752 -0.10080346
000340 bc af 78 3d 80 cb cf 3b f8 98 fa bc 0e 8a e5 bd
       0.06071447 0.0063413978 -0.03059052 -0.112079725
000350 44 1b 39 3d c0 e8 cf 3b de 58 cb 3d 2c dc 0c bd
       0.04519202 0.0063448846 0.099290594 -0.03438966
000360 15 8a 10 3e 04 e9 f2 bd 43 36 22 3e af f4 2b 3e
       0.14115174 -0.118608505 0.15841012 0.16792558
000370 7a dc 98 3d 9d 94 14 3e fe dc db 3d b0 b8 93 3d
       0.074639276 0.14509816 0.1073551 0.07212961
000380 99 98 17 3e 76 7f a1 bd 8c a8 10 3d e0 bb 0c bc
       0.14804305 -0.07885639 0.03531699 -0.008589715
000390 ec 74 34 bd aa d5 eb 3d 0a 77 d4 bd b2 3a a3 3d
       -0.044056818 0.115153626 -0.103742674 0.079701796
0003a0 26 44 e1 bd 25 19 1e be 80 fd bf bc d6 ac c1 3d
       -0.109993264 -0.1543928 -0.023436308 0.09456794
0003b0 a0 09 f2 3b 6e 79 ea bd 30 02 49 bc b9 a4 a2 bd
       0.0073864013 -0.11448942 -0.012268588 -0.079415746
0003c0 2f 40 2b be 2e 63 15 be 9a 64 dc 3d ec 23 04 3d
       -0.16723703 -0.14588615 0.10761376 0.03226082
0003d0 ec c5 15 bd 15 49 10 be d0 24 47 3c b8 a7 cc bc
       -0.036565706 -0.14090379 0.012154773 -0.024982318
0003e0 68 f1 24 bd c4 f6 39 bd 02 40 be 3d e6 39 cb 3d
       -0.040269285 -0.04540135 0.09289552 0.099231526
0003f0 25 96 e4 bd ba 64 ff bd a2 d6 a1 3d 60 06 fa 3b
       -0.1116145 -0.12470384 0.07902266 0.0076301545

emb_net.v_lins1.2.bias f4 [32]
000000 fe 0a fe 3d 28 7c 0c be a6 18 df 3d 98 c9 89 3c
       0.1240444 -0.13719237 0.10893373 0.01681976
000010 5a 31 22 be 26 e8 bf 3d 83 61 02 be 9f 3a 23 3e
       -0.15839139 0.09370451 -0.1273251 0.15940331
000020 eb 10 ce bd 0c 2a 46 3d be e1 b9 3d a4 de 6e 3d
       -0.100618206 0.048379943 0.0907626 0.058317795
000030 0a e8 64 bd 2c 44 7d 3d 50 55 17 be f3 17 1c 3e
       -0.055885352 0.061832592 -0.14778638 0.15243511
000040 62 64 bc 3d 90 a1 3a 3d 8b 2a 94 bd a9 e6 0f 3e
       0.09198834 0.045564234 -0.07234677 0.14052834
000050 d0 f6 74 bc d8 fd bf bc 88 f4 5a 3d aa e7 1f be
       -0.014951423 -0.023436472 0.05345586 -0.15615717
000060 10 3a de bc 10 d1 e8 3c b3 07 8d bd 40 ce c4 3c
       -0.027127296 0.028420001 -0.06886234 0.024024129
000070 46 9c e1 3d f1 9b 20 3e 68 0d b8 3c 8d b2 18 3e
       0.11016135 0.15684487 0.02246733 0.14911862

emb_net.v_lins1.3.weight f4 [32, 32]
000000 6e 62 b6 3d 84 c2 20 3d 4a c2 b6 3d 40 06 b9 bb
       0.08905493 0.039248005 0.089237764 -0.005646497
000010 30 b5 28 be 88 cd 33 3d 80 a3 e4 ba 85 05 01 be
       -0.16475368 0.04389718 -0.0017443746 -0.12599762
000020 92 a2 bb 3d 73 29 1b 3e 77 15 c8 bd 1e 93 f8 3d
       0.09161867 0.1515253 -0.09769719 0.121374354
000030 84 ad 1a 3d 2d 91 23 3e 4a 9e ae 3d 7a 25 1d be
       0.037763134 0.15973349 0.08526285 -0.15346327
000040 e1 3a 00 3e 53 8b 27 3e a0 e5 88 bb c4 e1 c6 bd
       0.1252246 0.16361742 -0.004177764 -0.0971103
000050 aa d6 f5 3d b0 53 0e 3d b5 00 29 be 0d db 17 3e
       0.120038345 0.03474778 -0.16504176 0.14829655
000060 41 81 29 be 86 70 9f bd 00 da 24 3a 4f 63 86 bd
       -0.16553213 -0.07785134 0.0006288588 -0.0656191
000070 c6 59 95 3d ca 30 da 3d 5b 6e 26 3e 8f 19 e7 bd
       0.072925135 0.10653837 0.16253035 -0.11284172
000080 d4 24 01 be ef b8 20 3e c0 8a 15 3b 56 d1 89 3d
       -0.12611705 0.15695547 0.0022818297 0.06729381
000090 18 a2 1f 3d aa 05 fa 3d 28 83 94 3d 7a ba f0 3d
       0.038972944 0.122081116 0.072515786 0.117543176
0000a0 62 98 ee bd e2 b9 e5 3d df e1 33 be f6 be fa 3d
       -0.116501585 0.11217095 -0.17566632 0.12243454
0000b0 d0 e1 13 bc bc 9b 47 bd 33 3f 2c 3e ab 2c 11 3e
       -0.009026006 -0.048732504 0.16820984 0.14177196
0000c0 68 b5 b7 bc 73 bb 9c bd d8 7d 0f 3d 00 63 7c 3a
       -0.022425368 -0.076529406 0.035032123 0.0009627789
0000d0 50 05 1a be 50 5d 29 be 73 52 27 3e 00 26 79 bb
       -0.15041089 -0.16539502 0.16340046 -0.0038017035
0000e0 98 62 0c bd 10 19 93 3c 24 89 d1 bd c0 a3 79 bc
       -0.034273714 0.017956287 -0.102312356 -0.015236795
0000f0 2f 03 2a 3e 1f 4b 93 bd c1 c0 b9 bd cb 73 20 3e
       0.16602777 -0.071920626 -0.09069968 0.15669172
000100 00 ec cf bb 38 38 d8 bd e4 0b 66 3d 92 97 88 3d
       -0.006345272 -0.10557598 0.056163684 0.06669535
000110 57 3e 21 3e 8f 7d 2f 3e c0 4d 5e bc e7 85 17 3e
       0.15746437 0.1713774 -0.013568342 0.14797173
000120 d1 4c 1d 3e 95 a0 06 3e 90 b7 88 bd ad 93 33 3e
       0.15361334 0.13147195 -0.06675637 0.17536803
000130 e0 66 bc 3b 3e be 6e bd ae 09 c5 3d 66 8d 96 3d
       0.0057495683 -0.058286898 0.09620987 0.07351188
000140 9e 3a ad 3d 44 4b 4e 3d f0 57 05 bd 10 11 49 bc
       0.08458446 0.050364748 -0.032554567 -0.012272134
000150 82 73 a6 3d 50 1c de bc eb b2 30 be 40 c4 9f 3c
       0.081275 -0.02711311 -0.17255752 0.019502759
000160 0e 5d fb 3d bc 0c 84 3d 08 89 fb 3c 74 c5 34 be
       0.12273608 0.064477414 0.03070499 -0.17653447
000170 2a ec fa bd 48 c2 8e bd 4a a6 6e bd 7d 68 11 3e
       -0.12252076 -0.0697065 -0.058264054 0.14200015
000180 00 0c 25 3a 18 09 e9 bd 80 a9 93 3c 81 c1 a8 bd
       0.00062960386 -0.113786876 0.01802516 -0.08240033
000190 6d e9 c9 bd de bc d7 3d 00 08 27 bc 49 0a 06 3e
       -0.098589756 0.105340704 -0.010194778 0.13089861
0001a0 cd 17 86 bd ff a8 1f 3e 68 bc 1a 3d 21 62 15 3e
       -0.065475084 0.1559181 0.037777334 0.14588214
0001b0 6f d0 e5 bd 09 7f 21 be cb eb 30 3e 58 66 8c 3d
       -0.11221396 -0.15771116 0.17277448 0.06855458
0001c0 55 0c 00 be c8 6c d1 bd 76 8a f6 bd e9 5c 0e 3e
       -0.12504704 -0.102258265 -0.12038128 0.1390263
0001d0 2e 06 eb 3d 5a 65 bd 3d 50 96 b1 bc c0 20 df 3c
       0.11475788 0.09247847 -0.02167812 0.027237296
0001e0 20 17 3a bd 2a d0 99 3d 19 5f 11 3e ee 06 f6 3d
       -0.04543221 0.07510407 0.14196433 0.120130405
0001f0 11 bf 84 bd e1 49 2f 3e 78 31 09 bd f5 19 25 3e
       -0.064817555 0.17118026 -0.033494443 0.16123183
000200 ed 21 0b 3e 69 50 26 3e fe 15 e7 3d 63 32 2d 3e
       0.1358716 0.16241612 0.112834916 0.16913752
000210 4c a3 c6 bd 5e 80 98 3d a8 42 e8 bc 47 e9 85 bd
       -0.09699115 0.07446359 -0.028352097 -0.06538635
000220 91 b5 22 3e c2 47 98 3d 3f a9 05 3e 0e b0 c0 3d
       0.15889575 0.07435562 0.13052844 0.0940858
000230 d0 ce fe bc a4 9c 47 bd c4 de 55 3d 34 5b 6a 3d
       -0.031104475 -0.04873337 0.0522144 0.057215884
000240 24 4d 01 bd ea 39 d1 bd a0 fe 30 3c 20 23 5d 3d
       -0.031567708 -0.10216124 0.010802895 0.053988576
000250 7a 2f 04 be 40 93 d7 3b 18 d9 c8 bc db 13 e7 bd
       -0.12908736 0.006578833 -0.02451758 -0.11283084
000260 a0 18 ac 3b ab 0f fa bd 90 0c 6d bd de 6d e7 bd
       0.005251959 -0.1221002 -0.05787331 -0.113002524
000270 1e ab f9 3d d4 73 83 3d 84 c0 be bd 20 f4 53 3c
       0.12190841 0.06418577 -0.09314063 0.012936622
000280 a6 ff cb 3d ac d3 77 bd c4 d7 71 3d ae 0f 8c 3d
       0.099608704 -0.0605046 0.05904366 0.06838928
000290 c3 5c d5 bd 9b be 0b 3e 9a 24 e8 bd 86 c9 0d be
       -0.104180835 0.13646929 -0.11335106 -0.13846406
0002a0 47 18 1b 3e 80 28 85 3d b8 21 e1 3c 77 13 26 3e
       0.1514598 0.065018654 0.027481899 0.16218363
0002b0 74 3e d3 bd cf 36 2f 3e 54 c6 7b bd c4 55 8d 3d
       -0.10314646 0.17110752 -0.061468437 0.06901124
0002c0 5a 87 ab bd 51 14 08 3e 59 eb 1a be c5 cb 26 be
       -0.08375426 0.13289 -0.1512884 -0.1628867
0002d0 cc 22 3a 3d e8 ee d6 bc 82 60 a4 3d 00 3f fd ba
       0.04544334 -0.026236966 0.0802622 -0.0019321144
0002e0 6c fb b9 bd 6a 43 cb 3d 68 6d 86 bd b8 8d 59 bd
       -0.09081158 0.099249676 -0.06563836 -0.05311367
0002f0 bb a5 34 3e 82 89 a8 3d ef 21 1f be d0 01 51 bd
       0.17641346 0.082293525 -0.15540288 -0.05102712
000300 e2 18 ac 3d 56 4c a2 3d b8 08 27 bd 52 96 ef bd
       0.084031835 0.07924716 -0.0407798 -0.11698593
000310 5f e1 b0 bd ca e6 b7 3d 95 d1 82 bd 56 fd ef 3d
       -0.08636736 0.089795664 -0.06387631 0.11718242
000320 90 c0 9c bd e0 50 34 bd a2 80 10 be e0 15 f1 3b
       -0.07653916 -0.04402244 -0.1411157 0.007357344
000330 74 04 88 3d f2 2b 8e 3d e7 bc ba bd e0 d3 e8 bc
       0.06641474 0.06941976 -0.091180615 -0.028421342
000340 08 ed 9a bc 60 a6 fa bb f6 be d9 3d bc 62 45 bd
       -0.018911853 -0.007649228 0.10632126 -0.048189864
000350 56 f1 f6 3d 60 3b 3f 3c 00 c4 f7 ba 70 bf 2a 3d
       0.1205775 0.011671871 -0.0018903017 0.041686475
000360 67 77 82 bd 70 c0 33 be d0 28 31 bd 3f c2 97 bd
       -0.063704304 -0.17553878 -0.043251812 -0.074100964
000370 e9 d6 31 be e4 80 42 3d 75 6c 1d 3e 24 9c 15 be
       -0.17367138 0.0474862 0.15373404 -0.14610344
000380 06 e5 ea bd 47 42 28 3e e0 82 5a bc 80 89 f8 bc
       -0.11469464 0.16431533 -0.013336867 -0.030339003
000390 00 4d cd 3c 3c 21 2d 3d 89 3b 06 3e 02 f2 67 bd
       0.02506113 0.042268023 0.13108648 -0.05662728
0003a0 34 e8 f7 bd 9f 28 26 be 71 f3 34 3e 07 7d 23 3e
       -0.12104836 -0.16226433 0.1767099 0.15965663
0003b0 d0 d3 1c bc e0 07 32 bd e5 68 34 3e 50 e2 2a bc
       -0.009571984 -0.04346454 0.17618139 -0.010429934
0003c0 cd 33 d1 bd 60 3c 8a 3b 40 1f 91 3b 01 c1 0c 3e
       -0.10214958 0.004218623 0.004428774 0.137455
0003d0 a8 f8 ad bd 6d 3a 14 3e 7e d6 fc 3d 8c 4f 2c be
       -0.08494693 0.14475413 0.12345599 -0.1682722
0003e0 b0 b9 73 3c 68 4a b8 bd e2 85 70 bd 26 4a c9 3d
       0.014875814 -0.08998567 -0.05872143 0.09828596
0003f0 f8 ff 26 be ab 5f 15 3e 4e d7 bb bd 56 f6 a1 3d
       -0.16308582 0.14587276 -0.091719255 0.07908313

emb_net.v_lins1.3.bias f4 [32]
000000 2b 81 14 3e 24 69 27 3d 3c 8a 8a bd 59 fb 2a 3e
       0.14502399 0.040871754 -0.06764647 0.16697444
000010 dc 08 08 3d db e9 1b 3e 65 fb 1b 3e 00 86 2c 3d
       0.033211574 0.15225928 0.15232618 0.04211998
000020 80 cb 85 3d 66 f8 cd bd 28 8f c6 bc 70 85 d0 3c
       0.06532955 -0.10057144 -0.024238184 0.025454253
000030 09 86 17 3e e6 e1 f4 3d 98 5c 23 bd b6 28 ff bd
       0.14797224 0.11957149 -0.039883226 -0.12458937
000040 55 f9 21 3e 58 61 cc bc 9f bc 09 3e 32 fe bb bd
       0.15817769 -0.02494876 0.1345086 -0.09179343
000050 00 83 e3 3b b0 ee ee bc 86 b6 8f bd 4b d3 cc bd
       0.0069431067 -0.02916655 -0.070172355 -0.100012384
000060 4c 91 ad bd e8 d2 d6 3c a3 45 31 be e2 11 9f 3d
       -0.08474979 0.026223615 -0.1731172 0.07767083
000070 b2 6d f3 3d 18 75 89 3c 30 32 1b be 68 16 fe 3c
       0.11886157 0.016779467 -0.15155864 0.031016544

emb_net.v_lins1.4.weight f4 [32, 32]
000000 c2 e3 2e be 2a 6b ea 3d 1e a4 b9 3d d0 c5 ad bc
       -0.1707907 0.11446221 0.09064506 -0.021212488
000010 aa d4 fa 3d 88 6d 00 bd 28 de db 3c c5 09 d0 bd
       0.12247594 -0.031354457 0.02683933 -0.101581134
000020 8c 7a 2a be 10 26 6b bc 48 21 3d 3d e0 7e 13 bc
       -0.1664831 -0.0143523365 0.046174318 -0.009002417
000030 f1 26 25 3e ea e1 fe bd b8 9b 91 bc 4c d5 2d 3d
       0.16128136 -0.124454334 -0.017774448 0.042439744
000040 7e 06 dd 3d 12 bc a8 bd bc b8 9d bd 07 a7 19 3e
       0.10792254 -0.082389966 -0.07701251 0.15005122
000050 10 79 08 bd 92 c8 26 be df 70 1c 3e 08 30 15 3d
       -0.03331858 -0.16287449 0.15277432 0.03642276
000060 e0 69 b7 3c 08 f4 a0 3c 88 51 25 3d 64 86 76 3d
       0.022389352 0.019647613 0.040360957 0.06018676
000070 f2 f6 f2 bd bc b1 17 bd d7 5c 04 3e a0 f5 de bd
       -0.11863507 -0.037034735 0.1292604 -0.10886693
000080 c9 20 00 3e a0 3b 08 3c d4 c5 7e bd 1a 76 91 3d
       0.12512507 0.008314997 -0.062200382 0.07102604
000090 f7 92 2b be 2d 0e 09 3e c3 84 2c be bd 80 2e 3e
       -0.16755281 0.13384314 -0.1684752 0.17041297
0000a0 c2 1e a0 3d 46 e1 a3 bd 64 6c f9 bd d4 37 2b 3d
       0.078183666 -0.08001952 -0.12178877 0.04180129
0000b0 81 78 17 3e 88 9a 27 bd 56 7c d8 3d 81 37 0a 3e
       0.14792062 -0.040918857 0.1057059 0.13497736
0000c0 ec 1b a6 bd c8 e5 50 3d 44 82 0e bd 00 9b 6a 3c
       -0.081107944 0.051000386 -0.0347922 0.014319181
0000d0 e0 a8 16 bc 5e ff 32 be dc d3 36 3d 1e 76 b8 3d
       -0.009195536 -0.17480227 0.04463564 0.09006904
0000e0 9d ac a4 bd b0 d5 91 bc f8 84 90 3c c8 17 33 bd
       -0.08040736 -0.01780209 0.01764153 -0.04372385
0000f0 8e 0e fd 3d ae 62 0b be 64 f4 8c 3d d7 87 18 3e
       0.12356292 -0.13611862 0.06882551 0.14895569
000100 08 77 85 3c de 74 dd 3d 30 6c f1 bc fd 06 e4 bd
       0.01629211 0.10813306 -0.029470533 -0.111341454
000110 b9 64 e0 bd 6e 34 05 be 80 27 f3 bb 88 6e 34 bd
       -0.10956711 -0.13008282 -0.0074204803 -0.044050723
000120 98 6f fd 3c 3a 01 76 bd fc 36 24 3d 16 b2 a0 3d
       0.030937001 -0.060059763 0.0400915 0.07846467
000130 f6 7c f1 bd d8 d7 b8 bc 69 99 dd bd da 38 a8 3d
       -0.117914125 -0.02256386 -0.10820276 0.082139686
000140 36 fd 8f 3d 20 9b 07 bc c8 c7 55 3d d0 07 3a bc
       0.07030718 -0.008276731 0.05219248 -0.011354402
000150 c0 0a 19 3c bb ef 1d be 2d c1 16 be 25 13 2d 3e
       0.009340942 -0.15423481 -0.14722128 0.16901834
000160 63 1b 01 be 99 ff bf bd 68 dd cd bd 14 a8 09 bd
       -0.12608103 -0.09374923 -0.100519955 -0.033607557
000170 fe f3 6c bd 90 17 41 3d ee 7e fc 3d 34 2f 03 bd
       -0.057849877 0.04714161 0.123288974 -0.03202744
000180 92 81 b7 3d 75 10 9f bd b7 9f fd bd b0 20 c9 bd
       0.089602605 -0.07766811 -0.12383979 -0.09820688
000190 0a 22 b3 3d 77 62 a2 bd 12 fb fc 3d 00 78 56 39
       0.08746727 -0.07928937 0.12352575 0.00020453334
0001a0 4e 45 9c 3d 11 89 05 3e af 7d 1d 3e fd cb 15 3e
       0.07630406 0.13040568 0.15379976 0.14628597
0001b0 3b 1f cf bd f6 2f a8 3d 9a 24 fa 3d 68 3b f0 3c
       -0.101133786 0.08212273 0.122140124 0.029325202
0001c0 38 ea bf bd 86 72 c4 3d 5c d5 65 3d 20 90 ad 3c
       -0.093708456 0.09592156 0.05611168 0.021186888
0001d0 16 cf 8a bd bd 49 00 3e 90 b9 3a 3d e0 d5 aa 3b
       -0.0677778 0.12528129 0.045587122 0.005213484
0001e0 f2 ec e2 3d e6 23 93 bd 90 c9 2a 3c e3 21 04 3e
       0.1108035 -0.071845815 0.010424033 0.12903552
0001f0 28 e8 80 bc 32 7a 57 bd 14 3d cc bd e0 47 25 3c
       -0.0157357 -0.05260677 -0.09972587 0.010087937
000200 05 d3 27 3e 55 9f 22 be fe 67 9f 3d ca 57 a8 3d
       0.16389091 -0.15881093 0.07783507 0.082198694
000210 d4 92 46 3d 92 df ea 3d d9 8b 14 be f8 69 46 3d
       0.04847987 0.11468424 -0.14506473 0.048440903
000220 4a 0a fc 3d e0 fb 10 bd 2b c9 23 be 5d df 30 3e
       0.1230665 -0.035396457 -0.15994708 0.17272706
000230 88 63 59 bd 40 d0 c3 3b 82 2c 8a 3d e8 03 75 3d
       -0.053073436 0.005975753 0.067467704 0.05981818
000240 10 18 2a 3c 7c 71 9b bd 9e a5 2e be 65 e4 06 3e
       0.0103817135 -0.07590005 -0.17055365 0.13173063
000250 c0 ad 39 3b a8 ad 54 3d ce be 81 3d 20 c9 2c 3d
       0.0028332323 0.051923424 0.06335221 0.042183995
000260 40 e4 89 bd 84 08 5e bd 4e 03 eb 3d c6 a7 b2 3d
       -0.06732988 -0.05420734 0.1147524 0.087234065
000270 8c f3 10 bd 02 bf ce 3d 11 b9 30 3e 58 fa 7f 3d
       -0.035388514 0.100950256 0.17258097 0.062494606
000280 f8 16 85 3d 56 72 0d be 12 2d 94 3d e0 00 91 bd
       0.064985216 -0.13813147 0.07235159 -0.07080245
000290 fa a7 81 bd d1 15 17 be 12 b5 e2 bd 09 15 01 3e
       -0.06330867 -0.14754416 -0.11069693 0.1260568
0002a0 22 92 03 be fd a3 09 3e 0e 11 ba bd 00 b7 47 3a
       -0.12848714 0.13441463 -0.09085284 0.00076185167
0002b0 25 4e 19 3e b1 41 2b be a0 ee dd bb 00 91 b1 3a
       0.14971216 -0.16724278 -0.006772831 0.0013547242
0002c0 5f 43 24 3e c5 77 aa bd a0 e0 fe bb 39 f9 a0 bd
       0.16041325 -0.083236255 -0.007778242 -0.078600354
0002d0 7c 27 ee bd bc 96 50 3d 5d 5d e7 bd 9d 3f 11 be
       -0.11628625 0.050925 -0.112971045 -0.14184423
0002e0 c6 dc 1b be a0 ef 4e bc 5b 22 c5 bd 62 54 fa 3d
       -0.15220937 -0.012630373 -0.096256934 0.12223126
0002f0 35 c7 08 3e 6b 30 b2 bd 5b 46 25 3e 66 40 d0 3d
       0.13357241 -0.08700641 0.1614012 0.10168533
000300 e4 99 cd bd 77 59 19 3e 0a 4c bf 3d 09 fb 34 3e
       -0.10039118 0.14975534 0.09340675 0.17673887
000310 55 e3 11 3e f8 89 3a 3d 45 58 32 be 12 57 a3 3d
       0.14246877 0.045541734 -0.17416485 0.07975592
000320 68 68 c6 3c df 50 03 3e 58 a0 cf bd 40 cc 8d bb
       0.024219707 0.12823819 -0.10138005 -0.004327327
000330 d1 af 14 3e fe 91 f4 3d e0 63 2b bc 65 cb 2f be
       0.14520194 0.11941908 -0.010460824 -0.17167433
000340 1d 79 02 3e 8e 58 dc 3d 61 50 aa bd 00 f6 ea 3c
       0.12741514 0.10759078 -0.08316112 0.028681755
000350 9f 76 ac bd c8 14 4b 3d 31 19 d0 bd 06 a5 d0 3d
       -0.08421063 0.049580365 -0.10161055 0.10187726
000360 01 2d eb bd a0 60 7e 3d c4 28 43 3d 94 67 16 bd
       -0.11483193 0.062103868 0.0476463 -0.036719874
000370 4b 6a 33 3e b8 17 ab bd b8 ad 29 be ef 1f 1d be
       0.17521016 -0.08354133 -0.16570175 -0.15344213
000380 76 5f 25 be 10 73 04 be 80 62 93 bc ca 79 99 bd
       -0.16149697 -0.12934518 -0.017991304 -0.074939325
000390 9e 6e 9f 3d a8 8c 9f bc 1e a9 8c 3d bc 92 51 bd
       0.077847704 -0.01947625 0.06868194 -0.051165327
0003a0 94 28 0e be 50 b1 70 3c 32 68 a1 3d 1e 0a dc 3d
       -0.13882667 0.014690712 0.07881202 0.10744117
0003b0 1a 80 d6 3d df 2b c6 bd 5a 07 ca 3d 11 a4 c2 bd
       0.10473652 -0.096763365 0.098646834 -0.095039494
0003c0 94 15 4b 3d 78 ff 1b bd 48 bf f1 3c 32 50 e2 bd
       0.049581125 -0.03808543 0.029510155 -0.11050452
0003d0 49 9c 8e bd 4c 63 da bd a6 c5 6a bd 0a da 99 3d
       -0.06963403 -0.106634706 -0.0573174 0.07512291
0003e0 e0 e2 77 bd fe c0 b1 3d 00 a8 33 bc a0 e4 8d 3d
       -0.0605191 0.086793885 -0.010965347 0.069283724
0003f0 f5 60 cb bd 8b f0 2c 3e c3 94 06 be e4 d7 8d 3d
       -0.099306025 0.16888635 -0.13142686 0.069259435

emb_net.v_lins1.4.bias f4 [32]
000000 81 70 33 3e 68 77 1c bd f0 13 d3 bd 70 83 0b bd
       0.17523386 -0.038199812 -0.10306537 -0.034060895
000010 6c 8f 09 bd fc 5b 21 be e0 93 57 3d 98 e8 30 be
       -0.033584043 -0.15757746 0.05263126 -0.17276227
000020 0e 0e 9b 3d 9b 8e 27 be 0e ad e4 3d 00 5f 77 ba
       0.0757104 -0.16362993 0.1116582 -0.00094364583
000030 8e 1e c1 3d f2 a4 28 be f0 53 4f 3c 80 92 c3 3a
       0.09429656 -0.16469172 0.01265429 0.001492098
000040 80 4b 93 bb 99 08 2a 3e 6a b5 2f be 2e 3e fd bd
       -0.0044950843 0.16604842 -0.17159048 -0.123653755
000050 b5 65 d8 bd ee 73 5e bd 96 c6 96 3d 33 ef 33 3e
       -0.10566274 -0.054309778 0.07362096 0.17571716
000060 9f b8 00 3e ca 77 cd 3d 93 d7 23 3e 5b 43 bd bd
       0.12570427 0.100326136 0.16000204 -0.09241363
000070 79 f5 96 bd 37 7e 02 3e e0 d9 e0 bb eb 07 34 3e
       -0.07371039 0.1274346 -0.00686191 0.17581145

emb_net.v_lins1.5.weight f4 [32, 32]
000000 59 04 d1 bd 50 1f 3a bc a0 03 d4 bd 67 59 28 be
       -0.102059074 -0.011360005 -0.10352254 -0.16440354
000010 96 2f 7b bd 63 45 17 3e 58 f9 07 be c4 90 6b 3d
       -0.06132468 0.14772563 -0.13278711 0.057511106
000020 7a 7f dc 3d b1 b4 01 3e a8 af 50 bd f6 7e 7e bd
       0.10766502 0.12666585 -0.05094877 -0.062132798
000030 29 49 28 3e a2 7c a4 3d b3 d3 31 3e c3 04 e5 bd
       0.16434158 0.08031584 0.17365913 -0.11182549
000040 40 68 a0 3c 57 ca 17 3e 0e fa 10 be 40 46 2d be
       0.01958096 0.1482328 -0.14157888 -0.1692133
000050 02 75 ee 3d 50 78 c9 3c c0 11 94 bc f0 3a 7a bc
       0.11643411 0.024593502 -0.01807487 -0.015272841
000060 eb 72 01 3e f4 60 6d bd 80 a4 e5 3c a1 48 34 3e
       0.12641494 -0.05795379 0.028032541 0.1760583
000070 ef 26 23 3e 9b 50 24 be d3 72 0c 3e 70 96 85 3d
       0.1593282 -0.16046374 0.13715677 0.06522834
000080 a0 5e 66 bc c0 16 09 bb 0c 5c 5c 3d 08 18 a2 bd
       -0.014060646 -0.00209181 0.05379872 -0.0791474
000090 67 20 18 be 00 f3 7f bc 08 e3 66 3d 78 4d 08 3d
       -0.1485611 -0.015621901 0.056368858 0.033277005
0000a0 50 5c bc 3c 9c 37 07 3d 76 cd 10 be 52 2b 9c 3d
       0.022993237 0.033012018 -0.14140877 0.0762545
0000b0 8a 71 de 3d 60 5e f6 bd 04 32 c2 bd 06 04 2b be
       0.108614996 -0.12029719 -0.09482196 -0.16700754
0000c0 f4 ba 11 bd 8b 59 28 3e 22 bc e9 3d c0 4f c1 bc
       -0.035578683 0.16440408 0.114128366 -0.023597598
0000d0 1d 44 27 3e 65 b3 34 be 6c 2b 29 bd 90 f4 07 be
       0.16334577 -0.17646559 -0.041301176 -0.13276887
0000e0 21 2d 09 3e 50 0b 34 bc 39 e4 da bd 70 68 41 bd
       0.13396122 -0.010989025 -0.10688061 -0.04721874
0000f0 80 93 25 3d c4 25 0f bd b8 c6 1d bd 00 e3 16 be
       0.04042387 -0.034948125 -0.03851959 -0.14735031
000100 56 69 ee 3d e7 60 2a be 6b a1 10 3e 37 16 cb bd
       0.11641185 -0.16638528 0.14124076 -0.099163465
000110 08 b6 5b 3d 0c b5 c9 bd a8 db 84 3d 74 bf 2d 3d
       0.053640395 -0.09848985 0.064872086 0.042418912
000120 6e 4a 85 bd 80 57 25 bc b8 2a 06 3d e8 c5 90 bd
       -0.06508337 -0.010091662 0.032755584 -0.070689976
000130 6f ad 28 3e 18 50 6e 3d 46 81 b7 3d c3 12 16 be
       0.1647241 0.058181852 0.08960204 -0.14655595
000140 c0 89 04 3b 18 fc 59 bd 9e 11 a8 3d 02 c2 84 3d
       0.0020223707 -0.05321893 0.08206485 0.064823166
000150 37 fc 10 3e 40 17 ba bb 19 59 29 3e fa 01 f4 bd
       0.14158712 -0.005679041 0.16537894 -0.119144395
000160 80 8a e2 bd 66 94 58 bd 40 c3 6f bc f2 98 e8 3d
       -0.11061573 -0.0528759 -0.014633954 0.11357297
000170 14 56 65 3d 50 4f 78 3c 5a ff e3 3d a0 12 91 3b
       0.055990294 0.015155628 0.11132689 0.004427269
000180 f0 47 64 3d d0 f5 e1 bc b8 3a 2c 3d d0 95 ce bc
       0.055732667 -0.027583033 0.042048186 -0.02521792
000190 8b 24 28 be ae cc 8a bd 1c 32 10 bd 24 97 12 be
       -0.1642019 -0.06777321 -0.035204038 -0.14315468
0001a0 cb 7e 11 be 71 03 0b be 31 73 87 bd 5a 9d 01 be
       -0.14208524 -0.13575532 -0.06613768 -0.12657681
0001b0 c9 93 df bd 80 1a 6f bd 44 9c 31 3d 5f 78 00 be
       -0.1091686 -0.05837488 0.043361917 -0.12545918
0001c0 8a 18 9b 3d af a5 13 3e 54 dc 13 3d c2 8e ff 3d
       0.0757304 0.14418672 0.036098793 0.12478401
0001d0 d6 c4 9c 3d 47 4b c1 bd eb 8c 2f 3e 6d a1 b6 bd
       0.07654731 -0.09438186 0.171436 -0.08917508
0001e0 58 cb 89 3c f4 6c 64 3d 86 87 f3 3d e2 86 0e be
       0.016820595 0.05576797 0.118910834 -0.13918641
0001f0 8e 99 8c 3d ac 14 dd bd 00 e4 b1 39 a5 ce 32 be
       0.06865226 -0.107949585 0.00033929944 -0.17461641
000200 00 f5 69 bc 41 9b 28 3e 3a dc ed 3d ae 0c ab 3d
       -0.014279604 0.16465475 0.116142705 0.08352028
000210 fb 84 18 3e 96 15 f7 3d cc ab 53 3d 96 29 fe 3d
       0.14894478 0.12064664 0.05167751 0.12410276
000220 48 ce cb 3c aa 24 e4 bd e7 9b 1b 3e 3d 27 9d bd
       0.024878636 -0.111398056 0.15196191 -0.076735
000230 01 67 17 be 3e a2 62 bd 40 c8 a9 bc 98 26 15 bd
       -0.14785387 -0.055330507 -0.02072537 -0.03641376
000240 4f a1 1b 3e 41 2e 31 3e f6 63 cb bd 09 fe 14 be
       0.15198253 0.173028 -0.099311754 -0.14550032
000250 d5 f3 01 3e 0c 5d 43 bd 2e af e4 bd 1c da ec bd
       0.12690671 -0.04769616 -0.111662254 -0.115650386
000260 46 00 d3 bd 38 43 f6 3c 3c e0 4e bd fc bb 23 bd
       -0.103027865 0.03006135 -0.050506815 -0.039974198
000270 50 96 84 3c 04 49 2d be e2 c8 b4 3d f9 7f 83 bd
       0.016184956 -0.16922385 0.08827378 -0.06420893
000280 df ed 24 3e 7e 30 80 bd 39 a3 01 be f0 65 ba bc
       0.16106366 -0.06259249 -0.12659921 -0.022753686
000290 68 a6 01 3d df f5 03 3e 7f 8e 88 bd 10 dc 0b bd
       0.031652838 0.12886761 -0.06667804 -0.034145415
0002a0 35 66 09 3e af 57 0d 3e f2 2d 29 be ba b8 fb bd
       0.13417895 0.1380298 -0.16521433 -0.12291093
0002b0 1c 76 83 3d 62 76 c5 3d 82 39 c2 3d c1 bc 30 3e
       0.06419012 0.0964172 0.09483625 0.17259504
0002c0 83 d1 19 be c4 7e 53 3d d8 ee 63 3d 98 0a 30 3d
       -0.15021329 0.051634565 0.0556477 0.042978853
0002d0 b8 20 20 bd 9a 23 b4 3d b0 04 d6 bd b0 99 18 be
       -0.039093703 0.08795853 -0.10450113 -0.14902377
0002e0 08 d8 84 3d 65 97 be bd 50 7d 3a bd e0 34 64 bd
       0.06486517 -0.0930622 -0.045529664 -0.055714488
0002f0 21 04 ad bd 8e 29 ba 3d d0 16 52 bc 48 99 d8 bd
       -0.08448053 0.09089957 -0.012822822 -0.10576111
000300 48 87 9e bc 62 de ea bd 75 50 2e be 6c 9b 6c 3d
       -0.019351617 -0.114681974 -0.1702288 0.05776541
000310 20 21 1c bc 48 25 f8 3c fa 43 83 3d 2a a8 bd 3d
       -0.009529382 0.030291215 0.0640945 0.092605904
000320 a6 aa b0 3d 7f fd 24 3e 80 37 86 3a 81 43 c0 bd
       0.086262986 0.16112326 0.0010239929 -0.09387875
000330 f2 68 16 be 0c 92 8e bd 6d aa 12 be da a3 9b bd
       -0.14688471 -0.0696145 -0.14322825 -0.075996116
000340 48 20 85 bd 70 b5 d9 bd 7a 08 c0 3d 31 24 ab bd
       -0.06500298 -0.106303096 0.09376617 -0.08356512
000350 1b 08 c2 bd aa c8 22 be d4 d4 23 bd dc e0 32 3d
       -0.09474202 -0.1589686 -0.03999789 0.043671474
000360 c3 7a 2d 3e f0 9d 6a 3d d6 8b 59 bd 1a e9 56 bd
       0.16941361 0.057279527 -0.053111874 -0.052468397
000370 88 d7 ab bc d0 38 bf 3c f6 81 e0 3d 76 1b ed 3d
       -0.020976797 0.02334252 0.10962288 0.115775034
000380 6f 0b 26 3e c0 24 c4 3b 98 e2 91 bd 70 81 7d bc
       0.16215299 0.0059858263 -0.071232975 -0.015472755
000390 0c 27 0e 3d 41 6c 31 3e e0 08 7e bc c4 82 a9 bd
       0.034705207 0.17326452 -0.015505046 -0.08276895
0003a0 50 6e 4d bd 74 27 51 3d a0 11 5c 3d b0 6f 9b bc
       -0.05015403 0.051063016 0.053727746 -0.018974155
0003b0 15 0f 13 be 18 36 e7 3c 82 42 e0 3d f2 bf cf 3d
       -0.14361222 0.028224036 0.10950185 0.101440325
0003c0 b0 bf da bc 5e 5e a3 3d d0 3c 70 3d c2 2a 96 3d
       -0.026702732 0.079769835 0.058651745 0.07332374
0003d0 d0 01 fe bc 41 dd 24 be 0e 10 6a bd 32 1a d5 3d
       -0.031006724 -0.16100027 -0.057144217 0.10405387
0003e0 1e 1b 96 3d ca bb 00 be 06 49 be 3d 20 15 4a 3d
       0.07329391 -0.12571636 0.09291272 0.049336553
0003f0 45 a7 b6 bd e0 ba 0b bc 20 83 bb bc 90 2b 19 3c
       -0.08918623 -0.008528441 -0.022889674 0.009348765

emb_net.v_lins1.5.bias f4 [32]
000000 5d 43 b7 bd 9e 43 87 3d 26 95 96 3d a8 58 86 bd
       -0.089483954 0.06604694 0.073526666 -0.065598786
000010 f9 b5 0d 3e ee bd ef 3d 52 44 f4 3d 7e 58 f3 bd
       0.13838948 0.11706148 0.119270936 -0.11882113
000020 96 fc eb bd a4 d8 5a bd 07 a3 c7 bd 36 11 bf 3d
       -0.11522786 -0.05342926 -0.09747892 0.093294546
000030 ef 01 28 be 86 31 af 3d 97 a0 df bd 24 47 0c be
       -0.16406988 0.08554368 -0.10919302 -0.13699013
000040 52 89 61 bd 00 16 b9 39 94 62 84 3d de bf b3 bd
       -0.0550626 0.0003530234 0.06464115 -0.0877683
000050 88 25 8d 3d f6 f3 2e be a4 2d 30 be 26 96 67 bd
       0.06891924 -0.17085251 -0.1720491 -0.056539677
000060 12 b3 c1 3d 9a b4 bc 3d e8 aa 02 3d 20 03 00 bc
       0.09457983 0.092141345 0.03190127 -0.007813245
000070 be 56 a4 3d fc da 29 3d 64 27 6a 3d 0a 44 27 be
       0.08024357 0.041468605 0.057166472 -0.16334549
