or/GFlowNet and ACO to solve TSP/DeepACO/tsp/pretrained/sop/sop20.pt (torch, 350818 bytes, 230 tensors)

emb_net.v_lin0.weight f4 [32, 1]
000000 57 ac 72 bf 1e 4b 3b be 2c 61 ef be 4b 2a 88 be
       -0.9479422 -0.18290374 -0.46753824 -0.26594767
000010 a1 9d 60 bf ea f0 ca 3e 61 1c 68 bf 09 2d 96 bd
       -0.8774052 0.39636928 -0.906683 -0.073328085
000020 b4 cc ad 3e d8 3d ab be 56 c4 0e 3f 1d aa 11 3e
       0.3394524 -0.3344562 0.55768335 0.1422505
000030 01 34 0e 3f bc 15 24 3f 92 44 e1 be 67 49 b8 3e
       0.555481 0.64095664 -0.43997627 0.35993502
000040 99 a9 da be c9 50 9e 3e 07 b8 04 bf 44 67 f1 3e
       -0.42707518 0.3092101 -0.51843303 0.47149098
000050 d1 ef 56 3e b2 ce c7 be 92 d4 fc be 6f f4 82 3e
       0.2098992 -0.39024884 -0.49380928 0.25577113
000060 f6 6e 6c 3f 46 3f ef 3e ae 07 be bd c3 88 81 bd
       0.9235681 0.4672796 -0.092788085 -0.06324913
000070 85 4a 0b 3f a7 e5 2e bf 86 b0 a5 3e 0d 56 a8 be
       0.5441058 -0.6831917 0.3236124 -0.32878152

emb_net.v_lin0.bias f4 [32]
000000 7f 5d 15 3f a0 9a bd be 64 7e 16 3d 0a 46 ad 3e
       0.5834579 -0.37032032 0.03674163 0.33842498
000010 8d bd 2e 3f 97 7d 1a be d9 f6 6b 3f 24 d2 55 bf
       0.6825798 -0.15086971 0.92173535 -0.83523774
000020 06 c2 3f be 86 68 7d bf b7 b7 96 3d 97 95 99 3e
       -0.18726358 -0.98987615 0.073592596 0.2999694
000030 d9 3e cb be ce fa d4 3e db 2a 2c be 87 59 5f bf
       -0.39696386 0.415976 -0.16813223 -0.8724598
000040 c1 86 43 3f 3a 5a 1c 3f 57 61 00 3f 52 d7 4e 3f
       0.76377493 0.61075175 0.5014853 0.807973
000050 93 b2 bf 3e 55 05 07 3f 06 c2 55 3f 9f 6f 52 be
       0.3744093 0.5274251 0.8349918 -0.20550393
000060 80 f8 48 bf a8 df 00 bf 3e d4 0c be 76 4d c2 bd
       -0.7850418 -0.5034127 -0.13752839 -0.09487431
000070 ea bb d7 bc fc cc 0f 3f cd cb 9f 3e 68 54 3e bf
       -0.026334722 0.56172156 0.31210175 -0.74347544

emb_net.v_lins1.0.weight f4 [32, 32]
000000 48 84 59 bd c4 56 2a bd 76 57 dc 3d 0f 57 83 bd
       -0.05310467 -0.041586652 0.10758869 -0.064130895
000010 ad 78 97 bd c0 d5 e8 bc 30 2f 38 bd 90 47 32 bd
       -0.07396064 -0.028422236 -0.044966877 -0.04352528
000020 e4 1d 31 be 33 49 21 3e 7a af c0 3d d5 4f ab bd
       -0.17296559 0.1575058 0.094084695 -0.08364836
000030 45 e3 e1 bd c0 85 c9 3b b6 47 ce 3d 2e e8 01 be
       -0.11029676 0.0061499774 0.100722715 -0.12686226
000040 1e bc 88 bd 9a 6e 97 3d 2f 85 e9 bd 88 40 a1 bc
       -0.066765055 0.073941424 -0.11402356 -0.019684091
000050 9d 81 08 be 15 e6 27 3e 46 27 c3 3d 19 52 27 be
       -0.13330694 0.16396363 0.09528975 -0.16339912
000060 f4 e2 c7 bd 14 56 80 3d 80 bb 1e 3c 20 e3 3f 3d
       -0.09760085 0.06266418 0.009688258 0.046847463
000070 90 16 14 be a0 d9 c1 bd 42 45 a4 3d 12 07 0a be
       -0.14461732 -0.09465337 0.080210224 -0.1347926
000080 60 e1 17 bd 4e 35 9f 3d 76 e7 bb 3d b0 15 34 3c
       -0.03708017 0.07773839 0.09175007 0.010991499
000090 4c e7 51 3d a6 0c a1 3d 20 2e a9 bc 28 d7 45 bd
       0.051245973 0.078637406 -0.020651877 -0.048300892
0000a0 99 3c 0a 3e 1f 76 30 3e 62 b2 a7 3d 80 42 9e bd
       0.13499679 0.1723256 0.08188321 -0.077275276
0000b0 65 75 1d be 42 ab 32 be 00 4a a0 3a 3c e8 8a bd
       -0.15376814 -0.17448142 0.0012229085 -0.067825764
0000c0 ac 35 36 bd 20 a5 cb bc 37 31 2b 3e 7f 95 2b 3e
       -0.04448478 -0.024859011 0.16717993 0.16756247
0000d0 98 65 87 bc 2c 6d 59 bd be d1 af 3d d0 1d 67 bc
       -0.016527936 -0.05308263 0.08584927 -0.014106229
0000e0 e1 3d 2c be 94 06 6c 3d b7 4c 2d 3e 36 7d 0f be
       -0.1682048 0.05762346 0.16923796 -0.14012608
0000f0 b8 61 1c bd f8 06 1d 3d dd 67 13 be 4c fb 1a be
       -0.03817913 0.038336724 -0.1439509 -0.15134925
000100 13 23 07 3e 3d 32 80 bd e6 2f d3 3d 30 76 81 3c
       0.13196974 -0.06259582 0.1031187 0.015803427
000110 64 aa 30 3d 06 49 f1 bd c4 a4 1a bd b6 d1 ee 3d
       0.043131247 -0.11781506 -0.03775479 0.11661093
000120 c6 0d a6 3d 60 59 51 bd 80 26 b2 3c 79 97 0a 3e
       0.08108096 -0.051110625 0.021746874 0.13534345
000130 d1 9b 1e be 0e 8e e8 3d 40 9d 59 bd a0 4d 13 bd
       -0.15489127 0.1135522 -0.05312848 -0.0359627
000140 9a 47 ac 3d 24 62 16 be b0 c5 da bc 71 fc 2c 3e
       0.084120944 -0.14685875 -0.026705593 0.16893174
000150 ec 4c 82 3d e4 de 85 bd 1c b8 1d bd a1 c1 0e 3e
       0.06362328 -0.06536654 -0.03850566 0.13941051
000160 f0 c7 88 3d 96 6a f5 3d 9b 22 e9 bd f8 c0 50 3d
       0.0667876 0.1198322 -0.113835536 0.05096528
000170 48 6f 01 3d 68 6f fc 3c f9 15 28 3e 0a 6a c8 3d
       0.031600267 0.030814841 0.16414632 0.0978585
000180 e6 8d f9 3d b2 f7 9e 3d be 28 98 3d 20 e5 fb bc
       0.12185268 0.07762088 0.07429646 -0.030748904
000190 ca c3 1f be 96 e9 18 be a9 7c e1 bd 40 66 ea bd
       -0.15602031 -0.14932856 -0.11010105 -0.11445284
0001a0 86 6e aa 3d 28 26 60 3d a4 76 4e bd a6 e4 09 be
       0.08321862 0.05472389 -0.050406113 -0.13466129
0001b0 09 35 32 3e 05 07 08 3e d6 2d ac 3d e3 2d 33 3e
       0.17403044 0.13283928 0.0840718 0.17497973
0001c0 93 c0 c0 bd 7b 2c ce bd a0 ea d3 bd 00 39 0c bc
       -0.094117306 -0.10067078 -0.103474855 -0.008558512
0001d0 f3 ca 1f be 6b 4d 0f 3e 60 03 95 3b 26 4b b4 3d
       -0.15604763 0.13994376 0.0045475215 0.08803396
0001e0 38 d2 c6 bd 08 31 95 bc c0 78 be 3c 10 2f 46 bd
       -0.09708065 -0.018211856 0.023250937 -0.048384726
0001f0 39 dd 2a 3e fc 67 a5 bd c8 d2 60 3d 78 a5 f5 bd
       0.16685952 -0.08076474 0.054888517 -0.11994451
000200 88 68 ab bc f0 18 40 bd 52 34 9c 3d 3e e6 fc 3d
       -0.020923868 -0.046898782 0.07627167 0.12348603
000210 e0 19 30 3d 38 7c 83 bc e4 69 39 bd a9 ec 0d 3e
       0.042993426 -0.016050443 -0.045267 0.1385981
000220 58 17 2b bd 4f ae 02 3e 2d 15 a1 bd b3 30 15 3e
       -0.04177031 0.12761806 -0.07865367 0.14569359
000230 6d 4b 34 3e 36 2c f8 3d 3e a5 cf 3d 54 c0 86 3d
       0.17606898 0.121178076 0.10138939 0.065796524
000240 74 03 b2 bd 40 44 0a 3b a4 52 79 3d 68 33 3d bd
       -0.08692065 0.002109781 0.060869828 -0.046191603
000250 b4 cd 01 3d 96 09 d4 3d 68 b8 27 be a3 c3 24 be
       0.031690314 0.10353391 -0.16378939 -0.16090254
000260 78 a1 d8 bd 68 a7 b0 3c a8 36 06 bd 6c 08 1c 3d
       -0.10577673 0.0215642 -0.032766968 0.03809397
000270 c8 2f 2c bd 16 01 ed bd 78 45 c0 3c 3e 34 f5 3d
       -0.042037755 -0.11572473 0.023470625 0.11972855
000280 8f 61 d9 bd 5b ad 1e 3e 80 34 32 3d b5 7d 32 3e
       -0.10614311 0.15495817 0.0435071 0.17430766
000290 91 eb 25 be 11 46 2d be 44 a7 75 3d 08 df 28 be
       -0.16203143 -0.1692126 0.05997397 -0.1649133
0002a0 3e 58 14 be 3a 17 b8 3d 92 be af 3d d6 f2 24 be
       -0.14486787 0.08988805 0.0858127 -0.1610826
0002b0 f3 41 02 3e 50 cb 0c bd 6b 64 06 3e 09 76 d4 bd
       0.1272047 -0.03437358 0.13124244 -0.10374076
0002c0 34 20 2c be 3e 00 f0 bd 18 81 e0 bc d7 c9 34 be
       -0.1680916 -0.11718796 -0.027405307 -0.17655121
0002d0 90 56 45 bc 02 b0 b4 bd c8 87 28 bd 00 e0 d2 b7
       -0.012044564 -0.08822633 -0.041145116 -2.5138259e-05
0002e0 00 8e 22 3c e4 11 31 be 5e 39 ba 3d 79 e4 dd bd
       0.009921551 -0.17291981 0.09092973 -0.10834593
0002f0 c6 a2 dc 3d 47 df 25 3e 32 79 71 bd 40 88 a2 3c
       0.10773234 0.16198455 -0.05895347 0.01984036
000300 02 9f c7 3d 00 77 65 bc b1 76 17 be 3a a1 a2 3d
       0.09747125 -0.014005423 -0.14791371 0.07940908
000310 c6 3c ac 3d af 58 c6 bd 18 c4 f3 bd a8 b9 fc bc
       0.08410029 -0.09684884 -0.11902636 -0.030850247
000320 48 f7 0d 3d 9c 17 b7 bd 60 3d 8b bb af 72 9c bd
       0.034659654 -0.0894005 -0.00424926 -0.07639062
000330 48 0b 8d bd f8 2f c6 bc 0b fd 89 bd 8f 0c 0b 3e
       -0.06886917 -0.024192795 -0.06737717 0.1357901
000340 6c 42 3e 3d 13 00 22 3e bb 71 23 3e 78 b0 ec 3c
       0.046450064 0.15820341 0.15961353 0.02889274
000350 0c 9e 96 bd 9e 27 dc 3d c0 95 c9 bb 65 01 06 3e
       -0.07354364 0.10749744 -0.006151885 0.1308647
000360 70 9c 1a bd 29 14 20 3e 78 4a bf 3c 38 e0 20 bd
       -0.037746847 0.1563269 0.02335094 -0.03927633
000370 ae 30 ec bd f5 f7 05 3e e8 5d bc 3c 94 77 7a 3d
       -0.115327224 0.1308287 0.022993997 0.061149195
000380 d0 56 92 3d 00 92 15 bc c2 02 b6 bd da 1c 58 bd
       0.071454644 -0.009129047 -0.08887245 -0.05276189
000390 20 f0 00 bc 2e cf e0 3d 60 b0 53 bc 88 90 37 bd
       -0.00786975 0.109770164 -0.012920469 -0.04481557
0003a0 88 cf c4 bc c8 c0 ed 3c fb 7a 10 3e d9 9a 08 3e
       -0.02402474 0.02902259 0.14109413 0.1334032
0003b0 40 66 29 bc a8 f5 bf 3c 7f 2a 24 3e 92 0e 9f 3d
       -0.01033932 0.023432568 0.16031836 0.07766451
0003c0 28 ce 98 bc d6 9e d6 3d 52 e7 a4 3d 60 76 42 bd
       -0.01865299 0.10479514 0.08051933 -0.047476172
0003d0 d8 74 92 3d b0 90 65 3c ba 69 86 bd 10 29 63 bc
       0.071511924 0.014011547 -0.065631345 -0.0138647705
0003e0 61 60 2a 3e 2c 80 59 3d 60 73 15 be e2 b7 e6 3d
       0.16638328 0.05310075 -0.14594793 0.112655416
0003f0 30 94 1b 3d fa 17 b2 3d 00 ba 42 3a 3c fd 8f 3d
       0.03798312 0.086959794 0.0007428229 0.070307225

emb_net.v_lins1.0.bias f4 [32]
000000 70 d3 62 bc 4a e3 16 be 13 e1 10 3e b1 a1 17 3e
       -0.013844356 -0.14735141 0.14148359 0.14807774
000010 42 d5 02 be 6c 27 3c bd 3e 08 dd bd 19 d1 c5 bd
       -0.12776664 -0.045936033 -0.10792588 -0.09659023
000020 85 15 26 3e 65 aa ac bd 36 5b a3 3d e6 94 c1 3d
       0.16219147 -0.08430938 0.079763815 0.09452228
000030 48 20 c1 3c 84 24 e3 bd 80 7e 4f bc 30 85 0e bd
       0.023574963 -0.11090949 -0.012664437 -0.034794986
000040 f7 58 34 3e 5e ee f9 3d 10 c1 a4 3c 72 10 c1 3d
       0.17612062 0.12203668 0.02011159 0.09426965
000050 88 c5 0d be e2 13 d0 3d 1e ff a9 3d e7 d0 32 3e
       -0.13844883 0.10160042 0.08300613 0.17462502
000060 14 93 4d bd d4 48 f0 bd a9 94 16 3e ef 9a 30 3e
       -0.050189093 -0.11732641 0.14705147 0.17246602
000070 50 af 63 3c e8 ec 1e 3d 41 fb 2f 3e aa 67 19 be
       0.013896778 0.03880015 0.1718569 -0.14980951

emb_net.v_lins1.1.weight f4 [32, 32]
000000 8a b5 5d bd f9 55 05 be 86 d7 ac 3d 3a c5 f1 3d
       -0.054128207 -0.13021077 0.08439545 0.11805196
000010 e5 e9 1b be c0 74 e9 bc 99 21 24 be 63 94 05 3e
       -0.15225942 -0.028498054 -0.16028441 0.13044886
000020 87 71 10 3e b8 15 6c 3d 80 c0 b1 ba 00 45 f7 ba
       0.14105807 0.0576379 -0.0013561398 -0.0018865168
000030 42 25 f2 3d 90 4c 79 3d 40 3c 0a be 90 67 10 3d
       0.118235126 0.06086403 -0.13499546 0.035255015
000040 7f 72 10 3e 7a 79 eb 3d d8 dd ff bd d0 74 0d be
       0.14106177 0.11497779 -0.12493485 -0.13814092
000050 aa 01 e3 3d 95 85 12 3e 80 10 b6 bd e9 72 e2 bd
       0.11084302 0.1430877 -0.08889866 -0.110570736
000060 b4 da 27 3d 09 1b b7 bd 2e fd ba 3d 34 0e 88 3d
       0.040980056 -0.089407034 0.091303214 0.06643334
000070 bd f9 0e 3e 28 96 11 bd 74 23 55 bd d7 98 0d be
       0.13962455 -0.03554359 -0.052035764 -0.13827835
000080 53 19 21 3e 76 56 b9 3d b8 74 a1 3c ff c3 dc bd
       0.15732317 0.09049694 0.019708976 -0.10779571
000090 59 2d 17 3e 87 07 26 3e d0 46 33 bd df 83 d1 bd
       0.14763393 0.16213809 -0.043768704 -0.102302305
0000a0 2a 34 9d bd 6a 31 ed 3d d6 51 1c be 24 df a3 bd
       -0.07675965 0.115816906 -0.15265593 -0.08001545
0000b0 60 88 99 bb 92 2d eb 3d 40 24 c3 bc 4b 4b 05 be
       -0.0046854466 0.11483301 -0.023820996 -0.13017003
0000c0 8c 04 f5 bd 34 1b 6b 3d 00 da ce ba 28 74 33 bd
       -0.11963758 0.05739899 -0.0015781522 -0.043811947
0000d0 82 94 e3 3d f0 bf 89 3d 50 70 44 3c 5a d7 54 bd
       0.1111231 0.06726062 0.011989668 -0.051963188
0000e0 10 fe ed bd db 8f 32 be ee 46 ae 3d 40 02 22 3b
       -0.11620724 -0.17437689 0.085096225 0.002472058
0000f0 59 88 15 3e 8f b5 81 bd 57 ab 2e be 40 7e c6 bd
       0.14602794 -0.06333458 -0.17057548 -0.09692049
000100 ee 2a f7 bd 84 36 10 bd 22 9a 1f be b4 e1 91 3d
       -0.12068735 -0.03520824 -0.15586141 0.071231276
000110 1b 64 02 3e 20 78 a5 3b e1 31 34 be 78 c9 7b 3d
       0.127335 0.0050497204 -0.17597152 0.061471432
000120 84 5e 19 bd 30 4c 3d 3d 56 c2 58 bd fc 14 0a be
       -0.037443653 0.046215236 -0.05291971 -0.13484567
000130 37 69 12 be b0 14 56 3d 5e b2 64 bd e5 8f 22 3e
       -0.14297949 0.052265823 -0.055834167 0.15875204
000140 70 47 bb bc e0 a0 bd 3c b6 6f ee 3d df 13 29 3e
       -0.022861212 0.023148 0.11642401 0.16511486
000150 e0 92 83 3d b3 75 18 3e 35 3c 11 3e 5b 5c 33 3e
       0.064244986 0.14888649 0.14183123 0.175157
000160 f1 dc 16 be 88 1d 93 3d d2 c9 a5 bd c4 9e 02 be
       -0.1473272 0.07183367 -0.08095135 -0.12755877
000170 68 ce a6 3c a9 8b 04 3e 51 bc 1c 3e 80 91 31 bb
       0.020362094 0.12943901 0.15306212 -0.0027094781
000180 46 11 96 3d 20 4d 51 bc 00 24 d3 3c 18 6b 36 bd
       0.073275134 -0.012774736 0.025774002 -0.044535726
000190 fb 35 a7 bd 97 df e3 bd a5 58 25 be 98 a2 a9 bc
       -0.08164593 -0.11126631 -0.16147096 -0.020707414
0001a0 47 3d 2a 3e ae 3d 83 3d 30 17 16 3c 2c b4 19 be
       0.16624938 0.06408249 0.009160802 -0.15010136
0001b0 08 ab a7 bc df 48 29 be e0 89 e7 3c d8 1d 84 bd
       -0.020467296 -0.16531704 0.028263986 -0.06451005
0001c0 15 25 10 3e 46 4b e5 3d d4 97 1a be 76 37 cc 3d
       0.14076646 0.11195998 -0.1509698 0.09971516
0001d0 58 3c 3a bd e9 05 31 be ac 77 79 bd 50 48 b1 3c
       -0.045467705 -0.17287411 -0.060905144 0.021640927
0001e0 76 00 c7 3d a0 2b 26 3c a1 59 09 3e 99 ec 21 be
       0.09716885 0.010142237 0.13413097 -0.15812911
0001f0 37 95 9d bd 00 b4 33 be a8 9c a2 bc 4a 70 01 be
       -0.07694476 -0.17549133 -0.01985009 -0.12640491
000200 22 33 d1 3d 26 ed da 3d ae d8 96 bd 6b e5 27 3e
       0.10214831 0.10689764 -0.07365547 0.1639611
000210 88 f7 fa bd b9 02 09 be a0 82 0d bd a8 de 1e 3d
       -0.12254244 -0.13379945 -0.0345484 0.03878656
000220 5b ad 22 3e da 29 f6 bd 89 b9 0d 3e b6 9b 91 3d
       0.15886442 -0.12019701 0.13840307 0.07109778
000230 13 df b0 bd f6 0a ed bd 60 1d 71 3d 50 4a 66 bc
       -0.08636298 -0.11574356 0.058865905 -0.014055803
000240 95 ed 10 3e 78 a6 ad 3c be f9 26 be 02 3d 63 bd
       0.1415313 0.021197543 -0.16306207 -0.055478103
000250 29 37 8c bd 69 c5 cf bd 70 14 c1 bc ae 83 99 3d
       -0.068464585 -0.10145075 -0.023569316 0.07495819
000260 e1 a8 e1 bd 74 71 06 bd 8a dc 9c bd ae cb e2 3d
       -0.11018539 -0.03282304 -0.07659252 0.11074005
000270 e7 89 0b 3e 2d 38 15 3e 8d 4a 31 3e c0 7e ac bd
       0.13626824 0.1457221 0.17313595 -0.08422613
000280 9e 52 fd bd 2d dd 01 3e 22 c9 9c 3d 38 1c ee 3c
       -0.123692736 0.12682028 0.076555505 0.02906619
000290 7a b2 ca bd 20 6a 10 be dc 63 70 bd ef 79 15 3e
       -0.09897323 -0.14102983 -0.058688983 0.14597295
0002a0 76 b8 b6 bd 8e bd e6 bd ea 8f 85 3d 4f ce 19 3e
       -0.08921902 -0.112666234 0.0652159 0.15020107
0002b0 c0 6c 4d 3c fc 86 3f 3d b6 b2 ea 3d 94 f6 53 bd
       0.012538135 0.04675959 0.11459868 -0.051748827
0002c0 c0 e3 22 be c0 11 73 3c ee 80 cb bd 9c e5 8f 3d
       -0.15907192 0.014835775 -0.09936701 0.070262164
0002d0 40 64 be bd b1 60 29 3e 00 eb 8c bc 85 b1 0f 3e
       -0.09296465 0.16540791 -0.0172019 0.14032562
0002e0 d7 72 00 be c0 cd 1a be 8f 19 ac bd 6c 41 33 bd
       -0.12543808 -0.1511755 -0.084033124 -0.043763563
0002f0 cf a6 09 3e ae aa 0c be a0 d1 8b bd 0c fa 57 3d
       0.13442539 -0.13736984 -0.06827092 0.052728698
000300 10 1a 63 3c 66 9b 9e bd 76 21 ef 3d 4e 0a cd bd
       0.013861194 -0.07744484 0.11676304 -0.10011731
000310 fa ef ab 3d e4 9f 2d 3d d4 96 cb bd 68 b3 d4 3c
       0.08395381 0.04238881 -0.099408776 0.025964454
000320 40 dc 61 3d b0 78 90 bc ca dd 5f bd 8a d4 af 3d
       0.055141687 -0.017635673 -0.054654874 0.085854605
000330 7b 95 9b bd b8 2a 23 bd c8 c0 c6 bc 60 ab 50 3c
       -0.075968705 -0.03983566 -0.024261847 0.0127361715
000340 48 ec da 3c 58 34 13 3d 62 a1 19 be 79 ea e3 bd
       0.026723996 0.03593859 -0.15002969 -0.111287065
000350 ac 38 3b 3d 37 be 15 3e 50 77 ec bd ec f8 4d bd
       0.045708343 0.14623342 -0.115461946 -0.05028622
000360 1e a9 e6 bd b6 15 0d be 9c 25 20 be 9c e8 55 3d
       -0.11262725 -0.13777813 -0.15639347 0.052223787
000370 30 2e 56 bc 81 2f ba bd d3 bf 30 3e c0 46 ad bc
       -0.013072535 -0.09091092 0.17260675 -0.0211519
000380 78 cb ca 3c ab ed 34 3e 3c fd 00 be 26 86 71 bd
       0.024755225 0.17668788 -0.12596601 -0.058965825
000390 5b 56 10 be b4 92 68 3d 28 cb 26 bd 51 e4 31 be
       -0.14095442 0.056780532 -0.04072109 -0.17372252
0003a0 00 e3 5e 3b c0 2f 0a 3b b9 89 25 3e 78 d7 13 3d
       0.0034009814 0.002108559 0.16165818 0.03609416
0003b0 50 6a 04 be 2a 87 cf 3d ae 7f cf 3d 3a 5e 92 3d
       -0.1293118 0.101332024 0.10131775 0.071468785
0003c0 3d f6 93 bd e6 8d d6 3d b6 ba 6e bd 20 e1 08 3c
       -0.072247006 0.10476284 -0.05828353 0.008354455
0003d0 0c 03 78 3d 2f ae 97 bd f9 ed 1f 3e 65 34 22 3e
       0.06054978 -0.0740627 0.15618123 0.158403
0003e0 e0 2d 56 3c 30 71 dc bc c3 29 c0 bd e6 24 f7 3d
       0.013072461 -0.02690944 -0.093829654 0.12067585
0003f0 1e 1b 8c bd 0d d5 1c 3e 20 73 ed 3c 35 61 0e 3e
       -0.0684111 0.15315647 0.02898556 0.13904269

emb_net.v_lins1.1.bias f4 [32]
000000 19 14 82 bd 2a be bb 3d 90 7f 92 bc e0 b8 50 bc
       -0.063514896 0.0916713 -0.017883092 -0.01273939
000010 92 14 ce 3d 6e 2a e2 3d 46 35 89 bd 92 2a d5 3d
       0.10062517 0.11043249 -0.06699614 0.1040851
000020 40 fe 87 3b 9c 77 ea bd c0 fc 46 bb 01 55 20 3e
       0.004150182 -0.11448595 -0.0030363053 0.15657426
000030 6e cf ee 3d 6f cc 13 3e 80 72 d9 bc f3 9b 0c 3e
       0.11660658 0.14433454 -0.026543856 0.13731365
000040 e7 03 0e 3e d2 74 c8 3d 00 27 a2 bc a2 4d f3 bd
       0.13868676 0.09787907 -0.019793987 -0.11880042
000050 ac 7f 08 bd 18 f3 b2 3c eb 3c ad bd de 30 e4 3d
       -0.033324882 0.021844432 -0.08458885 0.11142133
000060 86 85 2e be 22 2a a3 bd a6 76 ca bd c8 24 93 bd
       -0.17043123 -0.079670206 -0.09885912 -0.0718475
000070 00 e8 c7 3c 44 c9 0b bd 54 5d 65 3d 1a 37 98 3d
       0.024402618 -0.03412749 0.055997208 0.07432385

emb_net.v_lins1.2.weight f4 [32, 32]
000000 22 a5 fb 3d af d1 22 be 64 62 b2 bd 2f bf 13 3e
       0.12287356 -0.159003 -0.08710173 0.144284
000010 53 5b 30 3e 86 79 dd 3d d8 41 30 be 60 11 bf bb
       0.17222337 0.108141944 -0.17212617 -0.0058309287
000020 0e be c9 3d 48 47 e1 bc 5b cc 0d 3e 15 10 1b 3e
       0.09850703 -0.02749981 0.13847487 0.15142854
000030 70 3e 15 bd a0 48 75 3d 00 e6 18 bb d0 27 65 3c
       -0.0364365 0.059883714 -0.002333045 0.013986543
000040 27 a9 1d 3e bc 73 21 3d c1 da 15 3e 9a fd 80 3d
       0.15396558 0.039417014 0.14634229 0.06298371
000050 70 53 ff bc 93 6b 20 3e ee 02 f0 bd d4 59 09 be
       -0.031167716 0.15666036 -0.11719309 -0.13413173
000060 9e db 96 3d 79 74 01 3e 7a e0 fa bd b0 b3 9b 3c
       0.073661074 0.12642087 -0.12249847 0.01900658
000070 40 d5 d8 bd 56 51 a8 3d 8a a2 f8 bd 9b e9 16 be
       -0.10587549 0.082186386 -0.12140377 -0.14737551
000080 20 55 c3 bc 01 7b 27 3e e5 26 82 bd 53 be 1b be
       -0.023844302 0.16355516 -0.06355075 -0.15209322
000090 b8 ce 45 bd ec af 83 3d 0e 60 ae 3d 4b b2 22 3e
       -0.048292845 0.06430039 0.08514415 0.15888326
0000a0 c0 d3 2f 3d e2 73 ce 3d 40 fe 69 bb 40 66 51 bd
       0.04292655 0.10080697 -0.0035704523 -0.051122904
0000b0 60 79 df bb 7b ce 1e 3e 18 4a 20 3d 44 7b 69 3d
       -0.006819889 0.15508454 0.03913316 0.05700232
0000c0 30 8f 98 3c 38 78 c6 bd 30 b0 99 bc 2c 23 76 bd
       0.018622965 -0.09690899 -0.01876077 -0.060092136
0000d0 27 ed 2d 3e 10 58 6b bc 38 0b 1a 3d fd a4 1d 3e
       0.16984998 -0.014364257 0.037608355 0.1539497
0000e0 38 79 64 bd a2 5b b9 3d 99 b0 b5 bd c8 82 b7 bd
       -0.055779666 0.09050681 -0.08871574 -0.089604914
0000f0 f6 93 b2 3d f0 2e 8d 3c e6 7b fb 3d 10 c3 b7 3c
       0.087196276 0.017234296 0.12279491 0.02243188
000100 20 4c de 3b 63 99 03 3e 28 1e 8a bc ed 5b d2 bd
       0.006783977 0.12851481 -0.016860083 -0.1027144
000110 4d 16 19 3e b5 9b 80 bd f9 16 1c be f9 09 24 3e
       0.14949913 -0.06279699 -0.15243138 0.1601943
000120 40 dd 13 be d4 59 40 bd 8f e0 0f 3e f0 a7 f2 bd
       -0.14439869 -0.046960667 0.14050506 -0.11848438
000130 25 ed 07 3e af 27 28 3e c6 35 bc 3d f0 21 58 bc
       0.13274057 0.16421388 0.09189944 -0.013191685
000140 a0 1b 38 bd ea 1e fe 3d 21 3e 02 be 80 e6 02 bc
       -0.04494822 0.1240824 -0.12719013 -0.007989526
000150 ec f1 1d be 4d 24 8c bd 70 85 49 3c ec 37 4c bd
       -0.15424317 -0.06842861 0.01229988 -0.04985802
000160 16 eb 8c 3d c2 f8 89 bd 4c fd 0a be 5d 08 12 3e
       0.068807766 -0.067369 -0.13573188 0.14261003
000170 88 0b 4f 3d 34 d6 13 bd 00 4b a1 3b c1 88 00 be
       0.050548106 -0.036092952 0.004922271 -0.12552167
000180 d8 02 b4 bc 1d 90 0f 3e a5 aa bb bd fe ef 15 be
       -0.021974012 0.14019819 -0.09163407 -0.14642331
000190 a6 ac 99 3d f2 bc da bd 22 34 a7 bd e3 92 30 3e
       0.07503633 -0.1068057 -0.081642404 0.17243533
0001a0 1c 3d 24 be 9b 92 d2 bd 76 e0 c6 3d 30 d9 51 3c
       -0.16038936 -0.10281869 0.09710781 0.012808129
0001b0 6c 8b 64 3d 05 ab 1c 3e 70 be 61 3c 44 29 09 be
       0.055797026 0.15299614 0.013778314 -0.13394648
0001c0 38 56 8a 3c a9 c6 2a be 50 3e e7 3c a0 d3 9b bb
       0.016886815 -0.16677345 0.028227955 -0.0047554523
0001d0 3e a5 df bd 0e 33 d6 3d 68 82 51 3d a0 de 5c 3c
       -0.10920189 0.10458957 0.051149756 0.013480812
0001e0 5e 36 de 3d 8a 39 d5 3d f2 7b 82 3d 5c a8 21 3d
       0.108502135 0.10411365 0.06371297 0.0394672
0001f0 d0 73 d5 3c b8 61 bd 3c 9a bc c6 3d 10 7f f1 bd
       0.0260562 0.023117885 0.09703942 -0.117918134
000200 60 f6 46 3d 29 4c 1c 3e fc e0 35 3d 0a e1 6f bd
       0.048574805 0.15263428 0.044404015 -0.058564223
000210 9a 93 ce 3d 78 de a3 bc 9e a1 a2 bd 9d 3f 03 be
       0.100867465 -0.020003542 -0.07940982 -0.12817235
000220 dc e4 7d 3d 80 23 ae ba d8 9d 31 be da e1 dd 3d
       0.061985835 -0.0013285726 -0.17345369 0.108340934
000230 a3 14 14 3e fd 5b 9a bd bc b8 07 be 18 6a 85 bc
       0.14460997 -0.075370766 -0.13254064 -0.016285941
000240 a2 cf 61 bd 98 53 12 3d 26 fc 12 be 83 9c 16 be
       -0.055129655 0.035724252 -0.14354 -0.14708142
000250 04 a6 a6 bd 8c 23 0b be 1c 79 5f 3d e5 bb 13 3e
       -0.08137134 -0.13587779 0.05455886 0.14427145
000260 20 13 16 3c 16 f5 aa 3d 64 3e 32 3d 14 55 73 bd
       0.009159833 0.08347528 0.04351653 -0.05940731
000270 24 2b e6 bd 48 45 61 3d c0 24 b2 bc e2 3b 23 be
       -0.11238697 0.054997712 -0.02174604 -0.15940812
000280 0b db 2f 3e 37 b1 01 be de 17 b4 3d 0c ce 01 3d
       0.17173402 -0.12665258 0.08793615 0.031690642
000290 e1 48 1c 3e 74 60 8f bd e0 8f 42 3d 17 41 09 be
       0.15262176 -0.07000819 0.04750049 -0.13403736
0002a0 14 bf 0b be 80 0f 6d bb fb 38 28 3e c0 de ba bb
       -0.1364711 -0.0036172569 0.16427986 -0.0057028234
0002b0 c0 58 1f bc a2 4d c8 3d b8 cf a5 bc 80 12 b3 3b
       -0.0097257495 0.09780432 -0.02024065 0.005464852
0002c0 99 90 ba bd 91 c4 d0 bd 7f db 30 3e 64 35 dc bd
       -0.09109611 -0.10193742 0.17271231 -0.10752371
0002d0 08 fc 19 be d4 a9 6d 3d 00 08 e6 38 d0 84 41 3d
       -0.15037549 0.05802329 0.00010968745 0.0472458
0002e0 a4 a6 02 be 6e 3e cb 3d 1e fb bf 3d cc a1 5f bd
       -0.12758881 0.09924017 0.09374069 -0.05459766
0002f0 6b e7 b8 bd 8a 2f 8c 3d ac ef 5a 3d 44 7f be bd
       -0.090285145 0.06845005 0.053451225 -0.09301618
000300 90 8f 37 bc e4 c0 13 3d 08 35 b3 bd 70 1e 62 3c
       -0.011203662 0.036072627 -0.08750349 0.013801202
000310 a8 45 24 3d 5e 7d cc 3d 21 b2 0a be 9d 84 07 3e
       0.040105492 0.099848494 -0.13544513 0.13234182
000320 00 00 f2 b7 60 c8 35 bc b8 68 8f 3d 00 82 6d 3c
       -2.8848648e-05 -0.011095136 0.070023954 0.014496326
000330 57 84 21 be a0 aa 1e be 74 be 08 bd 71 72 2f 3e
       -0.1577314 -0.15494776 -0.033384755 0.171335
000340 9e da 0c be ab c9 2a 3e 77 62 a2 bd ae 1c ca 3d
       -0.13755271 0.16678493 -0.07928937 0.098687515
000350 60 d5 cb 3c ef 79 16 be c7 40 09 3e ea 98 02 be
       0.024882019 -0.14694951 0.13403617 -0.12753645
000360 70 a9 2e bd 28 64 37 bd 47 03 13 3e 66 20 11 be
       -0.042642057 -0.04477325 0.14356719 -0.14172515
000370 65 22 28 be 58 22 a5 3c d6 9d 57 bd b3 7c de bd
       -0.1641937 0.020157978 -0.05264076 -0.10863628
000380 5c bc e9 bd 5a b9 24 be 95 19 16 3e 49 14 0e be
       -0.1141288 -0.16086331 0.14658196 -0.13874926
000390 80 96 68 3d d2 d4 c4 3d 68 18 84 3c 4c f6 5b 3d
       0.056784153 0.09610905 0.016124919 0.053701684
0003a0 ee f2 95 3d 82 80 25 be 01 a5 01 3e ec f5 2b 3d
       0.07321726 -0.16162303 0.126606 0.041982576
0003b0 23 aa 2a 3e 5e 65 ba bd 16 7c b3 bd 25 72 21 3e
       0.16666465 -0.091013655 -0.08763902 0.15766199
0003c0 8c d6 33 be 3a 4d d9 bd 26 ed f9 3d 98 f1 94 3d
       -0.17562312 -0.10610433 0.122034356 0.07272643
0003d0 6a a6 03 be 9c 2e d5 bd f1 4a 04 3e 78 e7 87 3d
       -0.1285645 -0.10409281 0.12919213 0.06635946
0003e0 8c e9 29 bd 82 b4 11 be 17 b2 22 be 19 83 09 3e
       -0.041482493 -0.14229015 -0.15888248 0.13428916
0003f0 48 de c7 3c 3a 10 be 3d 08 6e 97 3c b1 8e 2d 3e
       0.024397984 0.09280439 0.018485084 0.16948964

emb_net.v_lins1.2.bias f4 [32]
000000 92 98 fe bd b8 6b 1e 3d e6 9d c4 3d 92 3c 05 be
       -0.12431444 0.038676947 0.09600429 -0.13011387
000010 a6 95 2b be 58 0f f1 3c 42 3b c3 3d b2 3f a2 bd
       -0.16756305 0.029426262 0.09532787 -0.07922305
000020 18 1a 10 bd b7 40 88 bd c2 0a f9 3d f0 ee 3a 3d
       -0.035181135 -0.066529684 0.12160255 0.045638025
000030 c0 0d 03 be 55 f3 1c 3e ac 95 34 3d d0 ff 1e be
       -0.12798214 0.15327199 0.04408805 -0.15527272
000040 e8 7f 50 3d a2 6b c0 bd ac ca ab bd c0 cb 0a be
       0.05090323 -0.09395529 -0.08388266 -0.13554287
000050 03 8e 1c be a2 7f e2 3d fc bd 72 3d 3e 4b e8 3d
       -0.15288548 0.110595 0.059263214 0.11342476
000060 20 f8 b7 bb c5 0b 97 bd c3 12 01 be 58 4e 2e bd
       -0.0056142956 -0.07375292 -0.12604813 -0.042555183
000070 08 93 bb 3c 20 26 0a be 02 73 ee 3d 00 26 4a bb
       0.022897258 -0.13491106 0.1164303 -0.0030845404

emb_net.v_lins1.3.weight f4 [32, 32]
000000 da ba f5 3d 56 89 97 3d 9e a9 81 3d f6 ed e7 3d
       0.1199853 0.073992416 0.0633118 0.11324684
000010 fe f8 ed bd 20 8f de 3c a0 0f a6 bd 36 28 e4 bd
       -0.11619757 0.027167857 -0.08108449 -0.11140482
000020 00 25 72 bd e0 ae c8 3c 0d 08 92 bd 08 6f 0f bd
       -0.059117317 0.02449745 -0.07130442 -0.035017997
000030 5e 96 da 3d 52 99 e8 3d 6c 5e 1f 3d 5e fe 7b bd
       0.106732115 0.113573685 0.038908407 -0.06152188
000040 9a bf 16 be 38 2b 9b bc 01 94 22 3e 20 56 f9 bb
       -0.14721528 -0.018941507 0.15876772 -0.007609144
000050 43 a3 9a bd 8b c5 1b 3e 14 58 5f 3d b0 59 17 bd
       -0.07550671 0.15212075 0.054527357 -0.036950767
000060 00 46 af 3a bd 6e 04 3e 1a f4 cf bd be 0a c3 3d
       0.0013372302 0.12932868 -0.101539806 0.09523533
000070 c0 d3 ef 3c 76 b9 dd bd 39 6c fc bd f2 1e 04 be
       0.029275775 -0.108263895 -0.12325329 -0.1290243
000080 94 86 20 bd 29 5c d4 bd ac dc cc bd 75 bf 25 be
       -0.039190844 -0.10369141 -0.10003027 -0.16186316
000090 f2 db d7 3d 42 ce 23 be e4 45 3f 3d e0 54 0a bd
       0.10539998 -0.1599665 0.046697512 -0.03377235
0000a0 80 a1 2d bb b6 31 c6 3d e8 4f c9 bd ac 58 41 3d
       -0.0026493967 0.0967745 -0.09829694 0.047203705
0000b0 cc 1a 2f be 90 c0 77 3c c6 94 14 be b0 c1 59 3d
       -0.17100066 0.015121594 -0.14509878 0.05316323
0000c0 6c 85 a6 bd 43 e2 09 3e b2 28 b7 3d 18 a4 40 3d
       -0.08130917 0.13465218 0.08943309 0.047031492
0000d0 6e 11 24 be 21 79 26 3e a7 a7 28 3e d7 6e bd bd
       -0.16022274 0.16257145 0.16470204 -0.09249657
0000e0 40 02 32 3b 39 88 2c 3e 00 59 8b 3b 28 79 64 3d
       0.0027161986 0.1684884 0.004252553 0.055779606
0000f0 08 bb f5 bc 19 ae 07 3e 30 5c a2 bc 2a 57 ae bd
       -0.02999641 0.13250007 -0.019819349 -0.08512719
000100 30 af 68 3d bc 31 25 3d cc 75 0f bd fe 3e 9b bd
       0.056807697 0.040330634 -0.03502445 -0.07580374
000110 53 e8 00 be ea 6f 09 be fc ac 0b be 90 33 7e bc
       -0.12588625 -0.13421598 -0.13640207 -0.015515223
000120 e4 34 15 bd 40 b6 c9 3b d2 5f a6 3d d8 a5 c3 bc
       -0.036427394 0.006155759 0.08123745 -0.023882791
000130 8d f9 05 3e 50 a0 14 3d 16 f7 f9 3d f7 54 bf bd
       0.13083477 0.0362857 0.12205331 -0.09342378
000140 04 e1 78 3d d0 38 2b 3c 85 f9 24 be fb 17 e2 bd
       0.060761467 0.010450557 -0.16110809 -0.1103973
000150 97 33 31 be b6 c9 d7 3d 50 c4 66 bc ce 03 da bd
       -0.17304836 0.1053652 -0.0140848905 -0.10645257
000160 70 8d d5 3c aa 89 a9 3d 8c 29 49 3d 0c 47 26 be
       0.02606842 0.082782105 0.049111888 -0.1623804
000170 10 04 39 bc 60 db ec bc 16 ed f9 bd 9e 3f ff 3d
       -0.0112924725 -0.0289132 -0.12203424 0.12463306
000180 8d ef c2 bd b8 20 d5 bc 3b 63 22 3e 8a 9e a2 3d
       -0.09518347 -0.026016578 0.15858166 0.07940395
000190 40 19 59 bc c4 13 f0 bd 74 1c 37 bd 96 43 24 be
       -0.013250649 -0.1172252 -0.04470487 -0.16041407
0001a0 22 ff 6b bd 78 b5 e3 3c 7a 76 a1 3d 60 7b 27 be
       -0.05761636 0.027796492 0.07883926 -0.16355658
0001b0 1e 85 25 be 05 6b 16 3e e0 17 f6 bd 20 96 18 be
       -0.16164061 0.14689262 -0.120162725 -0.14901018
0001c0 49 26 28 3e c6 2a b4 3d 37 a5 22 3e 18 29 df bc
       0.16420855 0.08797221 0.15883337 -0.027241275
0001d0 85 33 17 3e ed b3 25 3e cb 0a c6 bd f0 c8 40 3d
       0.14765747 0.16181917 -0.09670027 0.04706663
0001e0 40 03 b3 3b 00 94 a1 bd 38 b5 85 3c d5 55 02 be
       0.005463034 -0.07889557 0.016321763 -0.12728055
0001f0 e0 62 3f 3d 81 dd e9 bd e8 3b 87 bc 00 ed 44 3d
       0.046725154 -0.11419202 -0.016508058 0.048077583
000200 80 47 9d 3a 4a 80 e4 3d 08 17 b6 3c d0 bb 6e 3d
       0.0011999458 0.11157282 0.022227779 0.05828458
000210 ec e0 24 be 80 9f c2 ba 38 93 77 bd b1 37 0e be
       -0.16101426 -0.001484856 -0.060443133 -0.13888432
000220 14 c9 24 be e7 d0 04 3e 71 a3 27 be 06 2b d6 3d
       -0.1609233 0.12970315 -0.16370942 0.10457425
000230 80 54 36 3c a0 56 14 bc fe a5 a9 3d 9c 8a 1e be
       0.011128545 -0.009053856 0.082836136 -0.15482563
000240 98 a8 dc bc 95 0f 20 3e 93 c4 1a be 50 ec 12 bc
       -0.02693586 0.15630944 -0.1511405 -0.008967474
000250 21 68 1e 3e ac 72 6a 3d eb 19 24 3e ff 98 31 3e
       0.1546941 0.057238266 0.16025512 0.1734352
000260 78 63 3a 3d 60 e1 4d 3d 68 92 b0 bc 9f bf 31 3e
       0.045505017 0.050263762 -0.021554187 0.17358254
000270 a0 9a 1b bc a9 97 94 bd 5a 8e c8 3d 03 cc d2 bd
       -0.009497315 -0.072554894 0.097927764 -0.102928184
000280 40 d8 24 bb 13 35 05 be a8 eb 21 bd e4 d6 68 bd
       -0.002515331 -0.13008527 -0.03953138 -0.05684556
000290 01 02 23 3e 66 bd 9f 3d 9a 9f 86 3d 36 ca bc 3d
       0.15918733 0.07799797 0.0657341 0.09218256
0002a0 cd 20 d9 bd d8 68 32 be 96 ab ab 3d 02 cb af 3d
       -0.106019594 -0.17422807 0.08382337 0.085836425
0002b0 7e 44 ee 3d be a0 99 3d ac ad 7a bd ec 93 fe bd
       0.116341576 0.07501362 -0.061200783 -0.124305576
0002c0 f0 52 0e 3d 2e e4 be 3d bb 83 32 3e 78 35 ea bc
       0.034747064 0.093208656 0.17433064 -0.028589949
0002d0 db 97 05 be 06 94 d3 3d e4 23 21 be 3d d1 01 be
       -0.1304621 0.103309676 -0.15736347 -0.12677474
0002e0 bb 13 9a bd f0 0f 19 bc 35 2a d0 bd ac ab 06 3d
       -0.075232945 -0.009342179 -0.101643 0.032878563
0002f0 d0 20 62 bc 26 9d b0 bd 38 87 72 bd 08 a1 67 3d
       -0.013801768 -0.08623724 -0.059210986 0.056550056
000300 6b ed 01 be 7a 24 79 bd 2e a0 c8 bd 9b c4 25 be
       -0.12688224 -0.060825802 -0.09796177 -0.1618828
000310 8e 28 a7 bd 02 21 be 3d 7e bb df 3d 6c c3 37 bd
       -0.08162032 0.092836395 0.10924433 -0.044864103
000320 f2 55 e1 bd 5d 95 8b bd 40 ec a0 bb b5 b7 08 3e
       -0.11002721 -0.06815598 -0.0049109757 0.13351329
000330 a2 a4 f3 3d 3d 81 05 be a0 b9 7b bd 92 30 d5 3d
       0.118966356 -0.13037582 -0.061456323 0.10409655
000340 15 85 24 3e 32 81 fc bd c2 3a 93 3d de 49 9e 3d
       0.16066392 -0.123293296 0.071889415 0.07728933
000350 fc 84 06 be 94 06 25 3d 66 6d f4 3d 30 6b 06 3c
       -0.13136667 0.040289477 0.119349286 0.008204266
000360 84 24 e1 bd 8a 0c 8d 3d d0 19 c5 bc ba 15 21 be
       -0.10993293 0.06887157 -0.02406016 -0.15730944
000370 cb de 0d 3e 70 81 03 be 8c 71 05 bd a7 4e 20 be
       0.1385452 -0.12842345 -0.03257899 -0.15655003
000380 ec 01 27 bd de 34 8b 3d d1 3c bc bd e6 99 b8 3d
       -0.040773317 0.06797193 -0.09191287 0.09013729
000390 2c d6 05 3d 28 e0 ae bd 6b af 15 3e 0c fe 15 3d
       0.032674953 -0.08538848 0.14617698 0.03661923
0003a0 e6 60 9f 3d c8 a8 18 be 80 9e 4a 3c 54 e2 1d be
       0.07782154 -0.14908135 0.012366891 -0.15418369
0003b0 f0 c3 3f bc 10 eb 7f 3c ee 6e 25 be 45 2e 96 bd
       -0.01170443 0.015620008 -0.16155598 -0.07333044
0003c0 c1 72 00 3e 52 9b 6b bd 80 ed ca bb 07 7f 10 3e
       0.12543775 -0.057521172 -0.006192863 0.14110957
0003d0 20 4b 13 be d9 cf 2e 3e 58 87 fa 3c c1 75 9a bd
       -0.14384127 0.17071475 0.030582115 -0.07541991
0003e0 0a ca 98 3d 20 23 82 bc 68 17 e5 bc b6 f4 a0 3d
       0.07460411 -0.01588589 -0.027965263 0.07859175
0003f0 5a 96 db 3d 32 ce e1 3d c0 68 f9 bc 06 69 e6 bd
       0.10722037 0.11025657 -0.030445457 -0.112505004

emb_net.v_lins1.3.bias f4 [32]
000000 70 e0 60 bd 00 aa 14 ba 35 83 2b 3e 24 7b 6d bd
       -0.05490154 -0.0005671084 0.1674927 -0.057978764
000010 a6 b1 d3 3d 8f 30 25 be 9b 2e 1b 3e 3c c6 17 3d
       0.10336618 -0.16131805 0.15154497 0.037054285
000020 88 ab 00 be 30 bb 3a 3c c0 47 f3 3c 42 fe 0e be
       -0.12565434 0.011397168 0.029697299 -0.13964179
000030 2a e7 a1 bd d7 91 07 3e 00 56 b7 bc 28 11 4d bd
       -0.07905419 0.13239227 -0.022379875 -0.05006519
000040 90 20 0e 3c cd 61 18 3e 20 78 9b bd b5 74 26 3e
       0.008674756 0.14881058 -0.075912714 0.16255458
000050 d0 74 fd bc 2b 88 07 3e a1 72 0a be 82 f5 16 be
       -0.03093949 0.13235538 -0.1352029 -0.14742091
000060 83 8b 91 bd 08 c7 a7 3c 20 63 4a bc 34 b5 a3 bd
       -0.07106688 0.020480648 -0.012352735 -0.07993546
000070 50 65 43 bd 5b 22 f5 bd 81 fb 10 be 32 16 cf 3d
       -0.04770404 -0.119694434 -0.14158441 0.10111655

emb_net.v_lins1.4.weight f4 [32, 32]
000000 78 e6 7d bd bc b4 02 be 62 6a c9 3d eb 33 93 bd
       -0.06198737 -0.12764257 0.09834744 -0.07187637
000010 54 e6 69 3d 2c b4 7b 3d 40 23 cd bd 15 7d b9 bd
       0.057104424 0.061451122 -0.10016489 -0.09057061
000020 b0 5e 45 3c d2 cb 92 3d d0 6b 0c 3c b9 19 93 bd
       0.012046501 0.07167782 0.008570626 -0.071826406
000030 68 4f 3a bd c9 d4 21 3e c8 29 d8 3c 80 db a9 3b
       -0.045485884 0.15803827 0.02638711 0.005183637
000040 00 96 7f 3d 42 bb b6 bd 48 a4 2e 3d d5 b4 34 be
       0.06239891 -0.08922435 0.04263714 -0.17647107
000050 08 fb 76 3d d4 9f 8f 3d 66 4e c6 bd ae f9 e4 3d
       0.060297996 0.07012907 -0.09682922 0.11180435
000060 42 ee c0 3d df ac 02 3e fe 0a e6 3d 26 42 02 be
       0.09420444 0.12761258 0.11232565 -0.12720546
000070 0e 01 23 be ce b4 73 bd 3d 48 d2 bd a0 7c 14 3d
       -0.15918371 -0.0594986 -0.102676846 0.036251664
000080 b0 6d 6f bc ca 2e 99 3d e5 e5 19 3e 4f 26 23 3e
       -0.014613554 0.074796274 0.15029104 0.15932582
000090 d5 56 97 bd ae 09 18 be ec d7 09 3d 50 a8 14 3d
       -0.07389609 -0.14847443 0.033653185 0.036293328
0000a0 b0 6d 19 be 25 47 1e be a5 1c 1d 3e 2a fd d3 bd
       -0.14983249 -0.15456827 0.15342958 -0.103510216
0000b0 ec f1 2c be 84 6e 2e bd 4a f1 c6 3d 12 67 b3 3d
       -0.16889161 -0.042585865 0.09713991 0.087598935
0000c0 60 89 48 3c 1d 3b 0d 3e 2c 62 11 be 30 7e a8 bd
       0.012239784 0.13792081 -0.14197606 -0.08227193
0000d0 5a 6e d5 bd 66 bd cc 3d d4 16 49 3d c6 ba d3 bd
       -0.104214385 0.099970624 0.049094036 -0.103383586
0000e0 10 da 01 3c 0a 62 f7 bd 82 61 80 3d ef 5b ad bd
       0.007925525 -0.12079246 0.06268598 -0.084648006
0000f0 a0 63 ec 3b ab 56 d8 bd 74 0e 28 bd 96 bd 9b bd
       0.0072140247 -0.105634056 -0.04102941 -0.0760452
000100 be a0 d7 bd 20 8b 31 3d 5e 31 5b bd 80 f2 df bb
       -0.10528706 0.04334557 -0.053513877 -0.006834328
000110 4a 6d 96 bd d0 b1 19 3d b0 6c f3 bd 4a b3 fe 3d
       -0.07345064 0.03752309 -0.11885965 0.124365404
000120 4b fb e4 bd e8 42 a7 bc b4 6d bf bd 0c 60 75 3d
       -0.11180743 -0.020417646 -0.09347096 0.05990605
000130 b0 f0 c8 3c d0 b7 b6 bc 16 48 a8 3d 93 4c 18 3e
       0.024528831 -0.022304446 0.08216874 0.14872961
000140 c8 a0 30 be da b9 c4 3d b0 7f 79 3d 4a 01 a7 3d
       -0.17248833 0.09605761 0.060912788 0.08154543
000150 cc 1f 29 bd 80 c1 fd 3c 21 1c 08 be 52 58 c1 3d
       -0.04129009 0.030976057 -0.1329198 0.09440674
000160 98 05 e5 bd 36 8b ef 3d 8a 43 34 be 50 40 16 bd
       -0.111827075 0.11696474 -0.17603889 -0.036682427
000170 96 13 fc 3d b5 0e 86 bd 42 80 0d be aa 73 a9 3d
       0.12308423 -0.06545774 -0.13818458 0.08274014
000180 80 4b e7 3b d0 b8 4f bc cc 6b 49 bd 17 c7 01 3e
       0.007058561 -0.01267834 -0.04917507 0.12673603
000190 1a 65 96 3d 50 65 1b 3d 04 13 27 bd df 85 2a be
       0.07343502 0.037938416 -0.04078962 -0.1665263
0001a0 23 a5 20 3e 12 e0 bd 3d 87 31 ea bd d0 40 3e bc
       0.15687995 0.09271254 -0.11435228 -0.011612132
0001b0 d2 c9 be 3d 04 70 52 bd 69 4d 33 3e 9c d2 45 bd
       0.09315838 -0.051376358 0.17509998 -0.048296556
0001c0 27 ef 34 3e b2 97 90 3d dd c7 ab bd 40 03 b3 3c
       0.17669354 0.070601836 -0.0838773 0.021852136
0001d0 78 22 ef bc a4 d8 f0 bd 00 34 85 bc 80 76 e1 3b
       -0.02919124 -0.11760071 -0.016260147 0.0068805814
0001e0 56 e6 d7 bd 6c 8f 59 bd da 4c 0e be 08 5c ee bc
       -0.1054198 -0.053115293 -0.13896504 -0.029096618
0001f0 d0 14 2a be 1a 8e ff bd 82 94 fe bd f0 8a 1f 3c
       -0.16609502 -0.124782756 -0.12430669 0.009737715
000200 e8 ea ae bd aa 4e b9 3d fd 80 30 be d9 7b 08 be
       -0.085408986 0.09048207 -0.17236705 -0.13328494
000210 20 bb 7b bc 60 ed 22 3c 72 9b 72 bd 04 e3 cc bd
       -0.015364438 0.00994429 -0.059230275 -0.10004237
000220 b3 9e 09 be 00 69 17 bb 24 44 03 be 14 7e 1b be
       -0.13439445 -0.0023103356 -0.12818962 -0.15184814
000230 3c f0 c9 bd 57 e6 df bd 80 d3 01 3d ca 53 ea 3d
       -0.09860274 -0.10932606 0.031695843 0.11441763
000240 2c 11 8d 3d c6 07 a4 3d 05 a1 24 3e 00 7a dc bc
       0.06888041 0.08009295 0.16077049 -0.026913643
000250 e8 71 47 bd a8 e0 9a 3c b4 4b 3f 3d 38 66 c0 bd
       -0.048692614 0.018905953 0.046703056 -0.09394497
000260 40 ae 3a 3c 66 7a eb bd ca 93 e0 3d 23 04 2f be
       0.0113940835 -0.11497955 0.109656885 -0.17091422
000270 7e a1 9b 3d 48 b2 e0 3c cc c3 43 bd 1c 20 a6 bd
       0.075991616 0.027428761 -0.04779415 -0.08111593
000280 db 99 03 3e fc d7 4d 3d 04 11 20 bd 74 45 2d bd
       0.1285166 0.050254807 -0.039078727 -0.042302564
000290 00 b5 d6 ba 84 56 67 bd 20 bc ec bc 33 ca b9 bd
       -0.0016380847 -0.056478992 -0.028898299 -0.090717696
0002a0 f0 22 01 3c e5 66 1c be e4 c1 4f bd 18 fa f2 bc
       0.007881865 -0.15273626 -0.050722018 -0.02966027
0002b0 08 ca db bd 40 14 3b 3d a0 04 c7 3c d2 ce bb 3d
       -0.10731894 0.04567361 0.024294198 0.09170307
0002c0 88 7e d4 bd 5e 88 85 3d bd fd 11 3e 8e 80 31 be
       -0.103756964 0.065201506 0.1425695 -0.17334196
0002d0 d0 72 8a 3c ea 3b bd 3d d2 d3 f1 3d 4a aa d0 3d
       0.01690045 0.09239943 0.1180798 0.1018873
0002e0 f0 d2 0e 3d e6 34 df bd 82 c3 d5 3d 50 18 12 be
       0.034869134 -0.108987615 0.10437681 -0.14267087
0002f0 50 19 6a bc 20 79 6a 3c 3d 7a 16 3e d9 15 8e bd
       -0.0142882615 0.014311105 0.14695068 -0.06937761
000300 bc c5 98 bd 60 68 6f 3d aa c5 ff bd c2 fe c5 3d
       -0.0745959 0.05844915 -0.12488873 0.09667732
000310 22 bf e6 3d 50 2e 05 bc 12 9f b5 3d ee 11 da 3d
       0.112669244 -0.008128718 0.08868231 0.10647951
000320 80 d2 c2 ba 53 bc 22 3e d2 18 0b be ee b4 c8 3d
       -0.0014863759 0.15892152 -0.13583687 0.098001346
000330 42 84 81 bd 45 11 01 be a0 af c1 3b 89 4c 04 be
       -0.06324054 -0.12604244 0.0059108287 -0.12919821
000340 7e 1b c4 3d 44 4c 45 3d b8 65 a9 3c 20 70 98 3b
       0.09575556 0.048168436 0.020678386 0.004652038
000350 6c 82 ed bd b9 3d 07 3e 5f 47 ff bd 8c 79 bb bd
       -0.115971416 0.13207139 -0.12464785 -0.091540426
000360 05 a3 12 3e ee b4 79 bd f4 73 0a bd 46 f1 22 be
       0.1432 -0.060963564 -0.033801988 -0.15912351
000370 e6 a6 fd bd 74 e7 0d bd 33 e2 e9 bd 90 cd 86 bc
       -0.12385349 -0.03464456 -0.11420097 -0.016455442
000380 01 c7 2d 3e 30 f2 e9 bc 34 64 05 3d 74 57 91 3d
       0.16970445 -0.028557867 0.032566264 0.070967585
000390 f3 11 1f 3e 30 17 97 bc 35 b0 1a be cf 72 1e be
       0.15534191 -0.018443674 -0.1510628 -0.15473484
0003a0 6a 1b 0c be 24 ec 66 3d a2 7f de 3d 7e 60 d9 3d
       -0.13682333 0.056377545 0.10864188 0.106141075
0003b0 5f 83 8c bd 80 4d 11 bc 28 b8 25 3d f6 cd 7d bd
       -0.068609945 -0.008868575 0.04045883 -0.061963998
0003c0 a0 b0 92 3c 80 45 35 3d eb 32 0c be b8 f4 88 3d
       0.017906487 0.044255733 -0.13691299 0.066873014
0003d0 10 3c cd bc 80 93 6f bd 8e 7e ba bd ac 4c de bd
       -0.025053054 -0.058490276 -0.0910617 -0.10854468
0003e0 56 51 15 be 56 fe b4 3d a0 e1 32 bc 9d 97 03 3e
       -0.14581808 0.08837573 -0.010918051 0.12850805
0003f0 ca 5b 15 be f4 2f f3 bd 28 88 47 3d fc dd e2 bd
       -0.14585796 -0.11874381 0.048713833 -0.110774964

emb_net.v_lins1.4.bias f4 [32]
000000 1a 1d 9d 3d 73 da 10 3e b1 00 27 3e f0 95 0c be
       0.07671566 0.14145832 0.16308858 -0.13729072
000010 bf 9a c8 bd 09 54 16 3e 23 58 0b 3e 24 79 09 bd
       -0.097951405 0.14680494 0.1360784 -0.033562794
000020 e4 1e f0 bd 80 e7 de 3b 00 d3 e0 3c ca 09 cc bd
       -0.11724642 0.0068024993 0.027444363 -0.099628046
000030 eb 61 31 be 9c 9b 87 3d 52 c0 c3 3d 17 75 33 be
       -0.17322509 0.06621477 0.095581666 -0.17525135
000040 71 89 02 3e e4 91 00 be b1 1e 10 3e 39 15 30 3e
       0.12747742 -0.12555653 0.14074208 0.17195596
000050 65 aa d4 bd f4 94 4a 3d ee cd eb 3d 38 72 f8 3c
       -0.10384063 0.04945846 0.11513887 0.030327901
000060 3e 64 a3 3d cf dd 2e 3e 70 3e f0 3c e4 c9 60 3d
       0.07978104 0.17076801 0.029326648 0.054880038
000070 7e 4c f7 3d 8b 9e 34 3e f8 26 84 3d c8 62 fd 3c
       0.120751366 0.17638604 0.06452745 0.030930892

emb_net.v_lins1.5.weight f4 [32, 32]
000000 6d 28 28 3e 30 fc 69 bc 66 cd fd 3d 84 7d 38 3d
       0.16421671 -0.014281318 0.12392692 0.045041576
000010 74 82 71 3d d6 9e ea 3d 06 a5 cf 3d e6 08 d7 3d
       0.0589623 0.11456077 0.101388976 0.10499744
000020 e8 59 e6 3c f7 e7 1b 3e 3b ba 0f 3e 92 a5 01 be
       0.028119043 0.15225206 0.14035885 -0.12660816
000030 d8 f6 d0 3c 58 2a 5d 3d b4 b8 8a 3d 00 b9 11 bc
       0.02550833 0.05399546 0.067735106 -0.008894205
000040 43 38 26 be d7 da 28 be 5e f2 cd 3d 00 58 2a be
       -0.162324 -0.16489731 0.100559935 -0.16635132
000050 80 fc b7 3a 79 3d 2f be 6a 48 80 bd a0 02 96 bb
       0.0014037043 -0.17113294 -0.06263812 -0.0045779496
000060 58 35 5e bd 67 d7 11 3e d3 f9 2e 3e a5 08 00 3e
       -0.05425009 0.14242326 0.17087488 0.12503298
000070 eb d9 19 be 16 42 a2 3d 0e 62 19 be 54 ad 03 be
       -0.15024535 0.07922761 -0.14978811 -0.12859088
000080 27 66 02 3e 89 28 0c be 8c 19 51 bd 99 f1 1f be
       0.1273428 -0.13687338 -0.051049754 -0.15619506
000090 dc b5 07 be 74 c0 12 bd ba ff e6 bd 15 2f 1e be
       -0.13252968 -0.03582807 -0.11279245 -0.15447648
0000a0 68 f8 fb bc c0 a0 47 bc 70 d1 73 3d 22 e0 a4 3d
       -0.030758098 -0.012184322 0.059525907 0.080505624
0000b0 38 70 ad bc 8c 36 22 3d 34 3a 8d 3d 28 80 31 bd
       -0.021171674 0.0396028 0.06895867 -0.04333511
0000c0 ad 52 15 3e c0 57 51 bd 36 f9 30 be 60 1b 77 bc
       0.1458232 -0.051109076 -0.17282566 -0.01508221
0000d0 10 ed 7c bc 5c 0f 7c 3d 78 6f e3 bc b0 60 38 bd
       -0.0154373795 0.061538085 -0.027763113 -0.045014083
0000e0 50 33 78 bd 1f f2 19 3e eb c3 a7 bd 96 e4 a4 3d
       -0.06059581 0.15033768 -0.08191665 0.08051412
0000f0 ec 9b 0b 3d a3 91 18 3e 06 55 c4 3d d8 55 ee bc
       0.034084246 0.14899306 0.095865294 -0.029093668
000100 86 b0 9e 3d 94 be 48 bd 88 b5 6c 3d 0c 5d 3e 3d
       0.07748513 -0.049009874 0.05779031 0.046475455
000110 1a 75 fd bd e3 e2 b4 bd 87 38 0b 3e df 42 de bd
       -0.12375851 -0.08832338 0.13595782 -0.108525984
000120 e4 cd 1e 3d 24 2c 0c 3d 3b dc 28 be 0c 74 05 bd
       0.03877057 0.034221783 -0.16490261 -0.032581374
000130 60 46 b4 3b cc b7 71 bd 00 09 e5 3b 04 ca 46 3d
       0.0055015534 -0.059013173 0.0069895983 0.0485325
000140 17 e1 17 3e ac f4 57 3d 91 25 0a 3e 44 2e 71 bd
       0.14831959 0.05272357 0.13490893 -0.058882013
000150 19 7c 0f be c7 6f 02 3e ea 51 a5 3d ba b1 2f be
       -0.14012183 0.12737952 0.080722645 -0.17157641
000160 88 ee 16 3d cb e1 28 3e 60 1c 8d 3d bd 3b 34 3e
       0.036848575 0.16492383 0.06890178 0.17600913
000170 20 9f 52 3d b7 64 e8 bd bb 35 04 3e 56 1e fe 3d
       0.051421285 -0.11347335 0.12911122 0.1240813
000180 b4 08 70 bd 00 b5 1e 3b 6d 83 e7 bd dc 65 2e bd
       -0.05860205 0.002421677 -0.11304364 -0.04257761
000190 b2 39 e1 bd 50 e5 a7 bc 1c 16 55 3d b6 90 d5 bd
       -0.10997333 -0.020495087 0.05202304 -0.10427992
0001a0 24 c2 a3 bd 87 92 09 3e 1c 29 61 3d f3 9b c8 bd
       -0.07996014 0.13434802 0.054970846 -0.0979537
0001b0 f4 e1 9e bd 90 e1 1f be 88 97 b7 3c f3 a9 8b bd
       -0.07757941 -0.15613389 0.022411123 -0.068195246
0001c0 91 57 a9 bd 35 6b 80 bd 34 b0 2a be 3e 86 9e 3d
       -0.08268655 -0.06270448 -0.16668779 0.077404484
0001d0 cd 51 0d 3e d6 0f b9 3d 17 c7 f7 bd ea f7 8b 3d
       0.13800736 0.090362236 -0.1209852 0.06834395
0001e0 0a 7d a5 3d c2 ef 9d bd 52 00 9c 3d 9c 06 86 3d
       0.0808049 -0.07711746 0.076172486 0.065442294
0001f0 d8 c9 7b bd 61 56 0b 3e ac a1 33 be 3a 40 cd 3d
       -0.06147179 0.1360717 -0.17542142 0.10022016
000200 20 19 b3 3c 36 23 c8 bd 58 76 8e bc f6 90 21 be
       0.021862566 -0.09772341 -0.017390415 -0.15777954
000210 0d bc b8 bd 7c 4a 4e 3d 68 c2 9e 3c 87 c8 10 be
       -0.09020243 0.050364003 0.01937981 -0.14138995
000220 e8 61 e3 3c b9 a9 01 be b8 d1 0d 3d 5e 4f b8 bd
       0.027756646 -0.126624 0.03462383 -0.08999513
000230 26 6b ea 3d 2a d0 f1 3d 40 21 a3 bd 98 d2 1b 3d
       0.11446218 0.11807282 -0.07965326 0.038042635
000240 54 6b 80 3d f7 0b af bd c0 80 93 bb c8 e3 38 bd
       0.06270471 -0.08547204 -0.004501432 -0.045139104
000250 7d 5c 25 be d0 0b b6 3c 4e 4b c2 bd 00 ab 1a be
       -0.16148563 0.02222243 -0.094870195 -0.15104294
000260 be 31 25 be 08 ee 8c bc 40 13 61 bb a6 5d 98 3d
       -0.16132256 -0.017203346 -0.003434375 0.07439737
000270 96 3d fc bd 80 5e 75 bb c3 b4 22 3e 3e 21 04 be
       -0.12316434 -0.003744036 0.15889268 -0.12903306
000280 e4 5f ee bd 94 66 04 be 77 2c 0d be 92 2f f7 3d
       -0.116393834 -0.12929755 -0.13786493 0.1206962
000290 9c 63 f1 bd 96 8c ff 3d e8 d3 ed bd b5 16 0c 3e
       -0.11786577 0.124779865 -0.116126835 0.13680537
0002a0 4d e6 18 3e db a9 2a be 6b 42 2b 3e d0 70 1e 3d
       0.14931603 -0.16666357 0.16724555 0.038681805
0002b0 a8 9f 09 bd 37 c8 34 be 10 bf 72 bd 64 63 89 bd
       -0.033599526 -0.17654501 -0.059264243 -0.067084104
0002c0 40 20 a3 bb 90 60 c8 bd 48 5d fd bd c0 31 32 3d
       -0.0049782097 -0.09784043 -0.123713076 0.043504477
0002d0 6a 92 fc 3d a0 8c 91 bd 2e 85 e3 3d e0 80 a9 bb
       0.12332614 -0.071069 0.111093864 -0.005172834
0002e0 50 5b 03 be 64 87 1a be cb a8 da bd ef de 28 be
       -0.12827802 -0.1509071 -0.10676726 -0.16491292
0002f0 7c e7 85 3d a2 5f d9 3d 18 59 86 3c a2 3f b7 3d
       0.06538293 0.10613944 0.016399905 0.08947684
000300 05 58 05 3e d6 68 12 be 26 32 81 3d 68 02 be bd
       0.13021858 -0.14297804 0.06308393 -0.09277803
000310 98 83 aa 3c d8 dd 00 bd cf 35 05 be 10 b0 50 3c
       0.020814702 -0.031461567 -0.13008808 0.012737289
000320 e8 d4 f6 3c fc 40 79 3d 12 7e 96 3d 94 65 12 be
       0.030130818 0.06085299 0.07348265 -0.14296561
000330 ac 1f 1b 3d a6 cb 8c 3d c3 d1 bc bd 5e 18 cc 3d
       0.037872 0.0687478 -0.092196964 0.09965585
000340 06 8c 87 3d a5 ff 20 3e dc 32 36 bd b5 ad 26 be
       0.06618504 0.1572252 -0.044482097 -0.16277201
000350 9b 18 19 3e fc 08 ae bd 5e ab f4 3d 39 89 21 be
       0.14950792 -0.084978074 0.11946748 -0.15775003
000360 ab cd 2e be f8 bc 95 3d 48 1e ec bc cd 10 1a 3e
       -0.17070644 0.073114336 -0.028823033 0.15045471
000370 b6 b6 b7 3d 3f 09 1a 3e 3a a8 89 3d 4e 18 cb 3d
       0.08970396 0.1504259 0.0672154 0.09916745
000380 b8 a9 aa bd 8c 28 dd bd 14 31 24 be 37 93 09 3e
       -0.083331525 -0.10798749 -0.16034347 0.13435064
000390 d2 d9 2e be b4 da 0d 3d 60 ff c8 bd 23 ba 11 3e
       -0.1707528 0.0346324 -0.09814334 0.14231162
0003a0 c4 a5 6c 3d 78 4e 84 3c c0 58 1d 3b b3 49 1e be
       0.057775274 0.016150698 0.0024009198 -0.15457802
0003b0 95 d0 12 be c0 37 f0 3c cc ed 71 3d 57 04 26 3e
       -0.1433738 0.029323459 0.05906467 0.16212593
0003c0 bb e4 17 be 28 1e 74 3d e7 96 10 3e ee 1c 12 be
       -0.14833347 0.05959907 0.14120065 -0.14268848
0003d0 96 86 f5 bd 9d 91 18 3e 90 3d 5e 3d 78 9f 64 bd
       -0.11988561 0.14899297 0.05425793 -0.055816144
0003e0 90 d0 03 bc 48 df 96 bc fd e2 29 3e 50 fa 50 bd
       -0.008045331 -0.018417016 0.16590495 -0.051019967
0003f0 d8 3e f4 bd e2 0c ee bd 80 00 c5 3b 12 72 ea 3d
       -0.11926049 -0.11623551 0.0060120225 0.114475384

emb_net.v_lins1.5.bias f4 [32]
000000 f4 dd 05 bd cd bd 11 3e e0 15 0b bd ba 58 24 be
       -0.032682374 0.1423256 -0.03395641 -0.16049471
000010 ea 8a f8 3d 72 14 ec 3d 69 c0 f2 bd 72 3a d2 3d
       0.12135871 0.11527337 -0.118531056 0.10265054
000020 c9 7c 18 be 90 b7 14 be ec b4 38 bd b9 df c8 bd
       -0.14891352 -0.14523149 -0.045094416 -0.09808297
000030 32 93 e5 3d e0 3b 13 be 06 bc 1a be 6c 0b 0f 3d
       0.11209716 -0.14378309 -0.15110788 0.034923002
000040 c0 61 c7 bb d9 7c 2e 3e d2 25 aa 3d e1 15 95 bd
       -0.0060846508 0.17039813 0.08307995 -0.07279564
000050 d9 9a 20 3e f0 18 c8 3c 97 69 2d be 6c 94 70 3d
       0.1568407 0.024425954 -0.1693481 0.058735296
000060 92 7f f2 3d 18 fc 61 bd ff 29 2f 3e 36 d2 ad 3d
       0.11840738 -0.055172056 0.17105864 0.0848736
000070 71 dd 09 3e 30 7f 08 3d 51 5b 0c be a4 2b 0f 3d
       0.1346338 0.03332442 -0.1370671 0.03495373
