or/GFlowNet and ACO to solve TSP/DeepACO/tsp/pretrained/pctsp/pctsp20.pt (torch, 365614 bytes, 230 tensors)

emb_net.v_lin0.weight f4 [32, 2]
0.30370608 -0.27227134 0.6360054 -0.5030175 0.45188722 -0.29829302 0.10242882 -0.5123862
0.50052536 -0.38039768 0.14582023 -0.52602595 -0.0733432 -0.70543784 0.63680166 -0.67955685
0.5552615 0.6052151 0.190649 -0.66587645 -0.46672684 0.40830538 -0.0071036196 0.3728489
-0.7045213 0.33444738 -0.23801357 0.6224932 0.1721885 0.6118116 0.16336109 -0.07302078
-0.3854472 -0.49381903 -0.41037962 -0.33961698 0.5500455 -0.14250576 -0.6215364 -0.5128982
0.31887648 0.08082274 -0.36058435 -0.20127217 0.2393612 0.6785772 0.2669005 0.1274821
-0.29546827 0.33413562 0.31063557 -0.17176242 -0.3417336 -0.12250769 0.4497717 -0.11781761
-0.29858306 0.11821783 -0.2924826 -0.7033049 0.09316915 0.31203583 -0.08746129 -0.09566683
00000000: 5d7f 9b3e 2667 8bbe 40d1 223f c1c5 00bf
00000010: c35d e73e ddb9 98be 34c6 d13d be2b 03bf
00000020: 6e22 003f 7cc3 c2be e651 153e a3a9 06bf
00000030: f634 96bd 9397 34bf 6f05 233f 70f7 2dbf
00000040: 9e25 0e3f 60ef 1a3f 7e39 433e e176 2abf
00000050: d2f6 eebe 670d d13e 7bc5 e8bb 0de6 be3e
00000060: 825b 34bf b03c ab3e d4b9 73be b75b 1f3f
00000070: 2f52 303e af9f 1c3f 2148 273e eb8b 95bd
00000080: 5659 c5be d9d5 fcbe 471d d2be 47e2 adbe
00000090: c8cf 0c3f 08ed 11be 021d 1fbf 4c4d 03bf
000000a0: c743 a33e 6586 a53d 839e b8be 4b1a 4ebe
000000b0: 1a1b 753e 3cb7 2d3f 2fa7 883e ab8a 023e
000000c0: 9e47 97be d313 ab3e a00b 9f3e 7de2 2fbe
000000d0: b5f7 aebe 50e5 fabd 7a48 e63e 5c4a f1bd
000000e0: e1df 98be 311c f23d 48c0 95be ca0b 34bf
000000f0: 78cf be3d 29c3 9f3e e81e b3bd f9ec c3bd

emb_net.v_lin0.bias f4 [32]
0.4449264 0.5604256 -0.08586471 -0.6221012 0.2816729 -0.6504241 -0.13644913 0.050078273
-0.06044869 -0.10725665 -0.23338494 -0.4590096 0.018645039 0.46853408 0.16902266 -0.40939322
-0.1154333 0.61067134 0.6175658 0.20835379 0.3075673 0.031711962 -0.54032654 0.182726
-0.49011335 0.4985627 -0.60772604 0.09138148 0.53351086 -0.5264023 -0.6071171 0.43365553
00000000: 65cd e33e 0d78 0f3f d6d9 afbd 0642 1fbf
00000010: 6e37 903e 3282 26bf 52b9 0bbe e01e 4d3d
00000020: 0c99 77bd 60a9 dbbd 76fc 6ebe 4e03 ebbe
00000030: 7bbd 983c b3e3 ef3e 4714 2d3e fd9b d1be
00000040: 4b68 ecbd f554 1c3f cb18 1e3f b25a 553e
00000050: 7679 9d3e 67e4 013d d752 0abf 861c 3b3e
00000060: 23f0 fabe 9c43 ff3e ef93 1bbf 3726 bb3d
00000070: 2b94 083f 4dc2 06bf 076c 1bbf 1908 de3e

emb_net.v_lins1.0.weight f4 [32, 32]
-0.009085565 0.107151166 0.12233269 -0.1647767 -0.16088341 -0.06515062 0.047699723 -0.042634428
0.1565503 0.15951651 -0.15494041 -0.037589807 -0.1676602 -0.15099552 0.044678256 -0.11180876
0.12962134 0.014630005 0.0073252562 0.12265539 -0.012287879 0.079928584 0.073117666 0.14016673
-0.15001357 -0.013394237 -0.18001431 0.10922949 -0.1672269 -0.055542536 0.18942831 0.037880685
-0.021537304 0.03570526 -0.043659694 -0.14321984 0.162167 0.07338965 -0.082044356 0.014841081
-0.04494017 -0.15359189 0.018548988 -0.11092727 -0.085160926 0.0648666 -0.11720016 -0.17633939
-0.039147295 -0.02692703 0.009019599 0.024021575 0.106235236 -0.13736598 0.088959806 0.13845176
0.17554897 0.024423944 -0.09619164 -0.04295794 -0.022389183 -0.027305169 0.093398884 0.1558804
0.054894317 -0.005215764 -0.08377143 -0.12574798 0.07063212 0.07233196 0.15714869 0.046960637
-0.08273869 -0.056061216 -0.15526642 0.03979196 -0.06499888 0.010721546 0.10390879 -0.020190068
0.17865856 -0.15692882 0.026381252 0.14386697 0.115504205 0.073254496 -0.05981921 0.109793484
0.027326459 -0.12772234 -0.07453575 -0.14608812 0.11152167 -0.13429524 -0.08042883 0.14301448
0.13924809 0.15272407 -0.16339438 0.17033191 0.086888865 0.08146475 -0.021637866 -0.15902844
-0.11848487 0.060454186 0.016675515 0.09605334 -0.11362528 0.087910146 -0.063102424 0.09171091
0.17396021 0.11098995 0.009387208 0.08215437 -0.11952365 -0.0021349196 0.06044269 -0.11868755
-0.0011602885 0.09236716 -0.15886138 0.10771804 -0.1171834 -0.06420912 -0.110144325 -0.16998756
-0.062113225 -0.13935521 -0.07460599 -0.13613409 0.017068585 -0.14233871 -0.0010298777 0.011479253
0.063535556 0.06570213 -0.16119133 -0.15703057 -0.0019623477 -0.020558503 0.058779832 0.060127597
-0.17660816 0.0123677775 0.08184892 -0.043755688 0.11926314 0.1008923 0.09840534 0.16108306
-0.12789157 0.13791987 0.037528522 -0.1498931 -0.030984655 -0.15322182 -0.15940887 -0.10878758
-0.005928348 0.07807003 0.06998545 -0.15706007 0.06034453 -0.09557027 -0.09959719 0.005087575
-0.019700415 0.023997338 0.08159878 -0.047972906 0.08077976 -0.05432565 0.04829596 -0.06430733
-0.08049789 -0.047152046 0.17536177 0.007491831 0.12996581 -0.058393557 -0.15001014 -0.15649064
0.06613532 0.16418974 -0.0054593654 0.053217273 0.038502503 -0.039838392 0.04136653 0.0774372
-0.03670513 -0.01559756 -0.09366169 -0.05536137 -0.0013437932 0.13206442 0.04440923 0.037760124
-0.17103241 -0.010062968 -0.038983073 0.015634907 -0.11810083 0.04501337 -0.09740756 -0.018156534
-0.1760971 0.04385087 0.1560362 -0.06819075 0.014349962 -0.026548743 -0.099143595 -0.0011107689
-0.059163213 0.007148979 0.16814673 0.012470346 0.11981233 -0.11367892 -0.061453637 0.08139715
0.15702555 -0.16541246 0.04708857 0.121550694 -0.06394949 0.03776106 -0.054895747 -0.052339822
0.038202696 -0.03773605 -0.07782726 0.15795816 0.15342557 0.13850205 0.086943254 0.047627322
-0.0043485947 0.053359758 0.16599542 0.04576245 0.15689173 -0.09185054 0.078536235 -0.0951924
0.12563212 -0.048168384 0.09818673 0.12523882 0.05343695 0.16577493 0.107327074 -0.050727632
00000000: 9fdb 14bc 1272 db3d 9089 fa3d 39bb 28be
00000010: 9fbe 24be b06d 85bd c960 433d 70a1 2ebd
00000020: b94e 203e 4c58 233e b3a8 1ebe c5f7 19bd
00000030: 1eaf 2bbe 929e 1abe 8c00 373d fefb e4bd
00000040: 75bb 043e b0b2 6f3c b408 f03b c032 fb3d
00000050: 1a53 49bc 99b1 a33d b7be 953d de87 0f3e
00000060: 289d 19be 8073 5bbc ac55 38be b6b3 df3d
00000070: 873d 2bbe 9280 63bd 7ff9 413e c728 1b3d
00000080: 006f b0bc ae3f 123d 82d4 32bd 39a8 12be
00000090: 1b0f 263e 504d 963d df06 a8bd 0128 733c
000000a0: 2f13 38bd 3147 1dbe 0cf4 973c d62d e3bd
000000b0: da68 aebd c8d8 843d a306 f0bd 5092 34be
000000c0: ea58 20bd 1396 dcbc f1c6 133c e5c8 c43c
000000d0: dc91 d93d aba9 0cbe 8f30 b63d 4cc6 0d3e
000000e0: 1cc3 333e b914 c83c 1f00 c5bd aaf4 2fbd
000000f0: 8569 b7bc 17af dfbc ea47 bf3d 1d9f 1f3e
00000100: ddd8 603d 00e9 aabb 5b90 abbd 14c4 00be
00000110: 93a7 903d c722 943d 96eb 203e cc59 403d
00000120: e772 a9bd 72a0 65bd 29fe 1ebe e5fc 223d
00000130: 221e 85bd 6ca9 2f3c 22ce d43d a465 a5bc
00000140: 45f2 363e f3b1 20be 7f1d d83c dd51 133e
00000150: 788d ec3d 7406 963d fd04 75bd 68db e03d
00000160: bddb df3c a5c9 02be 33a6 98bd 2098 15be
00000170: 7965 e43d b184 09be dfb7 a4bd 6372 123e
00000180: 0d97 0e3e b363 1c3e db50 27be 7d6b 2e3e
00000190: caf2 b13d fed6 a63d e541 b1bc 5ad8 22be
000001a0: 32a8 f2bd cf9e 773d 179b 883c 9db7 c43d
000001b0: 5fb4 e8bd 3c0a b43d d83b 81bd eed2 bb3d
000001c0: a022 323e b34e e33d cecc 193c 8d40 a83d
000001d0: d1c8 f4bd 02ea 0bbb c192 773d 7512 f3bd
000001e0: d214 98ba fe2a bd3d 8fac 22be 479b dc3d
000001f0: dafd efbd 1280 83bd 5993 e1bd 3811 2ebe
00000200: 706a 7ebd 22b3 0ebe 06cb 98bd bc66 0bbe
00000210: 6bd3 8b3c 3dc1 11be f6fc 86ba 7a13 3c3c
00000220: ee1e 823d d78e 863d 570f 25be 9fcc 20be
00000230: bb9a 00bb 4e6a a8bc 1fc3 703d 5b48 763d
00000240: c5d8 34be 38a2 4a3c 68a0 a73d 2a39 33bd
00000250: 3c40 f43d 9fa0 ce3d bd88 c93d f5f2 243e
00000260: 02f6 02be de3a 0d3e 82b7 193d 947d 19be
00000270: 88d3 fdbc 2ee6 1cbe 143c 23be 06cc debd
00000280: 9642 c2bb 2ee3 9f3d 8854 8f3d 5bd4 20be
00000290: d32b 773d 59ba c3bd 9df9 cbbd acb5 a63b
000002a0: c462 a1bc 1196 c43c 431d a73d 3d7f 44bd
000002b0: dc6f a53d 9384 5ebd fcd1 453d 90b3 83bd
000002c0: 14dc a4bd 8122 41bd 0992 333e 097e f53b
000002d0: c215 053e 152e 6fbd 429c 19be 153f 20be
000002e0: f471 873d 5b21 283e 7ae4 b2bb 5bfa 593d
000002f0: cdb4 1d3d 952d 23bd f36f 293d 6597 9e3d
00000300: 1e58 16bd e98c 7fbc b3d1 bfbd 9bc2 62bd
00000310: 3822 b0ba e53b 073e 74e6 353d 5caa 1a3d
00000320: 1f23 2fbe 26df 24bc b7ac 1fbd c714 803c
00000330: d9de f1bd f15f 383d 9d7d c7bd 03bd 94bc
00000340: cc52 34be f89c 333d f4c7 1f3e 98a7 8bbd
00000350: 1a1c 6b3c c07c d9bc cc0b cbbd 3897 91ba
00000360: 2055 72bd fc41 ea3b a82e 2c3e 6c50 4c3c
00000370: 2b60 f53d 7ed0 e8bd cfb6 7bbd 8db3 a63d
00000380: 4ecb 203e e261 29be f2df 403d 92ef f83d
00000390: f3f7 82bd 57ab 1a3d 5dda 60bd 4862 56bd
000003a0: 6e7a 1c3d 1e91 1abd e663 9fbd c9bf 213e
000003b0: 981b 1d3e 7bd3 0d3e 4e0f b23d de14 433d
000003c0: a87e 8ebb c38f 5a3d b4fa 293e 6871 3b3d
000003d0: 3aa8 203e 231c bcbd 9bd7 a03d 3cf4 c2bd
000003e0: b5a5 003e 364c 45bd 2016 c93d 9b3e 003e
000003f0: b4e0 5a3d e7c0 293e 4cce db3d c7c7 4fbd

emb_net.v_lins1.0.bias f4 [32]
-0.012056373 0.09798159 0.13095987 -0.17539407 0.16340202 0.15262304 -0.022374352 -0.024317568
0.14523825 -0.14754869 0.045894857 -0.02917508 0.0207334 -0.07214566 0.12557213 -0.11955453
0.051825378 0.017109837 -0.11895274 0.16421305 -0.09711876 -0.16283071 0.026891593 -0.15193117
-0.07438918 -0.041645437 -0.14587706 -0.06882261 -0.043094084 -0.049258024 0.10788734 -0.038091492
00000000: 1888 45bc 92aa c83d 581a 063e 819a 33be
00000010: dc52 273e 3749 1c3e 6b4a b7bc a335 c7bc
00000020: 56b9 143e 0117 17be 3ffc 3b3d 9400 efbc
00000030: 17d9 a93c 1bc1 93bd fb95 003e 01d9 f4bd
00000040: d946 543d ee29 8c3c 7f9d f3bd 7727 283e
00000050: 33e6 c6bd 18bd 26be c24b dc3c d893 1bbe
00000060: 5b59 98bd 6894 2abd cc60 15be def2 8cbd
00000070: 6c83 30bd c8c2 49bd 0af4 dc3d d305 1cbd

emb_net.v_lins1.1.weight f4 [32, 32]
0.040744904 0.16911799 0.06345603 0.056959078 0.14560212 0.15482734 0.10401546 -0.055701703
-0.14100581 -0.019693276 0.036454123 0.04173491 -0.04243855 0.0939068 0.09111801 -0.12349762
0.05254859 0.16021603 0.1434017 -0.02678251 0.068535015 0.0026812227 0.15329738 -0.04029616
0.16600178 0.12253231 -0.13319159 0.100287326 -0.068974674 -0.17887492 -0.16512986 -0.06504262
0.03058975 0.0712806 -0.040767185 0.0011583575 -0.13676548 -0.041568946 -0.12676641 -0.015558763
-0.13774024 0.041796472 -0.17052463 -0.14081131 0.0051974175 0.0007914506 0.14397113 0.12957712
-0.15614393 0.035181236 -0.020887494 -0.15890822 -0.021802885 -0.120226175 0.122573115 0.1270311
-0.12214963 -0.15062119 -0.12493235 -0.14602108 0.10838388 -0.15954366 -0.14424413 0.11647093
0.012872658 0.030244984 -0.10933616 -0.0833691 0.041023616 0.15507616 -0.17968215 0.087953985
-0.15840177 -0.036907326 -0.09968311 0.10951515 0.12930112 -0.1521075 0.0025000959 -0.16595072
0.16751848 -0.1910588 0.13136473 -0.05449579 -0.03931119 -0.03105068 -0.15713504 0.024959497
0.13905092 0.04957203 -0.10147703 -0.105993286 0.15322238 0.106185704 0.15167102 0.07036934
-0.10183154 0.06751454 0.14986183 -0.037204728 -0.0953635 -0.16489536 -0.05782501 -0.003716728
-0.12786901 -0.12184245 0.13493721 0.08593897 0.067322865 0.1805718 0.1327486 0.04868577
0.04604917 -0.011329599 0.07022562 0.13662839 -0.02454188 0.1539092 -0.16910121 -0.10985643
-0.15425679 0.14900242 -0.09100036 -0.001289923 -0.13705358 0.16583428 -0.027484365 0.031788193
-0.15686058 -0.09173471 0.13705064 0.17750399 0.10748434 0.025724392 0.07743119 -0.11528887
-0.08201803 0.0037390897 0.06625017 0.06046849 0.13183208 0.05218512 -0.042602245 -0.12477725
0.0329132 -0.13419008 -0.021198774 -0.012363381 -0.109686285 0.14010336 -0.17941877 0.001980189
0.0957376 0.08380739 -0.12286975 0.10782037 0.1734097 -0.15177943 0.15989177 0.048837077
-0.17902331 -0.015255358 -0.05443172 -0.14452755 0.08463873 0.11519582 0.063525796 -0.048801083
-0.14607538 -0.038507357 -0.092601486 -0.11750503 0.13122411 0.031064887 0.12802324 0.08837057
0.17096764 -0.016944692 -0.13633917 0.14168371 -0.008332957 0.09172255 -0.09354003 0.07477726
-0.17125537 -0.11837833 0.05485913 -0.121064864 -0.08543434 0.079938315 0.059654843 -0.028681355
-0.13063139 -0.07006295 -0.14574368 0.013013671 0.15373065 0.0420407 -0.019768363 -0.037680943
0.117990725 -0.059188467 -0.16519488 0.011964131 0.067424074 -0.04379267 0.10135364 0.051122047
0.096862264 0.057044704 -0.025311364 -0.14592512 0.07433253 -0.12159965 0.0047427807 -0.13437839
-0.07850351 -0.007556097 0.15815674 0.06291426 -0.09338315 0.14993468 -0.10251267 -0.034077205
0.103368476 0.16469008 -0.009529044 -0.17094047 -0.05010514 -0.025490372 -0.08367127 0.07487923
-0.083452016 -0.121429004 0.144744 0.12868398 -0.042481758 -0.037306108 0.07947355 0.1619136
0.032573987 -0.09809804 -0.10417045 0.06606714 0.14784235 0.10702732 0.15850292 -0.016642103
0.07987387 0.13874435 0.010754611 0.089540444 0.08960098 -0.04056212 0.012679344 0.041254073
00000000: 21e4 263d 442d 2d3e 3cf5 813d ec4d 693d
00000010: b918 153e 0f8b 1e3e 0f06 d53d 7827 64bd
00000020: d463 10be cb53 a1bc eb50 153d 3af2 2a3d
00000030: 0cd4 2dbd 3552 c03d 149c ba3d 52ec fcbd
00000040: 313d 573d ac0f 243e e5d7 123e ff66 dbbc
00000050: 165c 8c3d 74b7 2f3b fdf9 1c3e 960d 25bd
00000060: 5ffc 293e 38f2 fa3d 6063 08be 7163 cd3d
00000070: 9842 8dbd fd2a 37be cd17 29be 1135 85bd
00000080: 5b97 fa3c 90fb 913d 7efb 26bd 07d4 973a
00000090: 400c 0cbe 3344 2abd 0ecf 01be 2fea 7ebc
000000a0: c70b 0dbe c732 2b3d 029e 2ebe d730 10be
000000b0: 194f aa3b 5a79 4f3a 2b6d 133e ddaf 043e
000000c0: 32e4 1fbe 331a 103d 401c abbc d6b8 22be
000000d0: f79b b2bc 2439 f6bd 9d07 fb3d 7114 023e
000000e0: 9629 fabd 713c 1abe 88dc ffbd 8d86 15be
000000f0: 5ef8 dd3d 6a5f 23be bcb4 13be 5088 ee3d
00000100: d7e7 523c 54c4 f73c a3eb dfbd 6bbd aabd
00000110: 6108 283d 49cc 1e3e 99fe 37be 3821 b43d
00000120: 1334 22be 232c 17bd a926 ccbd 7b49 e03d
00000130: 8367 043e 12c2 1bbe a6d8 233b fcee 29be
00000140: f789 2b3e eba4 43be 7a84 063e fa36 5fbd
00000150: c504 21bd ff5d febc 02e8 20be dc77 cc3c
00000160: 5d63 0e3e 0a0c 4b3d 30d3 cfbd 0213 d9bd
00000170: 54e6 1c3e e477 d93d a64f 1b3e cd1d 903d
00000180: 0e8d d0bd 1045 8a3d 6175 193e fc63 18bd
00000190: f04d c3bd 54da 28be ebd9 6cbd 5994 73bb
000001a0: 18f0 02be 8988 f9bd fb2c 0a3e c500 b03d
000001b0: 92e0 893d d0e7 383e 40ef 073e bb6a 473d
000001c0: 0e9e 3c3d c89f 39bc 73d2 8f3d 50e8 0b3e
000001d0: 0d0c c9bc 609a 1d3e de28 2dbe 68fc e0bd
000001e0: 7ef5 1dbe 1794 183e 665e babd a212 a9ba
000001f0: c657 0cbe 76d0 293e e426 e1bc 5634 023d
00000200: 0fa0 20be 68df bbbd 0157 0c3e 9bc3 353e
00000210: c020 dc3d f6bb d23c 3e94 9e3d 921c ecbd
00000220: 12f9 a7bd 840b 753b 2bae 873d cfad 773d
00000230: fdfe 063e 10c0 553d b17f 2ebd 378b ffbd
00000240: fecf 063d 2069 09be 0da9 adbc c78f 4abc
00000250: 34a3 e0bd 4177 0f3e 8eb9 37be 0fc6 013b
00000260: 1312 c43d 35a3 ab3d 23a3 fbbd edd0 dc3d
00000270: 5092 313e 116c 1bbe abba 233e 6309 483d
00000280: e351 37be 9cf1 79bc ccf3 5ebd 08ff 13be
00000290: 1257 ad3d c9eb eb3d d019 823d a5e3 47bd
000002a0: c994 15be e4b9 1dbd d9a5 bdbd 7aa6 f0bd
000002b0: 9d5f 063e ca7b fe3c 8618 033e a1fb b43d
000002c0: 2412 2f3e 98cf 8abc 7f9c 0bbe 8915 113e
000002d0: f486 08bc 08d9 bb3d ea91 bfbd d224 993d
000002e0: 915d 2fbe 5670 f2bd f8b3 603d dbf0 f7bd
000002f0: 33f8 aebd b3b6 a33d a358 743d 29f5 eabc
00000300: 3cc4 05be 2a7d 8fbd d53d 15be 4b37 553c
00000310: 916b 1d3e de32 2c3d 43f1 a1bc 5557 1abd
00000320: 1fa5 f13d 9b6f 72bd d928 29be 3405 443c
00000330: a215 8a3d f15f 33bd 7f92 cf3d 5a65 513d
00000340: b95f c63d b5a7 693d c759 cfbc 656d 15be
00000350: a73b 983d 3d09 f9bd 5469 9b3b 7d9a 09be
00000360: 73c6 a0bd 2399 f7bb d7f3 213e 31d9 803d
00000370: aa3f bfbd 7a88 193e 2af2 d1bd 8a94 0bbd
00000380: dab2 d33d 84a4 283e b51f 1cbc 050b 2fbe
00000390: 0c3b 4dbd 2fd1 d0bc d85b abbd 485a 993d
000003a0: e4e8 aabd c5af f8bd c537 143e bcc5 033e
000003b0: 5a01 2ebd 4ace 18bd 07c3 a23d aecc 253e
000003c0: 4d6c 053d a0e7 c8bd 5157 d5bd 354e 873d
000003d0: fc63 173e 2431 db3d 974e 223e 0555 88bc
000003e0: e994 a33d 0013 0e3e 1c34 303c fb60 b73d
000003f0: b880 b73d 7724 26bd 06bd 4f3c 08fa 283d

emb_net.v_lins1.1.bias f4 [32]
-0.04784397 0.09561666 -0.10004045 0.08529075 -0.08883006 0.042217866 -0.102092266 -0.015844451
-0.0710871 0.015596589 0.12290568 -0.030522007 -0.055614926 0.041446164 -0.062889546 0.103250355
0.12064589 -0.051282167 -0.020699078 0.0075133066 -0.023105681 0.12980618 -0.060704112 0.090025686
0.06909721 0.17460224 0.07372989 0.05271739 -0.13653168 0.020865072 -0.12833773 0.08188786
00000000: 0af8 43bd abd2 c33d 02e2 ccbd ebac ae3d
00000010: 89ec b5bd a4ec 2c3d c015 d1bd 39cc 81bc
00000020: 1d96 91bd d688 7f3c f9b5 fb3d 4a09 fabc
00000030: 7acc 63bd 74c3 293d 3ccc 80bd ec74 d33d
00000040: 3115 f73d 400d 52bd 1d91 a9bc 2f32 f63b
00000050: 2048 bdbc e9eb 043e e0a4 78bd 635f b83d
00000060: d782 8d3d eeca 323e b2ff 963d 31ee 573d
00000070: f6ce 0bbe 3aed aa3c f76a 03be d3b4 a73d

emb_net.v_lins1.2.weight f4 [32, 32]
-0.124000736 -0.11859951 -0.11875627 -0.09105537 0.03324424 -0.11809058 -0.019023066 0.037158422
0.0049546356 -0.128248 0.1491595 0.1175608 0.079458 -0.049588148 -0.06911523 -0.13081872
0.0406949 -0.021800527 0.019575352 0.11733782 0.10853365 0.10449563 -0.030901328 -0.18948254
0.1477688 -0.1046582 -0.050713982 -0.15390915 -0.019286219 0.074617855 -0.11239834 0.14452606
0.058369193 0.124106325 -0.15595137 0.16586687 -0.074273035 -0.15398312 -0.12072565 -0.15501088
0.06327114 -0.14871931 0.049366593 -0.018854959 -0.10989943 -0.15141913 -0.074935555 0.0761325
0.007059616 -0.1645722 0.14389513 0.012058618 -0.039293367 0.041582257 -0.10190382 -0.11198958
0.08821002 -0.14582889 -0.131421 -0.0066499305 0.17607473 -0.0032592893 0.14739154 -0.06063072
-0.09885322 -0.14791253 0.06099777 -0.033135854 0.15227175 0.083284825 0.06324827 0.051087473
-0.042399425 0.057061203 0.15919493 -0.08883712 0.11607348 -0.06345363 0.13424045 -0.11453724
-0.046846457 -0.11810732 0.10561756 -0.13747562 -0.013205135 -0.14248937 0.13920568 0.07776719
-0.096393324 -0.03625374 -0.057273787 -0.1265899 0.10159368 -0.16820781 -0.0036963364 0.08456751
0.062425587 0.07390788 0.015285606 0.02218923 -0.07753317 -0.12841646 -0.14616984 0.16859317
0.076655805 -0.12215922 0.15534358 -0.08947735 0.14435071 0.16387798 0.17468981 0.1391058
0.008877454 0.016969169 -0.036992427 -0.133787 0.11974293 0.14945284 -0.011121174 0.012343192
-0.12268853 -0.036697447 -0.10902547 0.03071035 0.08219695 0.11583544 0.02325183 -0.05836456
0.11801213 -0.08442236 -0.00724873 -0.16155007 -0.0028463947 -0.02510303 0.12808959 0.050227556
0.048645947 0.12073016 -0.056731727 0.008778191 -0.046196077 -0.04986443 0.14521426 -0.040263213
-0.016273007 -0.18252827 0.028895672 -0.1875144 -0.020969931 -0.14338785 -0.06566759 -0.03730109
-0.1325989 -0.05873459 0.10250813 -0.02865365 -0.02243903 -0.021609683 0.11868141 -0.055901363
-0.05095576 -0.07100159 -0.123729944 0.117378466 -0.10378195 -0.15063258 0.13350786 -0.11615697
0.16975409 -0.06309564 -0.14172769 -0.0665816 -0.1764699 -0.061891567 0.053906556 -0.044206448
0.09177023 0.114464685 0.010329041 0.15932049 -0.1755241 0.02452186 -0.069171846 -0.014736345
0.1341838 0.07649476 0.16385654 0.087049566 0.063259706 0.009188932 -0.08172711 0.12561266
-0.17732848 -0.03795792 -0.017427722 0.13857178 0.16694605 -0.14125171 0.07315826 0.019639928
-0.10261954 -0.10143496 -0.016259558 0.11307188 0.1476369 -0.04834496 -0.019518012 -0.028485969
-0.15210074 0.035454433 0.037971225 -0.0662413 0.11806162 -0.18490387 -0.09773976 0.024644937
-0.15689503 -0.1251881 -0.077698536 -0.047871195 0.0792827 0.117419615 -0.02766617 -0.15630585
-0.116453946 0.11485851 0.0029135682 -0.14170639 0.08298496 -0.17608073 0.040267665 -0.06842023
0.05639646 -0.18111883 -0.054822233 -0.014467779 -0.026510423 -0.13319889 -0.11430884 0.11451913
-0.16264427 0.07341268 -0.1303274 -0.14073628 0.04132371 0.115292855 -0.05917227 0.09752193
0.055158135 -0.08561423 0.16332147 -0.17706259 0.07971572 0.116457686 -0.025131682 -0.17792118
00000000: 19f4 fdbd 4de4 f2bd 7d36 f3bd 3d7b babd
00000010: 1d2b 083d 79d9 f1bd 43d6 9bbc 6e33 183d
00000020: 7f5a a23b 7253 03be 45bd 183e b7c3 f03d
00000030: e0ba a23d f11c 4bbd 498c 8dbd 58f5 05be
00000040: b2af 263d 0597 b2bc 7d5c a03c d04e f03d
00000050: e446 de3d ce01 d63d c824 fdbc b607 42be
00000060: b450 173e 0a57 d6bd 77b9 4fbd 5c9a 1dbe
00000070: 22fe 9dbc 3fd1 983d 1a31 e6bd a4fe 133e
00000080: 8914 6f3d 752b fe3d b7b1 1fbe 01d9 293e
00000090: 761c 98bd c0ad 1dbe 023f f7bd 2cbb 1ebe
000000a0: 4d94 813d e049 18be a034 4a3d b775 9abc
000000b0: f412 e1bd 9e0d 1bbe d077 99bd 5beb 9b3d
000000c0: 5a54 e73b 9d85 28be 3f59 133e 8291 453c
000000d0: 15f2 20bd 2852 2a3d f3b2 d0bd cb5a e5bd
000000e0: 74a7 b43d 2b54 15be 3a93 06be a9e7 d9bb
000000f0: ef4c 343e cd99 55bb cfed 163e eb57 78bd
00000100: 8f73 cabd 6276 17be ccd8 793d 76b9 07bd
00000110: 20ed 1b3e 3c91 aa3d 4f88 813d 1941 513d
00000120: 05ab 2dbd 02b9 693d ff03 233e 3cf0 b5bd
00000130: efb7 ed3d faf3 81bd 5476 093e 8092 eabd
00000140: 12e2 3fbd 40e2 f1bd 054e d83d 69c6 0cbe
00000150: 5a5a 58bc bce8 11be ef8b 0e3e 6844 9f3d
00000160: dd69 c5bd cd7e 14bd eb97 6abd c8a0 01be
00000170: 5910 d03d ab3e 2cbe 3c3e 72bb bb31 ad3d
00000180: f9b1 7f3d 045d 973d 7a70 7a3c 30c6 b53c
00000190: b6c9 9ebd 9b7f 03be 8cad 15be b0a3 2c3e
000001a0: b8fd 9c3d 9d2e fabd 6312 1f3e e73f b7bd
000001b0: acd0 133e a1cf 273e e3e1 323e c071 0e3e
000001c0: be72 113c ed02 8b3c 5f85 17bd 76ff 08be
000001d0: c83b f53d 2a0a 193e 9635 36bc 193b 4a3c
000001e0: 2044 fbbd 1050 16bd bf48 dfbd 4694 fb3c
000001f0: e056 a83d 223b ed3d 9f7a be3c ad0f 6fbd
00000200: 58b0 f13d a1e5 acbd c186 edbb 626d 25be
00000210: 948a 3abb dfa4 cdbc eb29 033e 69bb 4d3d
00000220: f940 473d 6041 f73d 875f 68bd 67d2 0f3c
00000230: 1938 3dbd a53e 4cbd 0cb3 143e 0aeb 24bd
00000240: f84e 85bc b1e8 3abe 9eb6 ec3c c603 40be
00000250: 22c9 abbc 44d4 12be bb7c 86bd 07c9 18bd
00000260: 02c8 07be ae93 70bd c8ef d13d 0fbb eabc
00000270: 0fd2 b7bc ca06 b1bc 3d0f f33d d4f8 64bd
00000280: fdb6 50bd 4869 91bd 2066 fdbd 1f64 f03d
00000290: a28b d4bd 6d3f 1abe 49b6 083e b5e3 edbd
000002a0: 04d4 2d3e 4938 81bd 1021 11be ef5b 88bd
000002b0: 87b4 34be 0382 7dbd 1fcd 5c3d d211 35bd
000002c0: 08f2 bb3d 766c ea3d 233b 293c e924 233e
000002d0: 97bc 33be 11e2 c83c f8a9 8dbd b670 71bc
000002e0: 7a67 093e 49a9 9c3d 02ca 273e 0b47 b23d
000002f0: 4e8e 813d 2d8d 163c 8b60 a7bd 9ba0 003e
00000300: 9995 35be c479 1bbd 95c4 8ebc c3e5 0d3e
00000310: e8f3 2a3e 4aa4 10be ffd3 953d eae3 a03c
00000320: 322a d2bd 22bd cfbd c432 85bc 3b92 e73d
00000330: 212e 173e 5d05 46bd 3de4 9fbc 685b e9bc
00000340: 4cc0 1bbe ab38 113d b787 1b3d 85a9 87bd
00000350: 4aca f13d 7157 3dbe c92b c8bd 2ee4 c93c
00000360: 17a9 20be 4f31 00be 6920 9fbd 9614 44bd
00000370: f85e a23d b279 f03d 2aa4 e2bc a40e 20be
00000380: 687f eebd f03a eb3d 90f1 3e3b 7b1b 11be
00000390: 05f4 a93d 824e 34be b5ef 243d e81f 8cbd
000003a0: f9ff 663d 3777 39be 478d 60bd 430a 6dbc
000003b0: 632c d9bc 4a65 08be c11a eabd 0189 ea3d
000003c0: 388c 26be 6359 963d 8c74 05be 2c1d 10be
000003d0: 0d43 293d a91e ec3d 9f5e 72bd 94b9 c73d
000003e0: 7fed 613d 8356 afbd be3d 273e e54f 35be
000003f0: ff41 a33d 5e81 ee3d f5e0 cdbc f830 36be

emb_net.v_lins1.2.bias f4 [32]
0.10514477 0.0041745794 0.14523943 -0.15081537 0.013757262 -0.068773605 0.041428924 -0.07984966
0.015282538 0.17222358 0.10613386 -0.029090794 -0.024942856 0.098133236 0.16591965 0.11387241
0.15771154 -0.11118592 0.13816029 0.12778121 0.12527868 0.09522888 -0.13758866 0.068312734
-0.12579101 -0.1592916 0.03735538 0.035396487 0.15141435 -0.08567663 -0.01771626 0.017422931
00000000: 2456 d73d e9ca 883b a5b9 143e 586f 1abe
00000010: 2466 613c 2dd9 8cbd 60b1 293d 3888 a3bd
00000020: 9c63 7a3c 615b 303e b65c d93d d14f eebc
00000030: f654 ccbc 14fa c83d d7e6 293e f035 e93d
00000040: 227f 213e 72b5 e3bd e479 0d3e 14d9 023e
00000050: 0e49 003e 5c07 c33d 0be4 0cbe 8ce7 8b3d
00000060: 5ccf 00be 561d 23be f401 193d e8fb 103d
00000070: 5d0c 1b3e 3b77 afbd b121 91bc 89ba 8e3c

emb_net.v_lins1.3.weight f4 [32, 32]
0.092841096 0.05616079 0.07961188 -0.11703417 -0.043944336 -0.09106575 0.11778471 0.048512295
-0.08216608 -0.16744134 0.02270483 -0.08150432 0.14792958 -0.05115581 -0.013844545 -0.13968103
0.026008474 -0.10869536 0.106578074 -0.08801339 0.119449325 -0.06344121 -0.056058943 0.10013316
-0.1047119 -0.09563245 0.0580331 -0.1399158 -0.06488557 -0.03504595 0.06863633 -0.14480819
0.09560238 -0.09658375 -0.16698304 0.09654554 -0.17259239 -0.18119898 0.030950882 -0.07651005
-0.06979082 -0.10364673 -0.110752806 0.13153693 -0.029470624 -0.13137852 -0.07047849 0.046755727
0.0057343887 0.15887287 -0.08563443 -0.12729694 -0.15978198 -0.11587293 0.073514976 0.013641205
-0.021789312 0.091478325 0.14573714 0.1579935 0.13992779 -0.037487194 -0.0041753827 -0.11641121
0.15147428 0.0077320063 -0.14568411 0.095449485 -0.13589793 -0.011955715 0.16399583 -0.07894261
0.06644997 -0.0892115 0.10905248 0.16859601 -0.012648668 -0.07055874 -0.108534634 0.051870946
0.11389511 -0.12764302 -0.01621436 -0.13615249 -0.02279509 -0.13528784 0.054216053 -0.16844523
0.008647833 0.054552708 -0.15257458 0.071900964 0.00089844846 -0.10115891 0.07242054 -0.1528062
-0.16190116 -0.0963605 -0.04940612 0.100312196 0.03594742 0.14867914 -0.04834486 0.07869052
-0.045753956 0.16891082 0.0035491053 0.06863295 0.17106734 0.10686764 0.13328065 -0.175658
0.04690995 0.15300979 -0.068930164 0.05552921 0.11368149 -0.09289403 -0.04682615 0.109775126
-0.15571366 -0.042594753 0.15312064 0.10409668 -0.14208122 -0.029135566 0.033248257 -0.043479417
0.15332839 -0.16358915 0.0058119134 -0.16648833 -0.035782114 0.15119918 -0.06451385 0.09317719
-0.12576 0.11337747 0.053700794 -0.07920762 -0.08305888 0.13155091 0.0053508263 -0.10232835
0.057463653 0.05038017 -0.15091138 -0.09289643 -0.16981123 -0.09093859 -0.032766454 0.03078229
-0.16311836 -0.17043704 -0.11742005 0.041098047 -0.03318551 0.061006736 0.17179993 -0.092785865
0.09079822 0.022200784 0.041074138 0.07314439 0.070865825 0.07482568 0.086128116 -0.14130904
0.109158546 -0.10643425 -0.13092178 -0.12131995 0.08308278 -0.08162085 -0.029147668 -0.104323216
0.16350834 -0.060770273 -0.123624556 -0.062023338 0.027166741 -0.12056138 -0.10180948 0.06006496
-0.029684583 0.11327846 -0.16943105 0.12734123 0.082907155 0.07129136 -0.14464575 -0.1634635
0.13874614 -0.12764242 -0.058004253 -0.12969297 0.06349705 0.03675257 0.04343865 0.06494465
0.08476134 -0.06155621 -0.16225325 -0.040580705 0.056170724 -0.12893397 0.13453922 0.12512387
0.16396378 0.1616375 0.040479943 -0.04041725 0.12982744 -0.022234503 -0.17229693 -0.12819552
-0.034273442 0.041642956 0.08937685 0.14786021 -0.023055807 0.07946824 -0.100887924 0.062238663
-0.13092597 -0.027454395 -0.1316899 0.15406166 -0.10076434 -0.13610426 0.042868357 0.010919022
-0.0331703 -0.015817074 0.027411962 -0.016874144 0.15584774 0.0774104 -0.052132905 -0.073068045
0.103508696 0.0684063 0.080454946 -0.009473267 -0.09958119 -0.18151413 0.09513469 -0.05687831
0.14484103 0.0730865 -0.015457721 0.04052439 0.030843375 -0.01832356 -0.039964043 -0.013175494
00000000: 7923 be3d db08 663d 8e0b a33d 9caf efbd
00000010: fafe 33bd ae80 babd 1c39 f13d d4b4 463d
00000020: b146 a8bd be75 2bbe 7bff b93c bdeb a6bd
00000030: da7a 173e c188 51bd 3bd4 62bc 8b08 0fbe
00000040: b90f d53c ac9b debd 9b45 da3d 5d40 b4bd
00000050: d9a1 f43d 77ed 81bd 109e 65bd 9d12 cd3d
00000060: 3173 d6bd f2da c3bd 1eb4 6d3d 1646 0fbe
00000070: bae2 84bd 588c 0fbd 3491 8c3d 9948 14be
00000080: 2ecb c33d b3cd c5bd 9afd 2abe abb9 c53d
00000090: 0fbc 30be 3a8c 39be b48c fd3c 4db1 9cbd
000000a0: 7dee 8ebd bd44 d4bd 5ed2 e2bd 9eb1 063e
000000b0: 616c f1bc 1788 06be 0757 90bd ef82 3f3d
000000c0: 8ae7 bb3b 92af 223e 1b61 afbd 215a 02be
000000d0: e39d 23be c94e edbd 058f 963d 5c7f 5f3c
000000e0: 807f b2bc fd58 bb3d 1e3c 153e 0cc9 213e
000000f0: 3b49 0f3e 2c8c 19bd a6d1 88bb 0069 eebd
00000100: 131c 1b3e c55c fd3b 372e 15be 057b c33d
00000110: d428 0bbe e7e1 43bc 86ee 273e aaac a1bd
00000120: ec16 883d 85b4 b6bd e856 df3d 6fa4 2c3e
00000130: 5c3c 4fbc 1a81 90bd 6847 debd a176 543d
00000140: d741 e93d dab4 02be fad3 84bc 8f6b 0bbe
00000150: c5bc babc e588 0abe a711 5e3d e87c 2cbe
00000160: a4af 0d3c a972 5f3d 833c 1cbe d040 933d
00000170: db85 6b3a 672c cfbd 3851 943d 3a79 1cbe
00000180: 6bc9 25be a758 c5bd 125e 4abd 7b70 cd3d
00000190: 9a3d 133d 583f 183e 4305 46bd 7f28 a13d
000001a0: 8068 3bbd f5f6 2c3e 1b98 683b 6f8f 8c3d
000001b0: 472c 2f3e 6cdd da3d b97a 083e b1df 33be
000001c0: a624 403d 99ae 1c3e 422b 8dbd 9972 633d
000001d0: d7d1 e83d 3a3f bebd c7cc 3fbd c8d1 e03d
000001e0: 6773 1fbe d677 2ebd a8cb 1c3e a430 d53d
000001f0: bd7d 11be b6ad eebc 532f 083d 7917 32bd
00000200: 1e02 1d3e ea83 27be dd71 be3b eb7b 2abe
00000210: 4490 12bd f5d3 1a3e d61f 84bd afd3 be3d
00000220: 3bc7 00be 7232 e83d 5df5 5b3d 9b37 a2bd
00000230: c61a aabd 48b5 063e fc55 af3b 8791 d1bd
00000240: 025f 6b3d 705b 4e3d 8388 1abe 7c40 bebd
00000250: ffe2 2dbe 033e babd 1e36 06bd 242b fc3c
00000260: 8008 27be 0c87 2ebe ec79 f0bd 6d56 283d
00000270: 88ed 07bd 33e2 793d 52ec 2f3e 8406 bebd
00000280: 6bf4 b93d 6bde b53c 5b3d 283d bacc 953d
00000290: 1a22 913d 353e 993d f063 b03d 51b3 10be
000002a0: 848e df3d 33fa d9bd 5c10 06be 9876 f8bd
000002b0: 4e27 aa3d d528 a7bd 17c7 eebc 69a7 d5bd
000002c0: bb6e 273e 40ea 78bd df2e fdbd 2f0c 7ebd
000002d0: c98c de3c e3e8 f6bd 7d81 d0bd ad06 763d
000002e0: 152d f3bc 8afe e73d 557f 2dbe bd65 023e
000002f0: 3acb a93d 3401 923d 041e 14be fa62 27be
00000300: 7813 0e3e b2b4 02be de95 6dbd 3cce 04be
00000310: be0a 823d dd89 163d baec 313d b301 853d
00000320: 5a97 ad3d 5d22 7cbd b725 26be f437 26bd
00000330: 4613 663d 4407 04be a6c4 093e 7920 003e
00000340: 1fe6 273e 4d84 253e 4cce 253d 8f8c 25bd
00000350: 7cf1 043e 2225 b6bc 9b6e 30be b045 03be
00000360: 4f62 0cbd ce91 2a3d 360b b73d ab68 173e
00000370: 88df bcbc 3fc0 a23d 549e cebd f8ed 7e3d
00000380: 7511 06be 0ae8 e0bc b8d9 06be 57c2 1d3e
00000390: 895d cebd ea5e 0bbe bb96 2f3d b3e5 323c
000003a0: 95dd 07bd cf92 81bc 0d8f e03c a53b 8abc
000003b0: 8d96 1f3e 5889 9e3d 5089 55bd b3a4 95bd
000003c0: 5efc d33d 9a18 8c3d 90c5 a43d c335 1bbc
000003d0: 39f1 cbbd d7de 39be fad5 c23d 3bf9 68bd
000003e0: 3551 143e 60ae 953d 6242 7dbc e7fc 253d
000003f0: 3fab fc3c 4a1b 96bc 56b1 23bd 07de 57bc

emb_net.v_lins1.3.bias f4 [32]
0.012967277 -0.1549532 -0.15400898 -0.11350884 -0.13883957 -0.030477459 -0.108121574 0.047523946
0.028304894 0.098696224 0.062035147 0.019812891 -0.036706675 -0.17526644 0.1635043 -0.14014342
0.10377795 0.041323513 0.08156843 -0.11957208 -0.1593337 -0.0054786727 -0.045304663 -0.120655805
-0.15206423 0.113613844 -0.10702765 0.13895153 0.16894679 0.04355439 0.046396963 -0.06650081
00000000: b474 543c 0dac 1ebe 88b4 1dbe 5377 e8bd
00000010: f62b 0ebe ddab f9bc d86e ddbd 78a8 423d
00000020: aadf e73c 3f21 ca3d 9118 7e3d a54e a23c
00000030: bd59 16bd 0c79 33be ac6d 273e c281 0fbe
00000040: 8989 d43d d842 293d 590d a73d 35e2 f4bd
00000050: 6028 23be 7086 b3bb 6291 39bd 641a f7bd
00000060: bab6 1bbe 60ae e83d 5031 dbbd 4f49 0e3e
00000070: 6300 2d3e 1766 323d be0a 3e3d 9431 88bd

emb_net.v_lins1.4.weight f4 [32, 32]
-0.099628754 0.16699181 0.10834381 -0.13595879 -0.16223459 -0.007946355 -0.12537792 0.09336643
-0.09149323 -0.0373799 -0.16226394 0.06380459 0.049897797 -0.13819319 -0.025810922 0.08751675
0.026326302 -0.060611036 -0.062273763 -0.12772883 -0.10577597 -0.031306386 0.051895455 0.13367821
0.052126355 0.024291726 0.17077924 0.08042414 -0.11509248 -0.15408048 0.019213645 0.13821118
-0.08125392 -0.1771039 0.051226877 0.054073855 0.11102067 -0.075617254 -0.009201626 -0.024667103
-0.027390014 0.050777514 -0.04279998 0.020883642 -0.10874942 -0.13246831 -0.098243535 -0.011217984
0.085807905 -0.118622266 -0.054808848 0.17712715 0.07872353 0.15259354 0.14515507 -0.0072699655
-0.10846804 0.049973227 0.04105956 0.13081688 -0.13262348 -0.08088178 -0.06334029 -0.061879672
0.054752443 0.023307871 0.14831124 -0.10581007 -0.034295768 -0.017961219 0.02003113 -0.13012265
0.08370933 0.005820585 -0.17043766 0.12959056 0.013145411 -0.11149079 -0.066729814 0.07049266
0.022161353 -0.12808935 -0.030222993 -0.11587406 0.09868139 0.0786819 0.060141657 0.07431465
0.12949046 0.066811144 -0.09121619 -0.12820189 0.042551987 -0.007445309 -0.15306237 -0.13340433
-0.034880657 -0.1371619 0.10241379 -0.17814872 -0.06362293 -0.15046442 0.09846128 0.026644705
0.036442764 0.034433536 0.17430916 0.15445973 0.044998366 -0.109547004 0.114601135 0.11401146
-0.049372017 0.018631876 -0.0049178917 -0.081632495 0.13979612 -0.10172357 0.14592038 0.06848795
0.0077525927 -0.00931221 -0.12364101 0.06961368 -0.07710532 -0.0698391 -0.02117875 -0.0067567388
-0.16074836 -0.09072378 -0.05762673 0.059416294 0.09811908 0.03909304 -0.06574 -0.09399667
-0.092497975 0.04648385 -0.14295587 -0.045485053 -0.035979483 0.14981762 0.028221652 -0.14542638
0.11996216 -0.018432241 0.13778792 -0.16179015 0.1574307 0.1773354 0.13477597 -0.10000893
0.025402898 -0.068630055 0.058849256 0.053350907 0.09768141 -0.09025376 -0.06807038 0.06768195
-0.06779488 -0.17094636 -0.056953274 0.07187319 0.13547023 -0.14003876 -0.15170173 -0.059442896
-0.07191055 -0.048974372 -0.1155331 0.06611199 -0.10313559 0.04733237 -0.14315824 0.09770749
-0.03082244 0.12247429 -0.1245541 0.13988285 -0.0142588755 -0.050728124 0.089732066 -0.105343565
0.08046825 -0.040472604 -0.1024816 0.09303412 0.12805149 0.02938485 -0.024993736 -0.15172978
-0.17599808 -0.007284591 0.13016501 0.10874163 0.15801953 -0.09804412 0.054753568 0.06733519
0.054859716 0.039618462 -0.07321881 -0.057110325 -0.07776358 0.17974155 -0.1305369 -0.12067078
-0.056810226 0.07252352 0.17778823 0.14549784 -0.11015161 0.008600665 -0.01846805 0.07784354
0.16156682 0.13490616 -0.052616917 0.036206182 0.013466798 0.11054154 -0.10071105 0.17790504
0.09481888 0.14319453 0.07301778 0.107498154 0.010534089 0.08693744 0.12268352 -0.03951081
-0.08641753 0.10907519 -0.11683839 0.13701896 -0.105495125 0.14164124 0.12492178 0.15507145
0.096770234 -0.07629057 0.056528766 -0.14872824 0.11967062 -0.021920722 0.007962592 0.034562886
0.06480571 0.12968248 0.012559269 -0.067564435 0.09444903 0.15957162 0.17057744 -0.121935345
00000000: 290a ccbd e7ff 2a3e 5ce3 dd3d c838 0bbe
00000010: d320 26be 6e31 02bc 1263 00be e636 bf3d
00000020: cd60 bbbd ab1b 19bd 8528 26be fbab 823d
00000030: a261 4c3d 8482 0dbe 6d71 d3bc fb3b b33d
00000040: 42aa d73c 4743 78bd c612 7fbd 59cb 02be
00000050: 12a1 d8bd 203b 00bd 5490 543d f1e2 083e
00000060: 7282 553d 71ff c63c c1e0 2e3e 69b5 a43d
00000070: 9bb5 ebbd 46c7 1dbe ef65 9d3c 3b87 0d3e
00000080: 7568 a6bd ba5a 35be 46d3 513d 8c7c 5d3d
00000090: ce5e e33d 38dd 9abd 6bc2 16bc aa12 cabc
000000a0: 0661 e0bc 15fc 4f3d 084f 2fbd 2c14 ab3c
000000b0: 04b8 debd c6a5 07be e833 c9bd a3cb 37bc
000000c0: 0ebc af3d 3bf0 f2bd 3e7f 60bd d260 353e
000000d0: cd39 a13d 7b41 1c3e 88a3 143e e438 eebb
000000e0: 7e24 debd bab0 4c3d 122e 283d dcf4 053e
000000f0: 73ce 07be 59a5 a5bd 8eb8 81bd 8a75 7dbd
00000100: 1944 603d 26f0 be3c e7de 173e f3b2 d8bd
00000110: b879 0cbd 6823 93bc 5318 a43c df3e 05be
00000120: cc6f ab3d 9bba be3b 3687 2ebe 63b3 043e
00000130: da5f 573c 4955 e4bd a4a9 88bd 755e 903d
00000140: ba8b b53c db29 03be 3696 f7bc 614f edbd
00000150: 7819 ca3d fa23 a13d 1957 763d 4732 983d
00000160: 2699 043e 48d4 883d 8ecf babd 5b47 03be
00000170: fe4a 2e3d c7f7 f3bb 62bc 1cbe 259b 08be
00000180: 05df 0ebd 2b74 0cbe 52be d13d 9e6c 36be
00000190: bd4c 82bd 5813 1abe 11a6 c93d ff45 da3c
000001a0: 0245 153d 2e0a 0d3d 1a7e 323e b12a 1e3e
000001b0: 3550 383d 2e5a e0bd 00b4 ea3d d77e e93d
000001c0: 503a 4abd e0a1 983c 4426 a1bb f02e a7bd
000001d0: b726 0f3e 7254 d0bd 276c 153e 6943 8c3d
000001e0: 7609 fe3b 3d92 18bc 7f37 fdbd 9e91 8e3d
000001f0: 65e9 9dbd cd07 8fbd 0f7f adbc a267 ddbb
00000200: 389b 24be 64cd b9bd 020a 6cbd 805e 733d
00000210: a8f2 c83d 0620 203d b1a2 86bd 5381 c0bd
00000220: 946f bdbd d965 3e3d 0663 12be 894e 3abd
00000230: 395f 13bd ca69 193e 1831 e73c a7ea 14be
00000240: b9ae f53d 36ff 96bc 4718 0d3e 51ac 25be
00000250: 8335 213e 6997 353e b602 0a3e 7bd1 ccbd
00000260: bd19 d03c ea8d 8cbd eb0b 713d 7b86 5a3d
00000270: 310d c83d f7d6 b8bd 7c68 8bbd d69c 8a3d
00000280: 0bd8 8abd 900c 2fbe d647 69bd 4032 933d
00000290: b5b8 0a3e 5266 0fbe b357 1bbe 657a 73bd
000002a0: d745 93bd 5a99 48bd 9e9c ecbd b965 873d
000002b0: c138 d3bd 96df 413d 1398 12be dd1a c83d
000002c0: 577f fcbc cdd3 fa3d 3816 ffbd 733d 0f3e
000002d0: 0f9e 69bc 4bc8 4fbd 72c5 b73d 5ebe d7bd
000002e0: 8acc a43d 9ac6 25bd e0e1 d1bd ac88 be3d
000002f0: ee1f 033e 7fb8 f03c aabf ccbc 0d5f 1bbe
00000300: d738 34be 94b3 eebb fa49 053e efb3 de3d
00000310: dfcf 213e 5bcb c8bd 4745 603d 08e7 893d
00000320: 95b4 603d f846 223d bef3 95bd 84ec 69bd
00000330: 8342 9fbd 2b0e 383e 77ab 05be 3e22 f7bd
00000340: d7b1 68bd 3687 943d 1e0e 363e 63fd 143e
00000350: 2b97 e1bd cee9 0c3c 4f4a 97bc 6f6c 9f3d
00000360: c671 253e d724 0a3e d684 57bd ef4c 143d
00000370: d8a3 5c3c 9a63 e23d 9841 cebd bd2c 363e
00000380: 6730 c23d 96a1 123e 598a 953d fe27 dc3d
00000390: 2c97 2c3c 420c b23d 7f41 fb3d 16d6 21bd
000003a0: adfb b0bd d062 df3d f748 efbd b34e 0c3e
000003b0: d40d d8bd 670a 113e fdd6 ff3d 0dcb 1e3e
000003c0: 792f c63d 3b3e 9cbd b58a 673d 374c 18be
000003d0: df15 f53d 1693 b3bc 8875 023c d091 0d3d
000003e0: dbb8 843d 7ccb 043e 64c5 4d3c 395f 8abd
000003f0: 7e6e c13d be66 233e daab 2e3e 3db9 f9bd

emb_net.v_lins1.4.bias f4 [32]
-0.11336585 0.02634794 0.15459421 0.12411102 -0.10991084 0.08238006 0.1758496 0.17811458
-0.016554482 -0.1619682 0.17538369 0.031099329 0.10901822 0.013034586 -0.01112112 -0.05807812
0.054742206 -0.14621848 -0.07514912 0.09912863 0.106154405 -0.013755948 -0.14424254 0.021323416
0.11425116 -0.11339664 0.0121317785 0.09035872 0.16035138 -0.123490155 0.16175196 0.016397843
00000000: 5b2c e8bd a3d7 d73c f24d 1e3e eb2d fe3d
00000010: ef18 e1bd e0b6 a83d eb11 343e ab63 363e
00000020: 449d 87bc feda 25be c897 333e 05c4 fe3c
00000030: f244 df3d 048f 553c 5c35 36bc 53e3 6dbd
00000040: 5d39 603d 4cba 15be c8e7 99bd f303 cb3d
00000050: 7b67 d93d a160 61bc 51b4 13be 72ae ae3c
00000060: 83fc e93d 7f3c e8bd 5ec4 463c fe0d b93d
00000070: 2733 243e 68e8 fcbd 4ea2 253e c554 863c

emb_net.v_lins1.5.weight f4 [32, 32]
0.1066013 -0.15320736 -0.047848735 -0.15603575 -0.11685071 0.16262887 -0.011378003 -0.122757845
-0.029953195 -0.07105813 0.06068465 0.12088462 -0.08261904 0.11415614 0.033560287 -0.048369553
-0.15049405 0.01395171 -0.03695927 0.08138566 -0.103051886 0.03180134 -0.11517734 0.013914101
-0.08941546 0.043372586 -0.050247602 0.09106082 -0.10979371 -0.0731529 -0.12917097 -0.03505613
-0.020772535 0.035160396 -0.07099985 0.12597376 0.061726946 0.10450918 0.15303648 0.11258663
0.17169276 0.01822747 0.07956774 0.032579314 -0.11224349 -0.029220363 -0.15134422 0.07567991
0.120482475 0.11247815 -0.16157159 0.16014075 0.10795054 0.14266756 0.094080016 0.15376325
-0.12959486 -0.087793075 0.025011674 -0.121861026 -0.12782806 0.06068699 0.025797306 0.0393272
-0.06167476 0.0042540813 0.15793884 -0.17730907 -0.12875362 0.04306793 0.14642926 -0.13934284
-0.17437783 0.10300938 -0.0061665936 0.16607256 -0.018205019 -0.09362023 -0.15393023 0.02953064
-0.13395058 0.15677805 -0.17832604 -0.07125668 0.0043919533 -0.17096081 0.030987587 -0.16577227
0.039785516 0.00847282 0.106661335 0.036056876 0.15357053 0.1001848 -0.14807932 -0.12425363
0.08963247 -0.17219126 -0.031887326 0.12422446 0.06914161 -0.042236805 -0.1449722 -0.08746432
0.17284217 -0.13923122 0.15367429 0.045609456 0.11507968 0.15683296 -0.011352956 0.15692593
-0.09438424 -0.100831024 -0.09110351 -0.019972978 0.12482011 -0.05613407 -0.12608244 -0.012623123
0.017121682 0.18221194 0.17772414 -0.118052565 -0.14373383 -0.031646203 -0.03518673 0.12169163
0.14085835 0.05613862 0.15972354 -0.117712535 0.073624425 -0.07737861 -0.022007339 -0.010683786
-0.13840285 -0.08779079 0.09893662 -0.04795112 -0.0695367 -0.06827846 0.05574238 0.05777353
0.05692958 0.078662686 0.15377364 -0.12679027 -0.046301264 0.06239823 0.13517796 0.025614817
0.072720416 -0.13624324 0.14967729 0.05330613 -0.09068566 0.16381519 0.12434265 0.074154556
-0.11366931 -0.051891766 -0.13225336 0.14156017 -0.17324875 0.13738303 -0.11018226 0.10463741
0.04972281 0.023168966 -0.08058485 -0.015291221 -0.1766592 -0.15202849 0.0044851284 -0.0209676
0.089462094 0.14158769 0.14308205 0.0025139311 0.05922478 -0.11591353 -0.15851556 0.124504246
0.16595855 -0.08418474 -0.13823284 -0.050136935 -0.14554796 0.020201582 -0.12900412 0.04013662
0.1430036 -0.14423925 0.102669515 0.013779019 -0.047240328 -0.13558617 -0.043509644 -0.116579026
0.015348481 0.08107153 -0.029482167 -0.06282319 0.15991928 -0.10373241 -0.16076411 -0.12362196
-0.054824404 0.1703746 -0.092461556 0.15669724 0.08362641 0.15827803 -0.098832734 0.032449193
0.06643091 -0.12251783 -0.15188777 0.14516425 -0.006864021 -0.078853376 -0.055452418 -0.17317332
0.046676453 0.13110329 -0.14889635 -0.13358653 0.10206635 -0.037311446 0.08431188 -0.15791789
0.10588652 -0.025841195 0.025048334 0.1640312 -0.122839324 -0.1095353 -0.066280164 -0.059155185
0.0784996 0.0980577 0.026195766 -0.12547907 -0.06540791 -0.15799679 0.019419262 0.14052533
0.18233247 -0.07618988 -0.0077260574 -0.054332323 0.14250493 0.11979852 0.11376318 -0.07655741
00000000: c851 da3d 64e2 1cbe 09fd 43bd d6c7 1fbe
00000010: 6d4f efbd 2f88 263e ce6a 3abc 7768 fbbd
00000020: 6760 f5bc ed86 91bd 7890 783d 5b92 f73d
00000030: 2c34 a9bd b2ca e93d 8376 093d 271f 46bd
00000040: 1d1b 1abe b795 643c 9a62 17bd 86ad a63d
00000050: de0c d3bd 1f42 023d 19e2 ebbd f8f7 633c
00000060: 741f b7bd 74a7 313d 6ed0 4dbd 187e ba3d
00000070: 86db e0bd 30d1 95bd 6545 04be 0497 0fbd
00000080: 2a2b aabc 5904 103d 5f68 91bd 44ff 003e
00000090: 65d5 7c3d e908 d63d 98b5 1c3e d293 e63d
000000a0: 3ad0 2f3e c651 953c 69f4 a23d e371 053d
000000b0: eadf e5bd 8b5f efbc fbf9 1abe 12fe 9a3d
000000c0: 84bf f63d f25a e63d 0673 25be f0fb 233e
000000d0: 2c15 dd3d 7217 123e 06ad c03d 1d74 1d3e
000000e0: 84b4 04be dbcc b3bd 48e5 cc3c 4692 f9bd
000000f0: 5ce5 02be ec92 783d df54 d33c 8f15 213d
00000100: ac9e 7cbd d265 8b3b b8ba 213e 8290 35be
00000110: fdd7 03be ff67 303d 8df1 153e e4af 0ebe
00000120: 1a90 32be 95f6 d23d 2311 cabb ed0e 2a3e
00000130: b122 95bc f7bb bfbd e39f 1dbe 3eea f13c
00000140: 572a 09be 6d8a 203e 1a9b 36be 06ef 91bd
00000150: 60ea 8f3b 5a10 2fbe aed9 fd3c 35c0 29be
00000160: 23f6 223d 95d1 0a3c 4271 da3d 60b0 133d
00000170: 9841 1d3e b02d cd3d 1ba2 17be b078 febd
00000180: 3a91 b73d e852 30be 499c 02bd 6569 fe3d
00000190: 1e9a 8d3d 8000 2dbd 9873 14be 7e20 b3bd
000001a0: 8afd 303e a192 0ebe cb5c 1d3e fbd0 3a3d
000001b0: e5ae eb3d d298 203e c001 3abc 31b1 203e
000001c0: 864c c1bd 7f80 cebd 7a94 babd 5f9e a3bc
000001d0: b0a1 ff3d d7ec 65bd c11b 01be 37d1 4ebc
000001e0: c542 8c3c c495 3a3e 51fd 353e 8bc5 f1bd
000001f0: f62e 13be 739f 01bd f61f 10bd 7639 f93d
00000200: 2c3d 103e 9cf1 653d 918e 233e 4513 f1bd
00000210: 67c8 963d ad78 9ebd bc48 b4bc 0c0b 2fbc
00000220: 7ab9 0dbe a8cb b3bd 489f ca3d 6568 44bd
00000230: 4269 8ebd 94d5 8bbd 1f52 643d f0a3 6c3d
00000240: fe2e 693d e719 a13d d676 1d3e 4fd5 01be
00000250: 65a6 3dbd 4995 7f3d 176c 0a3e 2ad6 d13c
00000260: 71ee 943d 5983 0bbe 0145 193e 8757 5a3d
00000270: 67b9 b9bd 2bbf 273e 5ca7 fe3d 58de 973d
00000280: 75cb e8bd 768c 54bd 6d6d 07be 26f5 103e
00000290: 1f68 31be 23ae 0c3e 3da7 e1bd 234c d63d
000002a0: 25aa 4b3d d8cc bd3c ab09 a5bd 0888 7abc
000002b0: 26e6 34be 5bad 1bbe fcf7 923b 3fc4 abbc
000002c0: e737 b73d 5dfc 103e 1a84 123e c4c0 243b
000002d0: af95 723d 1364 edbd e751 22be 15fc fe3d
000002e0: 0af1 293e 0d69 acbd e98c 0dbe 635c 4dbd
000002f0: 860a 15be ca7d a53c a819 04be 4c66 243d
00000300: 896f 123e 74b3 13be 6544 d23d 65c1 613c
00000310: 137f 41bd 1ad7 0abe 2b37 32bd fcc0 eebd
00000320: 3278 7b3c d508 a63d 9684 f1bc 72a9 80bd
00000330: e1c1 233e a871 d4bd 599f 24be 832d fdbd
00000340: 8e8f 60bd ae76 2e3e 7c5c bdbd 3e75 203e
00000350: 5344 ab3d a313 223e d168 cabd 72e9 043d
00000360: ee0c 883d a1ea fabd 7888 1bbe f0a5 143e
00000370: 95eb e0bb e17d a1bd 1322 63bd 5954 31be
00000380: cf2f 3f3d f13f 063e 4978 18be e8ca 08be
00000390: 2a08 d13d e3d3 18bd b5ab ac3d 3ab5 21be
000003a0: 08db d83d eab0 d3bc 2a32 cd3c cbf7 273e
000003b0: 2f93 fbbd 0b54 e0bd e5bd 87bd b54c 72bd
000003c0: 66c4 a03d 7ad2 c83d 8198 d63c 967d 00be
000003d0: 95f4 85bd e9c9 21be 2515 9f3c dfe5 0f3e
000003e0: 5db5 3a3e 7109 9cbd de2a fdbb 928b 5ebd
000003f0: d0ec 113e ed58 f53d acfc e83d 22ca 9cbd

emb_net.v_lins1.5.bias f4 [32]
-0.10156324 -0.007842302 0.14100581 0.15026677 0.10651778 0.105420284 -0.06309147 -0.092505544
0.06620379 -0.13742758 -0.043487895 -0.117230125 -0.15432996 -0.15336335 0.004738959 -0.046159595
-0.013004338 -0.11512945 0.11179683 0.074950926 -0.07420046 0.022477763 0.14697488 0.17500354
0.011504708 -0.026347104 0.086464815 0.1761171 -0.11114833 0.15772396 0.083725445 0.14955835
00000000: 6300 d0bd 007d 00bc d463 103e 88df 193e
00000010: fe25 da3d 97e6 d73d 1a36 81bd 8c73 bdbd
00000020: da95 873d d1b9 0cbe 5d20 32bd 5916 f0bd
00000030: ac08 1ebe 480b 1dbe 4549 9b3b d811 3dbd
00000040: 2610 55bc fdc8 ebbd bdf5 e43d df7f 993d
00000050: 69f6 97bd 4923 b83c 9580 163e 2134 333e
00000060: 3e7e 3c3c e2d5 d7bc 7714 b13d 0b58 343e
00000070: bca1 e3bd 6482 213e 3f78 ab3d d325 193e
